artifacts/SKU_05/model.pt (torch, 219227 bytes, 12 tensors)

lstm.weight_ih_l0 f4 [256, 10]
00000000: d2eb ed3d 59ac 49bd 228a b33b e25a dcbd
00000010: 4019 f03d 5f46 f43c 43d5 ab3d 8c19 dbbd
00000020: 56aa 763c 69b0 df3d 54d1 903d 075a 023c
00000030: 80b8 85bd d6e2 803d ee64 9f3d a8d7 0e3d
00000040: 82a2 39bb b107 833d 4d96 e53b 0498 0a3d
00000050: 2461 c1bd 9e9c e9bc f785 603d 2dd2 89ba
00000060: 99a5 d53d a31a 723d bcca e43d a586 55bc
00000070: 76a1 e63d d040 24bc 7f78 b23d 8797 8dbd
00000080: 1d7e a9bc d6c3 c8bb eec2 df3c 2457 bdbd
00000090: 5bfa c33d 88e3 9f3d 711d e0bd 90be 11bd
000000a0: 2db2 ccbd e67f 833d ceb9 0abd 45b9 92bc
000000b0: 1f4b 87bd f286 1abd 5baf debd 584b 2e3c
000000c0: 4f9c 843c c096 cebd 5a25 8abc b4ca 903c
000000d0: 2597 673c df27 d7bd ce01 e5bd e26a 8fbd
000000e0: d325 083d d8a5 92bd 61a4 cf3d c607 59bd
000000f0: 56e0 0fbc 1822 2aba cbd3 f4bd 2db0 733d
00000100: fae1 b6bd 1005 6f3d 411a c63d 00ac fe3c
00000110: a271 2ebd 8e1f 2b3d 1198 7d3d cf89 903b
00000120: 166e b0bd 2f53 7e3d a49f b83d 437d 963c
00000130: dba8 953d f444 91bc 48ea e9bd 790e 653d
00000140: 7a5d 94bc 5641 f3bd 8d3b e7bd 6569 7fbc
00000150: 1b63 593d 471e 6fbd 57be b7bd 3863 95bd
00000160: 094b d93d a278 6bbd ee2a d9bd 7d90 fabc
00000170: d680 8e3d 19d5 513d 5ff6 61bd eae7 2cbd
00000180: adcb a43d 6566 87bc 6844 81bd d601 623d
00000190: 1269 0ebd 1069 3f3d 50f7 04bd f94b 273d
000001a0: 8d65 fdbb 33ed c43c 6ea4 083d 69d1 813d
000001b0: cb9b e13c 24d3 83bd 90cf 88bd 78b9 d3bd
000001c0: da18 c8bd e64e 2e3c 8c25 94bd e165 cfbd
000001d0: 65d9 8cbd 384e be3d dc76 673d 5056 b6bd
000001e0: a0ee e53d 74df 823d 3bf7 2ebd d66f 5e3d
000001f0: 60d6 8d3d 58cc 8f3c 466e 36bc fbd8 ef3d
00000200: 4c9c 21bd e43d f8bc 4f84 d7bd 2d3a bcbd
00000210: 76fe 43bc 2bc3 f53d 2c7c ebbc c35f 8d3d
00000220: bf42 01be 0ae2 ea3d bf75 5dbd 34f2 31bc
00000230: 91fd dcbd f2f0 4f3d 22f4 acbc e100 813b
00000240: efdb e83d 72b8 b5bc 90f1 eb3d 8d28 dabd
00000250: 791d be3d 87aa ef3d 120b f43d 38a8 19bd
00000260: 613b fb3c 210c 903d 381c f3bd d1fc bf3d
00000270: a288 87bc 71a3 783d 5489 b6bd 51b3 b9bd
00000280: 01d8 eebb e674 85bd a6e7 db3d fb9c cc3d
00000290: 9a20 ca3d 56a7 ea3d 3edf 8c3b 9879 9b3d
000002a0: 6ddc a5bd f09b c73d 69b8 833d 5ea9 c2bd
000002b0: 2da2 04ba 7c3f dd3b 780b bfbd c8b6 bd3d
000002c0: 0cb0 8239 b584 003e 622f 67bc 1a64 743d
000002d0: bef2 fcbb 64a8 b9bd 1806 c2bc 3804 f1bd
000002e0: 0655 903d 6c0b 17bc 5692 62bd f890 f93d
000002f0: 5a4f a7bd 677f 95bd 2864 653d f201 673d
00000300: 0510 c43b 15a8 afbd 84e1 cebd 423a 2b3c
00000310: 5ebd 9ebb 5d4d f03d 1520 613d 9013 f1bd
00000320: 76b3 bebc 6eae b4bd ae16 613d fec2 243d
00000330: dca9 c03d 4153 ca3d 2d54 f8bd fe87 b8bb
00000340: becb 77bd 26cb 8ebd f0f3 873d d674 e23b
00000350: 1ff3 b33b d270 3ebd a53c b63d 8456 903c
00000360: 5ea9 8b3c c677 febc 9d2b 943c 4461 d0bc
00000370: 66de 44bd 66ac 163d 6e8d 663c 2ff0 153d
00000380: 4112 01be be03 ef3d 3bc6 803c 6279 90bc
00000390: b0a1 a03d f3f2 e8bd 7677 a83d fa05 bfbd
000003a0: 2451 593c ce44 f0bd 395d 2e3c 8627 033c
000003b0: 51be 603d b210 aebd 3026 1b3c 3200 c1bd
000003c0: 7058 a0bd 5b98 29bd 4907 c3bd 711e efbd
000003d0: 2218 ccbd d5eb d4bd 825d d7bd e081 a63d
000003e0: 542b 203c 2fc0 923d ff2a 8d3d 3bb4 723d
000003f0: 379d c6bd 3dc6 9bbd 806e fa3d 4db7 c53d
0.11617245 -0.04923663 0.005479113 -0.10759522 0.11723566 0.029818712 0.08390286 -0.10698232
0.01505526 0.109223194 0.07071176 0.0079560345 -0.06529331 0.062932655 0.07782923 0.034873635
-0.0028325622 0.063979514 0.0070064426 0.03383638 -0.09442356 -0.028517064 0.05481526 -0.0010514908
0.10431976 0.059107434 0.11171481 -0.01303259 0.11261265 -0.010025218 0.08714389 -0.06913667
-0.020690018 -0.006126861 0.02731463 -0.092451364 0.09569236 0.0780707 -0.109431155 -0.035582125
-0.09994922 0.06420879 -0.033868603 -0.017910609 -0.06606125 -0.03772635 -0.1087329 0.010638081
0.016187815 -0.10087347 -0.016863514 0.017674781 0.014135157 -0.10505652 -0.11181985 -0.07002808
0.033239197 -0.071605384 0.10138775 -0.05298593 -0.008781513 -0.0006490066 -0.11954459 0.059494186
-0.0892982 0.058354437 0.09672976 0.031087875 -0.042588837 0.04177814 0.0619126 0.0044109593
-0.08614747 0.06209105 0.09014824 0.018370276 0.07307597 -0.017733075 -0.11421639 0.055922005
-0.01811098 -0.11877696 -0.11290655 -0.015589093 0.05307303 -0.058378484 -0.08971851 -0.07294315
0.10610015 -0.05748809 -0.10603891 -0.030586476 0.06958167 0.051228616 -0.0551666 -0.042213358
0.080466606 -0.016528318 -0.063118756 0.055177532 -0.03476817 0.046731055 -0.032462418 0.040843938
-0.007733053 0.024038887 0.033359937 0.0633877 0.027540108 -0.06436756 -0.066802144 -0.1033811
-0.09770365 0.010638928 -0.07233724 -0.10126854 -0.06877402 0.09292263 0.056509838 -0.089031816
0.11227155 0.063902766 -0.042716246 0.054305874 0.069256544 0.017553493 -0.01113469 0.117113076
-0.039455697 -0.03030295 -0.10523283 -0.09190784 -0.011962524 0.12000116 -0.028745733 0.06903031
-0.12623118 0.11468895 -0.05406737 -0.010860968 -0.107905515 0.050766893 -0.021112505 0.0039368724
0.11370074 -0.022182677 0.11520684 -0.10652266 0.09282965 0.117024474 0.11916174 -0.03751394
0.030667963 0.070335634 -0.11870617 0.09374393 -0.016544644 0.060702745 -0.08912912 -0.09067405
-0.0072889333 -0.06516437 0.10737543 0.09990879 0.098694995 0.11457698 0.0042990735 0.075915515
-0.080986835 0.097465396 0.06431658 -0.095049605 -0.00050595665 0.0067519527 -0.09328359 0.092633784
0.00024926697 0.12550624 -0.014110418 0.059665777 -0.007719367 -0.09065321 -0.023684546 -0.11768383
0.07047467 -0.009219032 -0.055315338 0.12185854 -0.08169432 -0.07299691 0.05600372 0.05639834
0.005983355 -0.08576981 -0.101016074 0.010450901 -0.0048443517 0.11733506 0.054962236 -0.117713094
-0.023278933 -0.08822332 0.05495327 0.04022502 0.09407398 0.09879161 -0.1212543 -0.005631446
-0.060497038 -0.06972341 0.06638324 0.0069109006 0.005491629 -0.046494313 0.08898286 0.017619379
0.017048534 -0.031062972 0.018087203 -0.025437005 -0.04806366 0.036785506 0.014071805 0.03660601
-0.1260462 0.11670636 0.015719524 -0.017636005 0.078433394 -0.11374464 0.0822591 -0.09327312
0.013263974 -0.117318735 0.010642343 0.008005029 0.054869 -0.08499278 0.009469554 -0.094238654
-0.07829368 -0.041405063 -0.09522874 -0.11675728 -0.099655405 -0.10396544 -0.10515882 0.081302404
0.009775955 0.07165562 0.068929665 0.059253912 -0.09697955 -0.0760617 0.122281075 0.096541025

lstm.weight_hh_l0 f4 [256, 64]
00000000: e362 74bd aebf 3a3c f5a7 463d 54eb 873d
00000010: 67eb e63d 5b13 bcbb 45b4 67bd 86c9 e63d
00000020: ff78 eb3c 4bab 7dbd 5512 a1bd 7cb8 223d
00000030: c35e bb3d 1344 f4ba a8a1 313d 74dc af3d
00000040: b07e 3b3d a637 8abd 8dc5 193d 0ea0 bbbd
00000050: de86 123d 5a14 9ebd 17e7 00be d8ce 973c
00000060: e034 ba3d fa18 85bb 63bd 853d d216 d93d
00000070: 38b5 fcbd 6fff de3c dddc bebc d9a0 813d
00000080: 045c 573d 3865 103d 0bf9 c93c 8f41 c73d
00000090: 04fa d6bd 0628 023d a048 96bd 7532 a53d
000000a0: a64f ffbc 0811 ccbd d041 933d e01b a73d
000000b0: ef13 83bd 8cb4 8dbd 38a5 593d f627 f1bd
000000c0: c2dd d0bd 59ef c7bc 2831 2cbc 4131 a1bd
000000d0: 6f96 35bd 58d8 cbbd bf18 f7ba f5d3 91bd
000000e0: 93b3 ff3d bf07 383d 4ccd 08bd e9a0 0a3d
000000f0: 0de5 1e3d c7ff ea3d e53c bfbd 1b5d 803d
00000100: bc5d 7dbc cfca f33d 9248 29bd f156 95bc
00000110: db86 513d c635 c83d 2641 bf3d 2f78 b13d
00000120: 0018 ce3b 02ae 58bd 488d 6dbd d75e d5bb
00000130: 3539 15bd d14f 35bc dd82 943d 6d3f e63d
00000140: 7abf 183d 7985 9fbd f68d 633c a9ef 3a3d
00000150: 4a8f be3d d1b1 e1bd 7b5e 18bd 7514 cabd
00000160: 2a4f 75bd 93fa e2bd 2ef7 d43c 18bf 91bb
00000170: e7b3 1dbd 05df efbd 7490 e0bd fab0 15bd
00000180: c818 ad3d 3211 d2bd cce3 d1bd cba9 d5bd
00000190: 9963 ff3d d128 c3bc f829 a13c edf8 dfbd
000001a0: 755c ec3d d352 a73b 75e8 df3d 8b20 89bc
000001b0: 2abb 593d ff25 bcbd f044 cc3d 2ed2 1abd
000001c0: 63d7 1c3c e45b 82bd 09bd c03d 7962 bdbd
000001d0: 9b56 c4bd 6fd8 d23d 243a e8bc b16b 933c
000001e0: 10e7 c33d d8ab ab3d ec49 913d f534 ccbc
000001f0: 72e5 cfbd a4c6 783d 7316 4bbd 2194 89bc
00000200: 940e b5bd 3e4f 423d 7d1f efbd 002c ba3d
00000210: 5b9b b93d df0f a7bb 432c dabd c3fd 81bd
00000220: a477 8a3d ff64 eabd 15f2 e9bd 61d2 3b3c
00000230: 8b28 193d 7143 2b3c 8887 b83d 6049 7d3b
00000240: 831f 4a3d 7b07 15bd 73e4 2c3c c032 5ebd
00000250: 7335 e8bd 7a97 cdbd 0a6a c0bd bcff ad3c
00000260: 6396 af3d 5c76 d13d b50f bebd bbbf c43c
00000270: a1be e7bd 6948 9bbd 25bf babd 6877 193d
00000280: f965 60bd 5837 2fb9 da07 a33c 1e30 d3bd
00000290: 077a cebd 3099 2cbb 3d9c cfbd 7bd7 89bd
000002a0: ff93 b33d b42a 38bd 176c d8bd 7007 db3d
000002b0: 83f7 783d be06 923d 66cf d4bd 6d6d 373d
000002c0: d2aa 8a3d 003c d83d 160c c13d 0942 273d
000002d0: 1c51 04bd 4a8e c5bc d730 8cbd 2c44 ab3d
000002e0: 0761 c9bd 93e7 d13c b605 f73d 76be 533d
000002f0: 59e2 56bd 14a9 863d 56cb e93d a32e 813d
00000300: 5bdd edbd d3a0 f8bd 48d0 993d a7db 04bd
00000310: 8955 5a3d 02a4 8dbd 83cb da3d 861b af3c
00000320: 2a37 8f3c a42e c03d 4404 c23d 698f 283d
00000330: 6b1e afbc bb4d e7bd f101 babd 372a 90bc
00000340: 87ee b33c 46a6 b9bd 50d3 d8bd 9632 ef3d
00000350: c13e c1bd fe5e d13b b2c3 12bd 4814 a03c
00000360: 0b0b 423d cf27 1a3c 4603 c43b b518 b93d
00000370: ef97 8abd 01da 87bd 2e98 143c 1fc3 bb3d
00000380: bf03 50bd 2f64 d2bd 53c9 363d 68a7 f8bd
00000390: ca50 6fbd 3512 ae3d 20d7 dbbd bc58 9fbd
000003a0: 3c98 89bb c8cf 2ebd f2ef 2ebd 4cb8 86bd
000003b0: 572e 2dbd c025 983c e386 92bc 8b55 9c3c
000003c0: f222 83bd 531a 04bd 1aeb 853d 8811 6cbd
000003d0: 2b0a e33c 4648 ba39 1afa d13c 26a0 6bbd
000003e0: 9755 1dbd 1493 db3d df9e 973d d036 40bd
000003f0: 83b8 48bd e761 063d 851d f4bd 4000 913d
-0.05966462 0.011398239 0.04850002 0.06636682 0.11275368 -0.005739612 -0.056568403 0.11268906
0.028744219 -0.061930936 -0.07864825 0.03972672 0.09148934 -0.001863601 0.043367058 0.0858697
0.045775115 -0.06748895 0.037541915 -0.091613874 0.03577315 -0.077187255 -0.12588154 0.018531248
0.09092116 -0.0040618153 0.06530263 0.10600056 -0.12339252 0.02722141 -0.023298675 0.063295074
0.052577987 0.03525278 0.024654886 0.09729301 -0.104969054 0.03177645 -0.07338071 0.080662645
-0.031165909 -0.09964186 0.07190287 0.081596136 -0.064002864 -0.06919202 0.05313608 -0.117752
-0.10198547 -0.024406122 -0.010509767 -0.078707226 -0.044332918 -0.09953374 -0.0018851979 -0.07120506
0.12485423 0.044929262 -0.03339891 0.033844862 0.03879266 0.11474567 -0.093377866 0.062677585
-0.015464243 0.11903917 -0.041328974 -0.018229933 0.051154 0.097758815 0.09338598 0.08665501
0.006289482 -0.05290032 -0.057996064 -0.00651155 -0.03643151 -0.011066393 0.07251523 0.11242566
0.03729198 -0.0778913 0.013888827 0.045638714 0.09304674 -0.11020244 -0.03719948 -0.09867183
-0.05988995 -0.110829495 0.02599677 -0.004447829 -0.038501646 -0.117124595 -0.10965052 -0.03654573
0.08451992 -0.10257186 -0.10248527 -0.10432776 0.124701686 -0.023823174 0.019673333 -0.10936151
0.11541072 0.005106309 0.109330095 -0.01673915 0.05315701 -0.09186935 0.09974086 -0.0377981
0.009572837 -0.06365183 0.094110556 -0.09247298 -0.09586831 0.10295188 -0.028348036 0.017995687
0.09565556 0.08382386 0.070941776 -0.024927596 -0.10151185 0.060736313 -0.049581956 -0.016794266
-0.08840671 0.047438852 -0.11675928 0.090904236 0.09062835 -0.0050983275 -0.106529735 -0.06347229
0.06761101 -0.11445045 -0.114231266 0.011463732 0.03739218 0.010453091 0.090102255 0.0038648471
0.04934646 -0.036384087 0.010552513 -0.054247618 -0.1133832 -0.100386575 -0.09395225 0.021240108
0.08573606 0.102276534 -0.0928034 0.024017205 -0.113156565 -0.075821705 -0.09118489 0.03746739
-0.05478475 -0.00016709918 0.019901205 -0.10311912 -0.100818686 -0.0026336424 -0.10137222 -0.06730553
0.087684624 -0.0449626 -0.105674915 0.10694778 0.06078292 0.07130192 -0.103911206 0.04478209
0.06770863 0.10558319 0.09426133 0.04083446 -0.032303914 -0.0241157 -0.06845253 0.08362612
-0.098329596 0.025623119 0.12061636 0.05169531 -0.052461956 0.06575218 0.114157364 0.063077234
-0.11614486 -0.1214005 0.075104296 -0.03243604 0.05330423 -0.06916048 0.10683348 0.021375429
0.017482359 0.09383896 0.0947347 0.04115239 -0.02137681 -0.11294123 -0.090824015 -0.017598255
0.021964325 -0.09064917 -0.1058718 0.116795704 -0.094357975 0.006389498 -0.03583116 0.01954092
0.047373813 0.009408905 0.0059818355 0.090379156 -0.0676726 -0.06633378 0.009069486 0.09168076
-0.050784823 -0.10273015 0.04462559 -0.12141305 -0.058426656 0.084995665 -0.10734391 -0.077805966
-0.004199056 -0.042678624 -0.0427093 -0.065781206 -0.04228052 0.018572688 -0.017886585 0.019083759
-0.0640315 -0.032251667 0.06538983 -0.057633907 0.02771481 0.00035530532 0.025631953 -0.057525776
-0.038411703 0.10721412 0.07403349 -0.046927273 -0.04900409 0.03280821 -0.11919693 0.07080126

lstm.bias_ih_l0 f4 [256]
00000000: 5d23 e73c 0165 773d a825 da3d 2085 86bc
00000010: 6415 f83d 8e4a 353d ac5f a0bc 5933 333d
00000020: 7f62 133d 5de0 453a be6c 96bd 076e bf3d
00000030: 851f f9bc 7ded 893c f3df a93d 219f 013e
00000040: 21a8 17bd 4b97 e2bd e9a4 253c 97ac 7cbb
00000050: 12d5 f93d b863 3e3d ac9c 573d f780 8fbc
00000060: 744a f03d 2749 92bd 5cee 98bb 3156 91bc
00000070: 186a afbd 3af9 943b f2af aabd c66b e23d
00000080: da5f f2bd ea32 c33d e5cd 6bbc 21a5 bbbc
00000090: 573f 83bd 5599 00be 60f3 3a3d eee5 33bd
000000a0: 9628 dcbd ff26 e0bc 48d7 adbd 3bb9 e9bd
000000b0: 2ccc 83bc 1087 adbd 46b3 b5bd 1dab f3bd
000000c0: 55ba 513c 54c2 02bd d8dc b6bd 42b6 293c
000000d0: 454e ae3d 1053 8fbd c415 e03d aa13 a43d
000000e0: f43f 843d 9c66 6dbd d55e e03d f681 bf3b
000000f0: 1dbb 5ebd 8ead afbc 0e4a 3abd 595f 00be
00000100: 27ec c03d 74b9 f4bd 3e8a ffbd 5532 e73d
00000110: e08c 63bd c0d2 ec3d a25a 67bc 168e d53b
00000120: 68ec 753d 3c7c ee3d d57e ac3d ba41 5cbd
00000130: 4cc4 473d de9e b1bd df43 f83c ab49 e03d
00000140: a01b f33d df42 ac3d d828 a73d 129b 943b
00000150: 5a75 18bd 76ea 32bd bfa8 2c3d dc71 283d
00000160: 0a41 af3d f33c b5bd 9576 c23d 037f c53d
00000170: 9406 93bd d43d e6bd 4e26 f3bd 7285 8e3d
00000180: 0632 b13d faa5 28bd 9b57 943d d35b 043d
00000190: b5ee 6d3d 57dc 8fbd 6567 8bbd ccfa 213b
000001a0: 0f48 983d dd94 f7bd 32db cb3d 02c2 91bc
000001b0: 09fb 023d 43a9 393d 702d 543a 4f19 94bd
000001c0: 7801 cf3d a2ad 713d 9e35 f1bc 2a70 ac3d
000001d0: 7763 4ebd 0fe7 01bc 4c8d 9cbd 4d0a ef3d
000001e0: 5baa ff3d c0f6 643d b809 d9bd b1b5 173d
000001f0: 62f1 f03b 3be8 a83d 2383 b23c 80b7 9bbd
00000200: 9be1 323d 9bfb 953d 4975 90bb b77a 00be
00000210: e710 97bd 64c0 f7bd b669 463d bd73 fabd
00000220: 4cd1 c7ba cc4f d0bd dba5 983d c25e 92bd
00000230: 7ea3 5f3d 836b 4dbd 30e6 463a fc9e e33d
00000240: 84e8 093d 0ab6 7b3c 8bc9 cbbd 1408 923d
00000250: 6fa6 9cbd 88a7 d0bd d235 aebd 7d99 0a3d
00000260: dd41 1f3d e7cf ccbc 6974 853d ef09 323d
00000270: 51bd c3bd 1696 633d eb32 ba3c a9f2 ebbd
00000280: 209a 013e 9910 eabd 23da c63d 5297 cb3d
00000290: 2b83 f03d 1cfc d73d 702f b1bd d221 133d
000002a0: 72ea c93d ee37 35bc 374a 3abd 4555 dbbd
000002b0: 2d43 003e 3516 54bd 1071 b4bd c894 af3d
000002c0: b519 fcbd 8dce a53d bc10 b2bd 9aee dcbd
000002d0: 044c a4bc bd9e e03c 9b9f 9cbd 4df7 3d3d
000002e0: 5608 16bd d9a3 d33c 74f4 143d c77a a83d
000002f0: 7005 00be 2c26 8fbd 6cdc b2bd d6ee dd3d
00000300: 2d96 e5bd f041 62bd 7f6e 01be 760e 7abc
00000310: 9cb2 4abd 0111 c0bd ed02 0fbd 81d5 30bd
00000320: a0af bbbd e48c c13d 3f6e 1d3d 13c6 973d
00000330: 80ac 313d 404a a8bd 89bf fa3d 8bd0 ee3d
00000340: 834f a93d db5d 923d cece 903c bf1e 6f3d
00000350: e744 a1bd ba37 c73b 3848 b7bd a057 dbbd
00000360: 4607 debd 3074 d93d e930 503d 7583 b0bd
00000370: aa97 f5bd 00ff e9bd d207 b3bd 6ec0 993d
00000380: e05e e23d f03d c8bd 9a95 febd 1445 973d
00000390: 0580 9c3c 273b 98bd 0696 80bb 25ac b03d
000003a0: 6e25 013c 3d75 323d d717 ffbd 0104 22bc
000003b0: 4d02 d4bc 005b 04bd c53c f93d d2f3 febd
000003c0: 0d24 783d d034 06bd 2df3 aa3d c7fa acbd
000003d0: 3b10 3b3c c9aa 31bd 19cd 39bd 9d69 1fbd
000003e0: b5dc e63d eb92 743b 2bf9 903d b4f8 e63c
000003f0: f983 f73d b458 d63d db07 8d3d e412 bfbd
0.028215105 0.06039906 0.106517136 -0.0164209 0.12113455 0.044260554 -0.01957687 0.04375014
0.035982605 0.00075483863 -0.0734496 0.09347158 -0.030410537 0.016836876 0.08294668 0.12658359
-0.037025575 -0.11064013 0.010110118 -0.003855502 0.12198843 0.046481818 0.05263965 -0.01751755
0.11732951 -0.07142859 -0.0046670865 -0.017741295 -0.08565158 0.0045463117 -0.0833434 0.110557124
-0.118346885 0.095311955 -0.014392351 -0.022905888 -0.064085655 -0.12558492 0.045642257 -0.04392045
-0.10749929 -0.027362345 -0.08488327 -0.11412283 -0.016088568 -0.08473027 -0.08872084 -0.11897872
0.012800773 -0.031923607 -0.08928841 0.010358395 0.085110225 -0.06998265 0.109416515 0.08011563
0.064575106 -0.057959184 0.10955588 0.00584435 -0.054377664 -0.021445062 -0.04548078 -0.12536372
0.094200425 -0.11949435 -0.124775395 0.11288897 -0.05555427 0.11563635 -0.01412073 0.006517182
0.060039908 0.116447896 0.08422629 -0.05377362 0.048771188 -0.0867288 0.030305801 0.10951551
0.118705034 0.08411192 0.08162087 0.0045350874 -0.03722129 -0.04368063 0.042153116 0.04112421
0.08557327 -0.08849516 0.09495274 0.09643366 -0.07178989 -0.112422615 -0.118725404 0.069590464
0.08652119 -0.041173913 0.07243272 0.032314133 0.058088977 -0.07024448 -0.0680683 0.0024716137
0.07435619 -0.1208894 0.099539176 -0.017792705 0.031977687 0.045327436 0.0008093929 -0.0723139
0.10107702 0.05900348 -0.029444512 0.08419831 -0.050387826 -0.007928624 -0.07644138 0.116718866
0.124836646 0.05589938 -0.10597557 0.03703851 0.007352994 0.082474194 0.021791046 -0.07603359
0.043672185 0.073233806 -0.0044085127 -0.12546812 -0.07376271 -0.120972425 0.048440658 -0.122291066
-0.001524487 -0.1017147 0.074535094 -0.0714698 0.054599278 -0.05015136 0.0007587401 0.11114308
0.03366901 0.015363226 -0.09950551 0.07130447 -0.07648932 -0.10188204 -0.08506359 0.033837784
0.03888117 -0.02500148 0.06516344 0.043466505 -0.095575936 0.055563055 0.022729358 -0.11520893
0.1265645 -0.11428947 0.09709575 0.099409714 0.11743768 0.10546133 -0.08651626 0.035920925
0.0985917 -0.011060698 -0.045480933 -0.10709623 0.12525626 -0.05177899 -0.088106275 0.085733
-0.12309591 0.08096037 -0.08694598 -0.10787697 -0.020055778 0.027419442 -0.0764763 0.046378423
-0.036629044 0.025834965 0.03636594 0.08226543 -0.12502074 -0.069897026 -0.087334484 0.1083657
-0.112102844 -0.055238664 -0.12639807 -0.015262237 -0.04948674 -0.09378243 -0.0349149 -0.043172363
-0.09164357 0.09450701 0.038435217 0.074108265 0.0433774 -0.08217287 0.12243564 0.1166087
0.08267119 0.07146808 0.017676737 0.05837893 -0.0787447 0.006079641 -0.089493215 -0.107100725
-0.10841231 0.10617864 0.050827894 -0.086188234 -0.11991818 -0.114255905 -0.08741726 0.07507406
0.11053252 -0.09777439 -0.12430878 0.073862225 0.019104013 -0.074331574 -0.003924134 0.08626584
0.007882459 0.04356884 -0.12455719 -0.00988865 -0.025880003 -0.032313347 0.12169794 -0.12448849
0.060581256 -0.03276521 0.08347163 -0.084462695 0.011417444 -0.043375764 -0.045361612 -0.03891908
0.11272565 0.0037319015 0.07078775 0.028194763 0.12085719 0.104661375 0.06886264 -0.09329775

lstm.bias_hh_l0 f4 [256]
00000000: 4d4c 33bd 56cd ae3d 5903 143c de8a e7bd
00000010: 2ef5 96bd 0f82 f73d 7e2a 313d de4e d8bd
00000020: 3bcf e7bd ddf3 f5bd b8c3 823d c9db a93c
00000030: 9595 cb3d 1589 be3d 2327 d5bd 0cb7 b43d
00000040: a85e a9bd b94c c5bc c202 acbd 765b 3bbd
00000050: 0cce 853d e893 89bd ee34 d8bd bcb3 6dbc
00000060: a87f 803c 1754 e33d 3cb9 a5bb fd26 5b3c
00000070: 87fd 3a3d b322 7bbc 6699 f63c a034 dbbc
00000080: c28f 793d 9325 393d 558c 7fbc 68cf d2bd
00000090: 31db 53bd 2054 acbd 24b5 d3bd ac31 efbd
000000a0: 3c7f ee3d f075 50bd 18ea 38bd 6905 68bd
000000b0: 303d f1bb 3aeb 8ebd d66c 803d f902 f83d
000000c0: c5e8 2f3d 2f10 05bc 8338 183d fe8b 21bc
000000d0: 03b6 cdbd 2034 853d 2698 dbbd a0bb 323d
000000e0: fa08 fdbc 58d5 30bd 56da 023d 5bf9 623d
000000f0: 3835 d53d f447 b7bd 7672 30bd 1e45 d33d
00000100: 09cb 2bbd e6f4 ddbd b84d 843c ff23 a63d
00000110: 368e dfbd c61f d3bd f2f6 a7bd c73e d63d
00000120: 24e3 dbbd 77c1 92bc 5116 8d3d 46dc 003d
00000130: 7271 d0bd 9833 a7bd 44e6 963d e903 87bd
00000140: 8f28 28bc 6cf2 d7bc 0a86 54bd 2eed 2e3d
00000150: 1a71 dbbd 3b4c bdbd b275 c3bc 9472 33bd
00000160: fe53 e83d 8a24 04bd 216e 5c3d c0a9 ae38
00000170: 3d0e 153d 3e97 a7bd f2a8 eb3c b82c 8f3d
00000180: e231 babd be48 f23d fdd5 853d c9d4 9fbc
00000190: 74d6 cf3c 5bad dc3d f2b9 38bd f631 babc
000001a0: 634b e2bc 2b74 303d 1c36 7eba 4fd4 15bb
000001b0: 6c83 a1bd 4763 933c 1f88 c53d 335f 4c3d
000001c0: f8c9 f8bd b4d2 a1bb df7f ba3d c091 803c
000001d0: 481c 9bbc 8c65 c13d 7ad0 9cbd 436f edbd
000001e0: 8be0 99bd 0002 a0bb a48e 623d be0e f83d
000001f0: 289a b8bd 6ab5 813d eae0 353d a46c bb3d
00000200: ce84 923a 9eb1 efbc 5e32 d0bd 957d f23d
00000210: 695a 843c 0584 143d 3735 c3bd 84cc 2bbc
00000220: b228 193d 6067 4f3d 4fcd a4bc 00c1 8cbd
00000230: e171 9bbd 6272 8b3d 4b09 a3bd 16d2 acbd
00000240: 8014 213d b3b1 b13b 9ea2 dbbc fe94 2bbd
00000250: 8d52 f63d a848 d23c 22ba e6bd 908d b33d
00000260: 6304 10bd a647 e43d 8157 0c3d 3012 983d
00000270: 3958 f03c d2ce 253d 3852 9a3d 298d ffbd
00000280: 4f3b bcbd 71f8 b83d 0ce9 a139 20a2 643c
00000290: 6bba 8ebd cbbe 4b3d ee0d a53d cbee 80bc
000002a0: 64b9 873d 9713 c9bd 55ed d1bd caf2 0fbd
000002b0: 7ad0 703d 445f 19bc 0128 c13c 170a 3abd
000002c0: abaa ec3d ef23 913d 08d5 9e3d 11e1 0fbc
000002d0: 6a39 cb3d c779 b1bd a06b 03bd aca0 93bc
000002e0: 0a6c 013d 930e 53bd 80b0 333d 97c1 bf3d
000002f0: 8acb 75bd 8177 6bbc eb57 503c 5c37 ecbd
00000300: 77da aa3c 65e4 d93b db0d 003c 502a 87bd
00000310: c462 b13d eb8a b83d 4bab 97bd 2279 ef3d
00000320: e1f9 73bd 353f ddbc c1bd 3cbd ed4b 95bc
00000330: 00f6 7d3c 681a b7bd a3f5 333d ffcc 81bd
00000340: 47d7 ba3d fc5c f03c e3ee 6f3d 8efe b2bd
00000350: 8fa6 21bd e8c1 933d 70b1 cc3d 3ae3 99bd
00000360: 3e3e 903d 30b6 f03c f676 9f3d 1d11 ac3d
00000370: 64a1 03bc b0e5 aa3d 16de 6dbd e4c6 a4bd
00000380: 2e60 a3bc 6d3e a8bc a105 2fbd c0e2 f7bd
00000390: 29dd 1dbd 4fa2 05bd 4776 f43c 737f 1d3d
000003a0: f94f 28bd 0102 263d 7f29 f2bd dcdd 2e3d
000003b0: eddf ff3d c4b3 b0bd b60a 913c f855 1abd
000003c0: 9791 36bd 40c7 613d fbaf e53d 7fd3 abbd
000003d0: ea67 e5bc b313 18bc 1c89 da3d bc4e 283c
000003e0: a7b5 72bd 139c 9fbc 4f6c f8bd 2226 01bb
000003f0: bb47 c2bd 5fcb e2bc 53c8 b5bd 8ec6 9b3d
-0.043773938 0.085352585 0.009034001 -0.11305784 -0.07370983 0.120853536 0.043253414 -0.10561918
-0.11318823 -0.12009404 0.06384987 0.020734685 0.0994064 0.0930349 -0.10407855 0.08823976
-0.08270007 -0.024084436 -0.083989635 -0.04574152 0.06533441 -0.06717664 -0.105569705 -0.014508184
0.015685871 0.11100023 -0.005057482 0.013375995 0.04565194 -0.015328097 0.030102443 -0.026758492
0.060928114 0.04520185 -0.015597423 -0.10293466 -0.05172271 -0.08414483 -0.10337284 -0.11679396
0.11645362 -0.050893724 -0.045145124 -0.056645785 -0.0073620304 -0.0697846 0.06270759 0.12109942
0.042946596 -0.008121534 0.03716327 -0.009860037 -0.100444816 0.06504083 -0.107223794 0.043635964
-0.03088807 -0.04317221 0.031946503 0.055413585 0.10410541 -0.08949271 -0.04307791 0.103159174
-0.041941676 -0.10837726 0.01615034 0.081123345 -0.109157965 -0.10308795 -0.08201398 0.104611926
-0.10736683 -0.017914517 0.06889022 0.03146007 -0.10177888 -0.081641376 0.073681384 -0.06592543
-0.010263576 -0.026360713 -0.051885642 0.04270666 -0.10714932 -0.092430554 -0.023859832 -0.043810442
0.11344145 -0.03226141 0.053815965 8.328585e-05 0.03639053 -0.08183144 0.028767083 0.06990951
-0.09091546 0.11830281 0.06534956 -0.019510644 0.025370814 0.107752524 -0.045099206 -0.022728901
-0.027623838 0.043079536 -0.0009697394 -0.0022862141 -0.07886395 0.017991675 0.09645104 0.049895477
-0.121478975 -0.004938448 0.09106421 0.015694499 -0.018934384 0.09443197 -0.07656951 -0.11593487
-0.07513531 -0.004883051 0.055311814 0.12112187 -0.09013778 0.0633343 0.044403948 0.09151581
0.0011178495 -0.0292595 -0.10165857 0.11840359 0.016156392 0.036258716 -0.09531634 -0.010485772
0.037392326 0.050635695 -0.02011743 -0.06872749 -0.0759008 0.06808926 -0.07960757 -0.08438508
0.03932619 0.0054227947 -0.02681094 -0.041890137 0.12027464 0.02566941 -0.11265971 0.08767235
-0.035160434 0.11146478 0.034263138 0.07425344 0.029338943 0.040480442 0.07535213 -0.12478096
-0.09191 0.090317614 0.00030881946 0.013954669 -0.0696915 0.0497425 0.080592975 -0.015738865
0.06627157 -0.098181896 -0.102503456 -0.03514365 0.05879257 -0.009361092 0.023578646 -0.04541978
0.1155599 0.07086932 0.07755476 -0.008781687 0.0992306 -0.08665805 -0.03208506 -0.01802095
0.031597175 -0.05152757 0.043869495 0.09363096 -0.060008563 -0.014371754 0.012716274 -0.115339965
0.020856125 0.006649541 0.007815803 -0.06599867 0.08661416 0.090108715 -0.074057184 0.11693026
-0.059564475 -0.027007679 -0.0460794 -0.01822468 0.0155005455 -0.089405835 0.04393543 -0.06337928
0.09123092 0.029341213 0.05857743 -0.08739959 -0.039465483 0.07214719 0.09994781 -0.07514043
0.07043122 0.029383749 0.07786362 0.084017016 -0.008034084 0.08344591 -0.058073126 -0.08045748
-0.019943323 -0.02053758 -0.042729978 -0.12103796 -0.038540993 -0.032625493 0.029841555 0.038451623
-0.041091893 0.040529255 -0.11824321 0.04269205 0.12493882 -0.086280376 0.017705303 -0.037679642
-0.04457244 0.05512166 0.11215206 -0.08389949 -0.028003652 -0.00928204 0.10670683 0.010272678
-0.05925527 -0.019483602 -0.12130033 -0.0019706567 -0.09486338 -0.027684866 -0.088760994 0.07606231

lstm.weight_ih_l1 f4 [256, 64]
00000000: 1b56 743d 0b68 72bc 8efe 3c3d b277 b03d
00000010: b93d 653d 5b55 1dbd 55e2 d53d 5b02 a0bd
00000020: 9476 09bd 20e7 d93d d23c e5bc 33b7 f83d
00000030: 6003 fabc a746 673d 0f6e 07bc c4be 9b3d
00000040: e7b0 9a3d 27f9 b6bc 00ae e6bd ca33 23bb
00000050: c918 c53d d46d 61bd 4c07 c53c 4a03 8fbc
00000060: 2bc1 813d ca91 7c3d 2168 5ebd d89b ecbd
00000070: 01d8 95bd 5443 d33d 14bd e9bd 1c7c b63d
00000080: ee73 83bd 8052 c03b 45d8 cd3d 1619 063d
00000090: 7fa9 dabd a24d acbd 5479 57bc b56e f33d
000000a0: dc51 9fbd 640c 833d d5c0 d8bd 805b ea3d
000000b0: ab95 d43d 427c 45bd f648 9bbd 3df4 003e
000000c0: c7d6 dabd 3b9c 353d 44d8 c83d a2e3 be3d
000000d0: 6b74 abbd 8e65 bebd a798 28bd 78e9 4e3d
000000e0: 954e fe3d 11fc 90bc 09bd f23d a1ad 2a3d
000000f0: 989e 843d a8b9 7f3a e4b3 c9bd 8e18 a6bd
00000100: eb58 a7bd c3e6 e33d 0ea5 ce3d 4515 a03d
00000110: bb71 ba3d 447c fd3d 5b3d 893d 5abf 4dbd
00000120: 0b58 4bbd 20e9 e4bb 8c0c b83d d62f 7ebd
00000130: c297 5cbd 5953 c43b 5737 53bd 365d 493d
00000140: 61cc 6c3d d8da 013e 7fbb 02bd 125d 583d
00000150: 17fd 5dbd 29aa b93d 2b1f f0bd d8e3 bd3d
00000160: fe37 dc3d c107 f0bd cafb dcbd 62ff 91bd
00000170: bb1c 993d 0596 313d ab50 c8bd 9943 a5bd
00000180: 7463 b9bc 76e9 463d cc60 a9bd 70ef bf3d
00000190: 3af0 81bd 6f21 b33d 8021 c53d b480 a23d
000001a0: e1ce 623d 5a02 b93d 4fcb 913d 088c 6a3d
000001b0: 62ac de3d f4a2 d03d 4907 1c3d ebde b8bc
000001c0: 0c98 e2bd 3bdd ce3d de57 443d 9cf6 aa3b
000001d0: fe82 9abd 7164 5b3c 229d 883c af1e 92bd
000001e0: 2878 7abc 9a32 813d 4bb5 bdbd 3510 bfbc
000001f0: f505 15bd 7e8d bb3d c235 f93d e210 f23d
00000200: 41ad 063b 38f8 ba3c 1ce5 f43d dd61 1b3d
00000210: 105f de3d 26a9 8f3d a5a7 f63d f024 a43d
00000220: f4e9 c3bd 83aa e63d 4a23 ad3d 502f bc3c
00000230: 95cb 8e3c 106a f33b 5b2c e83d f6bd ef3d
00000240: 44ee 263d 81b2 86bd daca f8bb a32d c43d
00000250: af94 783d e08a f2bd 8116 99bd 5922 ef3d
00000260: 727a acbc 0688 3dbc 7c10 3c3d 0d8e aebd
00000270: 4ca8 cd3d 8282 da3c c06a 5fbd 03b7 cd3d
00000280: bf8d e6bd 741a 8d3d 4369 f03d 51ac 5cbd
00000290: 7188 54bc a442 f3bd cdfe 5b3d f16c e13c
000002a0: d75f 5bbd b4f8 f1bc 4a2f a13d 20eb 493d
000002b0: 009b 59bc 92c8 e53d 3147 913d 3ea4 9abd
000002c0: 217d 0dbc b867 90bd d6b8 683d b5a5 8d3d
000002d0: 3e58 20bd 630c 453d 46ee c6bd 38d5 c1bd
000002e0: 56bf ef3c 5a0c 863d 5d5c 58bd c351 b8bd
000002f0: 1444 8ebc ecfc e73d 1428 823c b485 d23d
00000300: d7b8 823d d403 f93d ed57 a73d 9fc9 e1bd
00000310: 365e c6bc 65f1 8b3d 5b5a 263d c08d c3b8
00000320: a4be 063d 11ce aa3d 784b f3bd a94c eb3c
00000330: 5156 f3bc aeb2 9abd 5941 63bd 55ee 673c
00000340: 536f fbbd 3ca7 cf3d 01c8 5e3d d6cf 39bc
00000350: 6854 27bd eb3e 323c a865 5d3d 7f88 fabd
00000360: d584 73bd 9162 33bd b202 493c 12a7 2b3d
00000370: 93b1 ca3d c9d6 f1bd 7453 33bd 1c5a 2ebd
00000380: 3af1 1e3d 071c 22bd 2d8f c03d 4bde 793b
00000390: fadf dd3d a3b0 b1bd 8feb a03d e2c3 113d
000003a0: 5035 d8bd b39c 673d bcfb b73d b609 eb3d
000003b0: 53f9 bc3c 38d0 8a3c 3d8d 9d3c 9a99 f1bd
000003c0: 9ea2 9abd 6532 1abd a2dd 933d 7091 9bbd
000003d0: 2cdc d7bd d62f 80bd 81d0 7e3d b0e1 c0bd
000003e0: 1a2b 58bd 4b13 2c3d e3f0 b1bd e4f5 cdbd
000003f0: 988d 1dbd a6f1 753d de4d 383d 5010 81bb
0.05965243 -0.014795314 0.0461412 0.0861658 0.055967066 -0.03841148 0.1044356 -0.07812949
-0.03356035 0.10639787 -0.027983103 0.121443175 -0.030519187 0.056463864 -0.008265986 0.07604745
0.07553273 -0.022335602 -0.112636566 -0.0024902695 0.09623868 -0.05503638 0.024051331 -0.017457623
0.06335672 0.061662473 -0.054298524 -0.11553162 -0.0731659 0.10315576 -0.11413017 0.08910391
-0.06418596 0.0058692098 0.10051016 0.032738768 -0.1067686 -0.08413245 -0.0131514855 0.1188635
-0.07779285 0.06398848 -0.10583655 0.114432335 0.103801094 -0.048214205 -0.075822756 0.1259317
-0.10685497 0.044338446 0.098068744 0.09320761 -0.08371814 -0.09296714 -0.041161206 0.050515622
0.12417332 -0.01769832 0.11852462 0.04166949 0.06475562 0.0009755143 -0.098487645 -0.08110152
-0.08171257 0.11127999 0.100900754 0.07816557 0.091037236 0.123772174 0.06701156 -0.050231315
-0.04964451 -0.0069857985 0.08986768 -0.06205734 -0.053855665 0.005991381 -0.051566448 0.04916116
0.0578121 0.12681139 -0.03191709 0.052823134 -0.054196443 0.090656586 -0.11724695 0.09271973
0.10752867 -0.11720229 -0.107902125 -0.071287885 0.07476183 0.04335596 -0.09781011 -0.08069534
-0.02263043 0.04856249 -0.08270416 0.09371841 -0.06344648 0.08746611 0.0962553 0.079347044
0.055373076 0.09033652 0.07118856 0.05726245 0.10872723 0.10187331 0.038092885 -0.022567233
-0.11064157 0.1010079 0.04793536 0.0052173864 -0.07544516 0.013390646 0.01667649 -0.07134759
-0.015287437 0.063084796 -0.092630945 -0.023323158 -0.036382634 0.09157847 0.121684566 0.118196264
0.0020550045 0.022823438 0.11957762 0.037935127 0.108579755 0.070146844 0.120436944 0.08014858
-0.095661074 0.11262991 0.084539965 0.02297178 0.01743106 0.007428415 0.11336585 0.11706154
0.04075457 -0.06577016 -0.007592541 0.09579017 0.06068867 -0.118428946 -0.074749954 0.11676473
-0.02105448 -0.011568075 0.04591416 -0.08523188 0.10041866 0.02667356 -0.054545164 0.10044672
-0.11257505 0.06889811 0.11738827 -0.05387527 -0.012971983 -0.11877945 0.053709794 0.027517768
-0.053558197 -0.029537536 0.07870348 0.0492965 -0.013281584 0.112198964 0.07093657 -0.07550858
-0.00863579 -0.07051033 0.0568169 0.06916372 -0.039146654 0.048107516 -0.09713416 -0.094644964
0.02926604 0.065453246 -0.05282246 -0.0899997 -0.017366447 0.11327538 0.015888251 0.10279408
0.06382912 0.12158933 0.081710674 -0.11024784 -0.024214845 0.06833152 0.040613513 -9.3247276e-05
0.032896653 0.08340085 -0.11879629 0.028723078 -0.029704245 -0.07553612 -0.055482242 0.014155944
-0.12277093 0.10139319 0.054389957 -0.011341056 -0.04085198 0.010879259 0.054052025 -0.12233066
-0.05945285 -0.043795172 0.012268709 0.041907378 0.09897151 -0.11808545 -0.04378076 -0.042566404
0.03880427 -0.03957751 0.094023086 0.0038126882 0.10833736 -0.08676269 0.07857429 0.0355872
-0.105570436 0.056545924 0.089835614 0.114764616 0.023068106 0.01694499 0.019232387 -0.11796875
-0.07550548 -0.037645716 0.072200075 -0.075960994 -0.10540041 -0.06259124 0.062210564 -0.094180465
-0.05277548 0.042010587 -0.086885236 -0.100566655 -0.038465112 0.060044907 0.044996135 -0.003938712

lstm.weight_hh_l1 f4 [256, 64]
00000000: d36e 88bd 5d35 09bd 6dec 98bb ae6e b63d
00000010: 2731 50bd 020f a73d 388c ccba b2d0 dabc
00000020: ae58 8f3d 379f b7bd 4cce 193d fa1d 4ebd
00000030: 1750 ce3d cd43 9c3d c0d7 f73c 0d7c d83d
00000040: cac5 4e3b dc79 fe3d 156f f73d a4af f8bd
00000050: 9370 a03d 6748 77bc 20c1 d1bd 56db 853d
00000060: 2c16 dd3d ab3d 493d 394e b93d 1aa0 54bd
00000070: 86a2 a4bd f5db 053b d238 e0bd 9aa4 5bbd
00000080: e66e f73d c881 dcbd 863d 983d 6eec cdbd
00000090: 66f8 e7bc 7648 0b3d f1d5 a0bb 47c9 bcbd
000000a0: 682d 5cbd 0198 23bd 965a adbd f3f4 ebbd
000000b0: 00ae c8bb 711c 83bd 69e5 53bc 9374 833d
000000c0: e576 653d 3eda 9b3d 83eb 383c 4783 1d3d
000000d0: 600b ad3d 9062 debd 08da 52bd 2397 e23d
000000e0: 7043 a4bb 3a27 373b bd29 953d 45ba a33d
000000f0: 4530 e1bc 6c2e f73d b39a b5bd 406e 8abd
00000100: f06d 683d 5c89 f03c 88c7 fd3a 152c a13d
00000110: 9f68 c9bc b646 46bc 2e3b f6bd 3330 5e3d
00000120: 367b f2bd 7118 f93d a63b ddbd 6a6a 96bc
00000130: e6f1 17bd 0d43 e73d ca36 b4bd c846 7bbd
00000140: 3767 abbd 6cbf b8bc 01ea a83d e330 b93d
00000150: c838 db3c 9bf0 da3d e7e3 58bc 4a46 47bb
00000160: a106 dabd 8caf f13d 6d23 e13d 2df3 f63d
00000170: b719 af3d 8a1b 1cbd b2f3 ddbd f5ed 913d
00000180: 2146 ab3d 310c 80bd 8d7d 563d da14 b6bd
00000190: db24 933d 96a7 e7bd e7c2 dcbd 8fb7 78bc
000001a0: e2bb 15bd c336 03bd 5a1d 613d 94c2 743d
000001b0: 24c5 a5bc dc6f 89bd 123d a1bd c82d 93bc
000001c0: d7f5 a7bd 269c afbd 8ea1 e1bd 76b8 35bb
000001d0: 27df bebb 2282 fdbc 2fc9 3fbd 00e6 b1bd
000001e0: 5983 523b 0478 eabd 1bcb a43c c955 0e3d
000001f0: b93a d4bd 0f47 8d3d c85d c1bc bf6a de3d
00000200: f2bc b03d c30c bcbd 4eaf 3cbd 3a68 cb3d
00000210: 382e 6c3d 5336 cf3d 09aa d13c a314 15bc
00000220: 9195 f53b d74f 253d ebb6 8d3d d32f 99bd
00000230: 5c61 ee3d 9036 8ebd 4094 d7bd bf95 a1bd
00000240: 4a95 b0bd ad86 2a3d ac76 183a 5e87 933d
00000250: 98d1 f13d 0f77 4cbd f778 a13d 9114 3fbd
00000260: 1392 3b3d 59e2 733c e5a2 593d 47c7 af3c
00000270: f6fa e6bd 8766 0fbc 74ed 8bbd c633 3ebd
00000280: b0e0 c6bd 5c50 db3d d358 d1ba 633a b5bc
00000290: 69da 05bd c929 3dbb e137 d13d f02e 513a
000002a0: e52d 86bc c31f ea3d 3917 c73c 7a10 433d
000002b0: e840 bcbd 6ae4 63bd eb07 cdbd 5e8e d1bd
000002c0: 1a46 203d 0129 023d e26e b43d c482 87bc
000002d0: 6bd1 ddbd ba08 2f3c 7a33 163d 2d0c 123d
000002e0: 9a0c d9bc bec3 20bd 465f 863c 15e6 f63d
000002f0: 08da e33d e038 203d 7d3f bebd 4d06 f73d
00000300: b45e 4ebd b214 993c 8904 fabd 1674 933d
00000310: 43b4 f73d c8b3 83bd c3e1 553d 33c0 f23d
00000320: 6232 873d 8b02 403d ebb4 bfbd bb58 8bbd
00000330: 0c59 cc3b 7d18 063d dd44 0fbd 00fb d3bd
00000340: 0db1 013e f4c7 9cbc 9dfb ac3d 5dd6 bbbd
00000350: 8ed0 a0bd e1d3 d3bd 31d6 b93d 4caf 003e
00000360: c14a bfbd b4e4 b93c e374 9cbd 8d26 97bd
00000370: e6c3 c3bc 7974 cc3c 2050 f4bd c8a0 b43d
00000380: f5bc fa3d 6208 c4bd faf3 bc3d 0cf0 b4bd
00000390: 71cd 8f3d 22dd 0e3d d11b a23d 4cb8 833d
000003a0: 00b4 d6bd caeb d9bc a6cf 0fbb ec2d f6bd
000003b0: 4a63 953d c6a7 b4bd 2f00 13bd 2f69 b43d
000003c0: 5d10 8f3d 5c87 c9bd 1f75 a9bd ed32 533d
000003d0: 4741 d1bd 3d3f d93c d143 d53d 9f35 ecbb
000003e0: f02d 75bd b40c 23bd de12 97bc b927 bd3d
000003f0: d2cc 18bd 8cc2 0f3d 5412 d6bd 4696 aabc
-0.06661763 -0.033498157 -0.004666856 0.08907829 -0.050828125 0.081571594 -0.0015605753 -0.026710842
0.06999336 -0.08965915 0.037550256 -0.050321557 0.1007387 0.076301195 0.030254245 0.10570536
0.0031550997 0.124255866 0.12081734 -0.12142876 0.07833972 -0.015092946 -0.10241914 0.06535976
0.107952446 0.049131077 0.09048123 -0.051910497 -0.080388114 0.0020425294 -0.109483376 -0.053623773
0.12081699 -0.10766941 0.0743361 -0.10054861 -0.028316688 0.03400465 -0.0049083163 -0.09218078
-0.05375424 -0.039939884 -0.084645435 -0.1152133 -0.006124258 -0.06401909 -0.012933114 0.06418719
0.05602159 0.07609986 0.011286619 0.038455274 0.08449435 -0.10858643 -0.051477462 0.11063983
-0.005012922 0.0027946965 0.072833516 0.079945125 -0.027488837 0.12069401 -0.08867397 -0.0675931
0.05674547 0.029362373 0.0019361833 0.07869736 -0.02458602 -0.01210182 -0.120230064 0.054245185
-0.11839907 0.12162865 -0.10802393 -0.018361289 -0.037095927 0.11292086 -0.08799513 -0.0613468
-0.08369296 -0.022552215 0.08247758 0.090425275 0.026760474 0.10690423 -0.01323793 -0.0030406886
-0.106457956 0.11801061 0.10993085 0.12058101 0.085498266 -0.0381122 -0.10837497 0.07125465
0.083629854 -0.06252325 0.05236583 -0.08890696 0.07184764 -0.11311261 -0.10779362 -0.0151804825
-0.036556132 -0.032034647 0.054959632 0.059755877 -0.020235606 -0.067107886 -0.07872976 -0.017966166
-0.08201187 -0.08574705 -0.11017142 -0.0027728355 -0.0058249417 -0.030945841 -0.046822723 -0.08686447
0.0032121746 -0.114486724 0.02011638 0.03474978 -0.10362763 0.06898319 -0.023604289 0.10860204
0.086297885 -0.091821216 -0.04606562 0.09931989 0.057661265 0.101177834 0.025593774 -0.009099158
0.0074946363 0.040359344 0.069196545 -0.07479825 0.116396636 -0.06944001 -0.10526323 -0.0788989
-0.08622225 0.041632343 0.00058160233 0.072035536 0.11807555 -0.04991823 0.078844 -0.046650473
0.045793604 0.014885508 0.053133864 0.021457328 -0.11278336 -0.008752472 -0.068324 -0.046436094
-0.097108245 0.10708687 -0.0015971906 -0.022122568 -0.032678995 -0.0028864017 0.10215736 0.00079797115
-0.016379306 0.11431839 0.024303066 0.047623135 -0.091920674 -0.055637754 -0.10011276 -0.102322325
0.039129354 0.031777386 0.08810212 -0.016541846 -0.10830959 0.010683233 0.036670186 0.035656143
-0.026495267 -0.039249174 0.016402852 0.120556034 0.111255705 0.03911674 -0.09289453 0.12061749
-0.050383285 0.018686626 -0.12207896 0.07199876 0.12094929 -0.06430775 0.052217256 0.11853065
0.06601407 0.046877425 -0.09360679 -0.06804033 0.006236201 0.032738198 -0.034977783 -0.10350609
0.12665196 -0.019138314 0.08446429 -0.09171746 -0.07852279 -0.10343147 0.09074057 0.1256687
-0.0934043 0.022692062 -0.07639482 -0.073804 -0.023897123 0.024957882 -0.11929345 0.08819729
0.12243072 -0.095719114 0.09226222 -0.08834848 0.07021607 0.034878857 0.07915462 0.06431636
-0.10483551 -0.02660169 -0.0021943836 -0.12020478 0.072943285 -0.08821063 -0.035888847 0.08809125
0.06985543 -0.09840271 -0.08274292 0.05156224 -0.10217529 0.026519412 0.104133256 -0.0072085406
-0.059858263 -0.039807037 -0.018441614 0.09236092 -0.037304707 0.035097644 -0.104527146 -0.02082361

lstm.bias_ih_l1 f4 [256]
00000000: c211 9a3d 8657 69bd a896 3c3d fa00 ba3d
00000010: 9283 32bd 10e1 cd3d db4a 8bbd 4a39 d53d
00000020: 1f3f abbd e54f b93d 8bf9 90bd fee8 aa3d
00000030: 2e90 a93d 7172 34bd f8da 8b3d 1464 c3bd
00000040: 77f8 a53c a60c b63d 67b8 553d 25e5 d2bc
00000050: 5c2c 00be 7086 873d 7e34 21bd 978b edbc
00000060: de15 73bd fc48 98bd d6d4 b53d e78a a53d
00000070: bb69 f8bc 943c eb3d 6957 2dbd 67df 913d
00000080: 0328 653d 0dce 3fbd 5b4b eb3d 7bf5 8e3d
00000090: b6a2 bdbd ff0a 8b3d d37b ae3d f5c5 f0bd
000000a0: ed75 f33d 78c0 e83d 6760 80bd 2227 853d
000000b0: ec7a 923d 901f 9d3c 4552 17bd 8c76 ac3d
000000c0: 8a52 613d bf66 a9bd 03f6 aabd 1997 fb3d
000000d0: 4d98 33bd b3db 8f3d d345 5bbc c2ef 4c3d
000000e0: baf7 0b3d e10a b5bc 01b5 b43b 1c4c eebd
000000f0: 65d9 b43d 10d7 22bd 0fe8 d13d 0367 c83d
00000100: e7d5 8f3d 8af0 5d3d 0106 f3bd a048 9e3d
00000110: 54a4 20bd b8e7 933b 8e68 893d 9d45 3d3d
00000120: 162d c93b 8289 cf3c f472 cf3c c11f 65bc
00000130: 354f bebd e425 a7bd af9b a33d da3c 7bbc
00000140: df9b dd3d 2a02 823d 7907 813d 1f94 163d
00000150: 5dd3 1a3d 3e86 ca3d afb2 273d 55c1 373d
00000160: ec1e 8bbc b3a0 b0bd e086 33bb 82c4 4c3d
00000170: 609f 02bd 40be ffbd e7b3 a03d 5176 4b3d
00000180: 91fe 223d 9fc1 e2bd 7dfa fa3d dc3b 993c
00000190: a84d ad3c b836 febd b87a 8d3c fe99 8fbd
000001a0: bd06 bcbc c6db e23d c6a0 debd 4e0f 923d
000001b0: c92e 43bd c7c8 243d 5f7f 1c3b c548 8cbd
000001c0: 141d 42bd 7b3a 1cbd df17 59bd 8c4f 213d
000001d0: 5d33 a43d 1bb4 cd3c d1b4 77bd 433c c93d
000001e0: f057 86b8 f821 9abd ea99 68bd b64d ec3d
000001f0: c78f dfbd 93cc ccbd 20ae fb3d 1731 fe3c
00000200: 0d74 a43d c8d3 853d d607 6c3d 9330 94bc
00000210: dc7c cfba b1b9 a7bd f875 04bd 40bc 8fbd
00000220: b728 89bd a973 7d3d a20e d63d 7622 b5bd
00000230: d91c 003e dba0 cf3d ebb7 ed3c e8e4 133d
00000240: ecab ea3d ea15 acbd 78ed 99bd ce96 9dbc
00000250: 1699 fe3c 75ce 6dbd 338b 50bc 30fc 59bd
00000260: 3795 093d 8525 da3d edee 0abd 436e e3bd
00000270: 86d0 b7bd 1b8e d93c 2bab a0bd dc85 3ebd
00000280: e669 17bd d03c a03d dadf bfbd 9d50 e6bd
00000290: ad09 2e3d 6012 993d 158b a73d 8fbb 86bc
000002a0: fab9 8fbd 8afa b23d b6d4 a5bc 8b94 5bbd
000002b0: 01c8 8abd e860 2abd 4d7b 6ebd bac4 ad3d
000002c0: 1e32 bbbd 630a b53d 9a44 e5ba 313b 86bd
000002d0: fe48 f43c 44d6 d8bd 60da 07bd d73f 0b3d
000002e0: 3813 a0bd 3be3 713d 7a1f 173c 47d6 8d3b
000002f0: 3462 f4bc 092f a0bd b2a4 df3d 98fd b03c
00000300: 7ce0 e73d aac1 c73d 4efb bdbd 5dff fb3d
00000310: a034 fb3d 86e9 933d d703 e93c 3aa4 fbbd
00000320: f01e 083d d683 e13c 6831 b6bb d6a0 e6bd
00000330: 02f1 05bd 4be2 9bbd 7619 5f3d 8532 4b3d
00000340: fa75 1abd 726d 01bd 408a 6f3d ef45 a9bd
00000350: 6c68 793d fc66 b1b9 f4ba 51bc d7f2 b73b
00000360: 9653 603d 9e4e acbd 2776 aabd fb18 ab3d
00000370: 7cf3 a3bd de6f 7b3d 499e e4bd f5c7 7dbd
00000380: 6496 c3bd 0547 eabd 73eb ea3d 31f1 dabd
00000390: c7c8 20bd 92f8 efbc d12c df3d ae0e d3bd
000003a0: 0bb9 283d d5ec b4bd 7e61 62bd 06e0 48bc
000003b0: 536d c63d 4ef7 a73d 07a5 bb3d de26 033b
000003c0: f199 c33d 4a28 98bc 716b f3ba 23a9 98bd
000003d0: 66bb bd3d befc 16bc f01c 33bd 89f5 a03d
000003e0: 38ac 31bd 2c7e e53d b3f4 17bd 55a6 a0bd
000003f0: 13cb f9bd 8312 07bd 3570 c83d 117a c33d
0.07522918 -0.056968234 0.046042114 0.090822175 -0.043582506 0.10052693 -0.06801387 0.10411318
-0.08361649 0.09048442 -0.070788465 0.08345221 0.08279453 -0.044054452 0.06828874 -0.09540573
0.020260079 0.08889131 0.052177813 -0.02574403 -0.12516922 0.06617439 -0.0393567 -0.028997226
-0.059347026 -0.07435796 0.08878486 0.08083134 -0.030323854 0.11486164 -0.04231969 0.07122689
0.05594636 -0.046827365 0.11488982 0.069804154 -0.0925955 0.06789207 0.08519711 -0.11756507
0.11887727 0.113648355 -0.06268387 0.065016046 0.07152352 0.01918009 -0.036943693 0.084210485
0.055010356 -0.082715504 -0.08347704 0.12284679 -0.043846417 0.07024326 -0.013383347 0.05003334
0.034171797 -0.022099914 0.0055147414 -0.116356105 0.08830527 -0.03975588 0.1024934 0.09785273
0.070232205 0.054184474 -0.118663795 0.07728696 -0.039219216 0.004513707 0.06709395 0.046208967
0.006139408 0.025334124 0.025323369 -0.0139846215 -0.09292451 -0.08161524 0.07988679 -0.015334332
0.10820746 0.06348069 0.063002534 0.036762353 0.037799228 0.09888886 0.04094189 0.04486211
-0.016982518 -0.08624401 -0.0027393624 0.049992092 -0.031890273 -0.12487459 0.07846814 0.049673382
0.039793555 -0.110720865 0.12254808 0.018705301 0.021155193 -0.124127805 0.01727043 -0.070117936
-0.022952432 0.11077075 -0.10870509 0.071318254 -0.04765204 0.04023054 0.002387963 -0.06849817
-0.047391012 -0.03814171 -0.05300128 0.039382502 0.08017609 0.025110295 -0.060475174 0.09825947
-6.4059976e-05 -0.0752601 -0.05678741 0.1153826 -0.10916095 -0.09999957 0.12289071 0.031029267
0.080299474 0.06534535 0.05762466 -0.018089568 -0.0015830058 -0.08189715 -0.032339066 -0.07018328
-0.06697219 0.06187788 0.1045201 -0.088444635 0.12511005 0.101381026 0.029018363 0.036106974
0.11458573 -0.08402617 -0.07515997 -0.019236948 0.031078856 -0.05805822 -0.0127285 -0.05321902
0.033589568 0.106516875 -0.033919264 -0.11105015 -0.089753196 0.026557019 -0.07845148 -0.046514377
-0.036966227 0.07824099 -0.09368868 -0.112458445 0.042489696 0.07474208 0.08180825 -0.016446857
-0.07017894 0.08739193 -0.02024303 -0.05360846 -0.06776429 -0.041596323 -0.058223058 0.08484788
-0.091404185 0.08839872 -0.0017491758 -0.065542586 0.029819962 -0.10587743 -0.033167243 0.03399643
-0.07816166 0.059054594 0.009223813 0.0043285224 -0.029831983 -0.07821471 0.10920085 0.021605298
0.11322114 0.09753735 -0.09276448 0.12304566 0.12265897 0.072222754 0.028444214 -0.12287183
0.03323263 0.027528685 -0.005560089 -0.11261146 -0.032700546 -0.07611521 0.05446764 0.049608726
-0.037710167 -0.031598516 0.058481455 -0.08265292 0.0608906 -0.000338368 -0.012800921 0.0056136656
0.054767214 -0.084134325 -0.08323317 0.08354374 -0.08005425 0.06138598 -0.11163003 -0.061958272
-0.09550169 -0.11439327 0.114706896 -0.10690535 -0.039253976 -0.029293332 0.1089722 -0.10305534
0.041192096 -0.088342346 -0.055268757 -0.012260443 0.09688821 0.082014665 0.09162336 0.002001218
0.09550846 -0.018573899 -0.0018571449 -0.07454135 0.09264259 -0.009215532 -0.04372877 0.07859332
-0.04337713 0.11205706 -0.037098598 -0.07844225 -0.121969365 -0.03297664 0.09787027 0.09544767
