artifacts/SKU_05/model.pt (torch, 219163 bytes, 12 tensors)

lstm.weight_ih_l0 f4 [256, 10]
00000000: 0c2d c6bd ade8 40bd 1634 a1bd 1438 bdbd
00000010: a035 bbbc 1d3a d43c f826 1a3d 95bc d23d
00000020: ed72 aa3d ec34 debc 8dcd c03d 6888 0c3e
00000030: 3dd2 01bc f78d e5bd 96ce a53d 9b3a ffbd
00000040: 0f84 d4bd 2af4 cc3d 722b f03b cf9f fd3c
00000050: d138 373d f272 9e3d d21d 8cbd 307a b8bd
00000060: 333a d7bd 79eb a7bc dd0e bcbc 9041 cfbc
00000070: 5967 12bd 9584 54bd 5ef0 9ebc b0e8 d9bd
00000080: bf5a 06bd 11ce 95bd 0135 003e 6552 81bd
00000090: 0602 323d 51ae d13c 04ca a63d 94f9 dcbd
000000a0: 8667 043e 5180 69bc 0e2f f0bd 1ee6 1abd
000000b0: ccd0 963c 5268 0b3d a73f 473d dc12 a5bd
000000c0: 9bae 1bbc d171 d83d efe8 61bd 141d 633c
000000d0: 8338 c7bd 2189 793d 455c 303d 7af9 1a3c
000000e0: e6ef a13d 667d 88bc 54e9 463d 7462 d0bd
000000f0: 96cc cd3d ea29 823d 4dcd c1bc cc55 97bd
00000100: 6b74 c2bd 8124 d73d efc6 ce3c ae9e 943d
00000110: eb42 413d 71c3 b03d 08d1 953d 59c1 943d
00000120: fd4c 9e3d ae1d d0bd e696 d33d 5bf7 f0bd
00000130: 8842 b23d febb fcbd d843 babd 1c12 513d
00000140: 3fc0 0fbd 2215 003d 310a e4bd 56b4 f1bb
00000150: b85e e7bd ab5f c63d 5da6 893c 4402 bebd
00000160: d0f5 d5bd a552 f0bd d5be a53d 7cce 20bd
00000170: dd89 c5bd 7cc6 c1bd 7f23 2c3d bb31 b13d
00000180: 90d0 60bd 791f 313d d367 c73b 38ba f3bd
00000190: af00 57bc 0864 5b3c 557d edbd 9e64 e43d
000001a0: 385c b63d cc08 bdbd 36d9 54bd 00ea 77bd
000001b0: ab75 813d 4ef7 92bb e0d9 b6bc 62e2 f9bc
000001c0: b75d e63d e007 efbd d951 98bd 3fac f8bc
000001d0: bd60 edbd b1f0 d1bb 7775 033c f936 aabd
000001e0: dcd2 163d f8c3 c83d 6c77 983d 3b49 c0bd
000001f0: 6a66 fc3d 3911 ba3d 0078 dc3d 3a75 e7bd
00000200: 7447 0c3d 7ae6 a23b b093 c3bc 0bf1 86bd
00000210: e0d8 cfbb 8bd7 473d 244d d2bd ce9c b9bc
00000220: 9d00 80bd 6a10 bbbd 5892 2f3d ba68 debd
00000230: 6d61 e33d 629d 013d 2ba5 893b 0f10 25bc
00000240: 2b10 e63d 2545 cf3c 6c34 24bd 013a d43c
00000250: acb9 a03d d300 9a3d 2ebc d3bd 02e1 28bd
00000260: 64bc a83d 50c3 803d 2019 8cbd 69aa 563c
00000270: 9b40 a23c 5fc8 29bd c243 1d3d 1aed 603c
00000280: eb82 17bd 193d aebb 5110 953d ad00 aa3d
00000290: 56cd 773d ec0a 86bd 862b b53d 37c2 07bd
000002a0: d4ac 0bbc 7443 683d 4cb8 3c3d 8e64 07be
000002b0: 2f97 df3d cc94 d53c 3ddd 433d 1f3d 26bd
000002c0: c102 cb3d 0e1d 913d eca0 963c eccf 09be
000002d0: 47ce 923d babd 883d 2a41 b6bd 06e2 e6bd
000002e0: 8e0a 7c3c 0c73 ea3d 0a07 f4bd 6670 a93d
000002f0: 419e f93d 6b60 d83d 6165 913d 5c19 873a
00000300: a5fc dfbc 7d31 2bbd 9834 d53d e2ef a2bd
00000310: 94ad 59bd ba69 91bd bbf5 bcbc 9773 90bd
00000320: 516b 893c 79a0 d13d 2832 15be ee70 c0bd
00000330: c6da a7bd 3cdb 623d f8ea 133d 1850 bfbc
00000340: 37a7 c83d 76f5 35bd 944f 28bd 2ddd 313d
00000350: d4ff 083d 8982 97bc 929b e6bb 02f0 26bd
00000360: f0cf cdbd e448 c1bd ea87 e43b a2c3 ab3d
00000370: af60 b03d 0fae f53d 8be9 e8bd aae8 203d
00000380: 9903 833a 31e9 a8bc 92df 5e3b 9b50 b13d
00000390: 2979 93bd 9723 7f3d 2d0e a2bc ae8f 5dbd
000003a0: 76b6 e9bd 8dc7 e33d 1f2b 353d e486 a83d
000003b0: 1598 cabd db39 f2bd 00a4 0cbe 27c1 f0bd
000003c0: cff7 e2bd b7b7 8c3d c75b 8a3d 1d8f 02be
000003d0: 6268 58bd 6b9b c5bd be38 47bc 5219 203d
000003e0: 94ad 86bd a74c f83d dbec 203d aad1 8c3d
000003f0: 750e b2bd 717c 8abc 7273 a3bb 3cd9 f53c
-0.09676561 -0.047096897 -0.07871263 -0.09239212 -0.022852719 0.025906617 0.03763482 0.102898754
0.083227016 -0.027124844 0.09414206 0.1372391 -0.00792366 -0.11208718 0.08096044 -0.1246235
-0.10376751 0.10007508 0.007329398 0.030959992 0.04473192 0.07736768 -0.06841625 -0.090076804
-0.105091475 -0.020498024 -0.022956306 -0.025299817 -0.03574309 -0.051884253 -0.019401725 -0.10640085
-0.032801386 -0.07314695 0.1252022 -0.06314544 0.04345896 0.025595816 0.08144 -0.10789791
0.12930116 -0.014251784 -0.11727725 -0.037817113 0.018410109 0.034035034 0.048644688 -0.08060238
-0.009502078 0.10568584 -0.055153783 0.013861913 -0.09727576 0.060921792 0.043056745 0.009458894
0.07907085 -0.016661357 0.048562363 -0.101750284 0.10048787 0.06355651 -0.023657465 -0.07389411
-0.09494861 0.105050094 0.025241343 0.07256828 0.04718296 0.086310275 0.0731526 0.07263441
0.07729528 -0.10161911 0.10331516 -0.11765929 0.08704096 -0.12340544 -0.090949714 0.05104266
-0.03509545 0.031270154 -0.11134756 -0.007376234 -0.11297363 0.09686216 0.016802961 -0.09277776
-0.10447276 -0.11734513 0.08093039 -0.03925942 -0.09645436 -0.09461686 0.04202604 0.086520635
-0.0548864 0.043242905 0.006085375 -0.11900753 -0.013122722 0.0133905485 -0.11596171 0.11152004
0.08904308 -0.092301935 -0.05196496 -0.060525894 0.063212715 -0.0044850474 -0.022320688 -0.030503456
0.112483434 -0.11671424 -0.07437486 -0.03035557 -0.11590717 -0.0064068665 0.008023611 -0.083112665
0.036822185 0.09803003 0.07444653 -0.093889676 0.123242214 0.09085316 0.10765076 -0.11301656
0.03424783 0.0049713226 -0.023874134 -0.06588944 -0.006342992 0.048789542 -0.1026862 -0.022657778
-0.06250117 -0.0913399 0.042864174 -0.10859819 0.11102567 0.031644233 0.0042005978 -0.010074629
0.112335525 0.025301525 -0.040089056 0.025906565 0.07847914 0.075196885 -0.10338627 -0.04123021
0.08239058 0.06287253 -0.0684073 0.013102152 0.019806197 -0.041450854 0.038394697 0.013728404
-0.036990087 -0.005317342 0.07278503 0.0830091 0.060498558 -0.06545052 0.08846192 -0.033144202
-0.008525092 0.056704953 0.046074197 -0.13221952 0.10917508 0.026071928 0.04781841 -0.040585633
0.09912635 0.0708562 0.01838728 -0.13458222 0.071682505 0.066768125 -0.08899148 -0.11273579
0.015383376 0.11447725 -0.11915405 0.082733914 0.12188388 0.10565265 0.070994146 0.001030724
-0.02734215 -0.041795243 0.10410422 -0.0795591 -0.053144053 -0.07100244 -0.023066392 -0.07053297
0.016774805 0.10235686 -0.14569914 -0.0939654 -0.081960246 0.05538486 0.036112756 -0.023353621
0.09797519 -0.044423543 -0.041091517 0.04342382 0.0334471 -0.018494861 -0.0070375884 -0.040756233
-0.100494266 -0.09437731 0.00697421 0.083869234 0.08612191 0.1199609 -0.1137267 0.039284386
0.0009995579 -0.020619007 0.003400777 0.086579524 -0.07200844 0.0622898 -0.01978215 -0.0540921
-0.11411755 0.11122046 0.044230577 0.08228853 -0.098922886 -0.11827441 -0.13734436 -0.11755591
-0.11082422 0.06870978 0.067557864 -0.12749906 -0.052833922 -0.09648784 -0.0121595245 0.039086647
-0.06576076 0.12123995 0.039288383 0.06875928 -0.08694164 -0.016905041 -0.0049881274 0.030010812

lstm.weight_hh_l0 f4 [256, 64]
00000000: 4ba6 22bc 2546 9ebd e45b be3b 75ba d13d
00000010: 4a0c 553d 237b 023d c4eb 063e c1fb bd3d
00000020: a4d9 8d3d bf93 e63d 4741 a5bd bbc3 073d
00000030: f9bd 45bd e134 ce3d 2e3d 0abd 04cc ddbc
00000040: e075 d63c a457 953d 4a0d b23d 6e50 c43c
00000050: c70f 5bbc cac1 a1bd 67e8 e4bd 4326 233d
00000060: e226 1d3c 10e9 0d3e f03b c4bc aa9e 8c3d
00000070: d03b f23d 228e 053e 8d7d e93d f3e8 07be
00000080: 6840 80bd 0fee f93d ce4b 84bd a0a1 b7bd
00000090: 6509 dbbd ebf2 d7bd aa53 c53d 09eb a13c
000000a0: 35cd 983d bd6c 833c 7a53 e6bd 96ec d3bd
000000b0: 8733 7d3d 8ae8 a0bd 18a7 c63d 64ab a23a
000000c0: 6ca9 af3d 7e01 453d 84f8 abbc 175b e8bd
000000d0: c7cb ddbd e32d 303d c4dc e1bd 2dce e3bd
000000e0: bdd6 bebc 735c c83d f5b9 bdbc 42b9 2fbd
000000f0: a862 013e 940f bfbc 90c9 a2bd cc0a b83d
00000100: 4167 19bc d2c6 783d 20fb 2dbd 3774 0b3c
00000110: a203 963d c288 e3bd 7913 5bbd 9b71 aa3c
00000120: f2f5 003e 481d ce3d 67bf 4b3d 4a0c 1cbd
00000130: 2f00 af3d e9e6 af3d d06b d83c 6ff7 8c3d
00000140: be8d b3bd 868e 8a3d 77be 8cbd 88b9 c9bc
00000150: 2005 c03c e7a6 953c 5c80 3abd e065 223d
00000160: 72b0 e0bd b29d 783d ba0e c2bc 2547 83bc
00000170: 372e 743c 7cd2 f0ba 9755 0c3d 56aa d13d
00000180: 350a e1bc 4ed9 a53c a63b e6bb b78a e9bc
00000190: ce4f 70bd fc8a 5cbd d616 cdbd e274 eb3d
000001a0: 6a86 31bd 4ee1 503c 88cc 4cbd a3c4 97bd
000001b0: 3706 01be 70d8 093e b107 d6bd efe8 bdbd
000001c0: f62c cbbd 9b5c 65bc 7ecb 573d dfe7 b83b
000001d0: 99d0 e03c 48c7 abbd fec2 9b3d 7328 9fbb
000001e0: a62c 1fbc efe9 cd3d 7c1f ab3d 5f9b 4a3c
000001f0: ce27 0a3d 156b ed3d 75c4 db3d 0ab2 9a3d
00000200: cb24 003d 8e01 fbbd 01cd 8cbd 7f1d aabd
00000210: 0b87 34bd a4ea 603c a5ad 133d 6d74 af3d
00000220: e93d 3d3c 3541 023e 2872 a5bd 53e2 bd3d
00000230: fb73 df3d 9936 cebd 5afb c5bd 9764 2fba
00000240: 6837 b03d bdb2 7ebd 8f50 d9bd 63ce 7abd
00000250: 54c3 cc3d 3b6b 973d eb1e eabd 71e0 dabd
00000260: 8b3a a03d 988d b9bd 2fbe 1fbd 7b87 503d
00000270: 82c9 103d 1957 113d 1b48 633d 7ff5 9b3c
00000280: 310c cabd 6edf 3bbd 0f8f f0bc 2534 103e
00000290: 9763 ebbd 181d b6bd fa3e bfbd 1bf2 28bd
000002a0: 8a66 93bc 16f4 e43d 758d cebd a77a 8bbd
000002b0: 3da4 a8bc 70ed b6bc 3d07 073e 9af3 993d
000002c0: 89a7 febd 2cf3 e7bd 07c3 e5bd 0726 e03c
000002d0: 7617 b7bd 6f79 083e fa6d dd3d 52f7 23bd
000002e0: f247 483c 9600 d4bd 566a c13d 616a 6abd
000002f0: 1a03 e23c 147e d53c cfa2 9cbd edfa 6abc
00000300: 5497 8fbc 7275 433d 659c 923d 5035 963c
00000310: 1e93 8b3d 8466 8d3d 7628 b6bd f76f bc3c
00000320: 43b0 c3bd 438c 8b3c b1ce fc3c a310 7fbd
00000330: 4a73 ed3b 0dc9 933d 6a2e f8bd 5660 ad3d
00000340: 9051 b93d 0bfa ba3d 026b 423d 4c83 5e3d
00000350: c938 783d c2b2 34bd 37f9 483d 582e b8bb
00000360: 2129 fdbd 6782 33bc f118 45bd 391b 8e3d
00000370: f9c7 973b 38f4 883d 586b c4bd 17fa e73c
00000380: 78a1 94bd 554d 533d d597 9a3d c540 bfbd
00000390: 66f9 9abd a13c 1b3d 6b68 62bd 1248 8ebd
000003a0: 7c90 c03c c34b 9d3d a57a 283d 594c a43c
000003b0: 3016 2abd ed40 b23d 2193 2e3d 4961 bb3d
000003c0: 9246 f13c dbf3 1cbc 73c6 ba3d 4df9 ee3d
000003d0: f537 a03b 719b 85bd 7e41 19bd bf65 0fbd
000003e0: ce74 863d 58a9 d9bc 5fc5 62bd 9a83 fbbd
000003f0: eebe 91bb 1766 da3d f1f0 913d 6bfa e13d
-0.009927343 -0.07728223 0.005809294 0.10240642 0.052013673 0.031855714 0.13175875 0.09276534
0.06926277 0.11258649 -0.08069091 0.033145647 -0.048276875 0.100686796 -0.03374975 -0.027074821
0.026179254 0.07292107 0.08693941 0.023964133 -0.013370461 -0.078982905 -0.1117714 0.03983141
0.00959179 0.13858438 -0.023954362 0.068662 0.118278146 0.130425 0.114009 -0.13272457
-0.062622845 0.12203609 -0.06459771 -0.089663744 -0.10695151 -0.1054438 0.09635098 0.019765394
0.07461015 0.016043061 -0.11246391 -0.103478596 0.06181672 -0.07856853 0.09699839 0.0012410698
0.085772365 0.048097126 -0.020992525 -0.11345499 -0.10829883 0.04301251 -0.11028436 -0.11123309
-0.023295755 0.09783258 -0.02315996 -0.042901285 0.1263529 -0.023322858 -0.07948601 0.08986434
-0.009362997 0.060736485 -0.04247582 0.0085115945 0.07324912 -0.11110069 -0.053485367 0.020806124
0.1259382 0.10064179 0.049743082 -0.038097657 0.08544957 0.085889645 0.026418597 0.06883132
-0.087672696 0.067654654 -0.06872266 -0.024624601 0.023439944 0.018268062 -0.04553257 0.039647937
-0.10971154 0.060697265 -0.023688663 -0.016025135 0.014903597 -0.0018373276 0.034261312 0.10237567
-0.027470687 0.02024522 -0.0070261536 -0.028508527 -0.058669858 -0.053843483 -0.10014121 0.11496903
-0.043341078 0.012749029 -0.049999744 -0.07410552 -0.12600027 0.1346147 -0.10450686 -0.09272944
-0.09920685 -0.01399913 0.0526843 0.0056428756 0.027443217 -0.08387619 0.07605551 -0.004857117
-0.009715235 0.10054385 0.083556145 0.012366145 0.033729367 0.1159269 0.107308306 0.075534895
0.03128509 -0.12256156 -0.06875039 -0.08306407 -0.0440741 0.013727818 0.036054272 0.08567128
0.011550405 0.12720187 -0.08078414 0.092716835 0.109107934 -0.100690074 -0.09667082 -0.0006690709
0.08604318 -0.062182177 -0.106110685 -0.061231982 0.099981934 0.073934995 -0.114316784 -0.1068734
0.07823666 -0.0906021 -0.038999733 0.050910454 0.035348423 0.035483453 0.055488687 0.01903796
-0.098656066 -0.045867376 -0.02936509 0.14082392 -0.11493605 -0.08892268 -0.09338184 -0.041246515
-0.01799323 0.11179368 -0.100855745 -0.068105035 -0.020586127 -0.022330016 0.13186355 0.075171664
-0.124342985 -0.11325678 -0.11218839 0.027361883 -0.08940022 0.13327573 0.10811992 -0.040030785
0.012224184 -0.10351674 0.0944411 -0.057230357 0.02758937 0.026061095 -0.07648241 -0.014342052
-0.017528214 0.047719426 0.07158736 0.018335968 0.0681517 0.06904319 -0.08894436 0.023002608
-0.09555104 0.017034655 0.030860277 -0.062271725 0.0072464095 0.07216082 -0.12118228 0.0846564
0.0904876 0.09129723 0.04746533 0.054324433 0.06060103 -0.04411579 0.049065795 -0.005620759
-0.1236136 -0.010956383 -0.04811949 0.06938786 0.004631993 0.06687206 -0.09590787 0.028317494
-0.0725736 0.05158742 0.07548491 -0.09338526 -0.075671 0.037899617 -0.055275362 -0.0694734
0.023506396 0.07680466 0.041132588 0.020055937 -0.041525066 0.0870379 0.04262078 0.09149415
0.029452596 -0.009579624 0.091198824 0.11668644 0.004889483 -0.06523789 -0.037415974 -0.035009142
0.065652475 -0.026570007 -0.05536401 -0.122809604 -0.0044478094 0.10664003 0.07126034 0.110340916

lstm.bias_ih_l0 f4 [256]
00000000: af24 27bd 8c58 71bc bfdb 3b3d b99a 333d
00000010: 81e9 a93a e33d 19bd b742 ffbc f462 983b
00000020: b133 e03d ac49 a83b 57a8 083e 24ff 22bd
00000030: fe23 453d 8a43 dabc f661 ed3d 677b efbd
00000040: ee05 12bc 951d dabd dfad edbd f5f6 653d
00000050: 145c 943d 7a95 fb3c 00b3 c6bd 1a37 0a3c
00000060: a2c3 433c 7e2d a7bd 96ea 1a3d 06cf 753d
00000070: dc21 c7bd 9c5f 9bbd be85 613d 0795 f03d
00000080: de89 b93d 433d a23d dcc5 c8bd a96a 8e3d
00000090: 5256 3b3d a07c 2dbc 12c3 b13d 9f3b 643d
000000a0: d728 493b 507b aa3b dbb6 153d 5abe e8bd
000000b0: 29d6 8bbd 099c d63d f84c c63d f8ad 9fbd
000000c0: 01ad e5bd a657 bc3c ce1d 82bd fb7a 87bd
000000d0: bf81 0bbe f923 2b3d 9975 e1bc 7608 2e3d
000000e0: 4c44 c3bd 79ef 5c3d 7502 223d 683a a63c
000000f0: e65d e2bd 082b d13d 015e 283d d822 4cbc
00000100: 6d44 c6bd 74b9 4db9 ac18 cdbd eab4 c43c
00000110: e370 783c ece8 90bd f659 03bd 76ed f43a
00000120: 4423 a93d 3bba dfbd 6cab c1bb abe1 053d
00000130: 4336 40bd d5fd 0c3d d5af e93d 3ebb bbbd
00000140: 00a1 8bbd c840 853c fde9 26bc ccd9 8abd
00000150: 1d1c 29bd 8482 c0bc 00f7 c2bb 659e b5bd
00000160: a901 fcbd 71c6 adbc f848 ea3b f7e4 123d
00000170: e4f8 66bd 1aaa 24bd add0 ad3b 7392 c6bd
00000180: 804a 2abc f58d cdbd bdb0 68bd 234b c0bd
00000190: 3669 38bc 35fe 243d 3fb7 cbbd 561f ecbd
000001a0: 6080 36bd 7b28 6cbc 585b ffbb 5364 4c3d
000001b0: 6e5d c43d 68dd d9bd b4be a6bd bd0f 183c
000001c0: d14c c4bc c976 c73d 520b 7c3d 8a70 aebc
000001d0: 4702 36bc c9d3 d93d 825b 3a3d b031 e8bd
000001e0: 5e09 8fbd ea48 64bd 3575 763d df41 c6bd
000001f0: 3e66 d9bd bfa5 ba3b d102 173c b2ce ee3c
00000200: 5c9e a4bb 2ca2 ab3d fcca 053d 3ab6 d3bd
00000210: b6d3 8d3c 16ae 0fba c8d0 11bb 9daa a1bd
00000220: ab85 973d a133 72bd de01 afbd 6bf7 893d
00000230: 6f78 96bd 683b 773c 5bce 31bd 5a49 ef3d
00000240: c81b 7d3d 3977 de3d f283 6b3d 0ef2 863d
00000250: 7957 c93d b116 b33d 3dd6 d4bc 2754 54bd
00000260: d88c f03c edb1 ea3d 987d 943d 90ad 8c3d
00000270: 6f4c 1e3d bf79 ca3d 2c78 16bd 73c0 713d
00000280: e827 0f3d 6c23 b8bd 067f 103d 0eb7 28bd
00000290: 9153 4c3d 7394 c33d 58ec 113d c42b 6e3d
000002a0: 05a3 d7bd c49c c53d b903 983d 3b60 dc3d
000002b0: 0dbf d2bd 968e dcbd b1db 8ebd acde 553d
000002c0: f443 9e3d af2c c5bd 08ce 5abd d46b ae3d
000002d0: 95c2 06bd 1f8b c43c a412 b43d 9d5f db3d
000002e0: fa7a 983d 3e0c f33d a14c 6b3c ce5b d7bd
000002f0: 1bb5 aebd e67d c0bd 4989 d5bd b0bd 843d
00000300: ccfd 8a3c 97c9 c6bc 8f57 debd 7934 013e
00000310: 0758 9b3d 68f1 f03c d20c 88bd 9c24 36bd
00000320: 118f 30bd 6b40 953b dfd5 e13d 6f44 bfbd
00000330: 1876 e0bc eb9f 973b add4 ee3d c16d 66bd
00000340: 0ac8 c9bd 28e6 703c bd5b c93d 53cd fb3b
00000350: 2839 e43a 2081 663d 1379 2c3d 0bd5 83bd
00000360: b067 55bc 940e af3d 0c19 51bc 75a5 593c
00000370: 0f89 58bd 5647 943d 02c9 55bd 21cb cf3d
00000380: ae51 cbbc f54d a4bd bd10 cebd 0503 d8bd
00000390: 60ad ea3d 794b b1bd 6fad e4bc 50d8 223d
000003a0: 49af a4bd 3a9a b13d b14e 07bc 47dc 49bd
000003b0: 89ab 88bc 3aba cf3d 0d94 1a3d fb0d adbd
000003c0: db10 273d b048 a63d 47c2 e5bc 9230 b83c
000003d0: ad57 133c 016e 103e 7b5c e4bd 4137 a33d
000003e0: a92f 3c3d 819a ce3d e432 e2bc 5cb8 d6bd
000003f0: 6364 e5bd 36da 44bd 79d9 5cbd 71e8 273b
-0.04080647 -0.014730584 0.045863863 0.043848727 0.0012963266 -0.037412535 -0.031159742 0.004650468
0.10947359 0.0051357355 0.13345467 -0.039794102 0.048130028 -0.026643533 0.1159095 -0.11693459
-0.008912547 -0.106501736 -0.11605429 0.05614372 0.07244125 0.030710924 -0.0970211 0.008435989
0.011948498 -0.08162974 0.037821375 0.060011886 -0.09723255 -0.075865954 0.055059187 0.11747175
0.09059499 0.07921841 -0.09803364 0.069539376 0.04573662 -0.010588795 0.08679785 0.05572092
0.0030694508 0.0052026883 0.036551338 -0.11364432 -0.06827957 0.1047898 0.096826494 -0.07796854
-0.112146385 0.022991013 -0.06353341 -0.066152535 -0.13623713 0.041782353 -0.027521895 0.042488538
-0.09534511 0.053939316 0.039553124 0.020291522 -0.11053066 0.10213286 0.041105274 -0.012459479
-0.0968102 -0.0001961941 -0.100144714 0.024012048 0.015163633 -0.07075676 -0.032068215 0.0018686492
0.082586795 -0.109241925 -0.0059103277 0.032685917 -0.046926748 0.03442176 0.114104904 -0.09166573
-0.06817818 0.016266242 -0.010187623 -0.06779823 -0.041286577 -0.023499735 -0.005949855 -0.08868102
-0.12305004 -0.021212788 0.007149812 0.03586289 -0.056389704 -0.040201284 0.005304417 -0.09695902
-0.010393739 -0.10036842 -0.056809176 -0.09389331 -0.011255553 0.040281493 -0.09947061 -0.11529414
-0.04455602 -0.014413948 -0.0077928714 0.049900364 0.09588133 -0.10637933 -0.081418425 0.009281096
-0.02396241 0.09739453 0.061534233 -0.021293897 -0.011108941 0.10636098 0.045497425 -0.11337602
-0.069842085 -0.0557336 0.06017037 -0.09680533 -0.10615204 0.005696028 0.00921698 0.029151294
-0.0050237607 0.08380541 0.032664284 -0.10337491 0.017312866 -0.0005480958 -0.0022249687 -0.0789387
0.07398542 -0.05913127 -0.08545278 0.06736644 -0.0734719 0.015089847 -0.043409687 0.116839126
0.061794072 0.10862584 0.05749888 0.06589137 0.09831137 0.087445624 -0.025981063 -0.051838066
0.029364035 0.11459718 0.072505176 0.06869042 0.03864711 0.098865025 -0.0367357 0.059021425
0.034950167 -0.08991131 0.03527739 -0.0411902 0.049884383 0.09549799 0.035625786 0.058147207
-0.105291404 0.09649041 0.07422585 0.10760542 -0.10290346 -0.107693836 -0.069754966 0.05221431
0.07727805 -0.09627663 -0.053419143 0.0851666 -0.03290041 0.02399212 0.08792618 0.10711596
0.07445331 0.118675694 0.0143615315 -0.10515557 -0.08530637 -0.09399013 -0.10426576 0.064814925
0.016966723 -0.024266047 -0.10856544 0.12617673 0.07585149 0.029411986 -0.0664307 -0.044468507
-0.04310519 0.0045547984 0.11027121 -0.093392245 -0.027400061 0.004627218 0.116616584 -0.056257013
-0.098526075 0.014703311 0.09831951 0.0076843887 0.0017412053 0.056275487 0.042107653 -0.06437119
-0.013025209 0.085477024 -0.012762319 0.013284077 -0.052865084 0.07240169 -0.05219365 0.10146166
-0.024819221 -0.080226816 -0.10061786 -0.10547451 0.1145885 -0.086569734 -0.02791473 0.039757073
-0.080412455 0.086719945 -0.008258508 -0.04928234 -0.016683357 0.10142942 0.03773885 -0.08449932
0.04078756 0.08119333 -0.02804674 0.022484098 0.0089930715 0.14104463 -0.11150452 0.07969523
0.04594389 0.10088063 -0.027612157 -0.104843825 -0.11200788 -0.048059665 -0.053918336 0.0025620724

lstm.bias_hh_l0 f4 [256]
00000000: 8387 9bbd 9dc6 453d 8297 94bd df84 babc
00000010: 841d 4dbb 79f8 c83d 3704 cebd b40d a6bc
00000020: 139e 9dbd d10f 843c f938 3fbd 60f8 2ebd
00000030: 16a0 21bd 3a65 c8bd 2fc4 4c3d a086 593d
00000040: 7a1a 953d ed39 d63d 4754 d53d 374f f9bd
00000050: 0a8b c23d ef0a d9bd 53f7 bc3c 6fc5 9c3d
00000060: a818 fdbc 98ce b2bd 31e6 ae3d d687 09bd
00000070: d99c 62bc c441 a03d aab0 1c3d b914 6a3d
00000080: 5e27 f83a efd2 c8bc b718 e63d 1dda c0bd
00000090: c496 bc3c 8981 eabd bc34 c93d 0d2d a83d
000000a0: d9a7 adbd 2508 623d 61aa 963d b6ab e7bd
000000b0: 113d c3bd 0088 40bd d0f4 03bd 54d1 933d
000000c0: 31d7 ee3c b205 b83d fa8c 8fbc 7df7 0c3e
000000d0: ee14 853d 7abb ef3c 8a0c ecbb 8bc1 403d
000000e0: 7878 80bd bc7c cd3d 0d65 77bd efe2 d1bd
000000f0: 86d3 f4bd 1f7e bfbc 1968 f23c dd0c 233d
00000100: 73f2 ea3d 82bf d1bc ac59 8fbd d5c8 4ebc
00000110: 694d cd3d 3186 12bd a97b dc3d 9023 fcba
00000120: 12b1 7abd 378a e5bd 9d20 d13c b064 b93d
00000130: e375 3abd 93ee 733d 2b8b e53d 3f2b 82bc
00000140: e8bb ac3d 5a64 19bd 8f1a 96bd 0b0d 753b
00000150: e1f1 a33d 4e17 a43a baf7 c2bd c0ba bf3c
00000160: 3fb2 813d 1da1 0c3c 989e 02be 5fc2 5abd
00000170: 1c31 b73d 5626 0cbd be5f 37bd 6919 4abd
00000180: 3d39 ce3b 68da 97bd 3e38 d5bd e67a 593d
00000190: 4adc 9ebd 00dd a93d c9f0 c0bd 5d52 313c
000001a0: 28e1 943b fcc6 eabd 1152 d7bd 9484 d7bd
000001b0: 785e 3a3d 53b4 54bd 3e49 a63d e0bc b1bd
000001c0: 6916 5e3d ab3d 4c3c ce51 023d 1b10 8abc
000001d0: b179 84bd 054b 8b3c c6bb 13bd 1d57 3abd
000001e0: c03c 38b8 a00d cd3d 0190 f1bb 575c 873d
000001f0: c2df a6bd 3faa 4dbc 82c8 32bd a079 dfbc
00000200: 1c50 c3bd 70b1 a93d bb67 e0bd c4d7 aebd
00000210: c972 bdbc 46b7 a33d e9ca 8c3d c53b d1bd
00000220: fd6d 3abd 4c71 50bd fce4 cd3d 3986 a5bd
00000230: 0d31 10bd 9a70 c43d 493e 473d 49b6 ccbc
00000240: 8692 afbd 99ed c9bd b7c8 d5bc 2c7e d3bd
00000250: 36f9 593c bd40 9dbd 774b ba3d 7543 c73c
00000260: b316 a4bd 0d9c 603d 4fe0 d0bc e45d c6bd
00000270: cf6a bd3d be41 3e3d 130a 583c d77b a8bd
00000280: ab71 843c 1877 ae3d 3265 0d3d 8614 3f3d
00000290: f9d1 89bd bb4c 56bd acdf 293d a8aa 47bd
000002a0: 902f 693d 7a6c c33d e4b4 19bd 5b9c eebd
000002b0: 9e91 9d3c e654 e3bd 65be 913d 8b08 aa3d
000002c0: 1e9c 4abd 552f 3f3b dcba 30bd 16cc e03c
000002d0: 08aa 85bc 7643 9cbd 2226 f2bd c3ef 32bd
000002e0: c322 f53d d1ff 893d 1d2d 903d 7552 71bd
000002f0: cd9d 95bd 89c5 913d 1950 6439 7cf1 913d
00000300: 8ce7 d63d 7729 25bd 9979 babd 85ad b03d
00000310: f10e e33d e1cd a4bd 1855 8ebd b0f9 303d
00000320: adc9 32bd cad4 8c3d 672e 663c be9a 5d3d
00000330: bdea d93d 15e6 073d 5ad4 4c3d 2bf7 5c3d
00000340: 637b fc3a d179 8b3d 43d8 febd 3050 ecbd
00000350: 7bc1 4dbc 8d97 e33c ab4d 313c d950 c83d
00000360: da28 e0bd b244 713d 8054 bf3d 0a0f f93c
00000370: 554b a23d 144d 53bd 7f32 a7bd 2f40 f0bd
00000380: 40eb 89bc b5fe ffbb 5d17 873d d1e6 d73d
00000390: 8e2d 9fbd 584c 743d 546d 37bd 0aeb 93bd
000003a0: 29a5 d83d 93f8 3fbd ca5a 9bbd 36cd cf3d
000003b0: fbce ef3d a2df 803c 64dd ae3d c68d 863d
000003c0: 2352 653d f2ae edbd 8199 bfbb 247d 283c
000003d0: 50bd 6dbc cf44 6dbd f68b 81bd a318 d7ba
000003e0: 752c 683d 620b 6dbc f597 f83d f4d1 aebd
000003f0: 4242 55bd 2870 adbb 6565 65bd a920 bcbd
-0.07594206 0.048285116 -0.0725546 -0.022768436 -0.003129811 0.098130174 -0.10059398 -0.020270206
-0.07696166 0.016120823 -0.046685193 -0.042717338 -0.03945931 -0.097849324 0.049991783 0.053106904
0.07280441 0.10460267 0.10416465 -0.12173312 0.09499176 -0.105977885 0.023067152 0.07654845
-0.030895546 -0.08730811 0.08539999 -0.03357681 -0.013831341 0.07825044 0.038254417 0.05714867
0.0018932631 -0.024514643 0.11235183 -0.09416602 0.02302111 -0.11450488 0.098245114 0.08211718
-0.0847928 0.05518355 0.07356716 -0.11312048 -0.09533132 -0.0470047 -0.032215893 0.072176605
0.029155346 0.08985461 -0.017523278 0.13766284 0.06498133 0.0292642 -0.007203643 0.047059577
-0.062729776 0.10033557 -0.060399104 -0.10248362 -0.119544074 -0.023375569 0.029590653 0.03980719
0.11472025 -0.025604013 -0.069995254 -0.012621124 0.100245304 -0.035772506 0.10765774 -0.0019236673
-0.061204024 -0.11208003 0.025528247 0.09052408 -0.04552258 0.059553694 0.11208185 -0.015889762
0.08434278 -0.03744922 -0.073292844 0.0037391807 0.08005119 0.0012519152 -0.09519906 0.023404479
0.06332826 0.008583334 -0.12755811 -0.053408023 0.08944914 -0.034216247 -0.04476904 -0.04934064
0.0062934444 -0.074147046 -0.10411118 0.05309572 -0.077568606 0.082941055 -0.09420926 0.01082286
0.0045434423 -0.114637345 -0.105137 -0.10523334 0.04550025 -0.051929783 0.081194386 -0.08678603
0.05422059 0.012465875 0.031816296 -0.016853383 -0.06468523 0.017003546 -0.036067747 -0.045493234
-4.3925596e-05 0.100123644 -0.007371903 0.06609409 -0.08148147 -0.012552797 -0.04364825 -0.027279675
-0.09536764 0.08285797 -0.10957285 -0.08537248 -0.023126023 0.07993941 0.068746395 -0.10216478
-0.04551505 -0.0508893 0.10053441 -0.080822416 -0.03520303 0.095917895 0.048643384 -0.024989264
-0.08572869 -0.09859771 -0.026096685 -0.103268 0.013304045 -0.076783635 0.09096425 0.024324158
-0.08012142 0.05483632 -0.025497584 -0.09685877 0.09248888 0.046449415 0.013185996 -0.082267456
0.016167482 0.08518809 0.034520335 0.046650432 -0.06729502 -0.05231927 0.041473076 -0.048746735
0.056930125 0.09542175 -0.037526026 -0.11650916 0.019234475 -0.111001775 0.07116393 0.08302411
-0.04946529 0.00291725 -0.043146953 0.027441066 -0.016316429 -0.07630055 -0.118236795 -0.043685686
0.11969521 0.06738246 0.07039855 -0.058916528 -0.07305489 0.07117755 0.00021773613 0.071261376
0.10493383 -0.040322747 -0.09105224 0.08626846 0.11086834 -0.08047081 -0.06949824 0.04320687
-0.043649364 0.06876524 0.014049149 0.05410265 0.10640476 0.033178408 0.0500072 0.053946655
0.0019262846 0.06810344 -0.124435924 -0.11538732 -0.012558336 0.027782226 0.01082174 0.097810455
-0.10945292 0.058903404 0.09342289 0.030402679 0.07924525 -0.05158718 -0.08163928 -0.11730992
-0.016835809 -0.007812346 0.06596253 0.105420716 -0.07772361 0.05964312 -0.044781998 -0.072225645
0.10578377 -0.04686792 -0.07585676 0.10146563 0.117094 0.015731636 0.08538321 0.0657001
0.055986535 -0.11605634 -0.0058471565 0.010283742 -0.014510468 -0.05792695 -0.063255236 -0.001641054
0.056683023 -0.014468046 0.121383585 -0.08536139 -0.05206514 -0.005292911 -0.0560049 -0.09185917

lstm.weight_ih_l1 f4 [256, 64]
00000000: deb4 723d e2b3 02be d1b5 8ebd d17a 413d
00000010: a4e6 8dbc a706 a3bd c135 16bd c54c e23d
00000020: b722 43bd 9d51 073e 7d0e 9f3c 332f e93d
00000030: 3180 b13d a4c4 2ebb 4c3e 813d 14ee 883c
00000040: eb9b ba3d abba 853d edfa bd3d 2781 b8bd
00000050: b596 75bd 8920 763c f44b a93c 2811 d7bd
00000060: 1b42 caba 18e1 003d 4a90 9e3d 73aa adbd
00000070: 34e9 cebd 141b c4bd 523a c4bd 29df 873d
00000080: eaa9 9c3d 82ba bdbc a78e a83c ab55 36bd
00000090: dfe6 a53d 8341 c03b 7704 dd3d 2320 bbbd
000000a0: d118 403c 8d3a dd3d 1741 ae3d 39c6 923d
000000b0: 2289 a6bd 01ea 343c 0a74 fbbd 1f89 01be
000000c0: 5a80 9bbd d878 50bd 1d09 d2bd 4508 6a3d
000000d0: ed52 903c 5958 613d 100c f9bd 93d8 c5ba
000000e0: a168 433d c0a6 51bc b0fd 873d 926a f5bc
000000f0: c72c e23d 8585 703d 29ea 8d3d ad65 f4bd
00000100: bb6e c6bd 41b3 13bd 79a4 b53c a03a cc3d
00000110: b912 aabd d530 bfbd 5738 0d3c d48b d63d
00000120: bbdd 713d 2a7a 9cbd b14b 43bc 082a 0f3d
00000130: 0cfd 493d 214b 34bd e379 e1bd af2f e6bd
00000140: 691a 46bd 9de6 10bd 2f26 83bd f55d 1dbc
00000150: d505 663d c51e 8dbd 8b87 353d e39c abbd
00000160: af6c 82bd 0cff da3d d164 ec3d 7d7a a53d
00000170: be00 02be fe77 bf3d 575f d5bd 3079 67bd
00000180: 5544 8d3d 7b8f 5c3d 7d38 b5bd 2a9f 3d3c
00000190: 7562 703c a1c5 853d 3422 c03d 4fa5 2c3d
000001a0: b620 23bc c5a0 903c ecce 8bbd 074c 1abd
000001b0: f1cd 09be 2714 07bd cccb 82bd 0a42 4e3d
000001c0: 45e1 d53d 8489 bdbd 0e56 d1bb fb54 ae3d
000001d0: 6ac4 bbbc 9d49 bcbd 76a5 4a3d ca21 03be
000001e0: a13d 0b3d 6566 fabd 4584 f83c 450e d53d
000001f0: 9afe 59bd 9717 ccbb a142 b23d f218 2a3d
00000200: ba64 0fbc 87f9 88bd 174f 5b3d 7722 82bd
00000210: fae5 7fbc b963 093d d5b2 c63d 90db d3bd
00000220: b07b d4bd 98fe 333d 12d9 343d c519 553d
00000230: afac a2bd e22e a3bd 5c9a d8bd 63c0 773d
00000240: 034c 363d 4c9a 09be 3ab9 133c 4639 b6bd
00000250: 3790 d63b 6295 4f3c ad58 78bc 40be d83d
00000260: 6a20 0b3d 0133 863d 56d3 2b3d 63ed 0d3e
00000270: d139 213c e3a8 a3bd d1bc abbd e5ce ebbd
00000280: 342c a63d cd53 c83d fcae d83c 1afb a83d
00000290: af8e e53d 0bca b0bd eb88 03bd 9b5a 193d
000002a0: 4fd6 bc3d ea0b 65bd 8b88 d2bd b509 f13d
000002b0: cdf8 53bd f82f 95bc 8bf4 cf3d b86d ec3d
000002c0: aae4 50bd 8ea3 d6bd 935c b33d 31e8 8ebd
000002d0: 7eff d5bd 5ea0 e3bd 917b a23d 2290 2abb
000002e0: 8765 9cbd c8a4 c33d 0f81 183d 8ecf 8fbd
000002f0: 8654 ea3d c060 36bd 6bfa 933c 463d abbd
00000300: ff40 6f3a c6ae de3d 654f 9bbd db06 a43c
00000310: 1f7c 1bbd a0fb dc3c e7f1 e4bb 392b 42bd
00000320: 59a0 cd3d b584 f93d cbec d63c f31c 7e3c
00000330: 0992 6ebb 55e4 edbc 1b73 13bc bea2 e73c
00000340: ea00 8cbd 49dd 893c d2be c53d ecfd d03c
00000350: 3329 7abd fb9b 4f3d 33cc cdbc 1816 03be
00000360: d317 73bc 3253 c43b c606 e3bc 4578 a4bd
00000370: 9e43 0abe ddb1 d63d 2543 cfbd 8ae0 e83d
00000380: df5e 86bd de1b eabd 89bf e3bc caa9 dabd
00000390: 6a71 0dbe 4273 d53d aef4 a0bd 44a3 ce3d
000003a0: f4f6 ec3c 73cc cebc 4d94 9d3d bb88 89bd
000003b0: ce0b e53d 8c2b 99bc 1ddd 8fbd e7f8 80bd
000003c0: 0633 10bd c8e1 133d a724 01be cc5d 953d
000003d0: 65dd 023b aebc 0f3e 44f9 fbbc 949c dfbd
000003e0: 0c1c 813d a6e6 e33b bf14 3a3d a0e3 85bd
000003f0: d4a3 c63d 0e8a c73c 4914 05be 8718 b9bd
0.05925452 -0.12763932 -0.069682725 0.047236267 -0.017321892 -0.07960253 -0.036672357 0.11049799
-0.04764053 0.13214727 0.019416088 0.11385956 0.08667029 -0.00266675 0.0631071 0.016715087
0.0911177 0.06529745 0.09276376 -0.09009009 -0.05995818 0.015022405 0.0206661 -0.10501319
-0.0015431078 0.031464666 0.07742365 -0.08479776 -0.10103074 -0.09575477 -0.09581436 0.06634361
0.07649596 -0.023160223 0.020575834 -0.044515293 0.08100676 0.0058671846 0.10791867 -0.09136989
0.011724667 0.10802183 0.08508509 0.07166714 -0.08131625 0.011042119 -0.12277992 -0.12649964
-0.075928405 -0.050896496 -0.102556445 0.057136793 0.017617667 0.055015896 -0.12160504 -0.0015094451
0.047707204 -0.012796104 0.06640184 -0.029958043 0.11043697 0.058721084 0.06929428 -0.119334556
-0.09689089 -0.03605962 0.022173153 0.09972119 -0.08304352 -0.09335486 0.0086193895 0.10475889
0.05904935 -0.076404884 -0.011919902 0.034952193 0.04931359 -0.04401696 -0.11009576 -0.11239564
-0.04836503 -0.03537618 -0.06403767 -0.009604921 0.056157906 -0.068906344 0.044318717 -0.08379533
-0.06368386 0.106931776 0.11542667 0.080800034 -0.12695596 0.093490586 -0.10418575 -0.056512058
0.06897799 0.05384777 -0.08848665 0.011573592 0.0146719115 0.06531835 0.09381524 0.042149838
-0.009956529 0.017654786 -0.068265766 -0.03767016 -0.13457467 -0.032978203 -0.063865274 0.05035595
0.104433574 -0.09254745 -0.0063884323 0.085123025 -0.022920806 -0.09193728 0.049474202 -0.12805858
0.03399432 -0.122265615 0.030336509 0.10403112 -0.053221323 -0.006228398 0.08704115 0.041527696
-0.008752042 -0.066882186 0.053542223 -0.0635423 -0.0156187955 0.03354237 0.09702078 -0.103446126
-0.10375154 0.04394397 0.044152327 0.05202653 -0.07943093 -0.079679266 -0.10576317 0.06048621
0.044506084 -0.13437766 0.009016329 -0.08897643 0.0065479535 0.012669893 -0.015157861 0.10583162
0.03396646 0.06552697 0.041949593 0.13860087 0.009840445 -0.07991197 -0.08385623 -0.115140714
0.081139 0.09781609 0.026450627 0.08251019 0.11208855 -0.08632287 -0.032112997 0.037439924
0.092205636 -0.055919565 -0.1027995 0.117694296 -0.051750947 -0.01821135 0.10154065 0.11544365
-0.05099932 -0.10480414 0.087578915 -0.06977881 -0.10449122 -0.11114572 0.07933725 -0.0026025851
-0.07636552 0.09552914 0.037232455 -0.0702201 0.11441903 -0.04452586 0.018063745 -0.08361296
0.00091268116 0.10873179 -0.07583503 0.0200228 -0.037960168 0.026975453 -0.006986845 -0.0474045
0.100403495 0.12183515 0.026235959 0.015509832 -0.0036402962 -0.029039541 -0.008999611 0.028275844
-0.06836112 0.01682915 0.09655537 0.025511704 -0.061074447 0.050685864 -0.025121784 -0.12801397
-0.014837223 0.005991363 -0.02771319 -0.08030752 -0.13502356 0.104831435 -0.10120229 0.113709524
-0.06561064 -0.114310965 -0.027801292 -0.10676916 -0.13812795 0.10422374 -0.07859169 0.10089734
0.02892635 -0.025243973 0.07694302 -0.067155324 0.11183892 -0.018697523 -0.07024596 -0.06297474
-0.03520491 0.036103994 -0.12611638 0.07293281 0.0019968387 0.1403682 -0.030758508 -0.10918537
0.06304178 0.0069549857 0.04542994 -0.06537557 0.096992165 0.024357822 -0.1299602 -0.09037881

lstm.weight_hh_l1 f4 [256, 64]
00000000: fe3c 88bd 4765 1fbd 4899 af3d 118b 0bbe
00000010: 561a e3bd 9ec8 e93d d6b7 6c3d 30b4 4f3b
00000020: 9cd9 6dbd 0b2c bcbd 3030 c43c 7f51 dd3d
00000030: 8363 2abc 6a41 0ebd c86f d4bc d091 ec3c
00000040: 360f ff3c cb9c 3e3d a51a f4bd 2ccb ae3d
00000050: 2b7d a63d 148f 023d 605f a9bd 7deb 9cbd
00000060: 9179 ebbd 0a0f 84bd 7333 ecbc 3308 2f3d
00000070: 4215 b2bd f63b 86bd 5078 2d38 ad0a 6a3d
00000080: 3cc5 4ebd a18b d83d 4e12 86bb 3052 ac3d
00000090: 9856 023e 440e 5f3a 9436 6fbd d52b dd3d
000000a0: 384e 803d 2807 05bb 6e41 5d3d 364a 03be
000000b0: 6600 e93c e424 03be bcbe dc3d c424 923b
000000c0: acc8 983c 4188 9b3d b979 9e3d 0776 a63d
000000d0: 3534 e83d 5157 8a3d 6577 bdb9 644d 9abd
000000e0: 7eb6 913d 0c78 95bd bdd6 d33d 87c4 04bd
000000f0: 3ea9 aebd fcbc 783d 67fd 8d3c 95a4 e23d
00000100: a789 09be ba45 a1bd 2299 d73c ee71 babd
00000110: 9a5c a23d dabb a7bd 603b bbbd 787d f2bc
00000120: 264f 1ebd 026f db3d 74e2 05be 0887 923d
00000130: b421 c1bc 93ba 023e 78d6 cabd 7955 b1bd
00000140: 00c7 0eba 969e e53d 1f35 8ebd 0e57 3fbd
00000150: 2d8c 0fbe 823e d0bd e6e4 b9bd 16b8 ffbb
00000160: ef02 853d 9398 543c ccbe bfbd cf46 96bd
00000170: 0ac4 a53d 56ae c53d 5fbf 393d e433 93bd
00000180: b603 6cbd 06b1 2f3d 110d 36bc c8e4 c03d
00000190: edd7 9dbd 9786 93bd c9ca 02bc ae89 6c3d
000001a0: cc56 db3c b002 ddbb 1f8a 9fbd 0089 26bd
000001b0: 3d62 dbbd dde9 993c 909a e13d 93a3 8e3c
000001c0: 80ce 943d 1fd7 783d ada7 7f3c d09a 053e
000001d0: 3e1a fdbd 13e8 6abd eca6 dbbc 95cc a83d
000001e0: 71f1 09bd 61c1 003d f866 97bc 1e3d 943b
000001f0: fbe6 48bc 4c87 f93c 6716 b23d 4d93 9dbd
00000200: 358c febd 1278 11bd f9fc 68bd ff43 4c3d
00000210: 4f7d a0bd a74d 1c3c 59e0 bf3d dcd6 a13d
00000220: c212 a9bd b0a1 703d acd7 b73d b146 663d
00000230: b433 323d 32b4 0a3d 0eba 4e3c 1fec 8abd
00000240: 850b b5bd fee8 33bc d130 2f3d bc99 27bc
00000250: 1be3 7cbc f29d 6d3d ece3 32bd 3d4c 973d
00000260: fd8a 253d 3280 f0bd fb60 9e3d aeab fa3d
00000270: 6351 68bd 0e6b 133d 2146 f3bd 7b1f 913d
00000280: 10d8 e03c ce70 d83c 974a cf3d 70de 34bc
00000290: b31e 64bc 50b7 c4bd d9cb cd3d a76e ac3d
000002a0: d679 cd3c d06b cc3d 7664 22bd a8c2 853d
000002b0: 3359 60bd 9fe1 ed3d 1be8 043e 88eb be3d
000002c0: 7136 efbb 1178 3c3d 11a9 c03d b472 35bc
000002d0: 5cb5 ac3d 7a62 9b3b 4320 d73d 352f 973d
000002e0: ae9f a2bd e8df 543d 1d2f a03d 0e23 da3d
000002f0: ae43 eabd 6ae6 0ebc aa8f d73d b3ab 46bd
00000300: 9a9f cabc 11f1 adbd 9873 313d 5a76 60bd
00000310: 726a 5b3d 5d18 b2bc 4e49 cbbd 5ebc 8fbc
00000320: c7c8 3cbc 1a78 6dbd e672 43bd 2f4d 733d
00000330: c8ec 153d b221 41bc 59a4 ae3d 02ec a43d
00000340: f3ed e93d e125 eaba 621a 30bb 8159 de3d
00000350: 9ad0 80bb 828d 813d 3cfa 28bd f194 7fbd
00000360: 0692 973d b4f2 33bc 2e9c 0bbd 7d47 99bd
00000370: ff3d fb3c 57c5 f93d 7fe6 dc3d 05f3 873d
00000380: 9b3c b83d d7f9 f13d b4be 813d 3928 9cbd
00000390: 9ea2 3d3d 8d8c be3d 680f fabc 136a 28bd
000003a0: 4e1b bebd 42a9 293d 991c 76bc 70eb ec3c
000003b0: ea44 bbbd 291f 7ebc d1da 703d 8061 a4bd
000003c0: 75a3 e53c f0e9 adbd be61 1b3d dbc9 7a3d
000003d0: 7873 2e3c 3a9a a33d 8a95 4a3d 2ed7 dbbc
000003e0: d66d 05be 867f e3bd 157b 8cbc d7b9 c83d
000003f0: caf8 a6bd ed18 34bd 99e2 08bc d60d 993d
-0.06652258 -0.038914945 0.08574158 -0.13627268 -0.110890076 0.11415218 0.057792507 0.0031693093
-0.058068857 -0.09188088 0.023948759 0.1080656 -0.010399702 -0.034730352 -0.025932208 0.028878123
0.031135183 0.04653625 -0.119191445 0.08534846 0.08129343 0.03187473 -0.082701445 -0.07662103
-0.11497796 -0.06448181 -0.028833127 0.04273243 -0.08695461 -0.065544054 4.1358464e-05 0.057139087
-0.050481066 0.10573507 -0.0040915376 0.084141135 0.12728345 0.00085089006 -0.05840166 0.10799376
0.06264919 -0.0020298455 0.054017477 -0.12821278 0.028442573 -0.12807041 0.10778567 0.004459949
0.018650375 0.07594348 0.077380605 0.08127981 0.11338083 0.067549355 -0.00036137845 -0.07534292
0.07114886 -0.07298288 0.103436925 -0.032413986 -0.08528374 0.060727105 0.017332746 0.11066548
-0.13431416 -0.078746274 0.026318137 -0.091037616 0.079278186 -0.08190127 -0.09142184 -0.029600844
-0.0386497 0.107145324 -0.13074666 0.071546614 -0.023575641 0.12766485 -0.09904188 -0.08658881
-0.00054465234 0.112118885 -0.06943726 -0.04671388 -0.14018317 -0.101681724 -0.09076862 -0.007803927
0.064947 0.01297583 -0.093625635 -0.073377244 0.08094032 0.096523926 0.04534852 -0.07187632
-0.057620727 0.042893432 -0.011111514 0.094186366 -0.077072 -0.07203405 -0.007982918 0.05774849
0.026774786 -0.006744705 -0.077900164 -0.040657997 -0.10712097 0.018788273 0.110158086 0.017411983
0.07265949 0.06075203 0.015603942 0.13047338 -0.12358521 -0.05735023 -0.026812993 0.08242146
-0.033677522 0.03143442 -0.018481717 0.0045238873 -0.012262101 0.030460022 0.08695679 -0.07694111
-0.12429086 -0.0355149 -0.05688188 0.049869534 -0.07836401 0.009539998 0.09368963 0.07902309
-0.08255531 0.058747947 0.08976683 0.05621976 0.04350634 0.033863254 0.012617601 -0.06783318
-0.08840088 -0.010980843 0.042771164 -0.010229524 -0.015435006 0.058011957 -0.043674394 0.07387588
0.040415753 -0.11743201 0.07733341 0.122397766 -0.05671824 0.035990767 -0.118786104 0.070860825
0.027446777 0.026420977 0.10121649 -0.011039361 -0.013923335 -0.096052766 0.100486465 0.08419543
0.02508251 0.09981501 -0.03964659 0.06531268 -0.054772567 0.116152994 0.12979166 0.09322268
-0.007300191 0.04601294 0.09407247 -0.011074711 0.08433029 0.004741964 0.105042 0.07382051
-0.07940613 0.051971346 0.07821486 0.106512174 -0.1143869 -0.008721927 0.105254486 -0.04850359
-0.024734307 -0.084932454 0.04332313 -0.05480037 0.05356831 -0.021740133 -0.09926091 -0.017545875
-0.011522478 -0.057975866 -0.047716998 0.05939978 0.036602765 -0.011787819 0.085274406 0.080528274
0.11422338 -0.0017864072 -0.0026871194 0.10856915 -0.0039311172 0.063258186 -0.041254267 -0.0623979
0.07400899 -0.010983158 -0.03408449 -0.074843384 0.03066921 0.12195843 0.10786151 0.06638149
0.089959346 0.11815231 0.06335202 -0.07624859 0.046297662 0.09304152 -0.030524924 -0.041116785
-0.09282552 0.041421182 -0.015021467 0.02892086 -0.09144004 -0.015510359 0.05880243 -0.08026409
0.028032044 -0.08491886 0.03793501 0.06122766 0.010647647 0.07988401 0.049459018 -0.026836004
-0.1303018 -0.111083075 -0.017148534 0.09801071 -0.081529215 -0.043969084 -0.008354806 0.07473342

lstm.bias_ih_l1 f4 [256]
00000000: cd9b c63c 07d9 e7bd f956 65bd d9ca ac3d
00000010: de13 bebc 62a7 36bd eb23 54bd d2aa aabd
00000020: a693 513c 8b3b cdbd f2e9 033e 6e43 8fbc
00000030: c569 ff3c 84da 1a3d 20cd e53d 4631 c23c
00000040: e5be d53c 757f 9abd 64b3 dc3b a739 86bb
00000050: f1e2 14bd 0910 123d 7ec6 c83d f411 4c3d
00000060: 1920 a83d 7231 773d c6b7 c2bc 6e05 d2bc
00000070: 43fa 6cbd 0d91 973d bd0f b8bd 292b 9d3d
00000080: cf24 3cbd 57d4 993d 9c88 123c b608 b83b
00000090: c6de babd db80 b2bc f8b5 a5bd 4a60 91bc
000000a0: 5ea9 fd3d 1dd0 b1bd f6be 91bd 413b a5bd
000000b0: 5f1a c5bd 7c7b 3a3d 6ddd dc3d e307 4e3d
000000c0: 228d 483d 6c36 0f3d a869 cfbd eaab 11bc
000000d0: 8ed5 4fbd 9f91 9bbd 4950 5abd 22c5 83bd
000000e0: c0ff cfbd 0dbb 04be a2ab 8cbd 33ce ac3b
000000f0: 9a3b 393c 681e e1bd 725a cf3d 09ad aebd
00000100: 6b1f 9abd 8e8b dc3d 5081 83bd 2182 c43d
00000110: 09eb bf3d daa7 41bc bec5 1d3d b0f3 cd3d
00000120: 0907 3cbd 5ad5 d5bd cdf4 bf3d 392d 0c3d
00000130: ce93 e6bd 0486 62bd d59e 933c 90c4 08bc
00000140: 92f4 82bc 694d 7dbd 4050 8e3c 209a c2bc
00000150: 189f 07be 1245 a13d cf80 04bd 6408 0a3e
00000160: eb29 84bc 675c 7b3d 2c10 073d 7203 c5bc
00000170: f641 843d fff1 a3bd f130 043e ceb9 843d
00000180: cfa3 9b3c 5191 543d b5ed 303d 37b1 053d
00000190: 71c9 633d 1008 833c fb27 8dbd 795f e5bc
000001a0: 314b 0fbd 0a08 aebd 64d9 b23c 6cb8 703d
000001b0: cd3e c03d 9bf9 e63c 3d29 04be cdf3 403d
000001c0: 1f13 04bd 787b cdbc 3a4e 80bc 0b4e 5e3b
000001d0: 2691 e43d 6491 a53d 10a6 7ebd c5f7 85bd
000001e0: 48fa d5bd f69a 6a3d 744a 763d 3260 193c
000001f0: 6dc0 8abd 0047 373d 8d16 08be 9294 d0bd
00000200: c5a7 97bd 4baa eb3d 0acf 523c 1751 ae3d
00000210: ee25 d93d ac48 d3bd d8e6 f8bd da4e 97bd
00000220: a09c a9bd 35a6 c63d 9b5d 87bd 5ec3 2c3d
00000230: 676b b0bd 5e09 31bd ff55 a0bb 7f36 1cbd
00000240: 41bb 8cbd a7a3 74bd c5c6 f13d 069e f23c
00000250: f8c5 aabc 9f4f 003d 23c8 b9bb 50da 93bd
00000260: 93e5 4d3d a47a debd 02e9 e43d bee9 393d
00000270: 1618 9ebc d1ff a33d f756 893d 74d0 5b39
00000280: 508e 833d ac75 f5bd 7531 96bd 6c5a c0bd
00000290: 8d68 90bd 0bc5 573d f583 b8bd 8dc6 a33d
000002a0: cbb5 88bc 19ff 81bd 5aa0 853d e0f5 b83d
000002b0: fb3d 293c 2b71 883d 4cf4 d53d 30bb ed3c
000002c0: 5834 ffbd c3b0 0b3d 2a80 d4bd a8bc da3d
000002d0: 0a2b cbbd 6039 96bc 9543 1d3c f553 edbd
000002e0: 983e f2bd 95a6 7b3d 558b 4b3b a18c 173d
000002f0: 275f 31bd d119 a1bd 4ca2 4ebd 588d c53d
00000300: eaa2 3c3c 7570 3c3d f087 b83d eef6 e3bd
00000310: 3a7c bfbd 17ca a53d b6df 41bd 81ef b63c
00000320: c25f a6bd 5bd0 953d e834 a6bd 4714 c93c
00000330: 5f65 ad3d 33ed 063e 5b25 df3d b0f5 353c
00000340: f2d2 73bb 605d c8bd 89cb 87bd 3eb7 9abb
00000350: b2b2 e0bd afcd acbc e2e2 0abe 78db f33d
00000360: 78dd 03be 368c 493d 8044 d0ba 3056 afbd
00000370: 623c 9b3c ac2b cf3d 836f 993d dead f53d
00000380: ef87 be3d d8d9 c43d 8a01 e03d ffc3 a93d
00000390: be8f 35bd 4cd5 aabc 7f67 d53d b538 c4bc
000003a0: b742 ff3d 415b 49bd 3891 083c 289e dcbd
000003b0: 5818 69bd 7c8d 4e3d e904 a0bd c77e d63c
000003c0: 6c6d 71bd 4715 74bd 750f a4bd b8d0 d4bd
000003d0: c965 2b3d c753 b9bd 3c56 c23d adc5 513d
000003e0: dd80 263d 74d1 83bd c3dd ae3d ba20 d83d
000003f0: 6d5b 06be 9804 503d 1da5 e03d 4e05 89bd
0.024244213 -0.113206916 -0.055991147 0.084371276 -0.023202833 -0.044593222 -0.051792067 -0.08333363
0.01279155 -0.100211225 0.12882212 -0.017488208 0.031178365 0.03780605 0.11220765 0.023705136
0.026092002 -0.07543842 0.006735252 -0.004096228 -0.03634924 0.035659824 0.098034844 0.04982181
0.08209247 0.06034989 -0.02376927 -0.025637355 -0.057855856 0.07400713 -0.08987377 0.07674248
-0.04593354 0.07511204 0.008943703 0.005616273 -0.09124522 -0.021789959 -0.080913484 -0.01774611
0.1238582 -0.086822726 -0.07116501 -0.080679424 -0.096241705 0.04552792 0.10784421 0.05030049
0.04896272 0.03496401 -0.10127574 -0.008891085 -0.05074077 -0.075961344 -0.053299222 -0.064340845
-0.10156202 -0.12961979 -0.06868674 0.0052736043 0.011305714 -0.10992128 0.10124673 -0.085290976
-0.07525524 0.107688054 -0.06421149 0.095951326 0.09371001 -0.011819804 0.03851866 0.10056245
-0.045905147 -0.10441084 0.09372864 0.034222815 -0.1125866 -0.05530359 0.018020073 -0.008347645
-0.01598576 -0.061841402 0.01737225 -0.023755133 -0.13244283 0.07874502 -0.032349404 0.13479763
-0.01613327 0.06136742 0.032974407 -0.024049494 0.064578936 -0.080051415 0.12909295 0.06480752
0.018999008 0.051896397 0.043195445 0.03263971 0.05561203 0.015995055 -0.06892391 -0.027999626
-0.034983817 -0.08497627 0.021832176 0.05876963 0.09386978 0.028195193 -0.12906356 0.047107507
-0.032244798 -0.025083289 -0.015662301 0.003392103 0.11160497 0.08084372 -0.06217009 -0.06541399
-0.10448128 0.05727669 0.060129598 0.009361314 -0.067749836 0.044745445 -0.13289852 -0.101845875
-0.074050464 0.1150709 0.012866745 0.085115604 0.10602938 -0.103165954 -0.12153405 -0.073880866
-0.08281827 0.0969967 -0.06609651 0.042178504 -0.08614235 -0.043221824 -0.004893064 -0.03813791
-0.06871653 -0.059726384 0.118054904 0.029616367 -0.020846352 0.031325933 -0.00566961 -0.07219374
0.050267767 -0.108632356 0.11177255 0.04538893 -0.019298594 0.080077775 0.0670604 0.00020963122
0.06423628 -0.11985335 -0.07333652 -0.093922466 -0.070511915 0.05267815 -0.09009544 0.07996855
-0.016688248 -0.06347484 0.06524725 0.09031272 0.010329719 0.0666221 0.104469866 0.029019922
-0.12461156 0.03410412 -0.10376008 0.106805146 -0.099203184 -0.018337905 0.009598632 -0.11588279
-0.11828345 0.061438162 0.003105839 0.03699935 -0.043303635 -0.07866252 -0.050447747 0.096461
0.011513451 0.046005685 0.09010303 -0.111310825 -0.09349866 0.08095186 -0.047332488 0.022331001
-0.08123733 0.07315131 -0.0811556 0.024545802 0.084666006 0.13176422 0.10895797 0.01110594
-0.003720459 -0.09783435 -0.06630618 -0.004721551 -0.109715834 -0.021094171 -0.13563111 0.11907095
-0.12877452 0.04920598 -0.0015889555 -0.08561361 0.018949691 0.101157516 0.07491972 0.11996053
0.09303271 0.09611863 0.109377936 0.082893364 -0.044326536 -0.020853661 0.10420131 -0.023952821
0.12463897 -0.049159292 0.008335404 -0.107723534 -0.05690798 0.0504279 -0.078134365 0.026183499
-0.058942243 -0.059590604 -0.08010761 -0.103913724 0.041845117 -0.090491824 0.09489104 0.05121391
0.040650237 -0.064364344 0.085383914 0.10553117 -0.13120814 0.05078563 0.10968993 -0.06690465
