artifacts/SKU_05/model.pt (torch, 219227 bytes, 12 tensors)

lstm.weight_ih_l0 f4 [256, 10]
00000000: ab88 2fbc 4262 9ebd 29f6 c3bd e6e8 be3d
00000010: 78db 003e 250b 85bd d146 61bd 47e8 333c
00000020: 61b7 483c 325f e03d efef 99bb 951b 0fbd
00000030: 8218 a9bc 7df2 b6bd b945 e23d 7704 aabd
00000040: efbb 003d 7551 853d 1bf2 97bd 6c34 a3bc
00000050: d58e 83bd c6dd 00be aabc 013c c902 69bd
00000060: 2224 523d 8741 afbc 6f58 8d3c 21eb bfbd
00000070: 09f4 eabd 21f6 743d c6cd 7fbd 9bbf 023d
00000080: c642 b0bc f3d2 9c3d 228e 863d 3e3f 71bd
00000090: 2b03 1cbd 1424 ae3d 306e bfbd b31d 0ebd
000000a0: 0f43 403d 9be9 eebd 9509 9e3c 5427 d3bc
000000b0: e14a 8abd 8314 913d 2998 a43d c903 813c
000000c0: 6486 933d 14d2 1a3d 092b 873d 7a57 0a3c
000000d0: ad2a c1bd bbae b23c 638c 7bbd 30dc aabc
000000e0: 149e b23d cd4b bcbd 4bea a83d 4a7d 9f3d
000000f0: 2283 b63d 2ae5 b13d b34f 0bbd 7afc 4b3d
00000100: 1d05 123d 4efd 2abd 469d ff3d b351 44bd
00000110: 133c e53d 71a3 843c 7768 023e e794 8bbd
00000120: 21f3 893d 19ab 693d 34ec c73d 2c2d 82bb
00000130: 1694 73bd 4f89 4f3d bf11 e73d 0c32 aeba
00000140: 13c5 353d c713 b73d 0168 5c3d 2f12 22bc
00000150: 0630 d23c 7873 383d 4016 b83d f510 27bc
00000160: 30ae 6d3d 5f2d 473d 0e8e 133d 1763 d7bd
00000170: 93f5 bc3d 0135 ca3c c17d 89bd c5ce bfbd
00000180: 7c27 ddbd 9318 913d 422e e8bd 6458 643d
00000190: 9478 013e e201 8c3d a9ea d8bd 6d8c fcbc
000001a0: d3d3 62bd c3e0 aabd 8317 c6bd 2eaf e13c
000001b0: 9ba4 013d 3eec 513d 901e b83d c570 983d
000001c0: 7818 8dbd cf81 0ebd bd0f 7d3c fdc6 49bd
000001d0: 564e c93d 55b4 4fbd b468 c33c 11cc e53c
000001e0: 8491 473d ea1e 843c 0f10 323b 73a4 95bd
000001f0: 09ba 7ebd 84b6 fdbc d351 0e3d 3188 26bc
00000200: 6991 9c3d 197e fb3d 02b9 8fbd be34 fbbd
00000210: 1085 d53d 772f 48bd 442c 28bd eb69 773c
00000220: ff1a 903d ed6b e93c e08c ecbc 980f 19bd
00000230: e787 493d 750b 813d d94a 083e 069a d63d
00000240: 233e f9bc 8794 703d 00f6 f436 9f37 cabd
00000250: 27b1 193d f08a bf3d 141c fcbd 9399 5f3d
00000260: 4cac 9e3d 1395 d83d b2ba c1bc b5e0 d73d
00000270: 7d95 343d 4a80 eebd 033f 4b3d 34e1 ff3b
00000280: 6afc 03be 202d b83c 4038 c23d ae3a 3a3d
00000290: 8798 de3d a3dc 3fbd a933 1e3d d750 95bd
000002a0: 827d 01be c11e 53bc cf6d 7a3d 9087 f1bc
000002b0: 529b 91bc 68fe d93d 5952 e43c d103 67bd
000002c0: 5405 653c f2db bd3b 1cfd c6bd f755 ae3d
000002d0: 9250 643c c413 c9bd d962 acbc 7879 c83d
000002e0: be51 d0bd aa0e c13d 3eab f1bc 75dd 9fbd
000002f0: f7d3 6a3d 0448 ddbd 63b6 b0bd d8e9 05bd
00000300: 81a2 083e e1d4 b0bd a7ee d1bd c1af f03d
00000310: 2b98 b33a d89b bebd 5045 3b3c aed9 cebd
00000320: bdae 653d d061 f9bd 8fbd 593d bbc7 703d
00000330: 12e9 a83d 53b1 b4bd afd5 f33d 6528 d5bd
00000340: 0efa 393c 2eaf b3bd 431b 44bd 6570 823d
00000350: 25d4 a23d 3bfc 1cbd d0c3 92bd 149d afbc
00000360: 0e6b 85bd 9f3c 65bd 24aa 873c cd30 853d
00000370: 1759 3e3d 2491 bfbd b95b ec3d a5a6 e03d
00000380: cab0 bb3d 52e9 3cbc 70b8 753d bb2e b93d
00000390: aeaf 94bc 4d3d 5b3d ec17 fdbd 3ee2 00bd
000003a0: 7b24 e13d 4674 bfbd 2580 5dbc a9e7 463d
000003b0: b1fa adbc 68a8 ab3c a1ca 94bc a79c f33d
000003c0: bd30 0ebd 3b9b ecbd f444 1dbd 257b 9ebd
000003d0: 83c1 2ebd ca2b 5cbc 0f3e 953d 37c4 793d
000003e0: 1a1e 613c 7632 09be 71b5 e53c 085b 72bd
000003f0: 32ca e0bd 1606 39bd 1292 4a3d f063 e5bd
-0.0107137365 -0.07733585 -0.09568436 0.093217656 0.1258372 -0.06496266 -0.054999176 0.010980672
0.012250752 0.10955657 -0.0046977918 -0.034938414 -0.020641569 -0.0893297 0.11048455 -0.08301633
0.031429227 0.06509677 -0.07419225 -0.019922458 -0.064237274 -0.125846 0.007918516 -0.05688742
0.05130399 -0.02139355 0.017254082 -0.09371019 -0.11472327 0.05980504 -0.0624521 0.03192101
-0.021516215 0.07657423 0.065700784 -0.058898203 -0.03808896 0.08502975 -0.093471885 -0.034696292
0.046938952 -0.116656505 0.019291678 -0.025775589 -0.06752563 0.070839904 0.08036835 0.015748875
0.07203367 0.037798002 0.06600005 0.008443708 -0.09431968 0.021811834 -0.06141318 -0.020856947
0.08721557 -0.09194145 0.08247813 0.07787569 0.0891173 0.08686288 -0.034011554 0.049801327
0.035649408 -0.041745476 0.124811694 -0.047929477 0.11193099 0.016191216 0.12735163 -0.0681551
0.06735826 0.057047937 0.09761849 -0.00397267 -0.059467398 0.050668057 0.11282682 -0.0013290062
0.044377398 0.08939319 0.053810123 -0.009892031 0.025657665 0.045031995 0.08988619 -0.010196914
0.058027446 0.048627254 0.036024146 -0.10516947 0.09226527 0.024683477 -0.06713439 -0.0936561
-0.10798547 0.07084765 -0.11336948 0.05574836 0.12643653 0.068362966 -0.10591633 -0.030828679
-0.055377793 -0.08343651 -0.09672453 0.027549352 0.03165112 0.05125069 0.08990204 0.07443384
-0.06889433 -0.034791764 0.015445647 -0.049262036 0.098293945 -0.050709087 0.023853637 0.028051408
0.04872276 0.016128022 0.0027170216 -0.07306757 -0.062189136 -0.03097082 0.034746002 -0.0101643065
0.07644922 0.122799106 -0.07017709 -0.12265919 0.1042577 -0.04887339 -0.04105784 0.015100936
0.07036399 0.028493846 -0.028875768 -0.037368387 0.049201872 0.063010134 0.13309802 0.104785964
-0.030425137 0.058735397 7.300405e-06 -0.0987389 0.03752246 0.09352672 -0.12310043 0.05458982
0.07747707 0.10575309 -0.023648594 0.10540906 0.044087876 -0.11645563 0.04962064 0.0078088287
-0.12889257 0.022482455 0.09483385 0.045466118 0.10868936 -0.046841275 0.038623486 -0.072908096
-0.12645534 -0.01288575 0.061139878 -0.029483587 -0.017774258 0.10644227 0.027871298 -0.056400124
0.013978321 0.005794042 -0.097162455 0.0851249 0.013935225 -0.09818223 -0.021043228 0.09788793
-0.10171841 0.09426625 -0.0295006 -0.078059115 0.05733105 -0.108047515 -0.086285375 -0.032693714
0.1334324 -0.086343534 -0.102505974 0.117522724 0.0013701966 -0.093070686 0.0114301 -0.10100113
0.056074847 -0.121768594 0.053159293 0.058784228 0.0824758 -0.088228844 0.11905991 -0.10408095
0.011351122 -0.08773647 -0.04787756 0.06369094 0.079506196 -0.038326483 -0.071662545 -0.021437205
-0.0651456 -0.055966016 0.016560622 0.06503449 0.04647168 -0.09353855 0.11540932 0.10969285
0.09164579 -0.011530237 0.059990346 0.09042116 -0.018150177 0.053525258 -0.12358078 -0.03146576
0.10993286 -0.09348349 -0.013519322 0.048560772 -0.021237703 0.020954326 -0.018163027 0.118951134
-0.03471445 -0.11553045 -0.038395837 -0.07738332 -0.042665016 -0.0134381745 0.07287227 0.06097814
0.013740087 -0.13398156 0.02804062 -0.059168845 -0.10976066 -0.04517182 0.04945571 -0.11200702

lstm.weight_hh_l0 f4 [256, 64]
00000000: 97d4 3abd 815d 1a3d be66 cdbd 5f16 083e
00000010: 3e40 193d 213d 783c 7925 003e c62c b6bd
00000020: d4ac f1bd 77f8 aebc b172 86bd 59d5 d8bd
00000030: 73d9 75bc 0873 143d 1fa3 953d 8b55 29bd
00000040: afe4 97bd c388 fb3d 48de cb3c e47e ad3b
00000050: e7b1 82bd a678 a33d 05e2 b8bd 4409 813c
00000060: 5893 cdbc 34e9 16bd 36ac a9bd e766 8fbc
00000070: cfdc d23d 2a96 df3b 88fa c1bd 9807 66bd
00000080: 5a4a b83d 1574 94bd 3d9c 7fbd 1829 94bb
00000090: 18da 373d 1205 723d 363b 2e3d 4e8f 1cbd
000000a0: 3c00 1bbd b628 9f3d 450f ea3d 10cb 06be
000000b0: f2e6 043e efe1 973d d32e ee3b 0cc3 cb3d
000000c0: 40fa eebd 921b 573c 181c c2bd 0a31 70bd
000000d0: 14be adbc e976 cd3d 3f05 f7bd c24a 42bd
000000e0: 2959 9c3d 1667 c5bd 3dd2 213d c1e9 51bc
000000f0: 3b0e 713c 9eff 94bd 401f a5bd 0df8 e33b
00000100: e671 dc3d 4c8f b5bd 6191 b43c 1b68 d8bc
00000110: 5a53 223d 56a8 cabd d559 8a3d 96ee 95bd
00000120: f422 a83d 4081 053b c5b1 9d3d 2045 843c
00000130: a7e0 313c 0ee4 afbd 107b 99bd df99 0f3e
00000140: b1be bbbd a7a3 c7bd ac57 72bd cd68 ebbc
00000150: 9ac2 683d 3b79 12bd 52c8 0b3e ecc2 eebd
00000160: acf4 333d cb75 36bd 069f efbc c13d 11bc
00000170: 99be abbd 1146 a53d aa6f b73c b0b2 e03c
00000180: 6481 23bd 22c1 5f3d f2cf 6bbd 9a66 14bc
00000190: 858e cb3c 8fb9 0b3e b699 d5bd 94a6 ff3d
000001a0: 3759 aa3d e8fc 9c3d c67e 6d3d 4b7e ca3d
000001b0: 0756 a13d e55c 803d a3a3 4dbd a982 1c3d
000001c0: 9cc4 c9bd 62a3 abbc 8222 ec3b a533 163d
000001d0: 0fd9 d5bd e506 e93c 40b2 173c 615b 083e
000001e0: cab1 203d bb68 d3bd 4acb 33bd ff55 f5bd
000001f0: ef0d f73d 1d84 b5bd 3118 81bd 87a0 5d3d
00000200: 4ba6 a53d 1ba3 703d 51d6 a5bd b03e d7bd
00000210: 7906 afbd 3bf9 59bd b587 80bc c1f4 b6bb
00000220: 893f 933d 7a81 1cbd c038 023d 7768 573d
00000230: c387 a03d 67cc 1dbd b305 e13d ae03 24bd
00000240: b4d5 633d 50d3 2cbd e4c5 4cbd 8016 e93d
00000250: a6cd ecbd 8947 023e b51a 9cbd 4c84 973c
00000260: 91bf abbc b2be 7bbb be1d 9e3d c323 923d
00000270: d0fd e3bd 8dd4 4abd 8414 6abd b358 c13d
00000280: 0aa1 fc3d 7c91 6a3c 2c35 0e3d edc9 f1bd
00000290: 506a 9139 3fe4 023e 4915 89bd 65fc bdbc
000002a0: 37a7 b5bd 616c 313d f2d8 a0bd 8dc9 10bd
000002b0: 7f75 bebd c1cf f03d cf07 4fbd c50f dc3d
000002c0: 0dae 7bbd 1813 883d ccd2 273d 3416 2a3d
000002d0: 6296 44bd f753 c03c 29ff 8ebd d84b 143d
000002e0: 19c1 ccbd 4db4 aa3d 59bd febd c050 383d
000002f0: f97c 5cbd b033 1cbd 585c c33d 3991 98bc
00000300: 882a 05bd ea08 b73d ac74 a83d 9eb9 a1bd
00000310: 8278 033d 8bbd 973d 5dce 973d a171 c63d
00000320: 3e03 9dbd cbe7 9e3d b38c 953d eae5 b53d
00000330: 1e22 3ebd 6608 5e3d b89d 923d 2711 e6bd
00000340: 4621 f73d a6aa e83c c052 bc3d 1df6 213d
00000350: e268 773c 739d 513c 28a9 fc3d 5988 483d
00000360: a74a 4e3d 2a13 393d ab8e e93a c431 af3d
00000370: fe9c 9cbd 8aa5 513d 45a9 803d fab3 ecbd
00000380: 9aa1 b03d 7dde 2c3c 2ca6 513d 6bcf 9c3d
00000390: 4f3d 4f3b aec8 49bc f491 103d 8227 11bc
000003a0: d4fd c1bd 72e3 9b3c d61d 4a3d 0466 cfbc
000003b0: 8abc cdbd e4dd 383a f28a f03b 36d1 81bd
000003c0: ad42 de3d 01c9 eebd 43e5 383d 893d c2bd
000003d0: 6969 cb3d 5d65 173d 7a3b 74ba fcbf 903d
000003e0: f46d 3d3d dc26 bc3c d016 e1bd 0bd8 ee3d
000003f0: 5b26 533d ee35 1ebd c20e fdb9 b88d 8bbd
-0.045612898 0.03768683 -0.10029362 0.13289784 0.03741478 0.015151293 0.12514295 -0.088952586
-0.118005425 -0.021358712 -0.065648444 -0.10587568 -0.015005457 0.036242515 0.073065035 -0.041341346
-0.07416665 0.122819446 0.024886265 0.0052946676 -0.063815884 0.07981996 -0.09027485 0.015751489
-0.025094673 -0.036843494 -0.082848 -0.017505122 0.10296022 0.006823321 -0.09471613 -0.056159586
0.089985564 -0.072487034 -0.06240486 -0.0045215003 0.044885725 0.059086867 0.042536937 -0.038222603
-0.03784202 0.07771437 0.11428694 -0.131634 0.12978724 0.0741614 0.0072687655 0.099493116
-0.11668825 0.013129132 -0.09478015 -0.058640517 -0.0212088 0.10032446 -0.120615475 -0.047434576
0.076341935 -0.09638803 0.03950714 -0.012812079 0.014712865 -0.072753176 -0.08062601 0.00695706
0.10763912 -0.08865222 0.022041978 -0.026416829 0.03963027 -0.09895389 0.06755415 -0.07320897
0.08209792 0.0020371228 0.076999225 0.016146243 0.010856784 -0.0858842 -0.074941754 0.14023541
-0.09167231 -0.09748011 -0.05916564 -0.028736496 0.05682621 -0.035760146 0.13650635 -0.11658272
0.04393451 -0.04454593 -0.029250633 -0.008864821 -0.08385963 0.08070005 0.022392113 0.027428955
-0.03991832 0.054627545 -0.05757136 -0.009057665 0.024848232 0.13645004 -0.10429709 0.12482944
0.08317798 0.076654255 0.05798223 0.0988737 0.078777365 0.06267718 -0.050204884 0.038210545
-0.098519534 -0.02095193 0.007206262 0.036670346 -0.10441791 0.02844567 0.009258807 0.13316108
0.039232053 -0.1032271 -0.043895043 -0.11979293 0.120632045 -0.08863089 -0.06303442 0.05410817
0.080883585 0.0587493 -0.08097518 -0.105100036 -0.085461564 -0.0532162 -0.01568971 -0.005583376
0.07189853 -0.038209416 0.031792402 0.05258986 0.078383945 -0.03852501 0.10987415 -0.04004257
0.055623725 -0.04219371 -0.04999341 0.11381245 -0.11562662 0.12722601 -0.076222815 0.018495701
-0.02096537 -0.0038413224 0.077205166 0.07135727 -0.11132395 -0.04951911 -0.05714847 0.09440746
0.12335403 0.014316913 0.034718677 -0.118060924 0.00027735764 0.12782381 -0.06693513 -0.02319164
-0.08869784 0.04331625 -0.07853879 -0.035348464 -0.09299754 0.11758376 -0.050544556 0.10745195
-0.061445285 0.06644267 0.040972516 0.04152508 -0.04799498 0.023477538 -0.06982262 0.036205143
-0.09997768 0.08335171 -0.12438459 0.044998884 -0.05383012 -0.03813523 0.095390975 -0.018623935
-0.032511264 0.08937247 0.082253784 -0.07896732 0.032097347 0.07409199 0.074124075 0.09689642
-0.07666634 0.07759055 0.07302227 0.08881743 -0.046419255 0.054207228 0.07158989 -0.1123374
0.12066893 0.028401684 0.09195471 0.039541353 0.01510069 0.0127938865 0.123369515 0.048958156
0.050364163 0.045184292 0.0017819008 0.08554414 -0.076471314 0.05118326 0.062822856 -0.11557765
0.08624573 0.010551092 0.051183864 0.07656749 0.0031622236 -0.012315912 0.03529544 -0.008859517
-0.09472242 0.019029353 0.04934486 -0.0253172 -0.100457266 0.0007052107 0.0073407823 -0.06338732
0.10852561 -0.11659432 0.045140516 -0.09484393 0.09932215 0.036961902 -0.0009316724 0.07067868
0.046247438 0.022967748 -0.10990679 0.11662301 0.05155025 -0.03862565 -0.00048266916 -0.0681414

lstm.bias_ih_l0 f4 [256]
00000000: 84e6 4dbd 528e a1bd 0d3a 183d 9ebb 6e3c
00000010: 13d8 51bc e4e0 d83d 053c 903d 5bfe 1a3d
00000020: 6a23 4b3d fe47 abbd bca8 8ebd a9a7 653c
00000030: 997c cdbc afb9 ecbc 6279 c5bd da8f 50bd
00000040: 207a 393d 10b2 8c3d ca43 ae3d dabe d6bc
00000050: 6229 a93d 704d 5a3d 5d20 033e 2758 2a3d
00000060: 839a f03d ef27 87bd 8467 c8bd e7e2 a63d
00000070: 9b68 623d 2e4c b6bd faf5 963c 1b45 4e3c
00000080: 471f b1bd 567c cd3d e7f0 d03d 2c7f 053d
00000090: 2440 0fbd be50 9b3d 7aa9 77bc 7a6b 64bd
000000a0: ab87 063c 70ba 4bbd ff58 103d 8a78 923c
000000b0: 619d af3d 9371 863d d715 51bd 521c 66bc
000000c0: 8514 c2bd aebd a23d 2229 32bd 0a98 f63d
000000d0: 4bb4 9abd d94b 953d 948b 853d 88e9 643d
000000e0: ad55 833c a07a c9bb 110f 313c af13 acbd
000000f0: adf6 413d f9b3 cbbc ef2b 8ebd d85c 67bd
00000100: 5f21 7ebd ad1a cf3c 296d ad3d 4e8f 22bd
00000110: 1ba7 74bc bb0e 04be 0951 85bd 9d69 49bd
00000120: d80b 58bc 67d8 083e 3e97 a9bd 048b c93d
00000130: 5efa 83bd 0ba8 74bd 7b02 94bd 26a3 d53d
00000140: 60c1 c5bc fd52 e43d dd17 abbd 651c 723d
00000150: d69c 043e 69b5 4d3d 2943 3a3d 0f43 d83d
00000160: a6c6 0f3e a7ed 4a3d c90c a53d 04e0 bdbd
00000170: c86a 473d 1c68 0d3e 604a 48bd 49f2 663d
00000180: d3bb d53c d169 073d eed4 ff3d b031 a33d
00000190: a0cc 2a3b 5240 a33c e259 9fbd e4bc 8c3d
000001a0: cc64 9b3d 3463 c63d 9e61 34bd 7182 85bd
000001b0: b500 a63d ad14 c9bd 8a80 81bd 8009 9d3c
000001c0: ad38 ec3c bf51 683c deea e3bd eb0e bfbd
000001d0: 5218 90bb 85bd 1d3d fe39 eb3c 8242 89bd
000001e0: da4b 7c3d 713f 623d b1eb abbd 664d be3b
000001f0: b291 a3bd dcda 4a3d 6c60 c33d bfb2 35bd
00000200: 9522 cf3d a4e8 a93c d99c a53b b40f a2bd
00000210: 06fe 173b 38e1 0eba cd7c 2f3d 216e a03d
00000220: ff7c a1bd b046 9f3d 2782 c83d 1bb8 2fbd
00000230: cfdf 383d b8c6 6a3d 313d cdbc ce21 fdbc
00000240: 3880 dfbc a6dd 4ebd 8a4a adbc 4ee7 cfbd
00000250: dc40 8e3c ef9e b6bd c35b 95bd c8a5 d53d
00000260: dbe7 3dbc 4695 70bd eab1 873d e2c5 183d
00000270: f3ed c03d 6f20 babc 043a f03d a6a7 36bc
00000280: 6057 0e3c 0afa edbd 606a d1bc 747d ee3d
00000290: dc82 6ebc 109d bb3d e91f 413d 5d93 82bc
000002a0: 5081 58bd 5312 c6bc 8358 903c 9af9 72ba
000002b0: 53f9 e83d 227e 8dbd 38a1 c5bd 7acc b23d
000002c0: 9615 a13d 94ca 9b3c b960 afbd d3bf 06bd
000002d0: ea28 c3bd 596f d4bd 8bc0 9b3d 7162 5fbc
000002e0: e161 cf3d a876 bcbd 1f4d f93c 0cae 9f3d
000002f0: 2f92 09bd 12cb a0bd d9b9 e2bd dd60 d03c
00000300: d041 523d 33dc da3d 10b0 e83d 4bcb 5cbc
00000310: 6c2e d23d 6a26 04bc 0288 d13d b440 be3d
00000320: 77dc b2bd 04d0 bdbd f1de 153d 7807 a5bd
00000330: a66b 613c eaf8 893d 87fd b13d 7676 993d
00000340: 7a34 b63d 967b 00bd 8edf b53c ca3a b7bd
00000350: 4650 9fbd e1a6 5ebc d32b 693d 2554 b8bd
00000360: 5bd8 f53d 98a5 abbc 3968 603d b3a7 4d3d
00000370: 9fa3 8abd 1f05 ae3d e245 37bd b945 2a3d
00000380: 53c1 863d 3170 ddbc 4bbe acbd a3d0 fbbd
00000390: a205 163d 4aad bcbc 304e a03d ca9f 443d
000003a0: 39d5 763d f40f da3d b51d d23c 4647 0cbd
000003b0: f845 bc3d 7898 dcbd a8f7 a33d 53da 2d3d
000003c0: 1714 e33d ee38 85bd 2a20 103d c7ff 9ebd
000003d0: f8a5 1cbd 7eb5 06bc 0be4 a2bd 8331 56bd
000003e0: df96 fe3c d76f 75bd f550 323c ecd6 a6bb
000003f0: 62a2 7fbb 3ad0 b23c ec7c 6838 fabf 2d3d
-0.050268665 -0.078884736 0.037164737 0.014571099 -0.012807864 0.105897695 0.07042698 0.03784023
0.04959432 -0.08363341 -0.06965777 0.014017024 -0.025083827 -0.028897135 -0.096422926 -0.050918438
0.045282483 0.068699 0.085090235 -0.026214052 0.08259846 0.053296506 0.12805314 0.041587975
0.11748221 -0.065994136 -0.09785369 0.08148747 0.05527554 -0.08901249 0.018427838 0.012589718
-0.08648544 0.10033481 0.102021985 0.032591984 -0.03497328 0.0758376 -0.01511609 -0.05576656
0.008211057 -0.049738348 0.035241123 0.017879743 0.085749395 0.06564631 -0.05104622 -0.014044838
-0.0947657 0.07946335 -0.04349626 0.12040718 -0.075539194 0.072898574 0.06520763 0.055886775
0.016032064 -0.0061486512 0.010806815 -0.08402192 0.04735439 -0.024866091 -0.069419734 -0.056485027
-0.062043544 0.025281275 0.08468086 -0.039687447 -0.014932419 -0.12896244 -0.06509597 -0.049172986
-0.0131864175 0.13363801 -0.082808 0.09840968 -0.06444238 -0.05973057 -0.072270356 0.10431509
-0.02414006 0.11148641 -0.08354161 0.05910911 0.12950453 0.050221834 0.045474205 0.105596654
0.14040622 0.04954305 0.08059079 -0.09271243 0.04868582 0.13809246 -0.048899055 0.056383405
0.026090538 0.0330599 0.12491785 0.079684615 0.0026061907 0.019928131 -0.07780816 0.068719655
0.07587585 0.0968689 -0.044038408 -0.0651902 0.081056036 -0.09818397 -0.06323345 0.019169569
0.028835619 0.014179646 -0.11128782 -0.09329017 -0.0043974305 0.038510818 0.028714176 -0.067021385
0.061595775 0.055236284 -0.08394564 0.0058075665 -0.079867736 0.049525127 0.095398754 -0.04435992
0.10114018 0.020740815 0.005054098 -0.079131514 0.0023192181 -0.00054504303 0.04284363 0.078335054
-0.07885169 0.077771544 0.097904496 -0.042900186 0.045135316 0.05731842 -0.025053592 -0.030899908
-0.02728282 -0.05050435 -0.021153707 -0.1015154 0.017364912 -0.08917033 -0.07292893 0.10432011
-0.011590923 -0.05873611 0.06625731 0.03729809 0.09420385 -0.022720544 0.117298156 -0.011148369
0.008687824 -0.11619957 -0.025563419 0.11645022 -0.0145575665 0.09160817 0.047149573 -0.015939409
-0.052857697 -0.02417866 0.01762033 -0.0009268761 0.1137568 -0.069088235 -0.09649891 0.08730407
0.07865445 0.019017495 -0.0856337 -0.03289778 -0.09529288 -0.103728004 0.07605084 -0.01363431
0.10126091 -0.092023194 0.030432282 0.07796869 -0.033586677 -0.078512326 -0.11070604 0.025436813
0.051332295 0.10686531 0.11361706 -0.013476203 0.102627605 -0.008065799 0.102310196 0.09289685
-0.087334566 -0.092681915 0.036589567 -0.08058065 0.013758576 0.0673693 0.08690935 0.07493298
0.08896728 -0.03136786 0.022201326 -0.0894676 -0.07778983 -0.013589592 0.05692656 -0.09000424
0.12004157 -0.020952985 0.054786894 0.05020876 -0.067694895 0.084970705 -0.04474438 0.0415704
0.065798424 -0.027031036 -0.08434733 -0.12295654 0.036626466 -0.02303185 0.07827413 0.04800395
0.06026194 0.10647574 0.025648931 -0.03424766 0.09193033 -0.107712686 0.08006221 0.04244454
0.11087816 -0.06504999 0.035186924 -0.077636294 -0.038244218 -0.008221982 -0.07953652 -0.05229331
0.0310778 -0.059921112 0.0108835595 -0.0050915387 -0.00390067 0.021827806 5.5429453e-05 0.04241941

lstm.bias_hh_l0 f4 [256]
00000000: bba9 c7bd 981e c43d 49bc 873d c3f5 2f3d
00000010: 3188 b2bc a252 92bd bf45 df3d 4ad3 773d
00000020: b545 a43a 74ae b6bd a9d0 823a 86f3 1dbd
00000030: 0d8d a0ba b39e a0bd ddfd 9e3c 20fb 933d
00000040: 5878 aa3c 0b19 56bd 5817 d53d 3b4c 783d
00000050: 0897 033e 5022 ad3d 24d8 aabd c9e3 11bd
00000060: a21d 39bd 3b91 703c 6a7f a6bd 1bb5 8fbb
00000070: ec96 843d 3beb 9b3d c3ef 173c 11b7 c23d
00000080: 32f4 42bd 5a88 dabd 6308 d53d 3ec9 003c
00000090: e92b f23c bffa 30bc b22e 063e 6dd1 8c3c
000000a0: 0536 013e 3980 c93d e754 073d aaae f33c
000000b0: 69de b4bd 95bd 26bc 8f3a 64bd 9ed0 ddbd
000000c0: 0310 97bd 4ad6 e93d 7e7a 943b 8403 603d
000000d0: 4c47 793c c9aa 24bd c8c7 953d eced 50bd
000000e0: 07cb 063d 3c37 aabd be40 a8bd 43bc a13d
000000f0: c480 a13d 4f5e d43d 1db0 cbbd d6e4 593d
00000100: 1d95 f33d f803 173c 7da6 16bd d91f a03d
00000110: edc3 7dbd 4167 debd 35a4 6bbd 3281 15bd
00000120: d103 793d 62d2 c2bd 06c3 42bd 9eed c33d
00000130: 9e3f b4bd fd34 f4bc 7cf4 de3b fe44 b23b
00000140: 288e 703d 05b8 c43d 0c8f 423d 6ce2 963d
00000150: fee5 71ba 0c45 113d a79b 3cbd 63c6 81bd
00000160: 4864 91bd 7867 56bd 7884 7a3d 4a51 613d
00000170: 1ff5 e03b 5adf 003d 4828 bfbd 4d7d 5f3d
00000180: 0d07 853d 3510 033d 5aa5 e13d fcc2 a2bd
00000190: 0a48 cc3c dd5d 3dbd 1a5e f83d e090 17bd
000001a0: 471d 85bd 505d a6bd 79ce c33d f351 d8bd
000001b0: f227 963b 8b3a e13d 8be2 6ebc 1013 a53c
000001c0: bc07 debd 67a7 fc3d 9430 32bd 6e2f 14bd
000001d0: f462 91bc 522f eabd 0601 c53d 843d 7bbd
000001e0: 6199 c53d 6156 d73d 85e2 afbd 3861 93bd
000001f0: b4d7 d5bd 9e27 ad3a 19a6 73bd 5bc1 18bd
00000200: 9ae0 643d 6c72 dd3d 25b3 c53d 4ea1 e13d
00000210: dcc7 423d 94d5 7dbc 03ba cf3d cf54 a4bd
00000220: 997c fc3c 3ec5 c9bd 69c8 d9bd 46bd 7e3d
00000230: 9738 643d ae51 a5bd b300 23bd 690e 563d
00000240: 5053 e0bd 5644 413d 58ee b23d 182c 81bd
00000250: f8fd 763d 0cd8 1c3c 85a7 bfbd 6f11 6a3d
00000260: c4e8 2abd ea8f e93d 4082 b83d 7b3b 0dbc
00000270: 5360 f6bd a502 053d fcfc f23d 0acc f5bc
00000280: 946f b73d 024c f83c 351f f5bd 1ded 753d
00000290: b53e 27bd ee6a 8cbd 4b20 8a3d 9be5 82bd
000002a0: a4de 1d3d ee71 303d e8cb 75bc 28bc 36bb
000002b0: d54f 3c3d d668 a639 7278 c8bd c491 32bd
000002c0: 060d e33c 55df ac3d 1605 0e3d 6164 fb3c
000002d0: 0820 a8bd f128 633d c54e d23d a473 793d
000002e0: 4787 4bbc 19de 0dbd 84c2 373d e477 b0bd
000002f0: 4d0f cfbd c066 52bd 343b 3c3c b6e4 57bd
00000300: 30c1 33bd 41b8 d83d 1e21 a5bd 59d6 c7bd
00000310: 97f7 84bc 0a9f 6dbc c667 d0bd f04f c1bd
00000320: 7196 87bd a457 e13d 49ea c3bd ed67 7f3d
00000330: a26c d43d b0cf 843c 7f94 c23d 8208 16bc
00000340: 64f0 023e 337a df3d 1ad9 253d 99e6 5bbd
00000350: b4ef cabd c03a 53bd 07b6 103d 53e2 f83d
00000360: 0bab e7bc 4841 5ebd f199 ea3c 9a32 68bc
00000370: e5b0 d73d eb20 5d3d 12f9 593d b63d a3bd
00000380: c1e7 a23d 162a 95bc bbbb ed3d f7c6 3e3d
00000390: 3a68 093d 661d b83c baf6 cb3d 0baf bc3b
000003a0: b44f 013d 2ac1 a6bd 57c1 60bc 8885 423d
000003b0: 59b8 e1bc 1cba 913d 4acf 3b3c 390d 03bd
000003c0: 822b 6e3d 03ce c33c cdeb 163d 54be 65bc
000003d0: 66fd bbbc 9c7e be3d 8746 213d c64c b13d
000003e0: 442b 493d fabf 06bb 7c7f 2b3d a234 a9bd
000003f0: 3f8c b9bd 0493 da3d 1961 863d f3c9 79bd
-0.097491704 0.09576148 0.066277094 0.042958986 -0.021793457 -0.07144667 0.10901975 0.060504235
0.0012532981 -0.08919993 0.0009980398 -0.03856232 -0.0012249068 -0.078427695 0.01940816 0.07225633
0.020809337 -0.052269977 0.10404843 0.060619574 0.12850583 0.0845381 -0.08342007 -0.035617623
-0.045194276 0.014683063 -0.08129771 -0.004385603 0.064740986 0.07613226 0.009273472 0.095075734
-0.047596164 -0.10670538 0.1040199 0.00786048 0.029561954 -0.01080197 0.1310375 0.017189706
0.12618263 0.0983891 0.033039954 0.029746372 -0.08831484 -0.010177036 -0.05571991 -0.10830806
-0.07376101 0.114178255 0.004531204 0.054690853 0.015214752 -0.040201936 0.07313496 -0.05100815
0.032908466 -0.08311316 -0.082154736 0.07897236 0.07885888 0.103695504 -0.099457 0.05319675
0.118936755 0.009217255 -0.03677987 0.078185745 -0.061954428 -0.10859538 -0.057529647 -0.036500163
0.060794655 -0.095127836 -0.04754927 0.09566806 -0.088011965 -0.029810423 0.006804047 0.0054403534
0.05872932 0.096054114 0.0474997 0.07367405 -0.0009227692 0.03546624 -0.04604688 -0.063366674
-0.07099205 -0.05234477 0.06116149 0.055009164 0.006865158 0.031463005 -0.09333855 0.054562856
0.064954855 0.031997878 0.110178664 -0.079473466 0.024936695 -0.046232093 0.121273234 -0.037003398
-0.06499725 -0.08123267 0.09560866 -0.105625056 0.0045823986 0.10997494 -0.014580379 0.020150691
-0.10841319 0.12336617 -0.04350336 -0.036178045 -0.01774738 -0.11434807 0.09619336 -0.061337963
0.09648395 0.10514522 -0.08588127 -0.071962774 -0.10441533 0.0013210659 -0.059484575 -0.037293773
0.05587826 0.1081284 0.0965331 0.110170946 0.047553882 -0.0154928155 0.10142901 -0.080239885
0.030821132 -0.09852074 -0.10633928 0.062192224 0.05571803 -0.0807222 -0.03979559 0.052259836
-0.109533906 0.04718431 0.08736867 -0.06307238 0.060300797 0.009572994 -0.09358124 0.057145532
-0.04172589 0.114044026 0.09009218 -0.008620138 -0.12030091 0.032473225 0.11864659 -0.03000452
0.08956829 0.03030968 -0.11968843 0.060040582 -0.040831286 -0.06856333 0.06744441 -0.0639145
0.038542405 0.0430774 -0.015002228 -0.0027883146 0.04597457 0.00031740096 -0.09788598 -0.043596044
0.027716171 0.08441035 0.03467282 0.030687513 -0.082092345 0.055458967 0.1026893 0.0609013
-0.012422389 -0.034635637 0.04486324 -0.08616617 -0.1011034 -0.05136752 0.0114887245 -0.05270835
-0.04388541 0.10582019 -0.08062957 -0.097576804 -0.016231341 -0.01450325 -0.10176043 -0.09439075
-0.06620491 0.11003044 -0.09566171 0.06235497 0.103722826 0.016212314 0.0950098 -0.009157302
0.12787014 0.109119795 0.040490247 -0.053686712 -0.09909001 -0.0515697 0.035329845 0.12152543
-0.028279802 -0.054261476 0.028637858 -0.014172221 0.10531787 0.05398647 0.053216048 -0.07970755
0.0795436 -0.018208545 0.11608072 0.046576466 0.033546664 0.022474956 0.09959169 0.0057581714
0.03157015 -0.08142312 -0.013717971 0.047490627 -0.027553724 0.07115576 0.011462996 -0.031995032
0.05814696 0.023901945 0.03684597 -0.014022429 -0.022947978 0.093014926 0.0393739 0.086572215
0.049113527 -0.0020561204 0.041869625 -0.08261992 -0.09059953 0.10672572 0.06561489 -0.06098361

lstm.weight_ih_l1 f4 [256, 64]
00000000: 964f 02bd 9588 f63d cab6 b3bd c56c 99bc
00000010: ddaa 893c 7c0c eebd fbea cd3d 9e9c c63d
00000020: dca3 8bbc 433d 933d 3a65 57bb 1fed d6bd
00000030: 9b1e 05bd 7dc3 cabd 08ee 9b3c 3afc c43c
00000040: 096a 363d 74c2 c93c b5f8 f3bd 01f9 d0bd
00000050: 93bd d7bd 9b32 983d 4afe 2b3d b56f f13c
00000060: 37f1 1f3d f3e2 813d 8343 47bd 6e39 e4bd
00000070: 78fa ddbd 5af5 ae3d 419a 523d 0504 14bd
00000080: 5ee9 f63d bbbe ab3c 4b50 17bd 5fcf d9bd
00000090: c9c6 c2bd 5212 e8bd 009a d53c 21e9 70bd
000000a0: edba 3abb 535c 0b3e d952 8a3d 3904 a53d
000000b0: 507f b73d b0c5 debd 11bc a03d ee69 473d
000000c0: 0d11 9e3d 8e55 df3d 34c9 d43d 3bda 9a3d
000000d0: 7ad7 db3d efac 2ebd 6424 df3d 2f3e 763d
000000e0: 84fe 0cbe b2da 083e a24b e43c 91ad 1d3d
000000f0: ab3c 04bc 59f6 393d 1bf3 82bd cf92 2a3d
00000100: ce72 98bd 305b da3d d7ff eebd 22b9 bcbd
00000110: e3b5 fb3c edf7 2c3d ecfc 7ebd 239b 5e3d
00000120: 4234 653d d04e 663d 7e19 d4bd f255 e3bd
00000130: 08a5 c3bd 9ca2 b13d e850 ad3d 11a5 97bd
00000140: fee3 18bd 2393 97bd 33a1 0abc 63f4 4f3d
00000150: 047c ef3d 62c2 123c 5262 10bc 6156 b6bd
00000160: d2d1 5b3d 9e7e b2bc 01b2 bb3d 3c51 05bd
00000170: 5845 da3d 32a1 b4bd e6f9 9cbd cd35 b03c
00000180: 7d01 483d 219a a23d 38d4 e63d abd6 fb3d
00000190: ba97 b73d 42ae 7fbd c877 a33d 2867 d23d
000001a0: 722d 34bb 5136 423d e714 4dbd 3d09 64bd
000001b0: cda0 15bd 0e31 f2bc 5092 823c 8e13 4a3d
000001c0: 66c7 3a3d 3803 dcbd 13d3 5a3d 43f5 793d
000001d0: b8c3 a6bc 05b8 dbbd 6b65 6d3c 6fd4 c53d
000001e0: 4655 983d 8ff2 843c 5e68 aebd 08a7 1bbd
000001f0: 3e2d 9abb 59f9 2a3d 06c8 d93d 35b7 cebd
00000200: faa0 433d f346 c5bd b92f a83d ef95 debc
00000210: 47df 66bc e644 f83c bfcf d43d cdd7 bfbd
00000220: 1c2f 943d 184e 0d3e e855 ef3d 7152 74bd
00000230: 55f4 44bd 7cc2 8d3d 62d5 d8bd bf5f 6bbc
00000240: c6bd 31ba d6ec f03d a442 a2bd 1e8d 883d
00000250: f698 723b 8383 6abc b364 843c d62f 47bc
00000260: 3b38 143d 49ba 35bd 6dfe c9bd 27bf 9c3d
00000270: 87f5 dc3d 7f0a 693d ad14 153d 2771 b23c
00000280: 0a78 103d 98c5 4ebd a41c a0bd 0459 86bc
00000290: 1c83 02be 6ed2 64bd 2837 c23d 65c9 e4bc
000002a0: 0460 80bd 74d1 0f3c b156 0e3d e8fc b93c
000002b0: 951f 70bd 0e90 b13d ef74 b53c 96ab 73bc
000002c0: 7690 7cbd 5a0d 65bd 4e31 c03c c0da a7ba
000002d0: dc3b 033e da88 6d3d d111 f3bd 5a75 4bbd
000002e0: 7d06 b2bd 396a 653d 48bc 8dbd 4968 9fbd
000002f0: 1eb8 133d b5ef 66bb 60d3 ecbd d279 9a3b
00000300: 8fad 713b 6217 fdbc 43da f3bd 30cd 853d
00000310: 153f eebd 86a6 eabd 20c0 7cbd abd7 bbbc
00000320: bcfe 803d 1bac d93d 443a 793c bcd0 8c3d
00000330: f9ce bfbd 89dc a03d 4925 96bd b7c0 c8bd
00000340: 1dc1 8f3d b934 b4bd 4c7b b2bd 3c91 bcbb
00000350: 3de6 b03c 344b 863d 96ff a5bd 998b de3c
00000360: 834c 8c3d ef71 cabd 05c9 c23d ab28 acbd
00000370: 1607 04be 5dd6 d8bd 80bc dd3d c4f6 e5bd
00000380: 5cd7 693d 4544 2ebd 559d 9a3c a8cd 86bd
00000390: b802 a7bd c3f6 c83b fb32 e6bd a881 053e
000003a0: b784 cdbd 8fb2 8c3d 0fdb 593d 927b eabd
000003b0: 8a32 e5bd f7bc 19bc afce 24bd cf09 f2bd
000003c0: 7c20 e43c e4d3 c93d d7a1 163d c76d ccbd
000003d0: ef9f 68bd 75c3 9e3b dbc3 f6bc 364c 873d
000003e0: eb6e cb3c ff3e bcbb fcc8 d13b df4e e93b
000003f0: baca 013e 9b1a c93d 9bbe 40bd a31a 963d
-0.03181418 0.1203777 -0.087750986 -0.018728623 0.016805107 -0.11623475 0.100545846 0.09697841
-0.017045908 0.07189419 -0.0032866732 -0.10494446 -0.03249989 -0.09900568 0.0190344 0.024046052
0.044534717 0.024628855 -0.119126715 -0.10203744 -0.10534205 0.07431527 0.041990556 0.029472211
0.0390484 0.06342115 -0.04864837 -0.11143766 -0.10838789 0.08542891 0.05141664 -0.036136646
0.1205623 0.02096497 -0.036941808 -0.10635256 -0.095105715 -0.11331619 0.02607441 -0.05881608
-0.0028492764 0.13609438 0.06754083 0.08057446 0.0895983 -0.1087755 0.07848371 0.048685007
0.07718096 0.1090499 0.10389939 0.075611554 0.10734458 -0.04264539 0.10895613 0.060117897
-0.13768965 0.13364676 0.027868096 0.038495604 -0.008071105 0.04540095 -0.06394025 0.041643914
-0.07443772 0.10661924 -0.11669891 -0.09214999 0.030726379 0.042228628 -0.062252924 0.05434717
0.05595804 0.056227505 -0.10356425 -0.11100377 -0.095529616 0.086735934 0.08462697 -0.07404531
-0.037326805 -0.07401111 -0.008461284 0.050770175 0.11693576 0.008957477 -0.008812504 -0.08903194
0.053666897 -0.021788891 0.09164811 -0.032548174 0.106577575 -0.08819808 -0.07664852 0.02151003
0.048829544 0.07939554 0.11270946 0.12296804 0.089644864 -0.062422045 0.07981831 0.10273582
-0.0027492908 0.04741508 -0.050068762 -0.055672873 -0.036530305 -0.029564407 0.015938908 0.049335055
0.045600317 -0.107428014 0.053423952 0.061024915 -0.020356998 -0.10728458 0.014489512 0.09659659
0.074381396 0.016228942 -0.08516 -0.03800109 -0.0047051003 0.041741703 0.106338546 -0.10093538
0.04776094 -0.09632673 0.082122274 -0.027171103 -0.014091319 0.03030629 0.10391187 -0.093673326
0.07235548 0.13799322 0.11686307 -0.059648935 -0.048084576 0.069218606 -0.105875745 -0.014366089
-0.00067802926 0.11763923 -0.07922867 0.06667541 0.0037017441 -0.014313581 0.016161298 -0.012157401
0.036186438 -0.04436711 -0.09862981 0.07653647 0.10789018 0.056894775 0.03639667 0.02178247
0.03527073 -0.05048141 -0.07817963 -0.016399868 -0.12745327 -0.055864744 0.094831765 -0.027928064
-0.062683135 0.008777965 0.034750644 0.022703603 -0.05862387 0.086700544 0.022150485 -0.014872452
-0.061661206 -0.055920936 0.02346101 -0.0012806281 0.12815803 0.05799184 -0.118686326 -0.049672462
-0.08692644 0.056009505 -0.069206774 -0.07783563 0.03606426 -0.0035238091 -0.11563754 0.004714229
0.003687713 -0.030894939 -0.119068645 0.06533277 -0.11633126 -0.11457543 -0.061706662 -0.022929987
0.06298587 0.1062853 0.0152116455 0.068757504 -0.09365649 0.07854564 -0.0733133 -0.098023824
0.07019255 -0.087991185 -0.08714923 -0.005754618 0.021594161 0.065573126 -0.0810539 0.027166175
0.06850531 -0.09885012 0.09510998 -0.08406194 -0.12893328 -0.105877616 0.10826969 -0.112287074
0.05709015 -0.042545576 0.01887385 -0.065821946 -0.081548154 0.006132932 -0.112401925 0.13037741
-0.10035079 0.06869995 0.053187426 -0.114493504 -0.1119128 -0.009383432 -0.04023617 -0.11818277
0.027847521 0.09854868 0.036775436 -0.09981876 -0.05679315 0.0048450776 -0.030122688 0.06606333
0.024833163 -0.0057448144 0.006402133 0.007119998 0.1267499 0.09819528 -0.047056776 0.07329299

lstm.weight_hh_l1 f4 [256, 64]
00000000: 0bc7 d5bd ca58 473d cd82 afbd 3543 ccbb
00000010: 52d2 ef3d f339 093d 40fc 353d bc75 86bc
00000020: cbf0 343c 923f 003e 789a adbd 8696 d8bd
00000030: de26 973d 73b8 cbbd f861 2fbc 437d cebd
00000040: 8d95 413d 6f8a 4ebd 80d7 a73b 041f eb3b
00000050: b2d9 17bd 12a4 c9bd 02c6 abbd 468e 3abd
00000060: ac71 03be 0277 f13c f553 b53d ec92 97bd
00000070: 8356 b63d 903f 9e3d 3dc5 0abd 29e9 b43d
00000080: 1c70 81bd b82a 213d 567e 773d 2135 58bd
00000090: 52b1 55bd ec1c 723c 0f0f 853d b142 a23d
000000a0: ebb4 aa3d 9750 a8bc aeb4 a0bc 5597 223d
000000b0: dd52 ac3d 5112 6dbc c250 88b9 070d 41bd
000000c0: e1a6 b9bd 3881 74bd 5491 02bd b626 923c
000000d0: 3afd c13d 5693 a73d 0d7b 79bd 8443 c13d
000000e0: 6808 c6bd 0520 cf3d f308 163d 9c3e 3d3d
000000f0: 9029 f63d db75 9dbd a28f 423d dd71 6bbd
00000100: 4206 87bd 7546 f9bd 0b02 31bd 822a 85bd
00000110: bc78 7d3d 4b99 de3d 0005 15bd 3ffa 09bd
00000120: b646 b8bd a7b8 ec3b 5254 a83c 28c2 6bbd
00000130: 692a 1f3d 3d7a d0bd a587 53bd 9855 d3bd
00000140: 3e96 7d3d 3e05 f9bc 8cfe 5e3c 8153 133d
00000150: 1c9c d1b9 7666 00be 14b8 f7bd 857a 6cbd
00000160: 8982 b2bd 047f 5bbd 4241 95bd a688 d33d
00000170: 6a1d adbd 84c7 ecbd cae1 e93d 65f7 d0bd
00000180: 471b 9f3d dbc7 bfbd 319e 763d 5b95 a3bd
00000190: 9414 20bc ca33 febd 39c9 8d3d 5859 f0bb
000001a0: 21ab 2f3d 4721 36bd 7cb2 a3bd 91c4 b33d
000001b0: 6f32 06bc 6231 323d ce37 023e 5950 c2bd
000001c0: e9ae 863d ae7a 133c b665 c03d 254e b8bd
000001d0: 8d40 85bd 9221 513d 8016 723d 4611 983d
000001e0: a284 7a3b e861 c8bb db27 a0bd e3df d63d
000001f0: 79b7 9dbd 6616 913c d183 dcbd bd2f 883d
00000200: bec5 babd 13bc a23d b715 0e3e 61c0 f63d
00000210: fca0 16bd 9317 0bbe 701f 88bc 367f 61bd
00000220: c2af d8bd cabe cebb f13d a33d f5f1 3ebd
00000230: 96cc e8bc 9d14 af3d d55b cabb 7cc2 0c3d
00000240: fd90 e53d f7bc d73d da09 f9bd c501 393d
00000250: 19d4 df3d 7437 edbb 6988 b53d 57a2 e73c
00000260: e8bd b3bd 1a7a 9abd eb91 a93d 90bf bb3d
00000270: 9e3b debd c922 b13d e10f 023e 3817 8a3d
00000280: 9cb7 c0bc df61 8b3d dddc c8bd c425 b03c
00000290: 355e 56bd c854 6ebc 350f d8bd ba00 08bd
000002a0: 92af 083d f7a4 e3bc 82b3 f03d bcd2 c43d
000002b0: 91c2 88bd c8ec 49bc e0f4 033b 99a0 823b
000002c0: dd38 9f3c 203b 343b 8c8f e9bd 203f ebbd
000002d0: cb7e dcbc 112f 843b 7ded 563d 83b5 cabd
000002e0: bdec a63d 38f1 4abc ccfa 56bd eda3 29bc
000002f0: d5f5 bfbd 7335 57bb 8fc2 d0bd 8a81 ef3d
00000300: 0529 d6bd cc31 6a3c c552 c73d 7af9 b1bd
00000310: 017d 213d 7251 4a3d 3f9f 55bd d5c3 00be
00000320: 102f 48bb dd79 723d de54 ce3c e892 223d
00000330: 61e7 cf3d 5da0 96bc 387e 16bb fc89 06bd
00000340: 66d2 d03d 92ae b4bd 1bac 54bd d373 963d
00000350: cb86 16bd f122 283d 51c4 01bd ccdc 6ebd
00000360: 7cca afbd 3d34 b4bd 8d95 813d 214c 57bd
00000370: 8897 86bd 16d3 9d3d 864b 3fbd 4cd9 c53d
00000380: f01e bfbc 73bc a23d f103 9bbd d76f b1bc
00000390: 0012 b3bb 6655 9f3d cda6 4fbc 45ea a1bd
000003a0: 7e8f 06bd a096 d53d 8e14 b7bd 8b86 c13d
000003b0: 62ad e63d f4d0 40bd 7510 af3d f1a4 6f3d
000003c0: 1afa 37bd b7e5 f1bd 6504 44bd 6383 cfbd
000003d0: 6c39 8bbd e6cd 2ebd 1f89 9e3d ed09 de3d
000003e0: 6ae8 b43c 6e96 f6bd cf2d 813d 8e6f afbd
000003f0: bebd 3b3d db1d fe3d d7f7 623d cf26 e0bd
-0.10438355 0.04866866 -0.0856987 -0.0062335976 0.11710037 0.03350253 0.044430017 -0.016413562
0.011043738 0.1252425 -0.08476728 -0.10575585 0.0738046 -0.0994729 -0.01070451 -0.100824855
0.047261763 -0.05042499 0.005122125 0.007175328 -0.037072845 -0.09845747 -0.08387376 -0.04554584
-0.12836331 0.029475693 0.08853904 -0.0740107 0.089032196 0.07726967 -0.033879507 0.08833534
-0.06320211 0.03934738 0.060423218 -0.052785043 -0.05217106 0.014777403 0.06497013 0.079228766
0.083352886 -0.02054624 -0.019617405 0.039695103 0.084142424 -0.014469699 -0.0002600011 -0.047131564
-0.09065033 -0.059693545 -0.031876877 0.017840724 0.09472127 0.08182399 -0.060908366 0.09436706
-0.09669572 0.10113529 0.03662963 0.046202287 0.12019646 -0.07688495 0.04750026 -0.057481635
-0.065929905 -0.12171642 -0.04321484 -0.06502248 0.06188272 0.10869082 -0.03638172 -0.03368592
-0.08997862 0.0072241607 0.02054802 -0.05755821 0.038858805 -0.10179565 -0.051643033 -0.1031906
0.06191086 -0.030398007 0.013610493 0.035968307 -0.00039979897 -0.12539086 -0.12095657 -0.05773403
-0.08716304 -0.05358793 -0.072878376 0.10328798 -0.08452876 -0.11561492 0.11420019 -0.10203437
0.077688746 -0.09364291 0.060209457 -0.07987472 -0.009770531 -0.12412222 0.06923146 -0.0073348694
0.04288781 -0.04446533 -0.079930276 0.087777264 -0.008190735 0.043504126 0.127166 -0.09487981
0.0657633 0.009001417 0.093944 -0.0899928 -0.06506453 0.051057406 0.05910349 0.0742517
0.0038226028 -0.006115187 -0.07820102 0.10491922 -0.0770101 0.017710876 -0.107673295 0.0664973
-0.091197476 0.079460286 0.13875471 0.12048412 -0.03677462 -0.13583212 -0.016616553 -0.05505296
-0.10580398 -0.006309365 0.07970799 -0.046617467 -0.028417867 0.085488535 -0.006175498 0.034365162
0.11209295 0.10534089 -0.12160082 0.045167703 0.10929126 -0.0072392765 0.08863909 0.028275652
-0.08776456 -0.0754282 0.08279785 0.09167397 -0.10851215 0.08649213 0.1270137 0.0674271
-0.023525052 0.06805777 -0.09807751 0.021502383 -0.052335937 -0.014546581 -0.105497755 -0.033203818
0.033370562 -0.027788622 0.117529884 0.09610507 -0.066777356 -0.012324519 0.002013497 0.00398643
0.019436294 0.0027501062 -0.114043325 -0.114866495 -0.026915928 0.004033931 0.05247258 -0.09897902
0.08150623 -0.012386613 -0.052485272 -0.010354024 -0.093730606 -0.0032838255 -0.10193359 0.116946295
-0.104570426 0.014294099 0.09732584 -0.08690162 0.039425854 0.04939408 -0.052153822 -0.12574704
-0.003054563 0.05919825 0.025186952 0.039690882 0.10151554 -0.018387014 -0.0022963416 -0.032846436
0.1019638 -0.08822359 -0.051921945 0.073463105 -0.036749642 0.041048948 -0.031681363 -0.058316037
-0.08583543 -0.08799026 0.06327353 -0.052562837 -0.06571871 0.07706277 -0.046702884 0.09660587
-0.023330182 0.079461 -0.07569111 -0.021659775 -0.0054647923 0.0777996 -0.012674046 -0.079060115
-0.03285169 0.1042912 -0.08939467 0.0944949 0.11263539 -0.047074273 0.08548061 0.05850691
-0.04491625 -0.11811393 -0.047855753 -0.10132482 -0.06798062 -0.04267683 0.077409975 0.10841737
0.02208348 -0.12040411 0.063075654 -0.08566199 0.04583525 0.12408038 0.05541214 -0.10944902

lstm.bias_ih_l1 f4 [256]
00000000: 7d39 823b 2703 133d de8e 47bb 225e 9a3c
00000010: 0b00 dc3d 72de 91bd 6f50 7e3d 2885 ddbc
00000020: 0e7a d0bd a437 633d 4f35 b23c e51b ea3b
00000030: 7d45 75bd a222 2cbd cd9d 3e3d 5e4a 183d
00000040: 8e06 efbc cb46 af3d 59ef 9b3d 9e5f cf3d
00000050: 8c31 2cbd aec1 723d 7046 d5bc 3715 77ba
00000060: a93c 4d3d 3279 0a3d ad5d 65bd 4766 853d
00000070: 3364 e63d b1a7 afbd 3a38 de3d 72a4 ad3c
00000080: 86f4 48bd 4933 d63d d48f 2abd b485 b9bd
00000090: 71bb c1bd 6f57 71bd 7b40 cb3d ea72 f13d
000000a0: f628 c3bd 9181 f3bd 9377 f2bd 1175 02bc
000000b0: 9f60 463d 036c fdbd 2bc6 9cbd bffc d73d
000000c0: 7eb2 fabd d6d6 55bd d64b 753d 166b b63d
000000d0: 0989 e8bd 76f9 06bd df6f 853d 783d a0bb
000000e0: 5ca8 05be e105 8bbd f12e 963d 193e 2abc
000000f0: 5163 953c 7ff1 0dbe 9865 73bd 7b43 ad3d
00000100: 8886 e3bd 8648 8bbb 860d a8bc 0e0b 61bc
00000110: 52e8 113c 864a 4dbb e5a0 b5bd b0ad b73d
00000120: 619e 43bd 6965 7abd 2118 013d 6c4a 65bd
00000130: a68e 1c3d 6e82 9abd 11b2 a7bd 054c 653d
00000140: fd80 c3bc 8fd8 943c 6392 c2bd 3788 e3bd
00000150: d4a8 1f3d 4ebc c83b e366 bc3d 80f4 093e
00000160: 663b e13d 1a99 853b 62a3 903a 5a62 7e3c
00000170: 7ca5 58bc 7cb6 1fbd b1e3 34bd 1a7e 23bd
00000180: e9dd 453b c789 963d b0dc aa3d 7f30 d43d
00000190: 9cb5 e039 aeef 853b 4507 81bc 6317 8e3d
000001a0: e63b 963d 3d9f 1a3d 74a7 bb3d 1342 f93d
000001b0: 67b9 a4bd 8157 a53b 3c17 c6bd 62cc b33d
000001c0: 5212 af3d 0e5c afbc e1ad 93bd 811b 59bd
000001d0: 06a2 9d3d 3b7f f83d dce1 ee3d 6850 243d
000001e0: aa25 e03c b43b 43bb 8b4e c3bd 9e92 05bd
000001f0: 1c1b 05be 6a50 e439 a55f 7a3d 920b c7bd
00000200: 5216 0abc baf3 ecbc 5512 02bd 568e d13d
00000210: 47fe f2bd 557c 4abd 7ff5 ee3d c946 b63d
00000220: 689c 7c3b edff aabc 92ec e13c 8c94 a738
00000230: a0b7 c23d b633 cabc 9d1e dd3d e68b e13d
00000240: fbf4 8c3d 8fcf a6ba c992 063d a417 88bd
00000250: 7404 ac3d 4ff9 05bd 8528 19bd b840 2e3c
00000260: 4d9d 61bc 1c23 7e3d 90df 18bd ab3a ebbb
00000270: 6690 c4bd 67e7 0abd b244 d23c 0a78 46bd
00000280: 702b 96bc 2d82 9d3d 498f d4bb a227 77bd
00000290: ee85 d2bd d271 89bd 5f1b b1bd 4284 933b
000002a0: 2b28 95bd 746d d1bd 9855 a5bd ae9d 993d
000002b0: b6b8 e03d 51e0 68bc a73d 27bd b4c5 be3d
000002c0: 3674 c6bd 79c7 8fbc 2a3f 783d c034 8cbc
000002d0: 6062 903d 984c 863d 56c0 d7bd aa61 93bc
000002e0: d8c8 8b3d 02bf a3bc 280f 133c 53f1 83bd
000002f0: 7464 df3c f8f0 d43c 049d e43d 5187 613d
00000300: 0011 bb3d 9f59 94bc bf67 3b3d 9294 b9bd
00000310: 8975 3aba a920 953d 5ae7 c63d b5a3 20bd
00000320: 930f 893d 414e 92bc 973f fa3d a54d 26bd
00000330: f253 ba3c 0a92 d9bd 6f5d 11bd fcde a1bd
00000340: 389c 563d 9147 90bc 6472 cebd fbe4 c33d
00000350: 1dd0 cf3d 121c 99bc 2261 043e 121e c3bd
00000360: 5348 09bd 30bd 22bd d85e 803b 8720 d2bc
00000370: c22d 67bc 415a c0bd 4c43 d63d ab0e 89bd
00000380: 2a9b e73d 981b 0fbd 787d 5cbc 03e2 7dbd
00000390: 1033 fcbd 0290 bcba cdcb 743d 9b9f 3fbc
000003a0: 33ed 79bd 39f0 07bd aaf1 bc3c 4893 68bd
000003b0: e208 0c3e 3ab4 923d a1db 30bc a4b0 41bb
000003c0: ce22 d7bd 9f8f 543d 778f 37bd ad8e c1bd
000003d0: 02d0 953d dc03 003e 1950 e6bb 9eab e1bd
000003e0: fc56 b23d c758 673d 832a 85bc 3947 b4bd
000003f0: 0ad6 abbd 6d5c acbb e099 dd3d ff92 ccbd
0.0039741383 0.03589168 -0.0030450146 0.018843714 0.10742196 -0.07122506 0.062088426 -0.027041033
-0.1017953 0.055472985 0.021753935 0.0071444386 -0.059880722 -0.042025216 0.04653721 0.037180297
-0.02917793 0.085584246 0.07614011 0.101256594 -0.04203944 0.05926674 -0.026034564 -0.00094254635
0.05010668 0.033806987 -0.05599754 0.065136485 0.1124958 -0.085769065 0.10850568 0.021196578
-0.04906132 0.104590006 -0.04164107 -0.09058705 -0.0945958 -0.058921274 0.09924408 0.11789496
-0.09529297 -0.11889947 -0.11839213 -0.007962481 0.04843199 -0.12374117 -0.07654985 0.10546254
-0.12241076 -0.052206837 0.059886776 0.08907144 -0.113542624 -0.03295275 0.06515478 -0.00489014
-0.13052505 -0.06788231 0.07333172 -0.010390782 0.018235834 -0.13861655 -0.05942306 0.084601365
-0.11109644 -0.004250589 -0.020514261 -0.013735546 0.008905487 -0.0031324937 -0.08868579 0.08968675
-0.047758464 -0.06113187 0.03151715 -0.055979177 0.038221978 -0.07544409 -0.0818826 0.0559807
-0.023865217 0.01816967 -0.09500577 -0.11109965 0.038979366 0.0061259633 0.091993116 0.13472176
0.109976575 0.004077089 0.001103502 0.0155263785 -0.013223048 -0.03899239 -0.044162456 -0.03991518
0.0030192083 0.07350498 0.08342874 0.103608124 0.0004285992 0.00408741 -0.015750537 0.069380544
0.073356435 0.037749518 0.091627985 0.12170806 -0.08043175 0.0050458317 -0.096724 0.08779217
0.08548416 -0.0214062 -0.07210899 -0.053004745 0.07696919 0.12133642 0.11664173 0.040115744
0.02736171 -0.0029790225 -0.09536465 -0.03261053 -0.12998623 0.00043547462 0.06112637 -0.09719004
-0.008428173 -0.028924812 -0.031755764 0.102322266 -0.11864906 -0.04943498 0.116679184 0.0890022
0.0038545374 -0.020873988 0.027578626 7.9908496e-05 0.0950768 -0.02468286 0.10796855 0.11013012
0.06882664 -0.0012726652 0.03285483 -0.06645134 0.08399287 -0.032708462 -0.037392158 0.010635547
-0.013770414 0.0620452 -0.03732258 -0.0071786246 -0.09597854 -0.03391209 0.025667522 -0.048454322
-0.01833126 0.07690845 -0.0064868075 -0.06034053 -0.10279451 -0.067111626 -0.08647799 0.0045018503
-0.07283052 -0.10225955 -0.08072966 0.07500778 0.10972731 -0.014213637 -0.04083028 0.09315053
-0.09690134 -0.01755117 0.060607113 -0.017114997 0.070500135 0.06557578 -0.10534732 -0.017990906
0.06825417 -0.01998854 0.0089757815 -0.06442513 0.02726958 0.02599381 0.11162761 0.05506069
0.09134102 -0.01810914 0.045753237 -0.09061541 -0.0007112851 0.0728162 0.097120956 -0.039218623
0.06692424 -0.01785958 0.1221916 -0.04060139 0.022745106 -0.10623558 -0.035489496 -0.07903859
0.052395076 -0.01761225 -0.10080412 0.09565159 0.10147116 -0.018690143 0.12927678 -0.0952722
-0.03351624 -0.039731205 0.0039175563 -0.025650276 -0.014110031 -0.093922146 0.104620546 -0.06692251
0.11308892 -0.034938425 -0.013457648 -0.06198312 -0.12314427 -0.0014386179 0.059764672 -0.011695768
-0.061017226 -0.03318808 0.023064453 -0.056781083 0.13675264 0.07163282 -0.010794551 -0.002955475
-0.10504685 0.05189478 -0.044814553 -0.09451041 0.07315065 0.12501472 -0.0070285914 -0.110190615
0.08707997 0.05648115 -0.016255623 -0.08802647 -0.08390434 -0.0052600414 0.10820365 -0.09988975
