artifacts/SKU_04/model.pt (torch, 219163 bytes, 12 tensors)

lstm.weight_ih_l0 f4 [256, 10]
0.11162728 -0.14415307 0.06775251 -0.060901277 -0.04059128 -0.057967495 0.072944075 -0.036806162
0.034776747 -0.08389005 -0.038240157 -0.07511776 0.037247695 -0.09440008 0.05425021 0.10655074
-0.03680727 0.040623475 0.003979748 -0.07604246 -0.09496562 -0.086807124 -0.13849926 0.031035375
-0.007192141 -0.06507971 -0.027950346 0.027077649 -0.11362462 0.10192151 0.13111676 0.092326485
0.105880804 0.08586493 0.08599849 -0.041555982 0.033338632 0.029858006 -0.07140319 0.055014744
-0.07173169 0.0890336 -0.12059058 0.062101115 -0.018405132 0.04746615 0.019400377 -0.06671249
-0.12990962 -0.12562633 0.015802141 -0.033854403 0.08525081 -0.06287099 -0.035992276 -0.023839204
0.08505822 0.023771081 -0.0775836 -0.09200335 -0.045865007 -0.052585103 -0.05680802 -0.07327081
0.15083209 0.026214935 -0.032464664 -0.1096111 0.07462052 -0.105116375 -0.060778752 -9.352605e-05
0.00045468064 -0.0019278316 0.10550746 0.10401547 -0.024838977 0.08002084 -0.015913358 0.08689638
0.017725823 0.06825109 0.057354067 -0.049195413 0.053015206 -0.056259423 -0.066010885 -0.010003222
-0.027758809 -0.033456594 0.09973568 0.007906172 0.006039559 0.012096006 0.041420717 -0.108736224
-0.01933447 -0.03304747 -0.011077734 -0.040113926 0.073048875 -0.04437141 -0.07778667 -0.050067734
0.108577445 -0.057950485 -0.018679805 -0.009863888 0.057181433 -0.057083234 -0.017911732 0.08403887
-0.086373486 -0.12541008 -0.10259593 -0.06142101 -0.10447808 0.10985122 -0.05578319 -0.07036025
-0.08479313 -0.06385617 0.06694276 -0.0066093467 -0.036129873 0.0030111826 -0.11535296 -0.023297472
-0.056542795 -0.010598159 0.014187946 -0.09444612 0.016781665 0.044618282 -0.045683276 0.011517428
0.06776044 0.08154552 -0.09791863 -0.098648265 -0.03356401 -0.0132598085 0.08570144 -0.1386175
-0.018704258 -0.04904944 0.10886653 0.037832085 -0.102855876 -0.052378166 -0.06507089 0.01792908
0.064313255 0.09912206 -0.07622632 -0.104097575 0.13059828 -0.09736428 0.06797203 0.065727964
-0.028590236 0.060218483 -0.03862768 -0.12795171 -0.03928998 -0.08334337 0.09578598 -0.05709005
0.026275037 0.010544244 0.092888355 -0.1145355 -0.1287294 -0.032001235 -0.11917352 0.024585923
0.0087302495 -0.05334343 -0.09307765 0.08380369 0.059486385 0.066007465 0.036771033 -0.036451586
0.056054063 0.06031363 0.03633632 -0.0034835478 -0.04117085 -0.095153056 0.00028599607 0.017287603
0.052338496 -0.12558748 0.047130506 0.0714992 -0.06986129 -0.10694285 -0.084457844 -0.10174679
0.117192335 -0.073984735 0.05900889 -0.07602286 -0.07589965 0.08709612 0.054442994 -0.10266471
-0.067569435 -0.0031036867 0.0023478686 -0.10797951 0.056778867 -0.13988216 0.03969717 0.0046430193
-0.076398015 -0.009781057 0.08562833 0.0038491366 -0.07593334 -0.10386797 -0.13408849 -0.010397826
-0.027710216 -0.053244207 0.09108558 -0.13480076 -0.057946 0.05139165 0.096050754 0.10361775
-0.04582566 -0.054131594 -0.11290454 -0.016131641 -0.036066208 0.007665418 -0.13374014 -0.06000146
0.023027867 -0.03000203 0.11751013 -0.02958046 0.122249246 -0.039956592 -0.114573665 -0.049426142
0.07935771 -0.093795836 0.088753946 0.01501736 -0.12600501 0.06527983 -0.048663944 0.11956708
00000000: d89c e43d dd9c 13be d4c1 8a3d 9e73 79bd
00000010: 0b43 26bd 536f 6dbd b463 953d 0fc2 16bd
00000020: 1072 0e3d 8cce abbd b6a1 1cbd 57d7 99bd
00000030: 0a91 183d d454 c1bd 7835 5e3d 4637 da3d
00000040: 38c3 16bd cd64 263d 8c68 823b 26bc 9bbd
00000050: 567d c2bd efc7 b1bd c0d2 0dbe e63d fe3c
00000060: 0dac ebbb 8348 85bd 20f8 e4bc f2d1 dd3c
00000070: 06b4 e8bd 3abc d03d 7943 063e ab15 bd3d
00000080: 09d8 d83d f4d9 af3d fa1f b03d 9b36 2abd
00000090: 178e 083d c798 f43c d63b 92bd 2457 613d
000000a0: 10e8 92bd 4057 b63d 32f8 f6bd bd5d 7e3d
000000b0: 5cc6 96bc de6b 423d 8aed 9e3c 8fa0 88bd
000000c0: 0707 05be 30a4 00be 7e73 813c eaaa 0abd
000000d0: fa97 ae3d 81c2 80bd a36c 13bd 6f4a c3bc
000000e0: 0133 ae3d 92bb c23c 27e4 9ebd 416c bcbd
000000f0: f2dc 3bbd 7a63 57bd 87af 68bd 020f 96bd
00000100: ba73 1a3e b4c0 d63c abf9 04bd c97b e0bd
00000110: a5d2 983d 4147 d7bd 24f3 78bd 6a23 c4b8
00000120: 3462 ee39 4baf fcba 4c14 d83d 1006 d53d
00000130: 1c7b cbbc f7e1 a33d bb5c 82bc bbf6 b13d
00000140: bf35 913c 3ac7 8b3d 19ec 6a3d 2181 49bd
00000150: 7926 593d 4870 66bd b730 87bd 8ee4 23bc
00000160: 7166 e3bc c809 09bd 3842 cc3d e488 013c
00000170: 7ee7 c53b 542e 463c c5a8 293d 19b1 debd
00000180: 5363 9ebc c95c 07bd 627f 35bc 804e 24bd
00000190: a69a 953d ccbe 35bd 9e4e 9fbd d313 4dbd
000001a0: da5d de3d 7d5d 6dbd 6406 99bc 259c 21bc
000001b0: 1437 6a3d 1cd0 69bd a0bb 92bc 921c ac3d
000001c0: 95e4 b0bd 806b 00be d11d d2bd 9994 7bbd
000001d0: 9bf8 d5bd adf9 e03d ea7c 64bd 0919 90bd
000001e0: 05a8 adbd 06c7 82bd 4919 893d 3893 d8bb
000001f0: ebfc 13bd 4357 453b 2c3e ecbd 57da bebc
00000200: 6b99 67bd e7a3 2dbc 8f74 683c f86c c1bd
00000210: b479 893c a9c1 363d 631e 3bbd 98b3 3c3c
00000220: fcc5 8a3d 5601 a73d 9089 c8bd 1a08 cabd
00000230: 6a7a 09bd ab3f 59bc 3d84 af3d bff1 0dbe
00000240: ac39 99bc 11e8 48bd 6af5 de3d d1f5 1a3d
00000250: 1aa6 d2bd 7d8a 56bd e343 85bd 02e0 923c
00000260: abb6 833d 8200 cb3d 8b1c 9cbd 1c31 d5bd
00000270: 8ebb 053e ec66 c7bd eb34 8b3d 629c 863d
00000280: 1236 eabc a8a7 763d 0f38 1ebd c605 03be
00000290: 88ee 20bd eeaf aabd 712b c43d 42d7 69bd
000002a0: bf3e d73c c4c1 2c3c 403c be3d 9791 eabd
000002b0: a4d1 03be ba13 03bd 3f11 f4bd 6b68 c93c
000002c0: 5209 0f3c a47e 5abd 7f9f bebd 45a1 ab3d
000002d0: ffa7 733d ec2e 873d 399d 163d 424e 15bd
000002e0: f298 653d 6d0b 773d 65d5 143d 3c4c 64bb
000002f0: c4a2 28bd 9bdf c2bd bef1 9539 bb9e 8d3c
00000300: e460 563d 019a 00be eb0b 413d 2c6e 923d
00000310: 7013 8fbd da04 dbbd 3cf8 acbd 9f60 d0bd
00000320: 8902 f03d 4f85 97bd 4eb3 713d e0b1 9bbd
00000330: 4771 9bbd 735f b23d 9eff 5e3d e041 d2bd
00000340: d861 8abd 3967 4bbb b3de 193b 5d24 ddbd
00000350: f590 683d 453d 0fbe 8099 223d 7824 983b
00000360: 9076 9cbd ba40 20bc e85d af3d cc41 7c3b
00000370: f082 9bbd bbb8 d4bd 7e4e 09be a55b 2abc
00000380: 8900 e3bc 9916 5abd 148b ba3d 3609 0abe
00000390: c958 6dbd 0d80 523d 42b6 c43d 8b35 d43d
000003a0: b0b3 3bbd 17b9 5dbd 7f3a e7bd 8126 84bc
000003b0: 29ba 13bd 302e fb3b 2df3 08be 17c4 75bd
000003c0: f0a4 bc3c d1c6 f5bc 27a9 f03d b952 f2bc
000003d0: d05d fa3d 86a9 23bd 99a5 eabd 1173 4abd
000003e0: 4c86 a23d 0818 c0bd a1c4 b53d 600b 763c
000003f0: 7507 01be 6eb1 853d d853 47bd 96df f43d

lstm.weight_hh_l0 f4 [256, 64]
0.070321925 0.13310371 -0.047888454 0.06838638 -0.11921766 0.053352967 0.1274552 7.733407e-05
-0.08474176 -0.087577395 -0.06553254 0.023460595 -0.072060466 -0.023699813 -0.03376132 0.041493133
0.0072085736 -0.03306705 -0.09867245 0.06546325 -0.07917641 -0.008504763 0.13714692 0.028138971
0.059925057 -0.06809382 0.108548485 -0.11219789 0.08957848 -0.060528357 -0.055180732 -0.060625523
0.04885806 0.07248984 0.07549467 -0.10363009 0.08121604 0.06028816 0.038842484 0.058665752
0.11685757 -0.05003172 0.022981571 -0.13830225 -0.118097015 -0.024438275 0.010349721 0.040619574
-0.13113247 0.11991865 0.03509373 0.09443123 0.09533165 0.05994824 -0.10298479 -0.0016851672
0.06863006 -0.07937061 -0.08732566 0.04965348 -0.074340925 0.013993208 -0.041998614 0.12944803
-0.026892131 0.024860226 -0.06888247 0.031279836 0.017986253 0.07514126 0.07179597 -0.10528995
0.055437665 0.021515826 -0.10330053 -0.021777853 -0.07045711 0.08726823 -0.14133534 0.08446576
-0.13799527 0.08380678 -0.10571557 0.049154177 -0.051908754 0.016535552 0.13518433 -0.0355104
0.10664391 -0.084571674 -0.07450153 -0.0065404703 -0.06425605 0.085232385 0.091572545 -0.089147545
0.062123522 0.098947756 -0.097209185 0.08047051 0.010430431 0.025251636 -0.0041943328 -0.115878806
-0.064226106 0.017607037 -0.0022317865 -0.13650864 -0.027149295 -0.03640305 -0.13078964 0.11642625
0.027014708 -0.05112859 -0.012829653 -0.004826386 -0.02620004 -0.06835817 -0.013156198 -0.12223984
0.086238034 0.015950236 0.08689623 0.024516053 -0.08108094 0.04770334 0.07234114 0.07203788
0.1429622 0.09232468 -0.059264593 0.123562016 0.043102343 0.01763776 -0.060498558 0.09729238
-0.13051672 -0.05806376 0.01278164 0.071226224 -0.13119422 0.07302379 0.099806204 0.03919989
0.032915205 0.018396765 -0.053631123 -0.13768785 0.037719194 0.060769636 0.021041645 -0.05316122
0.08867206 0.059245512 -0.088424526 0.004685979 -0.06263713 -0.09228984 0.012744777 -0.08866855
0.08570858 -0.08296925 0.09039883 -0.06708089 -0.059958633 -0.08820742 -0.059455846 -0.005254839
0.05147142 0.04015839 0.06482519 0.04294539 -0.03315572 -0.104630545 0.011072632 -0.078245364
0.086377084 0.09115399 -0.07998672 -0.06796158 -0.10141438 0.0876293 -0.024931865 -0.027786344
0.10073313 -0.0054182718 0.026393926 0.010524076 -0.09768179 -0.06300568 -0.11064185 -0.089303255
-0.032418672 0.12259225 0.10220868 -0.066138096 0.11379622 -0.1019672 -0.025765171 0.015461134
-0.069654934 -0.056272455 -0.017759694 -0.12372074 0.060286243 -0.051690567 0.013952717 0.07120095
0.05007387 -0.0708089 -0.014326988 -0.09190918 0.086748995 -0.065750405 0.018620767 0.07888276
-0.08124643 0.0493697 0.08334303 0.02747034 0.048151605 0.067862935 -0.03236587 0.10533181
0.07671919 0.090339154 0.08429921 0.113211915 0.042526275 0.1274103 -0.0477425 0.062493954
-0.054185744 0.11636514 0.12388474 -0.027716666 0.056135625 0.02088106 -0.062291976 0.09710906
-0.098123215 0.09657128 0.052177556 0.10548066 0.010329829 0.05226878 -0.12569943 0.09179214
0.019517558 0.0031143264 0.05672711 0.08312457 0.121408455 -0.10397893 -0.10744433 -0.11380718
00000000: f104 903d 574c 083e af26 44bd 290e 8c3d
00000010: 6328 f4bd a488 5a3d 9e83 023e 6a2e a238
00000020: 168d adbd c75b b3bd ed35 86bd 6f30 c03c
00000030: 7094 93bd 1c26 c2bc 4f49 0abd b4f4 293d
00000040: e635 ec3b 5171 07bd c814 cabd 9911 863d
00000050: 3e27 a2bd 9057 0bbc 3e70 0c3e b383 e63c
00000060: fa73 753d c674 8bbd ab4e de3d 02c8 e5bd
00000070: ec74 b73d 95ec 77bd 3105 62bd 7852 78bd
00000080: 641f 483d 8e75 943d f39c 9a3d 033c d4bd
00000090: 9854 a63d b8f0 763d 4c19 1f3d 804b 703d
000000a0: 0653 ef3d 10ee 4cbd d943 bc3c 1b9f 0dbe
000000b0: d9dc f1bd c732 c8bc e091 293c b660 263d
000000c0: 9747 06be e997 f53d 71be 0f3d 2965 c13d
000000d0: 3d3d c33d 498c 753d b1e9 d2bd d4e0 dcba
000000e0: eb8d 8c3d 0f8d a2bd ccd7 b2bd 7361 4b3d
000000f0: 0e40 98bd c543 653c bd06 2cbd 068e 043e
00000100: e34c dcbc aca7 cb3c 4112 8dbd 491f 003d
00000110: e857 933c a9e3 993d c409 933d 42a2 d7bd
00000120: 9b12 633d f541 b03c 3a8f d3bd 7867 b2bc
00000130: d14b 90bd b0b9 b23d 36ba 10be 62fc ac3d
00000140: a24e 0dbe e4a2 ab3d 6881 d8bd e455 493d
00000150: 469e 54bd 9175 873c c36d 0a3e 5a73 11bd
00000160: 1f68 da3d ea33 adbd 4294 98bd 7151 d6bb
00000170: ad98 83bd 518e ae3d 638a bb3d fd92 b6bd
00000180: 3c75 7e3d 1fa5 ca3d 9c15 c7bd b9cd a43d
00000190: 66e4 2a3c 85dc ce3c 9d70 89bb de51 edbd
000001a0: fa88 83bd a23c 903c 2a43 12bb ecc8 0bbe
000001b0: 3368 debc 5d1b 15bd b8ed 05be e370 ee3d
000001c0: f34d dd3c 366c 51bd 7733 52bc a926 9ebb
000001d0: 77a1 d6bc 5eff 8bbd 188d 57bc e258 fabd
000001e0: 919d b03d 12aa 823c a7f6 b13d e4d5 c83c
000001f0: c40d a6bd 9464 433d 9727 943d 9988 933d
00000200: af64 123e b914 bd3d 6ebf 72bd 150e fd3d
00000210: 158c 303d 107d 903c 56cd 77bd 3a41 c73d
00000220: 2da6 05be 44d4 6dbd 156a 513c 0edf 913d
00000230: c757 06be 7f8d 953d 3267 cc3d 1090 203d
00000240: 18d2 063d d0b4 963c 4fac 5bbd 0bfe 0cbe
00000250: 717f 1a3d 95e9 783d 875f ac3c 94bf 59bd
00000260: b299 b53d 6cab 723d eb17 b5bd d78c 993b
00000270: e547 80bd 7502 bdbd 78cf 503c db97 b5bd
00000280: fb87 af3d c8eb a9bd 0623 b93d b561 89bd
00000290: 2f97 75bd 18a6 b4bd f987 73bd c930 acbb
000002a0: b2d3 523d 207d 243d 12c3 843d 81e7 2f3d
000002b0: 4bce 07bd 8a48 d6bd fc69 353c 1b3f a0bd
000002c0: 78e6 b03d f1ae ba3d 14d0 a3bd 712f 8bbd
000002d0: 58b2 cfbd fe76 b33d e93d ccbc 30a0 e3bc
000002e0: 2c4d ce3d c28b b1bb 1338 d83c 2d6d 2c3c
000002f0: 640d c8bd 1f09 81bd 3298 e2bd a0e4 b6bd
00000300: 71c9 04bd a511 fb3d c952 d13d 6973 87bd
00000310: fe0d e93d 2ed4 d0bd 7b11 d3bc b250 7d3c
00000320: 3fa7 8ebd f27d 66bd c77c 91bc 4d61 fdbd
00000330: b5ee 763d 7db9 53bd f099 643c ced1 913d
00000340: 421a 4d3d 4204 91bd bebb 6abc e13a bcbd
00000350: 75a9 b13d 26a8 86bd 948a 983c 498d a13d
00000360: 8764 a6bd e237 4a3d c0af aa3d 7a09 e13c
00000370: 9e3a 453d b9fb 8a3d 1392 04bd 34b8 d73d
00000380: f31e 9d3d bc03 b93d 10a5 ac3d a6db e73d
00000390: 0830 2e3d d877 023e a48d 43bd a9f9 7f3d
000003a0: dff1 5dbd d950 ee3d 48b7 fd3d 100e e3bc
000003b0: 78ee 653d c20e ab3c df25 7fbd 1de1 c63d
000003c0: d3f4 c8bd 2ac7 c53d 22b8 553d 3f06 d83d
000003d0: 713e 293c ca17 563d 5ab7 00be 84fd bb3d
000003e0: 49e3 9f3c ba19 4c3b b05a 683d 373d aa3d
000003f0: ffa4 f83d e8f2 d4bd c60b dcbd bd13 e9bd

lstm.bias_ih_l0 f4 [256]
0.08541166 -0.041745257 -0.011934496 0.044350702 -0.004262931 -0.029989846 -0.037498713 -0.12075743
-0.015305247 0.12571888 -0.122761 -0.009494876 0.101383954 0.04908043 0.08912171 0.07240568
0.052965768 -0.069165386 0.009202894 -0.05407271 0.12753326 -0.1252647 -0.008194739 0.09143803
-0.09395146 -0.069403045 0.018701632 0.12409558 -0.07580439 -0.04446387 0.09189916 0.1032965
-0.051421028 0.08464372 -0.048570238 0.042730473 -0.12671821 0.038423896 -0.03673286 0.11608815
-0.037464865 0.033564486 0.034258533 0.015784387 -0.1310983 0.04337627 -0.11286756 0.10680527
0.0009075546 0.08437196 0.09354016 0.10970221 0.020920286 -0.069001235 0.1062977 -0.041245703
0.02693716 -0.027262675 -0.021644404 0.10992785 -0.0489975 0.055864472 0.05540051 -0.060603246
0.023033293 0.03216399 0.103154615 -0.13009632 0.1059638 -0.035089187 0.10445854 -0.027684577
-0.06871097 0.07790315 -0.06581051 0.030993575 -0.038998283 0.00013320817 -0.09514447 -0.01024934
0.098754704 0.07488851 -0.029080873 -0.04428044 0.07411362 0.06853586 -0.105072804 0.11664429
0.07710206 0.029352838 -0.08395582 -0.018296469 0.11471027 0.013883169 0.12310279 0.05511916
0.08132677 0.099132106 0.1062062 -0.005540431 -0.09835947 0.057482805 -0.016569216 -0.07410667
0.07861542 -0.008646356 -0.004124743 0.109169476 0.012764444 0.075133994 0.08356273 0.020915091
0.09819496 0.048674915 0.019354148 0.093067005 0.08383267 0.08901295 0.012664012 -0.06645074
-0.10144511 -0.04016277 -0.0012531956 0.07528417 0.095112264 0.036231864 -0.103035845 0.12584792
0.051159594 -0.042680446 0.029724533 -0.03584995 -0.029294627 -0.09373242 0.049845334 -0.06994828
-0.037810102 -0.0829045 0.08383802 -0.044655815 0.1097358 0.11951741 -0.094269365 0.021318862
-0.07418494 -0.0020210117 -0.04244709 -0.09987482 0.0066391276 -0.008887883 0.011446039 -0.04580485
-0.018311087 0.061370466 -0.101610504 -0.06086054 0.05092818 0.11122279 -0.0712697 -0.10852986
0.091875605 0.031605963 -0.09819779 0.046823695 0.111942604 0.109913945 0.10226761 -0.04808961
0.023534263 0.10263093 0.10845591 -0.061236043 -0.11894594 0.038277287 -0.115390345 -0.048454735
-0.03741306 0.045861255 -0.025172232 -0.050640367 0.040683 -0.106812246 0.051914122 -0.10719574
-0.053216387 0.07380561 0.08878675 -0.06749504 -0.042699914 0.10288985 0.03412153 0.0821143
-0.018346563 0.027701402 0.036882658 0.1077148 -0.10025855 0.078469664 -0.06689954 -0.09191248
-0.070904806 -0.117151156 0.025523685 0.10877312 0.038984593 -0.0125914635 -0.0588072 -0.044905923
0.035676617 0.055964716 -0.020601207 -0.07291734 0.058560185 -0.045788325 0.09360262 -0.096707016
0.050778832 -0.115131244 -0.01707684 -0.0024895507 0.123566 -0.0043964987 -0.05719021 -0.08795755
0.044053048 0.018712569 0.0047309063 0.020518627 0.071560815 0.0445691 -0.13282482 0.13016982
0.093216695 -0.10154742 -0.08352957 0.041840397 0.007998277 -0.05671815 0.024497658 0.02076455
0.0045505897 0.07950336 -0.05521207 -0.07251998 -0.046907894 0.07994316 -0.032771166 -0.09531734
0.08473047 0.022949232 0.12029506 -0.09349891 0.02198071 -0.08765119 0.08615494 -0.014231171
00000000: 4fec ae3d 13fd 2abd e888 43bc 15a9 353d
00000010: 0fb0 8bbb 44ad f5bc 4098 19bd ac4f f7bd
00000020: dcc2 7abc 73bc 003e 1f6a fbbd 6590 1bbc
00000030: 64a2 cf3d 9008 493d 7185 b63d 6e49 943d
00000040: a2f2 583d 95a6 8dbd bcc7 163c 597b 5dbd
00000050: 1498 023e 6445 00be 3a43 06bc dd43 bb3d
00000060: a069 c0bd 2f23 8ebd 2a34 993c d325 fe3d
00000070: 553f 9bbd bf1f 36bd a035 bc3d 1e8d d33d
00000080: db9e 52bd b059 ad3d 96f1 46bd 2606 2f3d
00000090: 6bc2 01be 6062 1d3d 3275 16bd a0bf ed3d
000000a0: c274 19bd ea7a 093d ad52 0c3d 424e 813c
000000b0: a23e 06be 51ab 313d 1b27 e7bd b9bc da3d
000000c0: f5e8 6d3a 35cb ac3d fc91 bf3d 8dab e03d
000000d0: 0561 ab3c 8550 8dbd 9cb2 d93d 41f1 28bd
000000e0: 52ab dc3c f955 dfbc 9b4f b1bc da21 e13d
000000f0: 9ab1 48bd 25d2 643d a5eb 623d 1c3b 78bd
00000100: 51b0 bc3c 63be 033d ba42 d33d f837 05be
00000110: 8c03 d93d aeb9 0fbd 5cee d53d c4ca e2bc
00000120: 56b8 8cbd b08b 9f3d a9c7 86bd 3de6 fd3c
00000130: aabc 1fbd ccad 0b39 1bdb c2bd d9ec 27bc
00000140: e83f ca3d 265f 993d 033b eebc 685f 35bd
00000150: e2c8 973d 875c 8c3d 6930 d7bd 34e3 ee3d
00000160: afe7 9d3d 5d75 f03c 07f1 abbd 7ae2 95bc
00000170: 38ed ea3d 3b76 633c 511d fc3d a1c4 613d
00000180: a68e a63d c605 cb3d a382 d93d 818c b5bb
00000190: b170 c9bd 1773 6b3d 2abc 87bc 3dc5 97bd
000001a0: 1f01 a13d 72a9 0dbc da28 87bb 3f94 df3d
000001b0: f521 513c dadf 993d f022 ab3d 2056 ab3c
000001c0: 701a c93d 595f 473d 978c 9e3c ea99 be3d
000001d0: 76b0 ab3d 6c4c b63d b77c 4f3c 5317 88bd
000001e0: 74c2 cfbd b781 24bd 4442 a4ba 962e 9a3d
000001f0: 38ca c23d dd67 143d 7504 d3bd 47de 003e
00000200: b98c 513d b1d1 2ebd dd80 f33c 66d7 12bd
00000210: 49fb efbc c8f6 bfbd 9f2a 4c3d 0b41 8fbd
00000220: c4de 1abd d6c9 a9bd 45b3 ab3d 04e9 36bd
00000230: 2abd e03d 8bc5 f43d 4c10 c1bd e5a4 ae3c
00000240: 46ee 97bd f372 04bb 00dd 2dbd 2b8b ccbd
00000250: 0a8d d93b 7c9e 11bc 2b88 3b3c de9d 3bbd
00000260: 2201 96bc 995f 7b3d 2b19 d0bd e748 79bd
00000270: 119a 503d c6c8 e33d d9f5 91bd e744 debd
00000280: 4729 bc3d 4175 013d ec1b c9bd 34ca 3f3d
00000290: 2a42 e53d 901a e13d ae71 d13d 9cf9 44bd
000002a0: edca c03c 2a30 d23d 221e de3d a5d2 7abd
000002b0: ee99 f3bd a5c8 1c3d c651 ecbd 7978 46bd
000002c0: 703e 19bd 03d9 3b3d ff35 cebc 466c 4fbd
000002d0: 38a3 263d 61c0 dabd e7a3 543d 7189 dbbd
000002e0: 6df9 59bd 6527 973d d4d5 b53d d73a 8abd
000002f0: 1be6 2ebd eab7 d23d 04c3 0b3d 8b2b a83d
00000300: 884b 96bc 0dee e23c 4512 173d 9499 dc3d
00000310: 5b54 cdbd b4b4 a03d a002 89bd 9c3c bcbd
00000320: 8a36 91bd f2ec efbd 0c17 d13c 71c4 de3d
00000330: 4fae 1f3d 6d4c 4ebc d2df 70bd 46ef 37bd
00000340: a521 123d 423b 653d ddc3 a8bc b055 95bd
00000350: cedc 6f3d 8a8c 3bbd bbb2 bf3d 540e c6bd
00000360: 77fd 4f3d eec9 ebbd bbe4 8bbc bb27 23bb
00000370: 2c10 fd3d 8110 90bb 4840 6abd 1723 b4bd
00000380: f870 343d 1a4b 993c b805 9b3b ae16 a83c
00000390: 7a8e 923d 178e 363d 3b03 08be 3d4b 053e
000003a0: 65e8 be3d 18f8 cfbd 8d11 abbd d660 2b3d
000003b0: 350b 033c 4a51 68bd 50af c83c 6b1a aa3c
000003c0: 1d1d 953b a8d2 a23d 0d26 62bd 5b85 94bd
000003d0: 7e22 40bd 3db9 a33d 0f3b 06bd bd35 c3bd
000003e0: 2b87 ad3d 0700 bc3c 425d f63d 5b7c bfbd
000003f0: e410 b43c 7882 b3bd 0072 b03d dc29 69bc

lstm.bias_hh_l0 f4 [256]
0.11502551 0.02807456 -0.1336823 -0.008905658 0.089091666 -0.09869292 0.13603057 -0.0056999037
0.0063727736 -0.027801927 -0.06225478 0.12087615 -0.09419975 -0.10588211 -0.029494714 0.066588186
-0.0986961 0.050474115 0.08489551 0.107926875 -0.10605997 0.021140076 0.067313924 0.1246489
-0.089659214 0.024672411 -0.023456417 0.082821175 0.017835509 0.052561734 0.106180206 0.034724742
-0.020292424 0.019401137 -0.10492542 0.022070607 -0.014160191 0.067200735 0.007446936 0.047480028
0.03992586 0.072498985 -0.0709156 -0.00047239792 -0.05157868 -0.034106746 -0.024109658 0.07246723
-0.011728795 0.08610124 0.059654668 0.042619616 0.07435776 -0.060895704 0.06664084 0.094556674
-0.066941775 0.05180163 -0.068359695 -0.0074541215 -0.021149587 0.057935935 0.0884177 -0.0071151205
-0.098739386 -0.055786055 0.017982772 0.023756074 0.094593 -0.10221763 0.08544414 0.0141084585
-0.008662833 -0.031652525 -0.059417564 -0.056160133 -0.06912162 -0.040939 -0.105167486 0.119357966
-0.059687402 -0.08788577 0.03500582 0.0015829662 0.01936699 -0.10782703 0.05670476 0.0082387645
-0.02153611 -0.06982925 0.020043617 -0.07231232 -0.053453855 -0.0072541563 0.11029836 0.044481117
-0.02190114 0.024138262 0.00095117994 0.13514824 -0.053678203 -0.053689547 -0.078461125 -0.09629708
0.12151677 0.09993734 -0.02757919 0.06538617 0.040302698 -0.058281288 0.08526671 -0.12623033
-0.003691546 -0.10126788 -0.092502035 -0.049604084 0.055500165 -0.0001337395 -0.012418562 0.09662494
-0.015362754 -0.00825952 0.09142388 0.018669633 -0.04368976 -0.094375685 -0.08094036 0.07460946
-0.052028965 -0.012146328 0.13187851 -0.094297834 -0.049483575 -0.07038784 0.0908342 -0.073741876
-0.073390074 0.024412967 -0.13382128 0.05424927 -0.024772907 -0.117040165 0.029929947 0.09063867
0.029447239 0.04785539 -0.07050119 0.033670995 -0.019747311 -0.011567246 0.09977196 0.07138833
0.08774613 0.09011759 -0.05919317 -0.09130266 -0.10654062 0.12467992 0.06290541 0.053887166
0.11300915 -0.0008157242 0.08646062 -0.054004923 0.07308893 -0.034570046 0.03836732 0.015462133
-0.093921274 -0.030266045 0.015291909 -0.10116066 -0.08407916 0.069625035 -0.120591 0.111112304
-0.06435433 0.08956328 0.0689142 0.049887426 -0.02890243 0.09064587 0.075802475 -0.057848416
-0.027974725 0.050370287 -0.036039148 -0.06772413 -0.03047083 -0.07635784 0.06541299 -0.07808628
0.03136227 0.11113878 0.071376726 -0.0702593 -0.10579621 -0.06473221 0.013733642 -0.109440506
0.11750783 0.10629955 0.105353214 -0.004138455 -0.110491715 -0.03441464 0.08574225 0.051732503
0.12380292 -0.10282885 -0.10545457 0.02471421 -0.11473621 -0.12629859 -0.08365176 -0.028394196
-0.12563396 0.03248736 -0.050080698 0.031662036 0.089241475 0.07434905 -0.03012372 0.09082232
-0.074272946 -0.1304963 0.05072235 0.09200506 -0.027470043 -0.0044272724 -0.017241715 -0.030309752
-0.06035737 0.051365998 -0.0028064502 -0.08956089 0.005449506 0.076528884 -0.050507054 0.035748776
-0.03761418 -0.07179362 -0.093238614 0.12353249 0.06366813 -0.10535955 0.031981587 0.11622385
-0.12430277 -0.06442145 0.092408404 0.08651406 -0.060973704 0.05872421 -0.096296 0.041597147
00000000: 7f92 eb3d 9ffc e53c 03e4 08be 09e9 11bc
00000010: b175 b63d 831f cabd 994b 0b3e 42c6 babb
00000020: b3d2 d03b dec0 e3bc defe 7ebd ea8d f73d
00000030: cceb c0bd b8d8 d8bd e69e f1bc 635f 883d
00000040: 2e21 cabd f2bd 4e3d b2dd ad3d c408 dd3d
00000050: f835 d9bd f42d ad3c e2db 893d ec47 ff3d
00000060: 409f b7bd cc1d ca3c ac27 c0bc 269e a93d
00000070: c61b 923c f94a 573d 0275 d93d 883b 0e3d
00000080: 4c3c a6bc 22ef 9e3c 23e3 d6bd 6bcd b43c
00000090: 2500 68bc 8aa0 893d 6d05 f43b 6b7a 423d
000000a0: 4c89 233d 597a 943d 333c 91bd 2dac f7b9
000000b0: 2a44 53bd 84b3 0bbd 9e81 c5bc b369 943d
000000c0: 222a 40bc d955 b03d 7458 743d e891 2e3d
000000d0: e248 983d c66d 79bd fe7a 883d eea6 c13d
000000e0: c518 89bd f22d 543d 2b00 8cbd b441 f4bb
000000f0: e641 adbc 3b4e 6d3d 5714 b53d f525 e9bb
00000100: e037 cabd eb7f 64bd 9b50 933c 199c c23c
00000110: fab9 c13d 7a57 d1bd 56fd ae3d 2a27 673c
00000120: 8eee 0dbc 14a6 01bd d55f 73bd 2b08 66bd
00000130: a38f 8dbd a7af 27bd 0d62 d7bd f371 f43d
00000140: c77a 74bd 74fd b3bd 4362 0f3d 887b cf3a
00000150: 86a7 9e3c 6bd4 dcbd 4043 683d e2fb 063c
00000160: 7f6c b0bc a302 8fbd 8332 a43c 7b18 94bd
00000170: 6ef2 5abd 46b4 edbb 1be4 e13d d531 363d
00000180: 056a b3bc 9bbd c53c 9b58 793a 4d64 0a3e
00000190: addd 5bbd 92e9 5bbd 3ab0 a0bd 6737 c5bd
000001a0: c9dd f83d f3ab cc3d c1ed e1bc 2fe9 853d
000001b0: 7114 253d 5cb8 6ebd 50a0 ae3d 8642 01be
000001c0: dded 71bb 8965 cfbd b571 bdbd a72d 4bbd
000001d0: 2454 633d 6c3c 0cb9 3977 4bbc 4ce3 c53d
000001e0: 10b4 7bbc f052 07bc 713c bb3d 0ff1 983c
000001f0: 09f4 32bd 0a48 c1bd 0fc4 a5bd d8cc 983d
00000200: 531c 55bd 6401 47bc 290b 073e 391f c1bd
00000210: 4aaf 4abd 8027 90bd 4807 ba3d fb05 97bd
00000220: 894d 96bd b4fd c73c 7208 09be 7c34 5e3d
00000230: 8df0 cabc c1b2 efbd a62f f53c c4a0 b93d
00000240: 563b f13c 0304 443d ee62 90bd 99ea 093d
00000250: 1dc5 a1bc 8c84 3dbc 3e55 cc3d 0b34 923d
00000260: 3eb4 b33d 928f b83d 8a74 72bd e4fc babd
00000270: f831 dabd 3058 ff3d 8dd4 803d cab8 5c3d
00000280: 5771 e73d 53d6 55ba 4412 b13d 4434 5dbd
00000290: a6af 953d 5299 0dbd 0d27 1d3d e354 7d3c
000002a0: cc59 c0bd 7ff0 f7bc ea8a 7a3c 522d cfbd
000002b0: b231 acbd 9297 8e3d 6af8 f6bd d98e e33d
000002c0: 34cc 83bd f46c b73d e322 8d3d c256 4c3d
000002d0: cac4 ecbc 8ba4 b93d 543e 9b3d 76f2 6cbd
000002e0: 402b e5bc 1351 4e3d c99d 13bd f3b2 8abd
000002f0: f69d f9bc 8061 9cbd 3ff7 853d b3eb 9fbd
00000300: b975 003d bb9c e33d f62d 923d 1ce4 8fbd
00000310: afab d8bd 5292 84bd 1203 613c 5822 e0bd
00000320: f2a7 f03d 94b3 d93d 6dc3 d73d e09b 87bb
00000330: 7b49 e2bd 5ef6 0cbd a299 af3d 76e5 533d
00000340: 638c fd3d ef97 d2bd 91f8 d7bd 7475 ca3c
00000350: d1fa eabd 6b54 01be 9d51 abbd f29a e8bc
00000360: 30a6 00be 7711 053d 6b21 4dbd 0db0 013d
00000370: 3cc4 b63d 5144 983d 05c6 f6bc 0d01 ba3d
00000380: 6a1c 98bd d2a0 05be 3dc2 4f3d 266d bc3d
00000390: db08 e1bc a712 91bb 7f3e 8dbc 284c f8bc
000003a0: 4a39 77bd 2765 523d 6cec 37bb b36b b7bd
000003b0: c591 b23b 2dbb 9c3d 7ce0 4ebd 4f6d 123d
000003c0: 5411 1abd 8908 93bd e3f3 bebd 9afe fc3d
000003d0: 7064 823d bfc6 d7bd 20ff 023d c506 ee3d
000003e0: 7392 febd 65ef 83bd 9e40 bd3d 492e b13d
000003f0: 90bf 79bd cc88 703d d636 c5bd c561 2a3d

lstm.weight_ih_l1 f4 [256, 64]
0.05475746 0.1171495 0.115566485 0.06265389 0.01468158 -0.05279785 -0.084318265 0.122435644
-0.06802338 -0.06234086 0.014673421 -0.12892395 0.072819404 0.059504285 0.10857521 0.044043563
-0.051300127 -0.037556104 0.014148448 -0.03814324 0.09448144 0.09169601 0.09987964 0.12512583
-0.026381532 0.0043159965 0.11526649 0.11616577 0.022261748 0.0637067 -0.09494568 0.010145285
-0.10111736 -0.049400963 -0.08046487 0.024936395 0.08255288 -0.041586798 -0.028206578 0.058041766
-0.125919 -0.09682657 0.059488576 0.049985826 0.13871433 -0.030587988 -0.085267514 0.1146988
0.10782972 -0.02383026 0.0036590886 -0.07845178 -0.11303279 0.033076763 0.078736246 0.048792202
-0.11163036 0.013287641 -0.027198011 -0.10628074 -0.09262266 0.105066426 -0.031217396 -0.121491745
-0.02042967 0.11056136 0.13745423 0.010773968 0.025019504 0.04132606 0.10881301 -0.029154953
-0.070685305 -0.03540107 0.04120405 0.0047043893 -0.031130582 -0.03914727 -0.08985462 0.07114701
-0.11691339 0.038155403 -0.08547103 -0.07987786 0.02158216 0.1289584 -0.020658916 -0.09372245
0.054511547 0.08752692 -0.08467031 -0.10624206 0.07130037 0.05724011 -0.06320322 0.07276556
-0.024781115 0.13928422 0.05673878 -0.02345086 -0.105435096 -0.017553082 -0.074583486 -0.10818524
-0.01902642 -0.09729909 -0.012718822 0.050180487 -0.033284232 -0.08918396 0.0004387312 0.04317519
-0.02176364 -0.103763096 0.05177745 0.091078706 0.12312322 0.087767325 -0.09523364 0.004859006
-0.017862555 0.102502204 0.09526612 -0.051461738 -0.13647753 -0.027679887 0.07267234 0.04297885
0.107681185 0.06721832 -0.0093383035 0.10601576 0.011169101 -0.09627015 0.04080543 -0.086271316
-0.06924125 0.05634346 0.046925537 0.09256568 -0.013099059 0.09780281 -0.050366227 0.0032836574
-0.08808524 0.05534664 -0.012426255 0.108184315 -0.08195752 0.041161343 -0.10720536 0.02601994
0.010402835 -0.063331544 -0.033997793 0.08010467 0.12205043 0.018624907 0.028823359 -0.031584416
-0.11116672 0.049037356 -0.10753484 0.07834915 0.12839569 0.025532458 0.063027024 0.038425382
-0.08778134 -0.025727797 0.08891774 -0.040131275 -0.022052491 -0.04374155 -0.0010912081 0.10291934
-0.06602162 -0.05440799 -0.031102072 0.124675155 0.07711681 -0.083460934 -0.02291355 0.012916649
0.013789731 -0.10353244 -0.01117877 0.08650659 0.010907376 0.1140077 0.04048317 -0.05185327
-0.067279205 -0.07940431 -0.08068468 0.015597055 0.011339752 -0.044213828 0.079181686 0.10777308
0.1344609 -0.051281273 -0.08046309 -0.081300125 -0.09269938 -0.08072663 0.10545956 -0.08276405
0.0058260323 0.13187689 0.07951931 0.04722678 0.005031106 0.021938676 0.09391261 0.010566505
0.12117107 -0.0032795852 0.031594932 0.07210898 0.05457784 0.07096281 -0.06063301 -0.13396022
0.07672372 -0.067073785 0.11353397 -0.000713383 -0.03139183 -0.092212655 -0.035627704 -0.068840265
-0.06571386 -0.107556716 0.11601806 0.01888378 -0.05678487 -0.01764569 0.10233472 -0.05664718
-0.06862748 -0.061911948 0.07712259 -0.059815537 -0.11177668 -0.08817629 0.088817574 -0.09859704
-0.108306736 0.070999466 0.0065872828 0.12047165 0.014096429 0.00677153 -0.06964456 0.003824972
00000000: 5c49 603d 14ec ef3d 1fae ec3d af50 803d
00000010: 028b 703c 8f42 58bd 0eaf acbd 8abf fa3d
00000020: d84f 8bbd 2159 7fbd ca68 703c a404 04be
00000030: 5722 953d c4ba 733d ae5c de3d 0667 343d
00000040: 1520 52bd 6ed4 19bd e4ce 673c 163c 1cbd
00000050: 7c7f c13d 1ecb bb3d b28d cc3d fc20 003e
00000060: 151e d8bc 346d 8d3b d610 ec3d 52e8 ed3d
00000070: 455e b63c a978 823d e172 c2bd 6938 263c
00000080: 9e16 cfbd aa58 4abd c4ca a4bd 6947 cc3c
00000090: 7c11 a93d eb56 2abd 7b11 e7bc 34bd 6d3d
000000a0: e9f0 00be 024d c6bd 4baa 733d f0bd 4c3d
000000b0: 210b 0e3e a993 fabc bca0 aebd 34e7 ea3d
000000c0: d4d5 dc3d ad37 c3bc 52cd 6f3b 54ab a0bd
000000d0: bc7d e7bd 807b 073d 7840 a13d 55da 473d
000000e0: 759e e4bd 68b4 593c 5dce debc b7a9 d9bd
000000f0: f3b0 bdbd 112d d73d a0bb ffbc aad0 f8bd
00000100: 205c a7bc ff6d e23d cdc0 0c3e 4c85 303c
00000110: b4f5 cc3c 8445 293d 5bd9 de3d 5ed6 eebc
00000120: 75c3 90bd b600 11bd 94c5 283d 4727 9a3b
00000130: 9005 ffbc e358 20bd b305 b8bd 86b5 913d
00000140: 4a70 efbd d748 1c3d 6f0b afbd 0197 a3bd
00000150: 12cd b03c ac0d 043e e33c a9bc 8ef1 bfbd
00000160: 8047 5f3d 5041 b33d a167 adbd 7095 d9bd
00000170: ee05 923d 9b74 6a3d b170 81bd 1c06 953d
00000180: c401 cbbc 86a0 0e3e ec66 683d 051c c0bc
00000190: 5bee d7bd 7bcb 8fbc 3abf 98bd 3990 ddbd
000001a0: 4bdd 9bbc bf44 c7bd 9b62 50bc 0e8a 4d3d
000001b0: 0c55 08bd 14a6 b6bd 8105 e639 78d8 303d
000001c0: a949 b2bc bf81 d4bd 9714 543d 7987 ba3d
000001d0: 0728 fc3d 5bbf b33d db09 c3bd 4c38 9f3b
000001e0: 7e54 92bc adec d13d e21a c33d 8bc9 52bd
000001f0: c4c0 0bbe eec0 e2bc 3cd5 943d 970a 303d
00000200: f487 dc3d c2a9 893d afff 18bc ca1e d93d
00000210: 9bfe 363c 4929 c5bd 9823 273d 04af b0bd
00000220: 5bce 8dbd 66c8 663d fe34 403d 1393 bd3d
00000230: 709d 56bc d74c c83d d14c 4ebd a132 573b
00000240: 0966 b4bd 29b3 623d 7e97 4bbc bd8f dd3d
00000250: 58d9 a7bd cc98 283d 7c8e dbbd c527 d53c
00000260: a770 2a3c f8b3 81bd 4541 0bbd eb0d a43d
00000270: 93f5 f93d 4393 983c f71e ec3c a95e 01bd
00000280: 61ab e3bd 65db 483d 3a3b dcbd 8575 a03d
00000290: 297a 033e 7229 d13c 5014 813d ef63 1d3d
000002a0: b4c6 b3bd 1ac3 d2bc 811a b63d b160 24bd
000002b0: 6da7 b4bc 572a 33bd de06 8fba 60c7 d23d
000002c0: 5836 87bd eada 5ebd c6c9 febc b055 ff3d
000002d0: 6bef 9d3d 91ed aabd 32b5 bbbc 5aa0 533c
000002e0: 53ee 613c d108 d4bd 2927 37bc 5e2a b13d
000002f0: dab4 323c de7c e93d aed1 253d 1864 54bd
00000300: aec9 89bd ba9e a2bd 023e a5bd ca8a 7f3c
00000310: 5eca 393c 8f19 35bd 022a a23d 22b8 dc3d
00000320: 1eb0 093e 500c 52bd d5c9 a4bd ae80 a6bd
00000330: 2cd9 bdbd 0154 a5bd 2ffb d73d 3380 a9bd
00000340: 4de8 be3b bc0a 073e 05db a23d de70 413d
00000350: fadb a43b bdb8 b33c 4155 c03d 221f 2d3c
00000360: 8a28 f83d 4fee 56bb b069 013d dfad 933d
00000370: 038d 5f3d f354 913d 525a 78bd de2c 09be
00000380: 5321 9d3d fb5d 89bd 8084 e83d 5302 3bba
00000390: b894 00bd fdd9 bcbd 5bee 11bd 20fc 8cbd
000003a0: fd94 86bd b246 dcbd e09a ed3d 28b2 9a3c
000003b0: 4097 68bd b28d 90bc de94 d13d e006 68bd
000003c0: 908c 8cbd 6297 7dbd 73f2 9d3d 2301 75bd
000003d0: 2ceb e4bd c595 b4bd fde5 b53d 3fed c9bd
000003e0: eccf ddbd 2b68 913d 22da d73b d7b9 f63d
000003f0: b5f4 663c b6e3 dd3b cfa1 8ebd 62ac 7a3b

lstm.weight_hh_l1 f4 [256, 64]
-0.06340409 -0.107794 0.056067206 -0.034970738 0.0049759094 0.10756017 0.04833387 -0.11916205
-0.030117545 0.09129565 0.12777695 -0.0037668387 0.037957676 -0.06112953 -0.0760501 0.063280374
-0.01861892 -0.06680979 -0.05397591 -0.08358457 0.014071015 -0.060343295 0.0021021613 0.041053392
0.053086493 -0.061878163 0.07227565 0.071504235 0.04974902 0.08848996 0.028292997 -0.052438445
0.018333375 -0.07799096 0.067144826 0.10468531 -0.09791185 -0.049664345 0.06981693 -0.03262914
-0.011287159 -0.020216512 0.040339753 -0.06828593 -0.04518689 0.058234766 -0.07939018 0.10574566
0.105338626 -0.10963816 0.052163094 0.12911585 0.02433096 -0.04886491 0.070342906 -0.0017359414
-0.009278233 -0.0036324605 -0.024931733 0.12150272 -0.040143184 0.070392415 -0.12624566 -0.013001567
-0.034494724 -0.10511949 -0.05148591 0.100912385 0.09249906 -0.09627612 -0.09685673 -0.09485814
-0.033648856 -0.00892771 0.12954482 -0.09054669 0.021934941 -0.013146395 0.11938549 -0.057428047
-0.04205219 0.048052456 -0.033470403 -0.02125054 -0.1098544 -0.050519254 -0.051934008 -0.0631203
-0.111282855 -0.09991968 0.073335215 -0.00084199687 -0.12205254 -0.021659868 -0.078982644 -0.0572217
0.109409064 -0.03846413 -0.11445066 0.117573716 -0.06767532 0.047110114 -0.019023284 -0.04507848
-0.049828246 -0.10426567 0.028243365 -0.048359483 0.1357141 -0.11178813 0.08037414 0.014289388
-0.035785995 0.1315108 -0.08160849 -0.0037940706 0.13072047 0.059722092 0.009210758 0.099992804
0.124947466 0.03425196 0.13486555 -0.06074498 0.03915031 -0.0762033 0.10680301 0.1116749
-0.01601627 0.05483363 0.014691386 -0.0014037315 -0.040853243 -0.054028895 -0.09281615 0.09557994
0.08567641 0.09792389 -0.067629576 -0.0761278 -0.061157506 -0.05431568 0.10741458 -0.07480663
0.018851334 -0.07303661 -0.058203585 0.09761682 -0.07415286 0.035911907 -0.09009326 0.010683671
-0.09111893 -0.013209754 -0.09289913 -0.07371826 -0.019544855 -0.11800527 -0.07277326 -0.08985033
0.0953394 -0.14112207 0.06682796 -0.09487026 -0.08176251 0.033745386 0.10209372 -0.01925151
-0.006056809 0.10129739 0.07287735 -0.037543412 -0.08378664 -0.019275265 -0.038281456 -0.060557924
0.0068121357 0.120264 0.04793041 -0.097539105 -0.06247449 -0.04623298 -0.05508504 0.11634885
-0.11736963 0.038765356 0.08771129 -0.057587735 0.003388273 0.03549759 0.04765757 -0.0293947
-0.04964275 -0.06447866 -0.08201238 -0.12800305 -0.04480035 0.07856263 -0.08504399 0.07167076
-0.09828219 0.0004285461 0.09162408 0.1353529 -0.07705035 -0.13639496 -0.023334965 0.10058464
0.11790635 0.09041665 0.041709263 0.10566921 -0.08885251 0.04240612 -0.007162738 0.0407211
0.04084488 -0.09031512 0.037617974 0.09731193 0.08111857 0.07909933 0.044405762 -0.0566506
-0.08221848 -0.08532724 -0.014186749 0.11028415 0.059434757 -0.057424136 -0.05847606 0.07966085
0.10723435 -0.102386214 0.14599074 -0.09201533 -0.042983823 0.0746859 -0.10472597 -0.12866026
0.036803674 0.10879294 -0.07675045 -0.060011014 0.02763592 -0.06924786 -0.0047779684 0.101612
-0.052327592 0.0631892 -0.07173318 -0.03439315 -0.11051194 0.09318273 0.08803411 0.12168504
00000000: 01da 81bd 1ac3 dcbd baa6 653d 7a3d 0fbd
00000010: f40c a33b 8248 dc3d bcf9 453d 3c0b f4bd
00000020: 12b9 f6bc 37f9 ba3d f6d7 023e 11dd 76bb
00000030: 8279 1b3d f562 7abd 28c0 9bbd 2499 813d
00000040: b586 98bc 92d3 88bd d815 5dbd 632e abbd
00000050: 1d8a 663c 882a 77bd 6ac4 093b 9a27 283d
00000060: 3971 593d f573 7dbd 4205 943d d070 923d
00000070: a1c5 4b3d 393a b53d b7c6 e73c b2c9 56bd
00000080: e02f 963c b9b9 9fbd 3a83 893d 4065 d63d
00000090: 0286 c8bd d76c 4bbd 2efc 8e3d 22a6 05bd
000000a0: c7ed 38bc 199d a5bc 4c3b 253d 7ed9 8bbd
000000b0: e315 39bd 9487 6e3d 5297 a2bd 2e91 d83d
000000c0: c7bb d73d f989 e0bd f8a8 553d f236 043e
000000d0: b951 c73c 9226 48bd f10f 903d 8788 e3ba
000000e0: bb03 18bc 930e 6ebb a23d ccbc 6bd6 f83d
000000f0: 2e6d 24bd e629 903d 8b46 01be 8604 55bc
00000100: 574a 0dbd e348 d7bd e4e2 52bd 27ab ce3d
00000110: 2670 bd3d 6a2c c5bd d25c c6bd fc44 c2bd
00000120: 62d3 09bd 8845 12bc 66a7 043e 8b70 b9bd
00000130: e8b0 b33c fa63 57bc 6180 f43d ac39 6bbd
00000140: eb3e 2cbd a7d2 443d 4318 09bd 9d15 aebc
00000150: 58fb e0bd 47ed 4ebd c1b8 54bd 3745 81bd
00000160: 44e8 e3bd b0a2 ccbd c630 963d 74b9 5cba
00000170: aff6 f9bd 0970 b1bc a7c1 a1bd 4d61 6abd
00000180: dc11 e03d 908c 1dbd 1c65 eabd 7dca f03d
00000190: 5c99 8abd 89f6 403d b8d6 9bbc 36a4 38bd
000001a0: b418 4cbd 3d89 d5bd a15e e73c 9814 46bd
000001b0: a3f8 0a3e 2df1 e4bd 329b a43d 0a1e 6a3c
000001c0: 5694 12bd c4aa 063e 5a22 a7bd f1a5 78bb
000001d0: 96db 053e 279f 743d b8e8 163c 07c9 cc3d
000001e0: 75e4 ff3d c94b 0c3d 321a 0a3e bacf 78bd
000001f0: 135c 203d 7a10 9cbd 89bb da3d cfb5 e43d
00000200: 8d34 83bc 3a99 603d 24b4 703c 6afd b7ba
00000210: bb55 27bd 674d 5dbd 6516 bebd 6abf c33d
00000220: 1d77 af3d 528c c83d 6081 8abd e4e8 9bbd
00000230: 4b80 7abd 1e7a 5ebd 2dfc db3d 3834 99bd
00000240: 1d6e 9a3c 3894 95bd e266 6ebd 54eb c73d
00000250: 74dd 97bd 5d18 133d d182 b8bd 900a 2f3c
00000260: 909c babd b96d 58bc e641 bebd 99f9 96bd
00000270: 881c a0bc bfac f1bd 260a 95bd 7303 b8bd
00000280: 4e41 c33d 4e82 10be 19dd 883d 574b c2bd
00000290: 1a73 a7bd 9a38 0a3d 8316 d13d 58b5 9dbc
000002a0: 3278 c6bb 0275 cf3d b840 953d 1fc7 19bd
000002b0: 5498 abbd 29e7 9dbc 04cd 1cbd 960b 78bd
000002c0: 5638 df3b f94c f63d ad52 443d 95c2 c7bd
000002d0: 40e5 7fbd cb5e 3dbd daa0 61bd 4e48 ee3d
000002e0: 7d5f f0bd 6cc8 1e3d faa1 b33d 1ee1 6bbd
000002f0: ca0d 5e3b ec65 113d 9634 433d 27cd f0bc
00000300: 3256 4bbd 630d 84bd 1bf6 a7bd 3b13 03be
00000310: 9280 37bd 72e5 a03d 8b2b aebd 1fc8 923d
00000320: 2c48 c9bd 7cae e039 68a5 bb3d f399 0a3e
00000330: 93cc 9dbd 1fab 0bbe f828 bfbc 52ff cd3d
00000340: e278 f13d 5d2c b93d 55d7 2a3d 1969 d83d
00000350: 4ef8 b5bd 0ab2 2d3d 67b5 eabb 2bcb 263d
00000360: f64c 273d 22f7 b8bd 4e15 1a3d 7a4b c73d
00000370: 7e21 a63d d4fe a13d d1e2 353d 760a 68bd
00000380: 2a62 a8bd 0cc0 aebd 8a6f 68bc a8dc e13d
00000390: dc71 733d 9235 6bbd 9884 6fbd 3a25 a33d
000003a0: af9d db3d ddaf d1bd 997e 153e 8972 bcbd
000003b0: ce0f 30bd ecf4 983d 927a d6bd 84bf 03be
000003c0: 73bf 163d d5ce de3d 572f 9dbd 1cce 75bd
000003d0: ba64 e23c d2d1 8dbd 8190 9cbb f419 d03d
000003e0: 7555 56bd 5769 813d d8e8 92bd d5df 0cbd
000003f0: 1654 e2bd 96d6 be3d 3a4b b43d 0236 f93d

lstm.bias_ih_l1 f4 [256]
0.049046367 0.018717032 -0.11401698 0.13532117 0.061851874 -0.061059576 0.12850228 0.11824038
-0.072901405 -0.04480269 -0.08747679 -0.07553787 0.012992246 0.017222114 0.0909308 0.0764438
0.07453114 0.012517622 0.06256115 0.07635534 -0.06863961 0.062448837 0.0851366 0.07714013
0.043576945 0.09974159 0.07427859 -0.11348704 0.061893877 0.05004238 0.106339574 0.1142953
-0.032691907 -0.010790948 0.02777939 -0.06024175 0.039837096 -0.022673413 0.05107662 -0.0027774775
-0.11124257 0.002466149 0.058565076 0.111278914 0.02603441 0.06139719 -0.10572038 0.08466299
0.004790667 0.022691548 -0.06434582 -0.12254672 -0.0056254296 -0.029215124 0.11207419 0.067203775
-0.11817962 -0.123626776 -0.05809198 0.02382223 -0.094788 -0.06933596 0.103466004 -0.12100784
-0.009331442 0.10600337 0.10013249 0.04220792 -0.03429094 -0.06585519 0.10716318 -0.028906165
-0.12495702 -0.022122737 -0.07518373 0.04355517 -0.10255676 0.004813418 0.09176828 -0.03130312
0.0132407285 -0.10834053 0.086694784 0.11014293 0.035987876 -0.10804107 -0.036564738 -0.056666628
0.11746577 0.031859133 0.004858181 -0.023119316 -0.091606 0.056740675 0.04188133 0.08099184
-0.040676247 -0.019767683 -0.026425973 0.0128785595 -0.04015706 0.06962175 0.046686605 0.028424403
0.0355141 -0.030898394 0.036985513 0.03848164 0.075651854 -0.067053765 0.06701494 0.049657904
-0.061669473 -0.018055057 -0.06613367 -0.030832114 -0.11562705 0.114909634 0.08377498 0.031407077
-0.018534826 0.07678145 0.102949575 0.1270085 0.06669269 -0.05126673 0.032865368 0.07089953
0.06885511 0.10822265 -0.09891432 0.042721197 0.033792526 0.08709628 -0.039890826 0.056790974
0.033630446 -0.045222893 0.11203635 0.073107496 -0.063093595 -0.0130646825 -0.02847392 -0.07592911
0.057666678 0.082255185 0.0010265934 0.10329079 -0.05320732 0.03621978 -0.06582487 -0.09811511
0.0009578712 0.04657614 0.039227422 -0.062451307 0.0866912 0.08571218 -0.030072954 0.037381854
0.13362378 -0.09323966 -0.10388864 0.045099057 0.10902339 -0.091838084 -0.03442299 -0.02218379
-0.038067017 -0.01307779 -0.06999796 0.03409746 -0.02181982 -0.11379483 -0.00067376584 0.063489325
-0.022136569 0.08532384 -0.06645723 -0.029004615 0.09922381 0.08016778 0.07310356 -0.11114305
0.0028927308 -0.09611731 0.113414705 0.06540039 -0.052311238 -0.03947959 -0.072233036 -0.00582033
0.054531697 0.100117505 -0.09651876 -0.0873898 -0.068588 0.012312601 0.06533718 -0.057972573
-0.090329 0.042772885 -0.07511774 0.032181706 0.023141041 -0.05202042 0.08089533 -0.123268545
0.05379248 0.0059085214 -0.03230269 -0.057626743 -0.024685878 0.0626023 -0.11125038 0.11230216
0.00018424873 0.0691378 0.11310085 -0.033348218 0.045008834 -0.03231647 -0.09261769 0.09849515
-0.064183064 -0.11451399 -0.021494633 0.07445564 -0.0106589245 -0.07640438 -0.124298505 -0.067549154
0.010106926 0.015193321 -0.10458286 -0.004746381 -0.052084345 -0.08275167 0.04110428 0.076917596
0.022808561 0.059462048 0.07663404 0.055774484 0.009527046 0.06325914 -0.046827387 0.10180375
0.0069980966 -0.08459855 -0.051433183 0.028268779 0.014111516 -0.09973239 -0.11489492 -0.039333206
00000000: d8e4 483d 7654 993c bc81 e9bd a291 0a3e
00000010: 6458 7d3d 9b19 7abd 1a96 033e 0328 f23d
00000020: 554d 95bd 0783 37bd 0827 b3bd 99b3 9abd
00000030: 6edd 543c 6415 8d3c ed39 ba3d 918e 9c3d
00000040: c8a3 983d b616 4d3c 0f20 803d 3060 9c3d
00000050: ed92 8cbd 5aca 7f3d 195c ae3d a5fb 9d3d
00000060: bd7d 323d 5245 cc3d 601f 983d e56b e8bd
00000070: 6f84 7d3d 3df9 4c3d 90c8 d93d a713 ea3d
00000080: f3e7 05bd 84cc 30bc 9a91 e33c 0ec0 76bd
00000090: 392c 233d 98bd b9bc b835 513d 5706 36bb
000000a0: 25d3 e3bd 1d9f 213b efe1 6f3d 33e6 e33d
000000b0: 1d46 d53c 9f7b 7b3d ed83 d8bd ca63 ad3d
000000c0: 07fb 9c3b a0e3 b93c bec7 83bd c6f9 fabd
000000d0: 8655 b8bb 8e54 efbc 2787 e53d 22a2 893d
000000e0: 2808 f2bd 0930 fdbd dbf1 6dbd d626 c33c
000000f0: 3620 c2bd 0300 8ebd fce5 d33d f5d2 f7bd
00000100: e8e2 18bc 4b18 d93d 4312 cd3d 36e2 2c3d
00000110: a874 0cbd 16df 86bd 5f78 db3d 9fcc ecbc
00000120: 77e9 ffbd be3a b5bc edf9 99bd e866 323d
00000130: 4709 d2bd e0b9 9d3b 02f1 bb3d b337 00bd
00000140: a4ef 583c a4e1 ddbd 098d b13d 9e92 e13d
00000150: 0668 133d a344 ddbd e8c4 15bd 441b 68bd
00000160: e591 f03d b97e 023d 6031 9f3b b864 bdbc
00000170: ed9b bbbd e968 683d c28b 2b3d 0ddf a53d
00000180: 239c 26bd d6ef a1bc 487b d8bc 9800 533c
00000190: bb7b 24bd d995 8e3d 743a 3f3d 4bda e83c
000001a0: 3c77 113d a11e fdbc 1f7e 173d ed9e 1d3d
000001b0: 5cef 9a3d 7c53 89bd 213f 893d 1666 4b3d
000001c0: 2199 7cbd 33e8 93bc 1771 87bd a193 fcbc
000001d0: e0cd ecbd be55 eb3d 3792 ab3d b5a4 003d
000001e0: 59d6 97bc 983f 9d3d 3ad7 d23d 840e 023e
000001f0: 2d96 883d 10fd 51bd d69d 063d c633 913d
00000200: e803 8d3d d6a3 dd3d 9793 cabd 6cfc 2e3d
00000210: 086a 0a3d 895f b23d 9064 23bd a79d 683d
00000220: 14c0 093d a43b 39bd 5073 e53d 62b9 953d
00000230: 3737 81bd 400d 56bc 2342 e9bc b980 9bbd
00000240: e533 6c3d 6875 a83d c28e 863a 1f8a d33d
00000250: ebef 59bd 315b 143d 30cf 86bd 93f0 c8bd
00000260: a619 7b3a 9fc6 3e3d efac 203d f1cc 7fbd
00000270: 288b b13d de89 af3d 8e5b f6bc b71d 193d
00000280: acd4 083e 6ff4 bebd 91c3 d4bd cab9 383d
00000290: a847 df3d 9b15 bcbd 1fff 0cbd c8ba b5bc
000002a0: 29ec 1bbd 3a44 56bc 175b 8fbd c7a9 0b3d
000002b0: 7bbf b2bc 440d e9bd a99f 30ba b106 823d
000002c0: c057 b5bc 44be ae3d ba1a 88bd 169b edbc
000002d0: da35 cb3d 012f a43d 52b7 953d f89e e3bd
000002e0: f893 3d3b 27d9 c4bd f845 e83d a4f0 853d
000002f0: 4f44 56bd 5ab5 21bd eaee 93bd 78b8 bebb
00000300: a15c 5f3d 680a cd3d a1ab c5bd 6cf9 b2bd
00000310: de77 8cbd cbba 493c 80cf 853d a674 6dbd
00000320: 69fe b8bd 9f32 2f3d 54d7 99bd f7d0 033d
00000330: 4892 bd3c 5d13 55bd 73ac a53d 3874 fcbd
00000340: 8155 5c3d 459c c13b d34f 04bd 050a 6cbd
00000350: 0a3a cabc a235 803d 3dd7 e3bd adfe e53d
00000360: e432 4139 1e98 8d3d 6ba1 e73d 2498 08bd
00000370: 2f5b 383d 465e 04bd 58ae bdbd d3b7 c93d
00000380: 6972 83bd 5086 eabd 8315 b0bc 337c 983d
00000390: c5a2 2ebc e679 9cbd 3790 febd 3657 8abd
000003a0: 8597 253c 68ed 783c 8a2f d6bd 8887 9bbb
000003b0: 6556 55bd b579 a9bd f65c 283d f986 9d3d
000003c0: 05d9 ba3c 7a8e 733d 4ff2 9c3d c973 643d
000003d0: 5417 1c3c 028e 813d 13ce 3fbd 7c7e d03d
000003e0: 4a50 e53b 0142 adbd 9aab 52bd ed93 e73c
000003f0: fd33 673c 7f40 ccbd 074e ebbd db1b 21bd
