artifacts/SKU_04/model.pt (torch, 219227 bytes, 12 tensors)

lstm.weight_ih_l0 f4 [256, 10]
000000 76 39 ff bd c4 3f d2 bd 8b ed 0b 3d 25 d6 ae bd
       -0.12462132 -0.102660686 0.034162086 -0.085369386
000010 15 4c 04 bd 52 99 b7 3d 54 f5 01 bd ff ed af bd
       -0.03229912 0.089647904 -0.031728104 -0.08590316
000020 11 82 e5 bd 58 b9 fb 3d 77 0c 1f 3d fa 68 c6 bd
       -0.11206449 0.12291211 0.038830247 -0.096879914
000030 50 bd 81 3d 75 f7 dc 3a a4 86 f3 3d 12 cc f8 3b
       0.063349366 0.0016858416 0.11890915 0.0075926865
000040 0e d9 06 3b 1c 31 b7 bd ba ce 01 bc e0 d3 85 bd
       0.0020576152 -0.08944914 -0.007922823 -0.065345526
000050 3f a6 0e bd b3 d1 47 3d ad 22 5d bd d7 0e 9d bd
       -0.034826513 0.04878397 -0.053988148 -0.07668846
000060 61 9f eb bd 44 cf 12 bd d3 06 c9 39 a7 c6 f5 bc
       -0.115050085 -0.035842195 0.00038342792 -0.030001951
000070 ff e9 97 3d 65 60 08 bd d4 a8 29 3d 2c d4 8c 3d
       0.07417678 -0.033295054 0.041420773 0.06876406
000080 1f 28 b8 bb d6 ba c1 bd e4 3a 76 bd 1c 90 a4 bd
       -0.005620017 -0.09459464 -0.060114756 -0.08035299
000090 6a e9 00 be 7e d3 2f 3d 77 3e 4d 3d ef 50 b9 3d
       -0.1258904 0.042926304 0.0501084 0.0904864
0000a0 f0 00 91 3d 8b 75 d8 bc 88 47 00 be 27 d7 f0 bd
       0.07080257 -0.026423236 -0.12527287 -0.11759787
0000b0 16 19 05 bd 9e 14 00 bc 6b fa 7b bd 05 2e da bd
       -0.032494627 -0.0078174155 -0.061518114 -0.10653309
0000c0 b8 19 b8 3d 2a 3b fb bd 3b 18 04 be 80 42 01 bc
       0.089892805 -0.12267144 -0.12899868 -0.00788939
0000d0 83 bb ac bc c6 df 00 bd df ef 14 3c 34 e3 21 3d
       -0.021085506 -0.031463407 0.009090393 0.03952332
0000e0 1d 79 d3 3c 07 fc 09 3d 3f 62 a9 3d 63 05 46 bb
       0.025814587 0.033687618 0.08270692 -0.0030215613
0000f0 16 38 df bd ac 32 72 bc f9 8e d6 bd 6c b5 6b 3d
       -0.108993694 -0.014782589 -0.104764886 0.057546064
000100 56 4c 9d bd 83 63 19 3c 94 72 6a 3d 24 49 d6 bd
       -0.076805755 0.009362104 0.057238176 -0.10463169
000110 05 69 9f bd a1 eb be 3d 89 7f b5 3d f8 ea 5b bd
       -0.07783703 0.093222864 0.08862216 -0.05369088
000120 fb 37 e8 3d 50 b6 cf bd dc c1 a3 3d 3f 97 72 bc
       0.113388024 -0.10142195 0.0799596 -0.014806568
000130 ae 63 23 3d ee c2 66 bd ed 4f 59 bc 15 8f 0a 3d
       0.039889984 -0.056338243 -0.013263685 0.03382786
000140 f7 09 10 3d 28 c6 3b 3d ee ba 03 3d 8b 3f ad 3d
       0.035165753 0.045843273 0.032160692 0.084593855
000150 c4 ad 02 3d 09 6a ad 3d 78 4d c6 3d e4 fd ab bd
       0.031903997 0.0846749 0.09682745 -0.08398035
000160 f0 9f 55 3c 87 0a ef 3d 37 91 ce bd d8 b5 41 bd
       0.01303862 0.1167193 -0.10086291 -0.04729256
000170 03 c9 8d 3d 34 05 69 bd cb 27 99 3d 23 cf d5 bd
       0.069231056 -0.056889728 0.07478293 -0.10439899
000180 1c 9e 97 bd 4c f7 ae bd e0 65 a7 3d d2 a6 1e 3d
       -0.07403204 -0.08543262 0.08173728 0.03873331
000190 c4 9b a6 bd c9 f2 e7 bd 16 94 0e 3e 57 1f 62 bd
       -0.08135179 -0.113256045 0.13923678 -0.05520567
0001a0 2e d9 e9 3d 84 c2 03 3d 8f a8 b1 bd 79 61 0d 3d
       0.11418377 0.032167926 -0.08674728 0.034516785
0001b0 97 7c eb 3d 3b d4 15 be 44 86 93 3d 83 fc 57 bd
       0.11498373 -0.14631741 0.072033435 -0.05273105
0001c0 8a f8 02 3e 57 fb 5d 3d df 11 3a 3d 1a 5d 0b be
       0.12790123 0.054194774 0.0454272 -0.13609734
0001d0 75 e8 cb bd bc dc c1 bc 65 3f 4f 3d 57 af 04 be
       -0.09956447 -0.023664825 0.050597567 -0.12957512
0001e0 83 54 5f 3d d8 fa dc 3d b5 df 10 3c f1 80 07 bc
       0.054523956 0.10790032 0.008842398 -0.008270488
0001f0 35 67 17 bc b3 4f 9a 3d f4 1b 3a 3d 9b e4 ed 3d
       -0.009240915 0.07534733 0.045436814 0.11615869
000200 77 c4 84 bd 0d fe 62 3c e1 cc 23 3d 48 58 01 3e
       -0.06482785 0.013854516 0.03999031 0.12631333
000210 c3 a2 b0 3d de 93 17 3d d6 b2 06 bc 20 e2 6a 3c
       0.08624794 0.03700625 -0.008221349 0.014336139
000220 1e b3 10 bd 73 6a e0 3d e1 b1 05 be 2b 83 10 bd
       -0.03532707 0.109578036 -0.13056137 -0.03528134
000230 1d 89 9c 3c ac f9 3e bd 22 d9 9d 3d 69 e2 a4 bc
       0.01910835 -0.046624824 0.077074304 -0.020127492
000240 d0 0c 81 ba 6a 66 aa 3d f7 e1 9e bc 1e 8f 2c 3d
       -0.0009845737 0.08320315 -0.019394858 0.042128675
000250 9f 1d ad bc b8 4c b5 3d 88 5d 8b 3d ca 65 c7 3d
       -0.021132289 0.088525236 0.06804949 0.097362116
000260 e5 22 7b bd 9a 45 f5 bd 9b c1 83 3d 70 e9 d5 bc
       -0.061312575 -0.11976166 0.06433412 -0.026112288
000270 88 1f 47 bd b4 3c a6 bd c9 cf 91 bd 00 c0 01 3e
       -0.048614055 -0.08117047 -0.0711971 0.12670898
000280 04 4f b9 3c 7e 96 2b 3d 53 73 99 bc 4e 5f 19 3d
       0.022620685 0.041891567 -0.018731749 0.037444405
000290 61 c4 91 bd 60 d4 4c 3d 9c 39 9f bd 2c c0 4e 3d
       -0.071175344 0.050007224 -0.0777466 0.050476238
0002a0 1f 34 0d be eb 3d c0 3d 6d bd e8 bc 11 e6 c6 3d
       -0.13789414 0.0938681 -0.028410638 0.097118504
0002b0 0b 7c 9f bd 57 d8 a0 bd c3 83 37 bd 1f 64 e8 bd
       -0.07787331 -0.078537636 -0.044803392 -0.113472216
0002c0 67 17 ff 3d 16 91 05 bd a9 34 79 3c 98 79 45 3d
       0.124556355 -0.032609068 0.015210309 0.048211664
0002d0 a4 25 5a bc 30 48 b9 bc cd cf 4c bd c7 6a 93 bd
       -0.013314638 -0.02261743 -0.05000286 -0.071981005
0002e0 1e 6d 82 bd 1a 21 fc 3c a1 5b ea 3b 81 ac 93 bd
       -0.06368469 0.030777503 0.0071520363 -0.07210637
0002f0 a0 df fc 3d 06 a1 38 bd f5 ed 68 3d 82 4f ba bd
       0.123473406 -0.04507544 0.05686756 -0.09097196
000300 75 41 23 3d 80 2c f1 3d 8d 1d dd 3d 3b 03 1e bd
       0.039857347 0.11776066 0.10796652 -0.0385773
000310 4b f9 df bd 3a bb 18 3d 15 e1 cd 3d 60 da 21 3a
       -0.10936221 0.03728793 0.100526966 0.0006174203
000320 21 d7 0a be ef 63 ae bd 34 59 f3 3d 0c dd ac bd
       -0.13558628 -0.085151546 0.118822485 -0.08440599
000330 d3 ea b4 3c 03 6c 29 bc 58 17 ef 3d 55 c1 04 be
       0.02208463 -0.010340693 0.11674374 -0.12964375
000340 13 d2 c0 3d 45 75 ba bd 2d d9 95 bc 78 1b b6 bd
       0.094150685 -0.09104399 -0.018292034 -0.08891958
000350 1f d3 02 be 3b 80 23 3d 03 71 6b bd 00 bf ab 3d
       -0.12775849 0.039917212 -0.057480823 0.0838604
000360 b9 80 da bd 8c d5 80 3b a2 40 80 3d 07 d8 2c 3d
       -0.10669083 0.003931707 0.06262328 0.042198207
000370 cc 6f 4a bc d7 39 17 bd 21 8a 79 3d 59 5c 39 bd
       -0.012355756 -0.036920395 0.060922746 -0.045254085
000380 72 6c 8f 3d e8 d9 c3 bd 4e ac dc bd a3 97 d6 bd
       0.07003106 -0.09563047 -0.10775052 -0.10478141
000390 57 09 93 3d 66 f9 82 bb 14 fa a2 3c 42 34 b7 3c
       0.07179516 -0.0039970158 0.019894637 0.022363786
0003a0 7d 38 e3 bc 29 f6 2e bd d2 30 63 3d 5f 85 7e 3c
       -0.027736897 -0.042715225 0.05546648 0.015534728
0003b0 a7 68 d7 bd e5 1f cb 3d 0b 4c 47 3d 53 21 52 bd
       -0.10518008 0.09918193 0.048656505 -0.05130131
0003c0 14 e8 89 3d ac 7f dc bc c5 fd 9a 3d a4 10 aa bd
       0.067337185 -0.026916347 0.07567934 -0.08303955
0003d0 a0 db 36 3d 8c 9e 70 bc bd 37 cb 3d 15 67 97 3d
       0.044643044 -0.014686238 0.099227406 0.07392708
0003e0 97 bf 88 ba 28 1d 01 3e b2 c2 b9 3d fb 25 a0 3d
       -0.0010433075 0.12608778 0.09070338 0.07819744
0003f0 92 91 09 be e4 08 75 3d 19 94 60 3d 08 6e c8 3d
       -0.13434437 0.059822932 0.054828737 0.09786612

lstm.weight_hh_l0 f4 [256, 64]
000000 d7 39 a7 3d cd 8f 26 bd 62 7a 87 bd f2 7a 34 bc
       0.08165329 -0.040664483 -0.066151395 -0.011015641
000010 b8 85 f3 bd 6f 39 af bb 8c d7 43 3c 75 02 fd 3c
       -0.11890739 -0.005347423 0.011953246 0.03088496
000020 61 b8 98 3c cd a2 87 3c 09 50 19 bd bc a3 93 bd
       0.018642606 0.016557122 -0.037429843 -0.07208964
000030 d4 64 49 3d 01 31 ac 3d 4e dc 10 be e9 49 6c bd
       0.049168423 0.08407784 -0.1414654 -0.057687674
000040 f2 6a dd bd 7a 6e 71 3d 3a ec bd 3d 59 c9 56 bd
       -0.10811414 0.05894325 0.09273572 -0.052438114
000050 2d 65 a6 bd fb d2 c8 3d bc 8f e8 3d e6 be e3 3c
       -0.081247665 0.09805866 0.1135554 0.027800988
000060 37 94 a1 bd d4 49 98 bb e8 d5 5e 3c 81 30 00 be
       -0.07889598 -0.004647473 0.013600804 -0.12518503
000070 8e 04 a7 bd a3 83 1a bd 8a 00 21 bd c1 e4 94 bc
       -0.081551656 -0.037723195 -0.039307155 -0.018175485
000080 e3 46 c6 3c 01 44 f2 3d 0c 9b f4 3c 4e 06 a5 bd
       0.024203723 0.11829377 0.029859088 -0.08057843
000090 bd 82 5e 3d e7 90 02 3d 91 7a e8 bd 56 38 ef bd
       0.0543239 0.03187647 -0.11351503 -0.11680667
0000a0 df c8 af 3d 0c 2f 16 bd 8d 85 3e bd 58 06 9f bd
       0.08583235 -0.03666596 -0.046514083 -0.07764882
0000b0 a5 c0 5f 3c b0 41 cc 3d 83 30 9b 3d 37 8c 91 bd
       0.01365677 0.099734664 0.07577612 -0.07106822
0000c0 80 64 ab 3c a2 3f ba bc af 2d e5 3c 34 b8 41 bd
       0.020921946 -0.02273542 0.027975885 -0.04729481
0000d0 95 72 86 bd 45 85 88 bd 00 9e 80 3d 00 5b 5f 3c
       -0.065648235 -0.06666044 0.06280136 0.013632536
0000e0 de a4 3c 3b f5 4c fb bd 53 ce d9 3d 3c f8 8e bd
       0.0028784792 -0.12270538 0.10635056 -0.06980941
0000f0 9d 15 7d 3d f6 b0 a6 3d b0 85 b4 3d 54 ed 8d bc
       0.06178819 0.08139221 0.08814561 -0.01732508
000100 e8 ed d0 bb d4 cf 31 bd d1 81 9f 3c 6a e1 75 3d
       -0.006376017 -0.04341109 0.019471081 0.060029425
000110 9f 32 ba bd f5 4b d7 bd ca 27 e4 bd 4a c4 59 bc
       -0.090916865 -0.105125345 -0.11140402 -0.013291428
000120 d3 9a b0 bd d3 e9 cd 3a 71 1d 20 bd cb 20 a4 3d
       -0.086232804 0.0015709944 -0.039090578 0.08014067
000130 59 40 de 3c 5d 13 68 bd c0 fd 1a bd 43 69 7b bc
       0.027130293 -0.05665909 -0.03783965 -0.015344921
000140 ec 52 6e 3c 18 f1 a8 bd bf 10 51 bd 1b b7 28 3d
       0.014546137 -0.0824911 -0.05104136 0.041190248
000150 d5 e2 03 be f4 f5 b2 3d e6 9d 1a 3e 59 e1 90 bd
       -0.12879498 0.08738318 0.15099296 -0.07074232
000160 9f 02 ee 3d 74 58 71 3d 32 e6 8b bd 1d 10 75 bd
       0.11621594 0.058922246 -0.06831016 -0.05982982
000170 67 93 e1 bd 6a c4 79 ba 7b 7a 17 bd 07 bc aa 3c
       -0.11014443 -0.0009527864 -0.03698204 0.020841612
000180 9f 51 18 3e 24 81 a9 3d 1d 4e f8 3c be 0f f3 bd
       0.14874886 0.08276585 0.030310685 -0.11868237
000190 39 79 b7 bd 7a 10 c0 3d be 09 d5 bd 5f a9 c2 bd
       -0.08958668 0.09378143 -0.10402249 -0.09504961
0001a0 25 b0 17 3b 48 5a a3 bd 6b 39 0e 3d b5 b5 c9 3b
       0.0023145762 -0.07976204 0.034722727 0.0061556944
0001b0 19 35 63 3d 42 91 5e 3b b8 b0 d3 bd ef 04 04 3e
       0.05547056 0.0033961092 -0.10336441 0.12892507
0001c0 1c 13 db bc e5 fd 0e be 66 98 af bc 72 e5 83 bd
       -0.02674251 -0.1396404 -0.021434974 -0.064402476
0001d0 40 ea 7e bd a2 66 0b 3e ed 14 9d 3c 75 d5 d0 bd
       -0.062235117 0.1361337 0.019175017 -0.10196964
0001e0 27 b2 77 3d 06 d8 e2 3c 61 ef d2 bd b5 84 2d 3d
       0.060472634 0.027690899 -0.10299564 0.042362887
0001f0 67 9e 46 3c a3 85 94 3d d9 62 16 be 98 2b 7f 3d
       0.012122727 0.07252052 -0.14686145 0.062297434
000200 9e dd 4d 3d 30 b6 2f bd bf f9 aa bd 96 1c 9d bd
       0.05026018 -0.042898357 -0.083484165 -0.07671468
000210 06 f8 eb bd d4 42 82 3b 41 88 bb 3d c9 ea 9f 3d
       -0.11521916 0.0039752517 0.09156848 0.078084536
000220 19 a4 b4 3d cc 14 30 3d da e6 ca bd fc 36 84 3d
       0.08820362 0.042988583 -0.09907313 0.064558
000230 f6 43 f8 3c 94 97 b7 bd f1 7f 23 3d 51 67 be bd
       0.030305844 -0.08964458 0.039916936 -0.0929705
000240 87 7b 1a bd 5a 0b ad bd c4 76 cc 3c 87 6f d0 3b
       -0.03771546 -0.08449431 0.024958976 0.0063609513
000250 3e 78 9e bd b7 73 91 3d 69 4c cd bc f1 61 e0 3d
       -0.07737778 0.07102149 -0.02506085 0.10956181
000260 dc 67 f2 bd 11 52 ab 3d 04 ea 19 be d3 2d c5 3d
       -0.11836216 0.08365262 -0.15030676 0.09627881
000270 e1 fe 82 3d 01 e4 fe 3c 86 2e 59 3d ce 0c 9a 3d
       0.063962705 0.03111458 0.053022884 0.075219736
000280 7a 6c ea bd 7a 86 b1 bd c4 b4 d8 bd 90 04 34 bb
       -0.114464715 -0.086682275 -0.10581353 -0.002746854
000290 87 54 af 3c 61 f9 89 bd 71 ce ad 3d 3c 6a e3 3d
       0.02140261 -0.067370184 0.08486641 0.11104247
0002a0 8d 75 a8 bd e5 88 b7 3d 66 eb b2 3d 94 0c 05 3d
       -0.08225546 0.089616574 0.08736305 0.0324827
0002b0 a7 80 ea bd f4 69 bb 3d 03 bb d4 ba 55 2f 99 3d
       -0.1145032 0.09151068 -0.001623005 0.07479731
0002c0 84 7a 7d 3d c1 98 90 bc 1c b9 0a be be 24 b9 3c
       0.061884418 -0.017650964 -0.13547176 0.022600528
0002d0 2b ed ce 3d 30 7d 03 be f4 af 68 bd eb 66 47 3d
       0.1010383 -0.12840724 -0.056808427 0.048682135
0002e0 82 70 9a 3d 9c f3 77 3d 16 04 fa 3d cb cf 31 bd
       0.075409904 0.06053506 0.122078106 -0.043411057
0002f0 a3 80 98 bd 7e b1 ef 3c 76 a3 2e bd cd 13 5c 3c
       -0.074464105 0.02925944 -0.042636357 0.013432455
000300 f4 8c d8 3d 14 4b 92 3c 60 15 69 3d d3 8c 57 bd
       0.1057376 0.017858066 0.05690515 -0.052624535
000310 af 4f cb 3b 69 95 01 3e 67 80 82 3d e4 d3 6f 3d
       0.0062045674 0.12654652 0.06372147 0.058551684
000320 9b d2 49 3d 19 33 be bc 20 02 98 3d d0 63 c5 bd
       0.049273115 -0.023217725 0.0742228 -0.09638178
000330 de 54 21 3b 12 ce 56 3c 0e 79 81 bd 59 66 c6 3d
       0.0024617235 0.013110654 -0.063219175 0.0968749
000340 b3 bb 19 bd 7e c7 cb 3d 0c 4f 5a bc 51 f9 5e 3d
       -0.03753252 0.099501595 -0.01332451 0.054436985
000350 ca b8 3e bd 60 50 80 3d 4c 7b 64 3d 74 4a 22 bb
       -0.046562947 0.0626533 0.055781648 -0.0024763616
000360 1b f5 e2 3d c7 f4 b3 bc 74 09 d2 bd cb 89 86 bc
       0.110819064 -0.021967305 -0.10255709 -0.016423127
000370 fe 91 c0 bd d2 fd fb bc 1e 81 31 bd 4f 5f 57 bd
       -0.09402846 -0.03076068 -0.043336026 -0.052581128
000380 34 3d 77 bd c6 0f 12 3d 96 2d b2 3d a9 b6 01 3e
       -0.060361102 0.035659574 0.08700101 0.12667336
000390 06 85 89 3d 1f 80 92 3d b9 50 c3 3d 67 e3 38 3c
       0.06714825 0.071533434 0.09536881 0.011284686
0003a0 ef 70 7a bd e2 b6 13 3c b7 78 a7 3d c0 cb 73 3d
       -0.061142858 0.009015771 0.081773214 0.059520483
0003b0 f9 58 04 3d e5 0b b3 3d 10 9b b2 3d 8d 0f 22 3c
       0.032311413 0.08742503 0.08720982 0.009891403
0003c0 4d ec ae 3c ca 5f bf 3d 34 56 99 bd e4 b3 94 3c
       0.021352911 0.09344442 -0.07487145 0.018152185
0003d0 67 ca fd bb 06 ec e9 bd 44 a3 0d be 87 46 f6 3d
       -0.0077450755 -0.11421971 -0.13831812 0.12025171
0003e0 06 20 2a 3d c5 c4 af 3d 73 05 02 bd 9b de 7c bd
       0.041534446 0.08582453 -0.031743478 -0.06173573
0003f0 29 b4 e3 bd d4 07 d4 3d ea 80 bd 3d a2 26 5a bd
       -0.11118347 0.103530556 0.09253104 -0.0532595

lstm.bias_ih_l0 f4 [256]
000000 3a a6 ea bd 2d d5 f7 3d 3e 63 b2 3c 4f 48 d1 bd
       -0.114574865 0.12101207 0.021775838 -0.1021887
000010 84 51 c2 3d d1 c0 e3 3d 5c 8f 91 bb 4f d2 84 bd
       0.09488204 0.11120761 -0.0044421386 -0.06485426
000020 e7 f3 06 bd 9d 5d 87 3d 8e 55 d3 bd e6 c7 c7 bd
       -0.032947447 0.06609652 -0.10319053 -0.097549245
000030 67 38 ab 3d 5b 3c 03 3e ba 4a 9c bd bf 11 78 3d
       0.08360367 0.12815993 -0.076314405 0.0605638
000040 c4 56 64 3d f7 71 ce 3d 2b 56 dd bd 06 fd 58 bc
       0.05574681 0.10080331 -0.10807451 -0.013243919
000050 a1 f3 0b 3d ce 26 c8 bd e0 5a bb bd c5 98 a9 bd
       0.03416789 -0.097730264 -0.091481924 -0.082810916
000060 44 5d 0e 3d de 0b 8d bd 1b 1a e6 3c 98 54 a0 bd
       0.034756914 -0.06887029 0.02808862 -0.07828635
000070 8c ba 54 bc e7 f7 bd bd da 4a a5 3d 68 0f ef 3d
       -0.012983929 -0.09275799 0.080709174 0.116728604
000080 7b e7 c0 3d 17 08 4f bd 3a 3d da 3d da fc da bd
       0.094191514 -0.050544824 0.10656209 -0.10692759
000090 19 cc 02 3e 78 6b ab 3b 49 a2 8c bc 31 5c 0d 3e
       0.1277317 0.005231317 -0.017167227 0.138047
0000a0 89 dd 8b 3c a5 37 f4 3d de a2 bc bd d6 e5 da bd
       0.01707341 0.11924676 -0.09210752 -0.10688369
0000b0 08 fb d7 bd 0b c6 3f 3d 58 cd be 3d b9 93 85 3d
       -0.10545927 0.046819728 0.0931651 0.065223165
0000c0 af 67 8f 3d 1e 60 b3 bd 9d 80 57 bc 62 14 70 3d
       0.07002198 -0.08758567 -0.013153222 0.05861319
0000d0 e7 33 09 3d 01 5a a8 3d b5 e1 57 bd ba ad dd 3d
       0.033496764 0.08220292 -0.052705485 0.10824151
0000e0 03 00 87 3c 42 32 e2 3c 10 33 87 bd 8d 5c 09 3d
       0.016479498 0.027611855 -0.06601536 0.03353553
0000f0 c5 f3 3a bd d8 11 2b ba 83 70 d5 3d d4 c6 bb 3d
       -0.045642633 -0.0006525791 0.104218505 0.09168783
000100 f4 e0 93 3d 83 ac 22 3d 68 35 bb 3b 58 66 4a bd
       0.07220641 0.0397153 0.0057131536 -0.04941401
000110 c7 4a 01 bd ae d3 fb 3c f1 2a 3a bd 3d 95 1b bc
       -0.031565454 0.030740585 -0.04545111 -0.00949603
000120 74 6b 00 3d 67 ad a4 3d 78 59 8a bd fa c1 d4 bb
       0.031352475 0.08040886 -0.06755346 -0.0064928504
000130 bb f7 86 3c 35 71 94 3c dd 56 e5 bb 18 2b 90 bc
       0.016475549 0.018120388 -0.0069988803 -0.017598674
000140 cf cf f7 bc 71 d3 9d bc 48 1f 00 bd 4a 0a 0f bb
       -0.030250458 -0.019265862 -0.031279832 -0.00218262
000150 d3 69 91 bd 2c be ea 3d ac 59 e0 3d 54 6a df bd
       -0.071002625 0.11462054 0.109546036 -0.10908952
000160 04 14 ce 3d f4 4e 2f bd ec 3c e5 3b 72 ff be bb
       0.100624114 -0.042799905 0.006995788 -0.0058287913
000170 37 03 16 3d 36 d0 4d bd e4 1f fb bd 49 b7 2f 3d
       0.03662416 -0.050247394 -0.12261942 0.042899404
000180 be ec f7 3a 82 5b 04 3d f3 e3 cc 3d 48 26 27 3d
       0.0018915159 0.03231383 0.10004415 0.040807992
000190 7c 94 f0 3d 68 67 44 3d 3a 52 ce bd 94 c0 14 3d
       0.11747071 0.04795018 -0.10074277 0.03631647
0001a0 ca 0c b8 3d 3c d9 49 3d b3 89 bd 3d 21 99 a3 bd
       0.08986814 0.049279436 0.0925478 -0.079881914
0001b0 50 9b 4f bd 33 87 e0 3c 98 38 18 3e e4 8e b6 3b
       -0.050685227 0.027408218 0.14865339 0.005571233
0001c0 ce f9 31 3d 51 28 30 bc 2d b8 36 3d 20 f8 cd 3b
       0.043451123 -0.0107518 0.044609237 0.0062856823
0001d0 f5 63 6a 3c 4b e8 8a 3c 11 ad 2f bd 01 eb a1 3d
       0.014306058 0.016956469 -0.04288966 0.079061516
0001e0 ca 5e 67 bd a5 97 6a 3d c5 1b 8d bd ac aa 3e 3d
       -0.056486882 0.057273526 -0.06890062 0.046549484
0001f0 e8 15 73 bd f4 9f 0e bd 15 cb 9d 3d 6e a3 b2 3b
       -0.059347063 -0.034820512 0.077047504 0.0054516112
000200 53 6e a6 bd 95 50 e3 3d 7f 01 21 3c b2 c7 db bd
       -0.081265114 0.11099354 0.009827017 -0.10731448
000210 e8 0c ee 3d b3 15 a3 3d 72 f9 1a bd fe 2b d1 3d
       0.116235554 0.07963123 -0.037835546 0.10213469
000220 2a 6f 9a bd 92 39 a9 bd 8c ba 3f bd cd e8 ab 3d
       -0.07540734 -0.08262934 -0.046808764 0.083940126
000230 35 a8 62 3d 80 18 c1 bd b3 2c bc 3d 10 5f 81 bd
       0.055336196 -0.09428501 0.09188213 -0.0631696
000240 80 15 f0 3d 7c 14 97 bc 37 b1 e1 3d 8a e8 75 bd
       0.11722851 -0.018442385 0.11020129 -0.06003622
000250 ab c1 f8 3d a8 aa 51 3d 13 4b 84 3d 75 c2 4d bd
       0.12146314 0.05118814 0.06459632 -0.050234277
000260 f7 17 d8 3d ea df a7 bd 13 f1 83 3d e9 b6 02 3c
       0.10551446 -0.08197005 0.06442466 0.0079781795
000270 d7 75 41 3d ab 43 04 be 5f e7 c5 bd aa 33 44 3c
       0.04723152 -0.12916438 -0.09663271 0.011975208
000280 5e 57 2f bc 70 a6 1b 3d 88 9b 09 bd 10 40 bd 3d
       -0.010701982 0.038000524 -0.03359559 0.092407346
000290 ce b4 13 3d 17 22 dc 3b f0 b8 96 3d cf be ec bd
       0.0360611 0.006717931 0.07359493 -0.11559831
0002a0 f3 c8 86 3d 0f 8b ed 3c 33 2e 43 3d 2a ec a1 3d
       0.06581297 0.028996972 0.04765148 0.07906373
0002b0 1a 4a a9 3d d6 0b a8 3c a0 eb df bc bd 1b 47 3d
       0.08266087 0.020513456 -0.027334034 0.048610438
0002c0 23 5c cc bc 80 00 c4 3d 82 7c 3c 3b 21 29 31 bd
       -0.024946278 0.09570408 0.0028760736 -0.043252114
0002d0 05 02 b0 bd 61 d4 fc 3d f3 9e 96 3c 1d 68 69 3d
       -0.08594135 0.123451956 0.01838634 0.056984056
0002e0 0e e6 d8 3d 64 8e 86 bd 74 5e 1f bd 0a bc d1 bd
       0.105907544 -0.065701276 -0.038908437 -0.10240944
0002f0 e4 5e e4 bd 6d d6 6b bc 3b 3c 79 bc e5 bf b3 3d
       -0.111509115 -0.014394385 -0.015212114 0.08776835
000300 7f 1e 64 3d ec 7d 92 bc 44 c2 31 3c af 0a bc bd
       0.055693146 -0.01788231 0.010849539 -0.09181725
000310 06 1b 25 bd 61 33 11 3d 98 c7 5d bd b7 9b 09 bb
       -0.040308975 0.03544939 -0.054145426 -0.0020997354
000320 cb 53 80 bd a9 c4 a6 3d 27 af 9c 3d bc d6 fb bc
       -0.06265982 0.08142979 0.07650595 -0.030742042
000330 18 81 9e bd 23 b9 e4 3d 66 77 cb 3b f5 e9 8b bd
       -0.077394664 0.111681245 0.0062093018 -0.06831733
000340 f4 2e cb 3d 8d 20 ac bd 5d 78 be 3d 48 24 f1 bd
       0.09921065 -0.08404646 0.09300301 -0.11774498
000350 2a 54 1c bd ad dc b9 bd b9 08 ac 3c 57 2a f5 bc
       -0.038166203 -0.09075294 0.021000253 -0.029927416
000360 e5 27 9c 3d e6 02 ca bd 8e bc 8b bb 04 44 0d 3d
       0.07624797 -0.09863834 -0.004264421 0.034488693
000370 75 07 3b bc c9 ab e9 3d 61 ae c6 bd 8e 15 3c bd
       -0.011415352 0.114097185 -0.09701229 -0.045918994
000380 60 53 ad 3d a9 a1 0b bd 9b ec 20 3d 70 4b bc 3d
       0.08463168 -0.034089718 0.039288145 0.09194076
000390 14 ab 19 bc ce 24 3b 3d 06 11 3d bd 4d 15 ce 3d
       -0.009379167 0.045689397 -0.046158813 0.100626566
0003a0 4b 1d fb 3d 76 22 34 bd a5 19 3f bd 3e 72 ee 3b
       0.122614466 -0.043978177 -0.046655316 0.0072768023
0003b0 1e fb 47 3c 9b 76 69 bd 49 16 07 3e ff d0 c5 bb
       0.012205867 -0.056997877 0.13192095 -0.006036877
0003c0 6c 26 9c bd 27 8e 28 bc 4f df 95 3d e9 ad 09 bd
       -0.07624516 -0.010287798 0.07317983 -0.03361312
0003d0 c9 60 01 be 1b 52 ee 3d b9 2b 8f 3d b3 4a 06 be
       -0.12634577 0.11636754 0.06990761 -0.13114433
0003e0 9f ff e6 bc 2d 6c ed bd de 80 b5 bd fb ce 8b 3c
       -0.028198062 -0.115928985 -0.0886247 0.01706647
0003f0 35 3e c1 3d 4a a0 50 3d 5f 3f 39 3d 09 a0 9a bd
       0.09435693 0.050934114 0.04522645 -0.075500555

lstm.bias_hh_l0 f4 [256]
000000 3b a0 7a 3d 06 90 92 3b be 93 4d bd b9 27 dd bd
       0.061187964 0.0044727353 -0.050189726 -0.10798592
000010 e1 54 4e bb 45 0c a2 bd de 1c 18 bc bd 92 93 bd
       -0.0031483697 -0.079124965 -0.009284226 -0.072057225
000020 b0 7c fa bc b7 1d 07 be d8 ef e3 bd 23 64 68 3d
       -0.030577034 -0.13194929 -0.11129731 0.056736123
000030 85 0e 41 3d 1f 66 f6 3d 8c 91 f7 bd a2 bb 7c bd
       0.047132988 0.12031197 -0.12088308 -0.061702378
000040 a8 99 31 3d 33 70 80 3d a7 a5 c5 3d cd 3e b9 3d
       0.04335943 0.062714 0.09650736 0.090451814
000050 93 00 0d bd f4 10 a4 bb 62 1f 34 3d f5 b1 11 bd
       -0.034424376 -0.005006904 0.04397524 -0.035570104
000060 88 ed fa 3d c4 7a 10 3e d4 ec ca 3d 68 00 0d 3c
       0.12252337 0.14109331 0.09908453 0.008606054
000070 e6 d4 83 3b ab a7 f4 3d e8 db d4 bd 81 5d 6a bd
       0.004023182 0.119460426 -0.10393506 -0.05721808
000080 81 b8 0b bd 4d 2a 5a 3d 36 70 c5 3d 52 2d f5 3d
       -0.034111504 0.053262997 0.09640543 0.11971535
000090 bc 63 3c 3d db e9 aa bc a7 cc c0 bd cf d4 0e 3d
       0.04599355 -0.020863464 -0.09414034 0.03487092
0000a0 9b d1 e9 bb 2e d1 7e 3d a8 94 d4 bc 21 a2 66 3d
       -0.0071355826 0.062211208 -0.025949791 0.056306962
0000b0 d9 e8 7d bd a1 99 a4 bd e2 b3 8f bd f1 33 f1 3d
       -0.06198964 -0.08037115 -0.07016732 0.11777485
0000c0 0e c6 1a bd ec c0 d3 3d 81 ea c6 3d 29 b9 95 3d
       -0.037786536 0.10339531 0.09712697 0.07310707
0000d0 5a 6a d1 3d 98 a5 a1 bc 42 e9 29 3c 3a fb e1 bd
       0.10225363 -0.019732282 0.010370554 -0.11034246
0000e0 08 72 e7 bd 2a 2c 9d 3c 44 da d4 bc 93 21 40 bd
       -0.113010466 0.019186098 -0.025982983 -0.04690702
0000f0 9f f8 1a 3d 63 14 f9 bd f3 81 b1 bd d8 91 99 bd
       0.03783476 -0.121620916 -0.08667364 -0.074985206
000100 5a 23 b3 3d 1a 7d a7 bd 70 66 f8 3d 2f 52 ad 3d
       0.08746977 -0.08178158 0.121289134 0.08462941
000110 57 50 ec bc a3 9d 28 bc a1 0b ed 3d 53 5e 09 3b
       -0.028846903 -0.01029149 0.11574484 0.0020960763
000120 3d e5 75 3d 23 29 00 be 08 4d 6f bd 41 b2 be bc
       0.06003307 -0.12515692 -0.058423072 -0.023278357
000130 cc 64 d7 3d b1 4e d1 3d f1 c5 d4 3c 40 59 8c bc
       0.10517272 0.10220087 0.025973292 -0.017132401
000140 69 57 8c bd 66 f7 91 bd 93 7e c0 3d c0 0a 59 bc
       -0.0685261 -0.07127266 0.09399142 -0.013247192
000150 b1 c3 a0 3d a2 3c 4f 3c 9e 3d f3 3d 03 b6 5a bb
       0.07849825 0.012648733 0.11876987 -0.0033372648
000160 a2 34 9f bd e2 70 0e 3e 4a fc 06 3d f7 8f bb bd
       -0.07773711 0.13910249 0.032955445 -0.091583185
000170 88 a0 8e 3d e5 38 c1 3d 5e 24 d0 bd b0 cf e1 3b
       0.06964213 0.0943468 -0.101631865 0.0068912134
000180 52 17 97 bd a6 aa 5f bc a4 2c fc 3d 60 b5 15 3d
       -0.07377495 -0.013651526 0.12313202 0.036549926
000190 06 12 f9 3d 1a ea bb ba f2 43 af bd c6 40 55 bd
       0.12161641 -0.0014336735 -0.085578814 -0.052063726
0001a0 79 fc 95 3d 32 2e dc bc 5f fd dd 3d 99 2e c5 bd
       0.07323546 -0.026877496 0.10839342 -0.096280284
0001b0 f2 e8 d9 3d 83 81 ad 3c d3 0e e9 3d ad 54 80 bd
       0.10640134 0.02117992 0.113797806 -0.062661506
0001c0 be 54 cd 3d 10 4d 0e 3a 4f 84 62 bd d2 15 ae bd
       0.10025929 0.00054283533 -0.05530196 -0.08500256
0001d0 73 f0 be 3d b3 36 e3 bb 1f 22 81 3d 30 98 33 3b
       0.09323206 -0.006934011 0.06305336 0.0027403943
0001e0 7d 6c 89 bd ab a2 d3 bd 67 b5 b4 bd ef c9 20 3d
       -0.067101456 -0.10333761 -0.08823662 0.03925508
0001f0 81 17 93 3d c9 eb 91 bd ca aa e5 bd 32 06 87 ba
       0.071822174 -0.071250506 -0.11214216 -0.0010301529
000200 47 02 e4 bd 82 3a 74 bc e1 49 22 bd c0 80 b9 bc
       -0.11133247 -0.0149065275 -0.039621238 -0.0226444
000210 e5 23 2b 3d 7b 86 cb bb de b3 05 3d ba 13 d6 3d
       0.04178228 -0.0062110997 0.032642238 0.10452981
000220 78 f1 fb 3b 3c 82 cf bd 45 e6 80 3d 5d 4d ea bd
       0.0076886974 -0.10132262 0.062939204 -0.11440537
000230 6d 52 b0 3d fc ac ab 3d ea c5 da 3c ae 77 34 bb
       0.086094715 0.083826035 0.0267057 -0.0027537155
000240 9b 6d 01 3e bf 9c 84 bd b1 c7 c0 3d 27 1d 04 bd
       0.12639467 -0.064752094 0.09413088 -0.032254364
000250 5b 16 59 bc 6c ef 00 3d a7 b5 d5 3d 32 1f 02 bd
       -0.013249959 0.03147833 0.10435038 -0.03176803
000260 5f e6 c7 bd b5 07 42 bd 65 80 4d 3d f9 2a c7 3d
       -0.09760737 -0.04737063 0.050171275 0.09724993
000270 29 92 ad bd d5 e1 72 bd 47 59 88 bd 55 33 11 3d
       -0.084751435 -0.0592974 -0.06657653 0.035449345
000280 dc 4c 4b bd 8c 4d 9e bd a8 3b 5e bd 75 47 86 bc
       -0.049633846 -0.07729635 -0.05425611 -0.016391495
000290 5d 54 83 bd 0c 38 39 bd 26 37 33 3d d2 dd 95 bd
       -0.064125754 -0.045219466 0.043753766 -0.073176995
0002a0 5c 4c 2b bd 3f 79 fe bd 47 ca 0d 3d 64 c0 bb 3d
       -0.04182087 -0.124254696 0.034616735 0.09167555
0002b0 fd 6d 06 bd c1 68 82 3d 70 56 b0 3c be c1 dd 3c
       -0.032819737 0.063676365 0.021525592 0.027069923
0002c0 1a 07 06 3d 56 2f aa bd a2 b2 95 3b 85 5a 86 bc
       0.032721616 -0.0830981 0.004568414 -0.016400585
0002d0 c8 00 e8 3c b2 fa df 3d 5a 2a 4b bc 38 53 fe bd
       0.028320685 0.10936488 -0.012400234 -0.124182165
0002e0 1a 0e b3 3b a6 71 be 3d 2d 61 c5 3d 01 4f 3d ba
       0.0054643275 0.092990205 0.096376754 -0.00072215503
0002f0 b5 34 24 bd 74 e8 d3 bd 41 68 c5 3d f6 12 1a 3b
       -0.040089328 -0.10347071 0.096390255 0.0023509837
000300 87 9a a9 3b 31 9e 96 3c 1a 48 a7 bd fa 2e 50 bd
       0.005175892 0.018385978 -0.08168049 -0.05082605
000310 48 f0 2a 3c 1a 46 e1 bc 4b 25 87 bd 49 0a d6 bc
       0.010433264 -0.027499247 -0.0659891 -0.026127951
000320 18 dd 65 bb 09 dd da bd 11 28 38 bd 68 95 ea 3d
       -0.003507441 -0.1068669 -0.044960085 0.11454278
000330 2d 4f 6d bd f3 48 e6 3d 86 41 c9 3b 53 5d 00 bd
       -0.057936836 0.11244383 0.006141844 -0.031339
000340 39 c8 86 3d 6e 33 31 bd 5c 2f 0c 3e 9f a4 23 bb
       0.06581158 -0.043261938 0.13689941 -0.0024969948
000350 78 e3 16 3d cf a4 d9 bd b7 21 ac 3d 2d 20 b2 bc
       0.036838025 -0.10627138 0.08404868 -0.021743858
000360 6b db cc bd b4 0d d2 bd 39 d7 75 3d 50 a2 da 3d
       -0.10002788 -0.1025652 0.060019705 0.1067549
000370 3b 91 b6 bd 0e da 9e bc 69 f0 d1 bc 4d b0 f0 bd
       -0.08914419 -0.019391086 -0.025627332 -0.11752377
000380 ec 5c 9e bd 93 dd 8a bd aa 86 9b bd 71 10 ed 3c
       -0.07732567 -0.06780543 -0.075940445 0.028938504
000390 d6 2f 20 3d aa b9 df bd 69 01 05 bd c7 db 05 3e
       0.03910812 -0.109240845 -0.032472048 0.1307212
0003a0 d6 7d 4a 3d 55 22 98 3d 52 90 8e bd 58 51 0b bd
       0.049436413 0.07428423 -0.06961121 -0.034013122
0003b0 62 37 52 bd be 2f 84 3d e3 aa 35 bd 18 47 12 3d
       -0.05132235 0.064544186 -0.044352423 0.03571233
0003c0 9e ce 87 3d c2 56 cb bd f0 72 52 bd 7c 99 c5 bd
       0.06631206 -0.09928657 -0.051379144 -0.096484154
0003d0 d9 be 12 be 0c 9f d3 3c d1 c0 ad bd c2 7d d6 bd
       -0.14330615 0.025832675 -0.084840424 -0.10473205
0003e0 b2 d7 25 3d 33 91 6f 3d 61 10 0b bd 08 02 26 bd
       0.040488906 0.058488082 -0.033951167 -0.04052928
0003f0 5d 55 86 bd c4 41 ad 3d 72 69 9d 3c 15 26 76 3d
       -0.065592505 0.084598094 0.01921532 0.06009491

lstm.weight_ih_l1 f4 [256, 64]
000000 96 ca 6d 3d 4a 55 83 bc 1a 33 e6 3b 43 ea b0 3c
       0.05805453 -0.01603188 0.0070251347 0.02159608
000010 01 99 c6 bd 9a 84 ac 3d d4 47 54 3d 16 99 07 bd
       -0.09697152 0.08423729 0.051826313 -0.03310498
000020 fa 5d 43 bd da f0 ae bd d4 97 d3 3d d0 69 89 3c
       -0.047697045 -0.085420325 0.10331693 0.016774088
000030 e0 8b 01 3d 32 0e 9a bd a0 04 9a bd 41 f9 9d bd
       0.031627536 -0.07522239 -0.075204134 -0.07713557
000040 6c 48 f4 bc 65 eb 75 3d 28 a9 a3 bc fa d7 fa 3d
       -0.02981969 0.060038943 -0.01997812 0.122482255
000050 30 ab ac 3d 94 60 cb bd af 8b 84 bd a8 01 bd bd
       0.08431089 -0.0993053 -0.06471955 -0.092288315
000060 f4 4f 22 3d 35 fc 5b 3d 77 42 82 bd 34 63 aa bd
       0.03962703 0.05370732 -0.063603334 -0.08319703
000070 8d e3 24 bd 9a 39 33 3d 8e 0f b4 3d 51 a7 f8 bd
       -0.04025607 0.043756105 0.08792029 -0.12141288
000080 78 40 d8 bc ca 4a c8 3b 0d 94 f4 bd 6f 73 0f be
       -0.026397929 0.006112431 -0.11942301 -0.14008878
000090 72 1b 45 3d 25 83 d1 3c 9d f1 ca bc e9 2e 98 3d
       0.048121877 0.02557523 -0.024773413 0.074308224
0000a0 d2 59 91 3d 1e 9c c8 3d 2d a5 c4 3d 10 6a 9f 3d
       0.0709721 0.09795402 0.09601817 0.07783902
0000b0 8c 02 83 bd 07 26 9d 3d 0f ad 8f 3d 02 26 c5 bd
       -0.0639697 0.07673269 0.0701543 -0.0962639
0000c0 32 6b c2 3c a0 12 b6 b9 a3 b2 73 3d 0f 0f af bd
       0.023732755 -0.00034727622 0.059496533 -0.08547794
0000d0 1e 34 f8 bc 40 0b 9a bc a3 ec f1 3b db 40 b7 3c
       -0.030298289 -0.018804193 0.0073829456 0.022369793
0000e0 f9 fd f0 bb 16 8a 41 3d ff c5 79 bd df b1 b7 3d
       -0.0073544946 0.04725083 -0.06097984 0.08969473
0000f0 ad 84 c2 3d 87 7a 8d 3b 5f a0 6b 3c 1e 76 6d bc
       0.09497962 0.004317585 0.014381497 -0.014493493
000100 f5 7c c2 3d c8 f1 1c 3d f0 ba 66 bd ef fc 86 bd
       0.0949649 0.038316518 -0.05633062 -0.06591212
000110 f5 1c 92 bb bc 2b 99 bc d0 93 5a bd c5 bf 8a 3d
       -0.0044590184 -0.018697612 -0.05336362 0.067748584
000120 1e 52 f4 bd fd 3b 83 3d fc 52 36 b9 ac 8a ca 3d
       -0.11929725 0.06407926 -0.00017387787 0.09889731
000130 73 12 f6 3d 36 94 66 bc fe f9 db 3d dd db b9 3d
       0.12015238 -0.014073422 0.107410416 0.09075139
000140 60 af 26 bd 68 20 da bd 1f c6 05 3d 7a a5 86 3d
       -0.040694594 -0.10650712 0.032659646 0.06574531
000150 9f 94 d0 3d 6b f2 0a bd 60 6f da 3d 72 c1 e2 3c
       0.10184597 -0.033922594 0.10665774 0.027680133
000160 e1 d5 97 bd d0 68 f7 bd 2f 05 a7 3d f4 39 aa bd
       -0.07413841 -0.12080538 0.081552856 -0.08311835
000170 63 de 36 3c b1 d7 91 3c fd 09 5e 3c c8 66 a4 3d
       0.01116142 0.017803045 0.013552186 0.080274165
000180 37 3d 08 be 5e 1c d8 bd a6 cb a0 bd 0a 92 37 bd
       -0.13304602 -0.105522856 -0.07851343 -0.044817008
000190 20 b6 ff bc 1c 54 48 bd 19 ff 06 bd c0 bf b4 3d
       -0.031214774 -0.048908338 -0.032958124 0.08825636
0001a0 a4 13 1b be 18 ca 0a bd a7 ae 7a 3d 1c ab 9f bd
       -0.15144211 -0.033884138 0.061201718 -0.077963084
0001b0 9c ef 55 3c eb bf 6b 3d 67 f2 b7 3d 0a 85 ba 3c
       0.013057616 0.057556074 0.089817815 0.022768516
0001c0 14 ee e6 bd 80 82 3f 3d c4 42 c3 bd 96 80 5e 3d
       -0.112758785 0.046755314 -0.09534219 0.054321848
0001d0 04 42 ac bd 87 ee e6 bd f3 bb 77 bc ae e6 f7 3d
       -0.08411029 -0.11275964 -0.015120494 0.121045455
0001e0 9b ee e6 3d f4 8a 02 be 18 e7 36 3d 9f dc 3e bd
       0.11275979 -0.12748319 0.044653982 -0.04659712
0001f0 b5 26 95 bd 57 e3 85 3d 84 ef 49 39 18 73 b4 3d
       -0.072827734 0.06537502 0.0001925808 0.08811015
000200 00 d3 d0 3d a3 61 be 3c f5 9d c1 bd 82 75 30 3c
       0.10196495 0.023239916 -0.09453956 0.010770204
000210 14 9b 24 3c d6 a2 af bd ef 1a 94 3d fb 61 89 bd
       0.010046739 -0.0857598 0.072317 -0.067081414
000220 21 00 c7 3d 39 50 ce 3d fb a3 23 3d 47 b6 06 be
       0.097168215 0.10073895 0.039951306 -0.13155471
000230 95 6a 4b bd 5e a1 e1 3d d4 9b f5 3d 28 fc de bd
       -0.04966219 0.110171065 0.119926125 -0.10887939
000240 59 c8 6a bd 21 cb 75 3d 20 50 7f bc 7d 00 09 3e
       -0.057319973 0.060008172 -0.015583068 0.13379093
000250 8a 55 38 3c 21 a5 26 3d 11 db bb bd e6 cf f5 bc
       0.011250863 0.040684823 -0.09172643 -0.03000636
000260 00 66 a4 3d 7c fa f7 bc 27 d6 44 bc 31 90 e9 3d
       0.080272675 -0.030270807 -0.0120139485 0.114044555
000270 c2 18 87 3d 42 3a 86 3c 9c 5e bc 3d bd 08 84 bd
       0.06596519 0.016385201 0.09197733 -0.06446979
000280 f6 db c3 bd ed 29 b6 3d f4 f3 b5 3c 6b 36 b5 3d
       -0.095634386 0.088947155 0.022211052 0.0884827
000290 0d 4d 76 3c 25 81 a6 3d a3 4d b4 bc 42 27 08 3e
       0.015033019 0.08130101 -0.022009676 0.13296226
0002a0 db cb 0a be bd ec 49 3d 8c bd 8d 3d 71 4a fd 3c
       -0.13554327 0.049298037 0.06920919 0.030919285
0002b0 fb 2a a5 3c 1a 58 47 bc 89 20 6c 3d 2c 88 b1 3d
       0.020162096 -0.012167001 0.057648215 0.08668551
0002c0 75 5b a6 bd ec 05 b6 3c 26 06 67 bd ca cd 01 be
       -0.08122913 0.02221962 -0.056402348 -0.12676159
0002d0 46 ba 06 3b cd 94 04 3d e1 51 24 bd 4a 47 07 3e
       0.0020557805 0.03236847 -0.04011715 0.13210788
0002e0 1a 26 a5 bd 58 e4 44 b9 61 09 f5 bd 93 c5 9c 3c
       -0.08063908 -0.00018777081 -0.119646795 0.01913718
0002f0 01 3f 13 bc 26 3f 07 be 14 54 3d 3d 9e 87 52 3d
       -0.008987189 -0.13207683 0.04622276 0.051398866
000300 36 ae 16 bd 55 c2 81 bd de be 4a 3b da c0 de 3c
       -0.036787234 -0.06335894 0.003093652 0.027191568
000310 d6 4f 07 bd a6 b8 df bd 2d f1 e1 3c 79 5b 03 be
       -0.03303512 -0.10923891 0.027580822 -0.12827863
000320 76 bd dd 3d 46 83 be bd 94 b3 d1 3d 28 fb 6e 3c
       0.108271524 -0.09302382 0.1023933 0.0145862475
000330 1a 5a c6 bd 5a 07 80 3d fc 46 b1 bd c8 10 a4 bd
       -0.09685154 0.06251402 -0.08656117 -0.08011013
000340 f3 92 04 3b c0 dc 52 bd 39 9b ab 3d 00 3a c7 3c
       0.002022919 -0.051480055 0.08379216 0.024319649
000350 18 28 9b bd f9 be e3 bc bf 75 a2 3a 2c dc cc 3d
       -0.07576007 -0.027801024 0.001239471 0.10002932
000360 0d f0 0a bc c0 32 c1 bc 57 97 56 bd de 45 e0 3d
       -0.008480084 -0.02358377 -0.052390423 0.10950826
000370 cb bf 58 3c 42 79 b9 3d 0c 71 4b bd 65 ca f8 3d
       0.013229321 0.09056331 -0.049668357 0.12147979
000380 0d 92 89 3c eb 58 65 3d 8b 9b 97 3c 74 6c a3 3d
       0.016793275 0.055993002 0.018506786 0.0797967
000390 a0 a1 79 bd f3 20 8e bd 8a b1 3d 3d bd a9 8c 3d
       -0.060945153 -0.06939878 0.046311893 0.068683125
0003a0 ab 0d 7b 3d f2 27 f6 bd 88 e6 cf bc ff 2b ff bd
       0.06129233 -0.12019338 -0.02537848 -0.124595635
0003b0 30 bc d7 bd b2 6c 99 3b d4 73 e6 3d 03 6b 57 3d
       -0.10533941 0.004682147 0.11252561 0.05259229
0003c0 47 9e 54 3d 6d 8c d5 3c be cd 98 bd f4 39 8a 3d
       0.051908758 0.026067937 -0.07461117 0.06749335
0003d0 54 32 be bd 3d fa c4 bd d6 cf c1 3b d7 cb 95 3d
       -0.09286943 -0.09618042 0.0059146686 0.0731427
0003e0 eb 62 d4 bc 32 26 f6 bd 5b 90 f2 bd f7 df fe 3b
       -0.025926074 -0.12019004 -0.1184394 0.0077781635
0003f0 19 33 3d 3c 01 c8 ec bd 04 a9 5b bd 87 c4 6f 3d
       0.011547827 -0.11561585 -0.053627983 0.058537032

lstm.weight_hh_l1 f4 [256, 64]
000000 6f d2 d3 3d b8 4d e9 3d 49 77 d5 3d 66 28 14 bd
       0.103428714 0.11391777 0.104231425 -0.03617134
000010 14 5e a9 bc 2a 87 2f 3b 33 1b 8d bd dc e1 e5 3c
       -0.020674743 0.0026783445 -0.068899535 0.0280618
000020 6c 84 a9 bd bd b0 d8 3d 93 ab e4 3d 98 55 db bd
       -0.082772106 0.10580585 0.11165538 -0.10709685
000030 d5 0f 26 3d 97 86 32 3c 86 cb c1 3d 2a 7f 43 3d
       0.040542442 0.0108963465 0.09462647 0.047728695
000040 f5 e1 82 3d 9e b3 31 3d 44 4c 9e 3d 06 ce 8b bd
       0.06390754 0.043384187 0.0772939 -0.06826405
000050 26 2a 08 bd f4 6b 17 bd ca 12 c7 bd aa 73 7f bc
       -0.03324332 -0.036968186 -0.097203806 -0.015591541
000060 21 8a de 3d 5c ec ab 3d 5c 06 58 bd 14 69 00 3e
       0.1086619 0.08394691 -0.05274044 0.12540084
000070 6d 55 70 bd ae 67 08 3d dc d6 dc 3d 82 d0 19 3d
       -0.05867522 0.033302 0.10783169 0.037552364
000080 61 50 d3 bd e1 d7 b2 3d ff e4 06 be 2f 06 b2 bc
       -0.103180654 0.08732582 -0.13173293 -0.021731464
000090 f1 94 b7 bc fb 76 78 3d a3 3d a3 bd ea 45 19 bd
       -0.022409888 0.060660344 -0.07970741 -0.03742019
0000a0 5e cc 85 bd 81 1f c8 bd 5d 2a b1 bc 94 54 ff 3c
       -0.065331206 -0.09771634 -0.021626646 0.03116826
0000b0 55 2e 99 bb 6e 8e fa 3d 75 d7 e6 3d 79 3f e4 bd
       -0.0046747127 0.122341976 0.11271564 -0.11144919
0000c0 00 ea ec 3d 70 72 e9 3d 4b 00 ce 3d ae 30 41 bc
       0.115680695 0.1139878 0.1005865 -0.011791391
0000d0 81 ee d5 bd 8e 8c 80 3d 2c 79 29 3d e4 f5 f4 bd
       -0.10445882 0.06276809 0.041375324 -0.119609624
0000e0 b0 57 bf bd 38 c6 2c bd d6 2f 1f 3d 10 3a 0a bd
       -0.09342897 -0.042181224 0.03886398 -0.03374678
0000f0 f4 a9 95 bd f7 ab f8 bd a6 28 8a bc b0 57 04 3e
       -0.073078066 -0.12142175 -0.016865086 0.12924075
000100 e6 85 a6 3d 6d cd ef bb 1d 2b df bd a0 b3 4f bd
       0.08131008 -0.00731819 -0.10896895 -0.050708413
000110 4c c2 8f bd 03 9e ee bd ef 17 9d bd 4f 54 87 3d
       -0.07019481 -0.11651232 -0.076705806 0.066078775
000120 0e 88 d8 bd c4 51 b1 bc c5 89 8a 3d 3a 3a 22 bc
       -0.10572825 -0.021645434 0.06764559 -0.009901578
000130 ea a9 c0 bd e3 61 8a bc ac e9 63 3d 7e c4 9a bd
       -0.094074085 -0.01689238 0.05564277 -0.07557009
000140 a3 57 85 bc 85 01 70 3a b3 08 0e 3d f1 26 d6 bc
       -0.01627714 0.00091555 0.034676265 -0.026141616
000150 aa aa e4 3d eb 0c 2d 3c d6 93 f2 bd 8a 50 97 3d
       0.11165364 0.010562162 -0.11844604 0.073884085
000160 dd 0e c9 bd 63 66 c3 bd 55 83 16 3d 7e 38 db 3d
       -0.09817288 -0.09541013 0.03674634 0.107041344
000170 57 13 a0 bc e2 3c e6 bd 9b f7 9a bb cd 04 90 bd
       -0.019540472 -0.11242081 -0.004729224 -0.07032166
000180 45 2a f8 3d 7f 17 6a 3d 62 48 97 bd 87 eb f9 3d
       0.12117437 0.057151314 -0.07386853 0.122031264
000190 96 7d bb 3c 22 a9 91 3d b3 df b6 bd f4 ed dd 3d
       0.022887032 0.07112338 -0.08929386 0.108364016
0001a0 62 5b 14 bd 68 de c2 bc 41 66 be 3d 69 1c 13 bd
       -0.036219962 -0.023787692 0.09296847 -0.035915766
0001b0 2d 57 a8 ba 34 52 5f 3d 11 cb ae 3c 95 e5 f7 3d
       -0.0012843363 0.054521754 0.021337064 0.12104336
0001c0 ee 0c a4 3d 8e a0 d4 bc 2f 05 7d bc 8f 1b f3 bd
       0.08010279 -0.025955465 -0.01544313 -0.11870491
0001d0 5c 09 bf 3d c2 17 41 3c 19 10 25 3d 24 cc ae bd
       0.09327957 0.011785449 0.040298555 -0.085350305
0001e0 98 d0 94 3d 1e 3a ef bd d6 68 cf bd ac fe 9f bd
       0.072663486 -0.11681007 -0.10127418 -0.07812247
0001f0 19 2c 9b bd 4c a3 04 3d a8 ec 94 bd 04 66 b3 3a
       -0.0757677 0.032382295 -0.07271701 0.0013687019
000200 de d6 db bd d8 44 07 bd fa 19 c3 bd d9 7d b6 bd
       -0.10734342 -0.03302464 -0.09526439 -0.08910722
000210 17 2c 11 3d ee b4 80 bc 63 31 0d 3d 56 90 e2 3d
       0.035442438 -0.015711274 0.034470927 0.11062686
000220 ef 3e a3 3d 23 76 20 bd 20 21 b9 bd 9f 7d 31 bd
       0.07970988 -0.039175164 -0.09039521 -0.043332692
000230 f8 2f 87 3c c3 a8 92 bd ec fd 89 3d 10 ce d0 3c
       0.016502365 -0.07161095 0.06737885 0.025488883
000240 60 99 be bd ae 0d 34 3d d9 32 3d bd b8 0e eb bc
       -0.09306598 0.04395836 -0.04619107 -0.028693542
000250 f0 d9 b5 3d d2 00 fa 3d d6 53 b4 3c 29 9a c7 3d
       0.08879459 0.12207188 0.022012632 0.097462006
000260 de 3a 5b 3d 65 48 f2 3c 80 2f f1 3c 74 d9 ca bd
       0.053522937 0.029575536 0.029441595 -0.09904757
000270 6f 7d 79 3d 26 74 ca 3d ce 0f cd 3d ac d4 3d bd
       0.06091064 0.09885435 0.1001278 -0.046345398
000280 ed bc a2 3c 4e 28 e5 bd 0a e9 fd 3d fc 8d 16 bd
       0.019865477 -0.11189328 0.12397964 -0.0367565
000290 0b 26 d4 3b 59 91 80 3d 1c 6f cd 3d bc 8a 1a 3e
       0.0064742616 0.06277723 0.10030958 0.15091985
0002a0 27 3b bf 3d 34 0d 3c 3d f1 ce 0e bd 65 dc c2 3d
       0.09337454 0.04591103 -0.034865323 0.09514693
0002b0 8c dc b3 bc 2d 5a 2f 3d 0f 06 f3 b9 0b 47 88 3d
       -0.02195575 0.042810608 -0.00046353086 0.06654175
0002c0 b8 86 0f be d6 9e 91 bd 22 58 48 3d 75 2d a3 bd
       -0.14016235 -0.07110374 0.048912175 -0.079676546
0002d0 d0 e7 e1 bc 12 86 30 bd e9 f3 72 bd 9c 5b fb bc
       -0.027576357 -0.04309661 -0.059314642 -0.030683331
0002e0 34 32 c9 3d 8c fb 38 bd 9a fd d0 3c f0 dc 1a bd
       0.098240286 -0.04516177 0.025511552 -0.03780836
0002f0 91 fc dc bd df 2a c4 bd 1f b8 a9 3d db a4 5b bd
       -0.10790361 -0.095784895 0.082870714 -0.053624015
000300 ba 86 cc 3c 35 7d d3 bd a3 5e 8f bc f7 95 b3 3d
       0.024966586 -0.10326616 -0.017501181 0.08768838
000310 ce 6f e5 bd 04 9c 0d bd 54 7b e6 3b 9f 68 af bd
       -0.11202966 -0.034572616 0.007033745 -0.08564877
000320 5a ff 31 bd 10 e9 e0 bd e6 0d 06 3e 58 14 f4 bd
       -0.043456413 -0.10981953 0.1309124 -0.11917943
000330 6a 3a c6 bc af 2b ba bd 18 fa 2f 3d 76 c3 ba 3c
       -0.024197776 -0.09090363 0.042963117 0.022798281
000340 74 53 c5 3d a0 1e 64 3b 18 44 04 3d 98 55 26 bd
       0.09635058 0.0034808293 0.0322915 -0.040608972
000350 e6 00 42 bc 8b df 00 bd 7b 1c 76 3d 45 15 02 3b
       -0.0118410345 -0.031463187 0.060085755 0.0019849103
000360 7b 37 79 bd 86 46 23 3d 23 6d 64 bc 58 3c da 3d
       -0.060843926 0.03986218 -0.013942036 0.10656041
000370 6c 96 29 3b c0 d5 c1 3d 71 13 45 3d 0f 55 7e bd
       0.0025877012 0.09464598 0.048114244 -0.062092837
000380 d2 da ad bd 7b 65 cc bd 10 f3 02 3e 49 96 95 3c
       -0.08489002 -0.09980293 0.12788033 0.018260138
000390 05 e6 e0 bd 10 c2 e5 3d 3d 40 eb 3d a9 10 7d 3b
       -0.10981373 0.11218655 0.11486862 0.0038614667
0003a0 b6 e7 31 3d 49 f8 cf 3c de 14 ae bc 8f 0f 3d 3c
       0.043433867 0.025386946 -0.021250185 0.011539354
0003b0 03 69 ff 3d bf 28 50 bb 7a bc cc bd ad 96 aa 3d
       0.12471201 -0.0031762568 -0.099968866 0.083295204
0003c0 e0 e4 97 bd d0 d9 99 bd cf f5 ef 3d 17 db 31 bd
       -0.07416701 -0.075122476 0.11716806 -0.04342183
0003d0 17 d9 c2 3c da a4 87 3c 50 50 25 3d 39 01 bf 3c
       0.023785157 0.0165581 0.040359795 0.023316013
0003e0 4f 22 cb 3d a0 e6 b5 bc 0c 71 dc 3d 47 7e b7 3d
       0.09918653 -0.022204697 0.107637495 0.08959632
0003f0 38 7c 7f 3d 8c 41 73 3c 0e 5c 45 bd 30 0f 12 3d
       0.062374324 0.014847171 -0.048183493 0.035659015

lstm.bias_ih_l1 f4 [256]
000000 93 33 54 bd a1 1e 20 3d d6 78 6b bd 2c 8e d5 bc
       -0.051806998 0.03909171 -0.057488285 -0.02606877
000010 8a 5c cf 3d 0b 05 c2 3d f7 ea f7 bd 2f 53 ef bd
       0.10125072 0.09473618 -0.12105363 -0.11685788
000020 aa 94 64 bd 64 ef 11 bd ba 07 1e bc 5e 95 c2 3d
       -0.05580584 -0.03562869 -0.009645397 0.09501146
000030 93 91 f6 3d 62 06 a9 3d 51 6e 8a 3d 17 42 a1 3c
       0.12039485 0.082531705 0.067593224 0.019684834
000040 1b 61 b8 bc 67 22 d5 bd 84 72 73 3d fb ba 75 bd
       -0.022507241 -0.10406952 0.059435382 -0.05999277
000050 8a 83 88 bd c8 4b 41 bc 1c bf 8d bc 19 25 cb 3b
       -0.06665714 -0.011797853 -0.017303042 0.0061994907
000060 51 0a 72 bd 04 d7 be 3d a8 9d b1 bd c9 68 85 3c
       -0.05909187 0.09318355 -0.08672649 0.016285317
000070 7f ac 88 3d b7 c6 97 bd 90 5c 94 3c df be d0 bd
       0.06673526 -0.07410949 0.018110543 -0.10192656
000080 58 be 30 3d 9c ff 67 bd d4 7e bb bb 4a 3c b7 3c
       0.043150276 -0.056640252 -0.005721906 0.022367615
000090 fe 8d 9b 3d b4 d2 8d bc fa 79 6c 3d 90 2b cd 3d
       0.07595442 -0.017312385 0.057733513 0.100180745
0000a0 a3 98 b0 3d 22 83 09 3c 71 a9 48 bd 4d 26 01 bd
       0.08622863 0.008393081 -0.048989717 -0.031530667
0000b0 00 2c 71 3d 61 29 9e 3d 31 51 81 3c f1 6b f1 bb
       0.058879852 0.07722736 0.015785785 -0.007367604
0000c0 b2 db c7 3d 67 c7 3d bd f7 bf fa bc 3a 60 84 3b
       0.097587004 -0.046332743 -0.030609114 0.0040397914
0000d0 1d 8e 83 3c 43 1c de 3d ae c2 8b bc 74 aa 2f bd
       0.016058976 0.10845234 -0.017060604 -0.042887166
0000e0 74 ed 9d bd 46 40 da 3d ae 2a d0 3d 98 97 ec bd
       -0.07711306 0.106567904 0.101643905 -0.11552352
0000f0 60 65 04 3d 12 1b a1 3d 17 49 eb 3d 6e c8 7f bd
       0.03232324 0.078664914 0.1148855 -0.062447004
000100 8d db de 3c 0a e1 f0 3c e1 d0 95 bd 93 6c b9 bd
       0.0272043 0.029404182 -0.07315231 -0.09053912
000110 bd 23 19 3d 5a 37 a3 bd 40 b6 bc bc 30 ab da 3d
       0.0373876 -0.07969542 -0.023036122 0.10677183
000120 aa f2 e0 bd 49 d5 d2 3d 9b 90 2e 3a d8 11 bf bd
       -0.109837845 0.10294587 0.0006659121 -0.09329575
000130 a1 73 6e bd c0 5d 02 3c eb 43 cd 3d 37 8c 98 3d
       -0.05821574 0.007956922 0.1002272 0.07448619
000140 36 76 ea 3c 90 db 9d 3b 89 3e b0 3d 0b 00 ae 3d
       0.02862082 0.0048174337 0.08605678 0.08496102
000150 6b d2 09 be 54 34 65 bb 5e 43 96 3d a2 04 90 bd
       -0.13459174 -0.0034973817 0.07337068 -0.07032134
000160 70 dc 64 bd 86 2e 9b bd 4f 59 9b 3d 2f 88 5d bd
       -0.055874288 -0.07577233 0.07585394 -0.054084953
000170 c4 00 6a bc f7 55 ce 3d 13 10 b0 3c ef 60 e1 3d
       -0.014282409 0.1007499 0.02149204 0.11004817
000180 8b a0 27 bc ea d1 9e bc a1 bc 4f bd 56 59 dd bc
       -0.0102311475 -0.019387204 -0.050717 -0.027020138
000190 78 7d 76 bb b4 74 97 3c 4c da 9e 3d 99 53 35 bd
       -0.0037611406 0.018488266 0.077564806 -0.044269178
0001a0 c8 1a 16 bd 75 f1 5f bc 77 fb bb 3d 99 e7 a9 bd
       -0.036646634 -0.013668408 0.091788225 -0.08296127
0001b0 e6 4e d1 3d 31 13 a2 3d 77 6b 88 bc fd 33 60 bd
       0.10220127 0.07913817 -0.016652806 -0.05473708
0001c0 84 1f e0 3d 41 74 14 bd e3 8a 9f bd 19 54 d2 bd
       0.10943511 -0.03624368 -0.077901624 -0.102699466
0001d0 76 95 9a 3d 3e 61 4c bd fe 4b 8f bd 41 68 f1 3d
       0.07548039 -0.049897425 -0.06996916 0.11787463
0001e0 67 a3 71 bd 9b 40 0c 3d 70 ca cb 3d fb c5 3d bd
       -0.058993723 0.0342413 0.09950721 -0.046331387
0001f0 23 ed 22 3d 7a 1c c4 3d 88 73 9a bc a3 f5 2a bd
       0.039776932 0.09575744 -0.018853918 -0.041738164
000200 a9 a6 a9 3c 3c 6b 23 bd a7 df f0 3d 0e 4d e9 bd
       0.020709353 -0.03989719 0.11761408 -0.1139165
000210 4b 67 05 3d ab 87 24 3d 04 fb 2a bd 57 eb b2 3c
       0.03256921 0.040168446 -0.041743293 0.021840734
000220 5f aa 41 3d e2 d4 8c 3d 5f aa 3e 3b b9 74 6b 3c
       0.04728162 0.06876542 0.0029093248 0.014371091
000230 94 84 99 3d 64 74 d5 ba b8 5b f6 bd 97 ca 37 bc
       0.074959904 -0.0016285297 -0.12029213 -0.011217735
000240 cc 5e 50 bd 9b 99 b0 3a 21 f3 bc 3d 67 64 79 bd
       -0.050871655 0.0013473512 0.09226061 -0.060886767
000250 fd 5a f9 3a e0 ed e1 3d b1 16 59 3d d5 b2 4c 3d
       0.0019024309 0.11031699 0.053000156 0.049975235
000260 b1 25 90 3b a0 42 59 3d f9 e6 ef bc 66 32 ad bd
       0.0043990244 0.053042054 -0.029284941 -0.08456878
000270 bd 34 85 bd 9f f6 b5 3d 1c f5 ab 3c 2b 60 63 3d
       -0.065042 0.0888493 0.0209909 0.055511635
000280 34 2b b9 3c 57 2e 8b bd e3 2f 6c 3d aa d6 3c bd
       0.022603609 -0.06795948 0.057662856 -0.046103157
000290 cc 87 8b 3d ae 83 70 bd 73 9b 5e bc 52 5e bc bc
       0.068130106 -0.05871933 -0.013586867 -0.022994194
0002a0 e2 87 1d bc c1 21 7c 3d fe c5 ee bd db 15 c5 bd
       -0.0096149165 0.061555628 -0.11658858 -0.09623309
0002b0 52 5c 22 bc 0e 29 c1 bd f6 cb 2f 3d 7e 20 47 bd
       -0.009909706 -0.09431659 0.04291912 -0.04861497
0002c0 08 a0 f7 3b 13 44 36 bd 59 50 8b 3d 02 a3 c5 bd
       0.007556919 -0.044498514 0.068024345 -0.09650232
0002d0 03 9f 54 3d c9 90 6f bd c8 1c 2f 3d ae 9c d0 3d
       0.051909458 -0.058487687 0.042752057 0.10186134
0002e0 f7 db af bd e1 92 a5 3c b8 b7 ce 3b 1b 24 8e 3d
       -0.08586877 0.020211639 0.006308522 0.0694048
0002f0 ae 90 ce bc 98 a6 91 bd 69 74 87 3c c5 52 05 3e
       -0.025215473 -0.07111853 0.016535 0.13019855
000300 0e a9 24 bc af 8b af 3d f7 2b 90 3d c5 b4 f9 bd
       -0.010050071 0.085715644 0.07039636 -0.12192682
000310 14 1b 04 bd 40 93 a3 3c 97 7e 2e 3d cd ae f2 3d
       -0.032252386 0.019967675 0.042601194 0.11849747
000320 f1 a2 cc 3c ed 48 1a bd 49 c0 f0 3d 0e 93 c2 bd
       0.02498004 -0.037667204 0.117554255 -0.09500705
000330 62 96 e2 bd df ad 89 3d df 76 80 3c ce 4f 0f be
       -0.110638395 0.067226164 0.015681682 -0.13995287
000340 9a 0d d6 3c 10 ad b0 bc 33 02 64 bd 8e be 41 ba
       0.026129533 -0.021566898 -0.05566616 -0.00073907606
000350 91 17 bf bd b1 ef 91 bd f1 9a 34 3d 95 fd 8d 3d
       -0.09330667 -0.07125796 0.044093076 0.069331326
000360 a0 76 81 bb 84 ee 80 3d c8 61 20 3c 19 d7 a8 3c
       -0.003950909 0.06295493 0.009788938 0.020610379
000370 2e ee d8 3d e6 bf 9a bd 75 26 6e bd 15 06 14 3d
       0.10592304 -0.07556133 -0.058142144 0.036138613
000380 c0 dd d7 3d 6e ec 4c 3c e5 28 10 3d ab 7f 11 3d
       0.10540342 0.012507541 0.03519525 0.035522144
000390 19 e8 ec 3d 44 0c c1 bb 3b 29 b4 bd 4a 9b e0 bb
       0.115677066 -0.0058913548 -0.087969266 -0.0068544494
0003a0 a0 9a 8b bd de de a0 3c f4 1d 8c bd 37 83 59 3d
       -0.06816602 0.019637521 -0.068416506 0.05310365
0003b0 ec 66 e1 3d 09 99 b9 bc b1 70 f1 bd 31 07 85 bd
       0.11005959 -0.02265598 -0.11789072 -0.06495512
0003c0 4b 06 2f 3d 9f cd 47 bd f5 5b 50 3d 57 25 27 bc
       0.04273061 -0.04878008 0.050868947 -0.010201774
0003d0 8b c2 34 bd 2e f4 cc 3d ef 1a e1 bd e9 fa 85 3c
       -0.044130843 0.10007511 -0.10991465 0.016354995
0003e0 83 60 c4 3d d4 31 0b 3c 1f 0b a8 3c 0a 55 ca 3d
       0.09588721 0.008495767 0.020513115 0.09879501
0003f0 33 cf 9c 3c 90 4b c3 3d 43 04 d9 bc 4e 30 02 bc
       0.019141769 0.09535897 -0.02649129 -0.007946087
