artifacts/SKU_04/model.pt (torch, 219227 bytes, 12 tensors)

lstm.weight_ih_l0 f4 [256, 10]
0	0x3b9cf7c7	0.0047902795
1	0x3c6fcd9b	0.0146364225
2	0xbdcdef94	-0.100554615
3	0xbd22da9d	-0.039759267
4	0xbdad4be3	-0.0846174
5	0xbcce1b4c	-0.0251595
6	0x3d19a689	0.037512336
7	0x3d64a99b	0.05582581
8	0x3e182939	0.14859475
9	0xbc91c867	-0.017795755
10	0xbd9dcc54	-0.07704988
11	0xbd98742c	-0.07444033
12	0x3d64f95d	0.055901874
13	0xbc120b5b	-0.00891384
14	0xbda91bd3	-0.0825726
15	0x3d8da708	0.06916624
16	0x3cd2dfbb	0.025741449
17	0x3cbba927	0.022907807
18	0x3dd59e46	0.10430579
19	0xbe0782a1	-0.13233425
20	0xbcd7b56f	-0.026331631
21	0xbd8f4836	-0.06996195
22	0x3d05fb17	0.03271016
23	0x3d11dab0	0.035608947
24	0x3bf0398f	0.0073310803
25	0xbd1297d3	-0.035789322
26	0xba382212	-0.000702412
27	0xbd8f899b	-0.07008668
28	0xbd52dfe8	-0.051483065
29	0x3dab2627	0.08356886
30	0x3db265cc	0.087108225
31	0x3dec37d8	0.11534089
32	0xbd2fb24a	-0.04289464
33	0x3d70ec3d	0.058819044
34	0xbe064f69	-0.1311623
35	0xbdfe24a3	-0.12409332
36	0xbbc604a4	-0.0060430337
37	0x3d3e9844	0.04653193
38	0xbdec502d	-0.1153873
39	0xbd9dffc9	-0.07714803
40	0x3dc80654	0.09766832
41	0xbdbe93e0	-0.09305549
42	0x3dbc004f	0.09179746
43	0xbd4bb81c	-0.049736127
44	0x3d1d71b8	0.03843853
45	0xbda1ff55	-0.07910029
46	0xbc5423d8	-0.012947999
47	0xbdd050b3	-0.10171642
48	0xbceae4ad	-0.028673494
49	0x3d5c982e	0.053856067
50	0xbca1b20c	-0.01973822
51	0x3cf336f3	0.029689288
52	0xbb9abd0a	-0.0047222422
53	0x3dc58473	0.09644403
54	0xbd1a9d04	-0.037747398
55	0x3cfe19ff	0.031018255
56	0x3d9cf3bf	0.076636784
57	0x3d51091f	0.05103409
58	0xbe21f990	-0.15817857
59	0x3bf4addb	0.0074670142
60	0x3d7a2fd9	0.061080787
61	0x3d97943d	0.07401321
62	0xbaee48be	-0.0018179638
63	0x3cd23cda	0.025663782
64	0xbddc8c69	-0.107689686
65	0x3d57b818	0.0526658
66	0xbd961b27	-0.07329398
67	0x3c48063e	0.0122085195
68	0x3e158a2d	0.14603491
69	0x3dbe9b6e	0.093069896
70	0xbd3b5460	-0.045734763
71	0x3d952564	0.07282522
72	0xbdd9dd3e	-0.10637902
73	0x3cfe5c5b	0.031049898
74	0x3d9ee04f	0.07757627
75	0xbd016774	-0.0315928
76	0xbdd71a7e	-0.105031
77	0xbde7cc07	-0.11318212
78	0x3d94a338	0.07257694
79	0xbb3ae998	-0.002852058
80	0xbdd496c0	-0.10380316
81	0xbe10faeb	-0.14158218
82	0x3da614da	0.08109446
83	0xbdd23365	-0.10263709
84	0xbd5aad85	-0.053388137
85	0x3c1cbd04	0.009566549
86	0xbda59b07	-0.0808621
87	0x3d576b4a	0.052592553
88	0xbde3ca3a	-0.11122556
89	0x3d1a7a7d	0.03771447
90	0xbd11ffe8	-0.03564444
91	0xbdba7ec6	-0.09106211
92	0x3b94f4ce	0.0045457846
93	0x3d93bd9e	0.07213901
94	0x3d8afd28	0.06786567
95	0xbbeac45d	-0.0071645216
96	0x3ddaf113	0.106905125
97	0x3d0ac3f8	0.033878297
98	0xbdc8fdca	-0.098140314
99	0x3da0ed92	0.07857813
100	0xbc9ca0e3	-0.019119686
101	0x3cec71eb	0.028862914
102	0x3c043f41	0.0080717215
103	0x3cfb8667	0.030703736
104	0x3d97a499	0.074044414
105	0x3e0e41b1	0.13892247
106	0xbce7ce2b	-0.02829655
107	0x3d9cce3d	0.07656524
108	0xbdb58581	-0.088633545
109	0xbe159282	-0.1460667
110	0xbdcedaa6	-0.10100298
111	0xbca10740	-0.019656777
112	0x3dcd67bb	0.10029551
113	0xbe001368	-0.12507403
114	0x3c80447b	0.015657654
115	0xbcde2ca1	-0.02712089
116	0x3d07393c	0.033013567
117	0xbdb097d6	-0.086227104
118	0xbd3360b7	-0.043793406
119	0xbd9ade06	-0.07561879
120	0x3d521ce8	0.0512971
121	0x3d945548	0.072428286
122	0x3bde0b4c	0.006776249
123	0x3ddd8e97	0.108182125
124	0x3dc56dff	0.09640121
125	0x3d9edf3f	0.077574246
126	0x3cb2abd4	0.02181045
127	0x3d1d5275	0.038408715
128	0xbddabce9	-0.10680563
129	0xbdd80101	-0.105470665
130	0xbd527051	-0.051376645
131	0xbd76b5ed	-0.06023209
132	0x3e01e82b	0.12686221
133	0x3ddbdb13	0.107351445
134	0xbdb8d341	-0.090246685
135	0x3d867289	0.065648146
136	0x3db95394	0.090491444
137	0xbd28d03f	-0.041214224
138	0x3cfab4a8	0.030603722
139	0xbc5b9559	-0.0134023065
140	0x3df62708	0.12019163
141	0xbb6a9024	-0.003579148
142	0x3d44a468	0.048008353
143	0x3dbd399b	0.09239503
144	0xbd9bb132	-0.07602157
145	0x3c8d39d9	0.017239498
146	0xbe0eaecb	-0.13933866
147	0x3d942278	0.07233137
148	0x3cbb2edd	0.022849495
149	0x3da53442	0.08066608
150	0x3c8576ae	0.016291942
151	0xbdd8ce59	-0.10586233
152	0x3d80d558	0.06290692
153	0x3dcd7998	0.10032958
154	0xbc900f7d	-0.01758551
155	0x3d8a8d1c	0.06765196
156	0xbd07f434	-0.033191875
157	0x3dd87d8d	0.10570822
158	0xbd031a4d	-0.032007504
159	0x3e00f988	0.12595189
160	0xbdd092d4	-0.10184255
161	0x3dccab9b	0.09993669
162	0xbc1a21df	-0.00940749
163	0xbd9b79ec	-0.07591614
164	0x3d361958	0.044457763
165	0xbe04d855	-0.12973149
166	0x3d2fad36	0.042889796
167	0xbd20e76a	-0.039283194
168	0x3d26bc21	0.040706757
169	0xbddde4ba	-0.10834642
170	0x3cb67842	0.02227414
171	0x3d2f4f65	0.042800326
172	0x3df6142d	0.12015567
173	0x3ab7ebf1	0.0014032108
174	0xbd1c682f	-0.038185295
175	0xbd8871e4	-0.06662348
176	0x3a90f116	0.0011058177
177	0xbc85690b	-0.01628544
178	0xbc44cf9c	-0.012012389
179	0x3d056498	0.032566637
180	0xbd724104	-0.059144035
181	0x3b28b38d	0.0025741786
182	0x3d3a8a7f	0.045542236
183	0x3d33e03e	0.043915026
184	0xbd1c2d67	-0.038129237
185	0xbe0d0c8a	-0.13774315
186	0xbcbdf1c4	-0.023186572
187	0x3dbaa3c0	0.09113264
188	0x3d48d126	0.049027584
189	0x3dbb78c5	0.09153894
190	0x3d12d900	0.03585148
191	0xbdc726d5	-0.097242035
192	0x3d71550c	0.058918998
193	0x3ce3577f	0.027751682
194	0x3d416394	0.047214106
195	0xbd949b38	-0.07256168
196	0x3e0b58fd	0.13608165
197	0xbdef9015	-0.11697403
198	0x3d3e3df3	0.046445798
199	0xbe1c84fb	-0.15285103
200	0x3de67087	0.11251932
201	0xbe233d90	-0.15941453
202	0x3dbfa875	0.093583025
203	0xbda1222e	-0.078678474
204	0x3ce3adec	0.027792893
205	0x3c98b548	0.01864113
206	0x3db33c45	0.0875173
207	0xbddd83e9	-0.108161755
208	0x3dd70cb8	0.10500473
209	0xbccc609b	-0.024948409
210	0xbd86719c	-0.06564638
211	0xbe155da6	-0.14586505
212	0xbc85b327	-0.016320778
213	0xbdc27820	-0.09495568
214	0xba02055d	-0.00049599056
215	0xbdeff9f7	-0.11717599
216	0xbd1948a3	-0.037422787
217	0x3d152cec	0.036419794
218	0xbd4471d2	-0.04796011
219	0x3c9850aa	0.018593151
220	0xbdd80f30	-0.10549772
221	0xbd416396	-0.047214113
222	0x3cb0354a	0.021509785
223	0xbd438b2d	-0.04774015
224	0x3d9d00d3	0.07666173
225	0x3d42b3d9	0.047534797
226	0xbce28b24	-0.027654238
227	0xbe04c4d4	-0.12965709
228	0x3dc2296e	0.09480558
229	0x3d466b17	0.048441973
230	0x3d447150	0.047959626
231	0x3dfb2503	0.12262919
232	0xbdf98866	-0.12184219
233	0x3cede667	0.029040528
234	0x3bfcece7	0.0077186706
235	0xbe005824	-0.12533623
236	0x3d9ec458	0.07752293
237	0x3d8131a2	0.06308295
238	0x3d1a6c44	0.037700906
239	0xbdf71473	-0.12064447
240	0xbdf6981a	-0.1204073
241	0x3d6f6ed0	0.05845529
242	0xbda95639	-0.08268399
243	0x3d114daa	0.035474457
244	0x3bbc5000	0.0057468414
245	0xbd7a534e	-0.0611146
246	0xbdc4ee97	-0.0961582
247	0xbdd922d5	-0.10602347
248	0x3da33858	0.07969731
249	0x39d40ad8	0.0004044387
250	0xbdefce45	-0.11709265
251	0xbd3d74a3	-0.04625381
252	0x3d9e3bde	0.077262625
253	0xbd8d891b	-0.069109164
254	0xbdada6c5	-0.084790744
255	0xbb3064f9	-0.0026915653

lstm.weight_hh_l0 f4 [256, 64]
0	0xbde63739	-0.11241002
1	0xbd245dba	-0.040128447
2	0x3d22faca	0.039789952
3	0x3de953b6	0.1139292
4	0xbda51918	-0.08061427
5	0x3dd47ca4	0.10375336
6	0x3b913965	0.004431891
7	0xbd90fb9f	-0.07079243
8	0xbcc255e7	-0.023722602
9	0x3d07d476	0.033161603
10	0x3dbd73c4	0.09250596
11	0x3d046b41	0.032328848
12	0xbc172e0e	-0.009227289
13	0x3de52a30	0.11189687
14	0x3dd8fb74	0.10594836
15	0xbc8d7b9f	-0.017270861
16	0xbde3296e	-0.110918865
17	0x3c0f11f5	0.008732309
18	0x3def0a58	0.11671895
19	0x3d9814fc	0.074258775
20	0x3d886577	0.06659978
21	0xbe04e17f	-0.12976645
22	0xbd516cc4	-0.051129118
23	0xbdaac675	-0.08338634
24	0x3daf22a3	0.08551528
25	0xbd5674bd	-0.052357424
26	0x3dc1eee0	0.0946939
27	0x3dc82369	0.09772379
28	0xbcca2ac1	-0.02467859
29	0xbba27d1c	-0.004958762
30	0xbd99d147	-0.075106196
31	0xbd7bea56	-0.061502777
32	0x3df230f7	0.118257456
33	0xbd415671	-0.047201578
34	0xbdb2bf4d	-0.08727894
35	0xbd751367	-0.059832957
36	0x3d4a0dbb	0.0493295
37	0xbdf1d9f9	-0.11809153
38	0x3ca5e971	0.020252915
39	0x3dc371f4	0.09543219
40	0x3cd92c3b	0.026510349
41	0x3d89542a	0.06705506
42	0xbdd17f74	-0.10229388
43	0x3c5beee2	0.013423653
44	0xbdad6b50	-0.08467734
45	0xbdc5d78e	-0.096602544
46	0x3befb028	0.0073147006
47	0x3d3edf32	0.046599574
48	0xbdeb40b1	-0.11486948
49	0xbd171f6b	-0.036895197
50	0xbd7d5d70	-0.061856687
51	0x3d8bcfc3	0.06826737
52	0xbd905ec1	-0.07049323
53	0xbd975b9a	-0.073905185
54	0xbd899572	-0.067179576
55	0x3dea3819	0.11436481
56	0xbd8fe44c	-0.07025966
57	0x3d25b035	0.040451247
58	0x3ddbb981	0.107287414
59	0xbcf30770	-0.029666632
60	0x3dd7fec6	0.10546641
61	0x3cda647e	0.026659247
62	0x3db1bcf1	0.08678616
63	0xbcb3554b	-0.021891257
64	0x3de99485	0.11405281
65	0xbd9a05e8	-0.07520658
66	0x3d53117a	0.05153034
67	0xbd8f78c8	-0.07005459
68	0xbde9a606	-0.114086196
69	0xbdd69f88	-0.10479647
70	0xbd3e63b6	-0.04648181
71	0xbda79fc9	-0.081847735
72	0x3d99dd46	0.07512908
73	0xbd42bee3	-0.047545325
74	0x3de508f4	0.11183348
75	0xbd8153c7	-0.063148074
76	0x3d87414d	0.06604252
77	0x3db06964	0.08613852
78	0xbdff795e	-0.12474321
79	0x3b0fb790	0.002192948
80	0x3d559e20	0.052152753
81	0x3ccc9833	0.024974918
82	0x3c040317	0.008057377
83	0xbcdaac1c	-0.026693396
84	0x3cd9d06e	0.026588645
85	0x3dd815ec	0.10551056
86	0xbdb869b1	-0.09004534
87	0xbe0bde23	-0.13658957
88	0x3d3560a9	0.044281635
89	0x3df6a4e5	0.1204317
90	0x3b0c8006	0.0021438613
91	0x3b782add	0.0037867345
92	0xbdc752ea	-0.097326115
93	0x3d56d648	0.05245045
94	0x3de9a3fc	0.11408231
95	0x3cabb1bb	0.020958772
96	0xbd3b5f25	-0.045745034
97	0xbc188275	-0.009308447
98	0x3cf970b6	0.030449253
99	0xbd8ff09d	-0.07028315
100	0x3b45996a	0.0030151256
101	0xbd88f7bd	-0.06687877
102	0x3c5ad0c6	0.0133554395
103	0x3d48f104	0.049057975
104	0xbdf56296	-0.119816944
105	0xbdf2074f	-0.118178
106	0xbcc485bb	-0.023989549
107	0x3d644e3b	0.05573867
108	0xbb3c774a	-0.0028757625
109	0x3d6faba8	0.058513314
110	0xbd9bc0b0	-0.076051116
111	0x3cbb3649	0.022853034
112	0xbcc451b5	-0.023964742
113	0xbc99aa8d	-0.018758083
114	0x3aa67efb	0.0012702638
115	0x3dc49abe	0.09599827
116	0x3db30d58	0.087427795
117	0xbd2dad06	-0.042401336
118	0xbc4401f4	-0.011963356
119	0x3c8bb387	0.017053379
120	0x3decca47	0.11562019
121	0xbd8f9b75	-0.07012073
122	0x3df6e7cc	0.120559305
123	0x3d692b5f	0.056926128
124	0x3e0a484e	0.13504145
125	0xbd54f61d	-0.051992524
126	0x3dd0835a	0.10181303
127	0x3dca1324	0.09866932
128	0x3d439184	0.047746196
129	0x3df61410	0.12015545
130	0xbcd36a9c	-0.025807671
131	0xbd8238cf	-0.06358492
132	0xbdb47ec9	-0.08813245
133	0xbdce2c19	-0.10067005
134	0xbd7f3556	-0.062306724
135	0xbca0c529	-0.019625263
136	0xbd9fccad	-0.07802711
137	0xbe00f74a	-0.12594333
138	0x3def590d	0.11686907
139	0xbc53cc4c	-0.012927126
140	0x3d82df3f	0.06390237
141	0xbce45f0e	-0.027877357
142	0x3d95544d	0.0729147
143	0x3c1d3232	0.009594487
144	0xbdeb4d24	-0.11489323
145	0xbc04d496	-0.008107325
146	0xbd6e99c1	-0.0582521
147	0x3deb6459	0.11493749
148	0xbd437034	-0.047714427
149	0xbd86ad02	-0.06575967
150	0xbcb71be7	-0.022352172
151	0xbd8b84e8	-0.06812459
152	0xbd020b48	-0.03174904
153	0xbd147baa	-0.036250748
154	0xbd9f618d	-0.07782278
155	0x3d04b666	0.03240051
156	0x3d840f52	0.064482346
157	0xbb110546	-0.0022128387
158	0xbde5f851	-0.11229003
159	0xbdbd6a72	-0.092488185
160	0x3d9cc153	0.07654061
161	0xbc786a80	-0.01516211
162	0xbdccf0a8	-0.10006839
163	0x3dac086d	0.084000446
164	0x3d6b29e6	0.057413004
165	0x3df27fa8	0.11840755
166	0xbdd0a366	-0.10187416
167	0x3b193308	0.0023376364
168	0xbdacd660	-0.08439326
169	0xbdf1376c	-0.11778149
170	0xbda567b4	-0.080764204
171	0x3ca78db2	0.020453308
172	0x3dc27a48	0.094959795
173	0x3daced96	0.084437534
174	0x3da89b60	0.082327604
175	0xbd748104	-0.05969335
176	0x3d1cdae5	0.03829469
177	0xbdc235ce	-0.09482919
178	0x3db9feba	0.09081788
179	0x3cf0a361	0.02937478
180	0xbd9b2e65	-0.075772084
181	0xbdaf1cef	-0.085504405
182	0xbdffcbb1	-0.12490023
183	0x3d159078	0.03651473
184	0xbd081b5e	-0.033229224
185	0x3d283b29	0.041072045
186	0x3cd04538	0.025423631
187	0xbe04dac8	-0.12974083
188	0xbb1e1fee	-0.0024127918
189	0xbd62707a	-0.055283047
190	0x3dfa6081	0.12225438
191	0xbda38fe1	-0.07986427
192	0xbd7de4c2	-0.06198574
193	0x3dc3e6ce	0.09565507
194	0x3d96e339	0.07367558
195	0xbdf81230	-0.12112844
196	0x3c291e7d	0.01032221
197	0x3c4af1d4	0.012386758
198	0xbcfdb759	-0.030971216
199	0xbd79f70d	-0.06102662
200	0x3d0794c3	0.033100855
201	0x3d08365b	0.033254962
202	0xbc117366	-0.008877611
203	0x3bd0db1e	0.006373777
204	0x3d0bdd7f	0.034146782
205	0x3d86a411	0.06574262
206	0x3dc1446a	0.09436877
207	0xbd95f6d3	-0.073224686
208	0xbdaf0b86	-0.0854712
209	0x3c85d2e2	0.016335908
210	0x3d36c9c2	0.044626005
211	0x3c918312	0.017762695
212	0xbc1dc31b	-0.009629036
213	0x3c97e212	0.018540416
214	0x3d0f92e7	0.035052206
215	0x3e02cd5e	0.12773654
216	0x3d3afae0	0.04564941
217	0x3d1b978f	0.037986334
218	0x3c72f021	0.014827759
219	0xbce272d0	-0.027642637
220	0xbdd13122	-0.102144495
221	0x3cab31c5	0.020897755
222	0xbd6ddd8e	-0.05807262
223	0xbbc8af85	-0.006124439
224	0x3c3c814a	0.011505434
225	0x3deee9f4	0.11665717
226	0xbd8425d4	-0.06452528
227	0xbde4c322	-0.11170031
228	0xbd92a474	-0.07160273
229	0xbce9e7fd	-0.028553003
230	0xbc0be64a	-0.008538792
231	0xbd8b5dd3	-0.06805005
232	0xbdfcab8f	-0.1233741
233	0x3db3e598	0.08784026
234	0xbb7f8354	-0.003898819
235	0x3c939529	0.018015461
236	0xbda28baa	-0.07936795
237	0x3d05fbda	0.032710887
238	0x3c933100	0.017967701
239	0x3cdc4010	0.026886016
240	0x3ca6a309	0.020341413
241	0x3dacf387	0.08444887
242	0x3daff84f	0.08592283
243	0xbe07ce87	-0.13262378
244	0xbbf5f2f4	-0.007505769
245	0xbd7e4272	-0.062075086
246	0xbdaf36f9	-0.08555407
247	0xbc97dfd2	-0.018539343
248	0x3df5d5de	0.120036826
249	0x3dee5560	0.11637378
250	0xbc7d591c	-0.01546314
251	0xbda6b26a	-0.081394985
252	0x3da9780c	0.0827485
253	0x3d700a88	0.058603793
254	0x3c9fd3f3	0.019510245
255	0xbc020bd5	-0.007937391

lstm.bias_ih_l0 f4 [256]
0	0x3db9894d	0.09059391
1	0x3dc83842	0.09776355
2	0xbd7f55c9	-0.06233767
3	0xbd658fff	-0.05604553
4	0x3dcec5e0	0.100963354
5	0x3cab0074	0.02087424
6	0x39b9fbf0	0.00035473658
7	0x3d8f0aa5	0.06984452
8	0x3e13e5dc	0.14443153
9	0xbcfdacc7	-0.030966176
10	0xbd1c639f	-0.038180944
11	0x3adc1c90	0.001679318
12	0xbdc1ff37	-0.094725065
13	0x3dbc962e	0.09208332
14	0xbb8a52fc	-0.0042213183
15	0xbdfc07f6	-0.12306206
16	0x3c49eb6d	0.012324196
17	0xbdfe3927	-0.12413245
18	0xbcd1a160	-0.025589645
19	0x3cec23d4	0.028825678
20	0x3df29b6c	0.118460506
21	0x3e063c03	0.1310883
22	0x3d0f9c49	0.035061155
23	0xbd12d65e	-0.035848968
24	0x3e143ef5	0.14477141
25	0xbd7efb34	-0.062251285
26	0xbd2b8601	-0.041875843
27	0xbd1ec67b	-0.038763504
28	0x3d942f20	0.07235551
29	0xbcd847d6	-0.026401442
30	0xbdeb3aa7	-0.114857964
31	0xbb97886b	-0.0046244166
32	0x3c0726f3	0.008249032
33	0xbda9f947	-0.08299499
34	0xbcbb129d	-0.022836024
35	0x3dbdb28e	0.09262572
36	0x3e0ea4ba	0.13930026
37	0xbdb5585c	-0.08854744
38	0x3e0da88c	0.13833827
39	0x3c273265	0.010204886
40	0x3c67e513	0.014153737
41	0x3da5b34c	0.08090839
42	0xbdc0b284	-0.09409049
43	0xbdea20f2	-0.11432065
44	0xbde2ca32	-0.11073722
45	0x3d800e15	0.06252686
46	0x3d48c2d8	0.049013942
47	0x3df08cc5	0.117456
48	0x3dad047f	0.08448123
49	0xbc37a732	-0.011209296
50	0xbd06a061	-0.032867793
51	0x3cfebf03	0.03109694
52	0xbbea005b	-0.0071411557
53	0xbdaf0687	-0.08546167
54	0x3db66583	0.089060806
55	0xbd77c534	-0.060490802
56	0xbd7b5bf8	-0.061367005
57	0xbdf07b2b	-0.117422424
58	0x3d81bb89	0.063345976
59	0x3d7e7d06	0.06213095
60	0x3dc8f35a	0.098120406
61	0x3c4129e0	0.011789769
62	0x3ddcc362	0.10779454
63	0x3bb03135	0.0053769597
64	0xbc485146	-0.012226408
65	0xbd7db92c	-0.06194417
66	0xbc3c2a6c	-0.011484724
67	0x3ca549c0	0.020176768
68	0xbd3c4132	-0.045960613
69	0x3dd3fae0	0.10350585
70	0xbda8e37f	-0.082465164
71	0xbd5159f8	-0.05111119
72	0x3c3551c7	0.0110668605
73	0x3c58e047	0.013237066
74	0xbd47d3eb	-0.048786085
75	0xbb01f494	-0.0019829618
76	0x3db59bb2	0.08867587
77	0x3ceaf4af	0.028681127
78	0x3c9721a6	0.018448662
79	0xbdc3ffe0	-0.09570289
80	0xbda07a42	-0.07835819
81	0xbd29b2e7	-0.04143038
82	0x3dd64e2b	0.10464128
83	0x3da29af4	0.07939711
84	0x3d9fcbd8	0.07802552
85	0x3daa2fbc	0.08309886
86	0xbb743e0c	-0.0037268428
87	0x3c99bb22	0.01876599
88	0x3d6685a4	0.056279793
89	0x3ccbc9ee	0.024876561
90	0x3ddb084b	0.10694941
91	0xbcf31f17	-0.02967791
92	0x3dd1b4a0	0.102395296
93	0x3d6413dd	0.055683006
94	0x3c0687cd	0.008211088
95	0x3dade10f	0.08490192
96	0x3e017c22	0.12645009
97	0x3e0c049a	0.1367363
98	0x3dc27792	0.094954625
99	0x3d3a7729	0.045523796
100	0x3e0dd78b	0.13851754
101	0xbd208d6b	-0.039197367
102	0xbcf6a2c6	-0.030106913
103	0xbdd38818	-0.10328692
104	0x3dd567f4	0.10420218
105	0x3d906cf8	0.07052034
106	0x3c8b8916	0.017033141
107	0x3d6b03d7	0.05737671
108	0x3c3e59a7	0.0116180545
109	0x3ddf07d5	0.10890166
110	0x3c0ae573	0.0084775565
111	0x3cd93249	0.026513236
112	0xbdee65b3	-0.11640491
113	0x3df120ac	0.1177381
114	0xbd8bc1d6	-0.06824081
115	0x3cbbb796	0.022914689
116	0xbbf95f11	-0.0076102098
117	0x3e033f5e	0.12817141
118	0x3d31195c	0.043237075
119	0x3e15aad6	0.1461595
120	0xbdc190fe	-0.09451483
121	0x3dd511c8	0.10403782
122	0x3da5d46e	0.08097158
123	0xbcf88546	-0.030336987
124	0xbd930e80	-0.071805
125	0x3dae9af2	0.08525647
126	0xbbf06ff9	-0.007337567
127	0x3ceff36a	0.029290874
128	0xbd33fbf3	-0.04394145
129	0xbda8824c	-0.08227977
130	0x3d8b884f	0.06813108
131	0xbdcbd93c	-0.099535435
132	0x3da49c47	0.0803762
133	0x3cd4dd11	0.025984319
134	0xbb1de8f8	-0.002409516
135	0x3c15b563	0.009137484
136	0xba829b91	-0.0009964575
137	0x3da6aaf7	0.08138078
138	0x3de45125	0.111482896
139	0x3da430ea	0.08017142
140	0xbc7dc509	-0.015488871
141	0x3d1a91f0	0.037736833
142	0xbdac12b6	-0.08402006
143	0xbdc73dd7	-0.09728592
144	0x3d40948f	0.047016677
145	0xbd9bda34	-0.07609978
146	0xbd48b259	-0.04899821
147	0x3cf7e5ee	0.030261006
148	0x3d375500	0.044758797
149	0x3cd60ee7	0.026130153
150	0xbdeba7f6	-0.115066454
151	0xbce40c2e	-0.027837839
152	0x3d05fb6a	0.03271047
153	0xbc9ba563	-0.018999761
154	0x3cf9611e	0.030441817
155	0x3dc6f0f4	0.09713927
156	0x3dc154ff	0.0944004
157	0x3d6021a7	0.054719593
158	0x3c2e942d	0.010655445
159	0x3de23f25	0.110472
160	0x3d35a771	0.044349138
161	0xbd3fa097	-0.04678401
162	0x3cd01e9d	0.025405223
163	0xbdebef77	-0.11520284
164	0x3ceb2364	0.028703399
165	0xbc87d351	-0.016580256
166	0xbdc68997	-0.09694212
167	0xbccab31b	-0.024743607
168	0xbc8d197f	-0.017224072
169	0xbda3581a	-0.079757884
170	0xbd048a22	-0.032358296
171	0xbd6fd007	-0.058548
172	0xbab387ba	-0.0013697066
173	0x3cccac39	0.024984466
174	0xbd41657e	-0.04721593
175	0x3dd21a2e	0.102589
176	0xbd103dff	-0.035215374
177	0x39803379	0.00024452413
178	0x3e017177	0.1264094
179	0x3d47fa6b	0.0488228
180	0x3da87738	0.08225864
181	0x3c305e0b	0.010764609
182	0x3dde3021	0.108490236
183	0x3d78da11	0.06075484
184	0x3cb15764	0.021648116
185	0x3cb0eb0c	0.021596454
186	0xbdec5cd4	-0.11541143
187	0x3cdc6492	0.026903424
188	0x3dcdc7ad	0.10047851
189	0x3dd3eede	0.10348295
190	0x3d977c1a	0.07396717
191	0xbce25b86	-0.027631532
192	0xbd6ed924	-0.05831255
193	0xbde2652f	-0.110544555
194	0x3cf99504	0.030466564
195	0x3de532d9	0.11191339
196	0x3bd5e7d2	0.0065278793
197	0x3ce5efac	0.028068386
198	0x3e0f0671	0.13967301
199	0xbc811492	-0.015756879
200	0xbda5c959	-0.08095045
201	0x3c344203	0.011002067
202	0xbdc99c99	-0.09844322
203	0x3cc4404f	0.023956446
204	0xbcea9737	-0.028636558
205	0x3da39d98	0.07989043
206	0xbd9d54dc	-0.07682201
207	0x3d540965	0.05176677
208	0x3dfd0bdd	0.12355778
209	0xbdacebb1	-0.08443392
210	0x3d3e3614	0.04643829
211	0x3dc5b99e	0.09654544
212	0xbd196c32	-0.0374567
213	0xbda3fa0c	-0.08006677
214	0x3d51d8c3	0.05123211
215	0xbd81208b	-0.06305035
216	0xbda70adc	-0.08156368
217	0xbd7fd077	-0.062454667
218	0xbd0dff85	-0.03466751
219	0xbdb88e46	-0.090115115
220	0x3dd50614	0.1040155
221	0xbc610410	-0.013733879
222	0x3cf667aa	0.030078728
223	0x3d2abf47	0.041686323
224	0x3da86441	0.08222247
225	0x3de4f59d	0.111796595
226	0xbdda3ce6	-0.10656147
227	0x3dc07621	0.09397531
228	0xbcfa6f5b	-0.030570677
229	0xbde48501	-0.11158181
230	0x3d2b7cbf	0.041867014
231	0xbdab4c12	-0.08364119
232	0x3cd5cf12	0.026099715
233	0x3d20778c	0.03917651
234	0x3d018ec2	0.031630285
235	0xbda7f001	-0.08200074
236	0xbdc08225	-0.09399823
237	0xbc499a98	-0.012304924
238	0x3dd6fca6	0.104974076
239	0x3dbdc662	0.09266354
240	0xbdb464fd	-0.088083245
241	0xbd20a7f9	-0.03922269
242	0x3db77fd0	0.08959925
243	0x3df00656	0.117199585
244	0x3a81ea2c	0.0009911708
245	0xbda98a0d	-0.08278284
246	0xbdad9378	-0.08475393
247	0x3db29fa6	0.08721857
248	0xbdad2348	-0.08453995
249	0x3d79cf8b	0.060988944
250	0x3d9c9eb5	0.076474585
251	0x3d873b24	0.06603077
252	0x3d68dc06	0.056850456
253	0x3da7405f	0.08166575
254	0x3c1357af	0.008993073
255	0x3c94af2d	0.018149937

lstm.bias_hh_l0 f4 [256]
0	0xbda8d6d3	-0.082440995
1	0xbccc0e38	-0.024909124
2	0x3d05a478	0.032627553
3	0x3d4d9e94	0.05020006
4	0x3e08f1e4	0.13373524
5	0x3df85fe6	0.12127666
6	0xbcc6baa5	-0.02425892
7	0x3da0c0af	0.078492515
8	0xbdb9d74b	-0.09074267
9	0xbdbdacd3	-0.09261479
10	0x3da15f8e	0.07879554
11	0xbdc8822b	-0.097904526
12	0xbdb3d64f	-0.087811105
13	0xbcc2d2cf	-0.023782162
14	0xbd243eea	-0.040099062
15	0xbd1f72e6	-0.038927935
16	0x3dd1f371	0.10251511
17	0x3dca2b95	0.09871594
18	0x3cd72be0	0.026266038
19	0x3d8072f6	0.06271927
20	0xbc991840	-0.018688321
21	0x3c159666	0.009130096
22	0x3d1f69dd	0.03891932
23	0xbde762c9	-0.11298139
24	0xbdc291c1	-0.095004566
25	0x3db9ba74	0.09068766
26	0x3dea9f11	0.11456121
27	0xbc14c297	-0.009079597
28	0xbd5da501	-0.054112438
29	0xbddd6349	-0.10809953
30	0x3cca117c	0.02466654
31	0xbd689b03	-0.056788456
32	0xbd8f557f	-0.06998729
33	0xbd7d358a	-0.061818637
34	0x3cbb21f1	0.022843333
35	0xbcb1cae4	-0.021703191
36	0x3d7b12ae	0.06129711
37	0x3d7582f3	0.059939336
38	0xbd9d8721	-0.076917894
39	0xbd9a4164	-0.075320035
40	0x3de7f7c7	0.11326557
41	0x3db128d6	0.08650367
42	0xbc955550	-0.018229157
43	0x3d8f4d64	0.06997183
44	0xbd16ab6a	-0.036784567
45	0x3b2e762a	0.0026620724
46	0x3dc48b5d	0.09596894
47	0xbd412065	-0.047150034
48	0xbcab0480	-0.02087617
49	0x3dcd08c5	0.10011438
50	0x3d8a7c78	0.06762022
51	0xbde92386	-0.11383729
52	0xbcd30dce	-0.025763419
53	0x3dd6a1c3	0.10480072
54	0xbc403e78	-0.011733644
55	0x3de70884	0.11280921
56	0x3dbe8825	0.09303311
57	0x3d7fbaff	0.062434193
58	0xbd2c038a	-0.041995563
59	0x3da1763e	0.07883881
60	0x3debc522	0.115122095
61	0xbdabf2de	-0.083959326
62	0x3cb6d517	0.022318406
63	0xbde6b4fe	-0.1126499
64	0x3bd90eb5	0.0066240677
65	0xbdacfe32	-0.084469214
66	0x3d06814a	0.032838143
67	0xbd5d66c1	-0.054053072
68	0x3d0fa63c	0.035070643
69	0xbcf5b1ef	-0.029992072
70	0xbd41b585	-0.04729225
71	0x3cc3df6b	0.023910245
72	0xbd948053	-0.072510384
73	0xbd30f83b	-0.04320548
74	0x3d1eb57b	0.038747292
75	0x3d8a1822	0.06742884
76	0xbd6ea072	-0.05825848
77	0x3d125738	0.03572771
78	0xbdf38732	-0.11891021
79	0x3d57b1e7	0.052659895
80	0xbde0156a	-0.109415844
81	0xbb9c5a33	-0.004771495
82	0x3ca5d008	0.020240799
83	0xbd0453d5	-0.03230651
84	0x3d8f0691	0.06983674
85	0xbd055bf9	-0.032558415
86	0xbd7a161d	-0.061056245
87	0xbe089c60	-0.13340902
88	0x3dbece33	0.09316673
89	0x3d097366	0.03355732
90	0x3dc14d91	0.09438623
91	0x3dd90f86	0.10598664
92	0xbd4b637e	-0.04965543
93	0x3dab337a	0.08359428
94	0x3c6e1c4f	0.0145331165
95	0x3d6eb7ad	0.058280636
96	0xbd89e6a1	-0.06733442
97	0xbdbe50b5	-0.092927374
98	0xbda7154c	-0.08158359
99	0x3a083680	0.00051961094
100	0x3e19cfe2	0.15020707
101	0x3d45cc8d	0.048290778
102	0x3dbb201e	0.09136985
103	0x3dbc79e0	0.09202933
104	0xbdc22a28	-0.09480697
105	0xbd7c05d9	-0.061529014
106	0x3da8afac	0.08236632
107	0xbd34ffc8	-0.044189245
108	0xbd8372b4	-0.06418362
109	0xbda3232b	-0.07965692
110	0xbd04d0cf	-0.032425698
111	0x3a28e850	0.00064433087
112	0x3cf059cd	0.029339695
113	0x3bdb321b	0.0066893226
114	0x3a35e2a8	0.00069383765
115	0xbdc233bb	-0.09482523
116	0x3d8e8f6e	0.06960951
117	0x3d7e7525	0.062123436
118	0x3dbb6b45	0.091513194
119	0xbd0796ea	-0.033102907
120	0xbde8a556	-0.1135966
121	0x3d7a3d1d	0.06109344
122	0xbd883c5a	-0.06652136
123	0x3dc41f0f	0.095762365
124	0x3e00146c	0.1250779
125	0x3c4a15af	0.012334271
126	0xbcc3699c	-0.02385407
127	0xbbdf3291	-0.006811448
128	0xbdd9f190	-0.106417775
129	0xbd3f35d8	-0.04668221
130	0xbcb91159	-0.02259128
131	0xbcaa0ae7	-0.020757152
132	0x3c3a0d41	0.011355699
133	0x3dd1eac0	0.10249853
134	0xbd95d7fc	-0.073165864
135	0xbce0b896	-0.027431767
136	0xbd615a39	-0.055017684
137	0xbdae1109	-0.08499343
138	0xbe008043	-0.12548928
139	0x3db67d56	0.08910625
140	0xbd23eee2	-0.04002274
141	0xbd8ce3de	-0.068794
142	0x3d8af042	0.06784107
143	0xbd76a438	-0.060215205
144	0x3d061905	0.032738704
145	0x3a41db36	0.00073950307
146	0xbd7cf6d0	-0.061758816
147	0x3d83020f	0.06396877
148	0x3db290be	0.08719014
149	0xbdb05493	-0.08609881
150	0x3dba7b26	0.0910552
151	0x3d0c53fb	0.034259778
152	0x3ddcd8d5	0.10783545
153	0x3dd55f8b	0.10418614
154	0xbcdeb9fc	-0.027188294
155	0x3c907b54	0.017636932
156	0xbe00a3a9	-0.12562431
157	0x3da880d8	0.082277
158	0x3de23d85	0.1104689
159	0x3dbf876b	0.09352001
160	0x3c4d1e29	0.012519398
161	0x3c56db78	0.013113849
162	0x3dca42c0	0.09876013
163	0x3cfeff3a	0.03112756
164	0x3d32d870	0.043663442
165	0x3d9538b4	0.07286206
166	0xbdf71db9	-0.12066216
167	0xbd45f695	-0.048330862
168	0xbdaec0fa	-0.08532901
169	0xbd509738	-0.050925463
170	0xbc06b4af	-0.008221789
171	0xbcea42b2	-0.028596256
172	0x3d87a4f7	0.066232614
173	0x3d55d42f	0.052204307
174	0x3c7bd7f7	0.015371314
175	0xbd4c6dbb	-0.049909335
176	0x3d994968	0.07484704
177	0xbd8013bb	-0.06253763
178	0x3c4b3cd9	0.012404644
179	0xbcbe17e3	-0.02320475
180	0x3de75df2	0.112972155
181	0xbdacee03	-0.08443835
182	0xbd8cb44b	-0.06870326
183	0xbe006bd8	-0.12541139
184	0xbd0f1bd1	-0.034938637
185	0xbdca58f2	-0.09880246
186	0xbcd4eb36	-0.025991064
187	0xbd88f6b6	-0.066876814
188	0xbd9f463d	-0.07777069
189	0xbcfcb70d	-0.030849004
190	0x3c92931e	0.017892417
191	0xbdc2616f	-0.0949124
192	0xbde4eba2	-0.11177756
193	0xbd80299f	-0.062579386
194	0x3d5fcd42	0.05463911
195	0xbdbcc5a3	-0.09217384
196	0xbd8f2c6c	-0.06990895
197	0x3d7d1882	0.06179095
198	0x3d8150ae	0.063142166
199	0x3e0e486c	0.13894814
200	0x3d9e8aec	0.07741341
201	0x3de6078e	0.1123191
202	0xbd0f4dea	-0.034986414
203	0x3d9f652a	0.077829674
204	0x3d43521d	0.04768573
205	0xbda84492	-0.08216204
206	0x3d98cf60	0.07461429
207	0xbda61df8	-0.08111185
208	0x3dc233d3	0.09482541
209	0x3d887c3f	0.06664323
210	0xbd913297	-0.07089727
211	0x3da36171	0.0797757
212	0xbd59dbf5	-0.053188283
213	0xbda120d4	-0.078675896
214	0xbdf25a50	-0.11833632
215	0x3de8b38e	0.11362372
216	0x3daea0e6	0.08526783
217	0xbc2c49b1	-0.010515616
218	0x3dc08361	0.094000585
219	0xbdea70d4	-0.114473015
220	0xbddac92c	-0.10682902
221	0xbdd2b3d0	-0.10288203
222	0xbdacb594	-0.08433071
223	0x3bd9c2a2	0.0066455165
224	0x3d736898	0.05942592
225	0x3e01bd8d	0.12669964
226	0x3def6d5e	0.11690782
227	0x3da341e5	0.07971553
228	0x3d9ee93f	0.07759332
229	0xb9b88878	-0.00035196892
230	0x3e0139bd	0.12619682
231	0xbdcd1cf6	-0.100152895
232	0xbddd6c86	-0.10811715
233	0xbd13f40c	-0.036121413
234	0xb977822c	-0.00023604248
235	0xbd9c305b	-0.076264106
236	0xbdb4661d	-0.08808539
237	0x3dd7f41f	0.10544609
238	0xbcd7b5f8	-0.026331887
239	0x3c0d1dc1	0.008613051
240	0x3d2832c1	0.041064028
241	0x3db39e7c	0.08770463
242	0x3d2d5b17	0.0423232
243	0x3e0241c2	0.12720397
244	0xbd4f39b0	-0.050592124
245	0xbcfe42d3	-0.031037724
246	0xbc7e7112	-0.015529888
247	0xbd3bc9ab	-0.045846622
248	0xbd86e37e	-0.065863594
249	0xbdcc6a05	-0.09981159
250	0x3cb143e7	0.021638824
251	0xbd60a70a	-0.0548468
252	0x3b0205b8	0.0019839834
253	0xbd94c4b9	-0.07264084
254	0xbdd3ffb1	-0.10351504
255	0x3bf39fea	0.0074348347

lstm.weight_ih_l1 f4 [256, 64]
0	0x3c9f3de6	0.019438695
1	0x3dc1a96c	0.09456143
2	0x3c4e4f46	0.012592142
3	0x3ba53d0e	0.0050426787
4	0x3c5a5b79	0.013327473
5	0xbbf2919c	-0.007402612
6	0xbe048da3	-0.12944655
7	0xbbb7ec59	-0.0056128916
8	0x3dbfeb3f	0.093710415
9	0xbd8912b8	-0.066930234
10	0xbc05424b	-0.008133481
11	0xbd93f49f	-0.07224392
12	0xbdf6ff38	-0.12060398
13	0xbcfc4a75	-0.030797223
14	0x3d888f53	0.06667962
15	0xbd34ebd9	-0.044170234
16	0xbe02c6e9	-0.1277119
17	0xbb169b28	-0.0022980664
18	0xbdb3b374	-0.08774462
19	0x3e10f9b8	0.1415776
20	0xbde9030f	-0.113775365
21	0x3e14f923	0.14548163
22	0xbe099d9b	-0.13439028
23	0x3d91dd15	0.07122246
24	0xbde3f040	-0.111298084
25	0xbd8bdc1d	-0.06829093
26	0x3c37eea9	0.011226335
27	0xbcf48c2e	-0.029852
28	0xbd665ca2	-0.056240685
29	0x3e0fecc6	0.14055166
30	0xbdb5e9b6	-0.088824674
31	0x3d6807f4	0.05664821
32	0xbca94562	-0.020662967
33	0x3c90ca3f	0.017674563
34	0x3d4bc175	0.049745042
35	0x3dd59205	0.10428242
36	0xbdffcc78	-0.12490171
37	0xbdc5f304	-0.09665492
38	0xbc567621	-0.013089688
39	0x3d13256e	0.035924368
40	0x3d6c7e64	0.057737723
41	0x3c2db1cc	0.010601472
42	0x3d9de824	0.07710293
43	0xbdd57f4b	-0.1042467
44	0xbcb28e83	-0.02179647
45	0xbbbc7eca	-0.005752419
46	0x3b924af8	0.0044645034
47	0x3dea6a05	0.11446003
48	0x3d82880b	0.063736044
49	0x3d7bbe6d	0.0614609
50	0x3def3adf	0.11681151
51	0x3d6777cb	0.056510728
52	0xbd3b6920	-0.045754552
53	0xbd3306e8	-0.04370776
54	0xbc036dad	-0.008021754
55	0xbe089172	-0.13336733
56	0xbdabfcd0	-0.083978295
57	0x3dfa2a49	0.122150965
58	0x3cf779cc	0.030209444
59	0xbd26f7f6	-0.040763818
60	0x3e0f0be8	0.13969386
61	0x3dde5421	0.1085589
62	0x3d813205	0.063083686
63	0x3d9024a9	0.07038242
64	0xbce33e40	-0.027739644
65	0x3cfcb108	0.030846134
66	0xbd8d55cd	-0.06901131
67	0xbdbaf6b4	-0.09129086
68	0x3d26bd30	0.040707767
69	0x3d9d8996	0.07692258
70	0x3db542d6	0.088506386
71	0x3da3eb10	0.08003819
72	0xbe033f9f	-0.12817238
73	0x3d220e4c	0.039564416
74	0xbd5eb106	-0.05436804
75	0x3de7e331	0.1132263
76	0xbcd827a1	-0.026386084
77	0xbda32709	-0.0796643
78	0x3baa970f	0.005205996
79	0xbdeecd02	-0.11660196
80	0xbdd17404	-0.10227206
81	0xbdf1e58e	-0.11811362
82	0xbd31c63d	-0.043401945
83	0x3d51df34	0.051238254
84	0x3bebfc4e	0.007201708
85	0x3bf71d00	0.007541299
86	0x3de3cb95	0.111228146
87	0xbde18811	-0.11012281
88	0x3d415275	0.047197778
89	0x3dbd5736	0.0924515
90	0x3d97f21d	0.07419226
91	0xbca99457	-0.020700617
92	0xbdaf1303	-0.08548548
93	0x3d4a1837	0.0493395
94	0x3d31b894	0.043388918
95	0xbd966351	-0.07343162
96	0xbdef1f16	-0.11675851
97	0xbc0d46df	-0.008622854
98	0x3de3478e	0.11097632
99	0xbc61c59c	-0.013780024
100	0xbd89975f	-0.06718325
101	0x3ce69ed0	0.0281519
102	0x3dfcfe6e	0.12353216
103	0xbdff8bf1	-0.124778636
104	0x3dc7d84e	0.09758054
105	0x3d771a49	0.0603278
106	0x3d91d65e	0.071209654
107	0xbdfd1828	-0.12358123
108	0xbd2c7c1a	-0.04211054
109	0xbd95b2d2	-0.07309498
110	0x3d916130	0.07098615
111	0xbd8da973	-0.069170855
112	0x3d2c1058	0.042007774
113	0x3d996164	0.07489279
114	0xbd2e86c9	-0.04260901
115	0xbdb0b93d	-0.086290814
116	0xbd92d5b0	-0.07169664
117	0xbda2a767	-0.07942086
118	0xbe022274	-0.12708455
119	0x3e007fa2	0.12548688
120	0x3de6d1d3	0.112704895
121	0x3cefc294	0.029267587
122	0xbcfd02ce	-0.030885126
123	0xbe150c83	-0.14555554
124	0x3e115083	0.14190869
125	0x3db3dea6	0.08782701
126	0xbc9706cc	-0.018435858
127	0xbe03c54e	-0.12868235
128	0x3cd1ad65	0.025595376
129	0xbda17bd0	-0.078849435
130	0x3cd55c49	0.026044982
131	0x3daa6ef5	0.083219446
132	0xbdc0a362	-0.09406163
133	0xbd88ce91	-0.066800244
134	0x3df0a080	0.11749363
135	0xbd6b75ca	-0.05748538
136	0x3de74f1e	0.11294387
137	0xbde31109	-0.110872336
138	0x3db45d93	0.0880691
139	0xbc4b1573	-0.012395251
140	0x3dcc207e	0.09967135
141	0x3dcedad8	0.10100335
142	0x3cf3caba	0.029759753
143	0xbdf49024	-0.11941555
144	0xbdf69a91	-0.120412
145	0xbde3f1a6	-0.11130075
146	0xbbecfff4	-0.0072326604
147	0x3cd9b9d4	0.026577868
148	0x3dae36b2	0.08506526
149	0x3d9702c2	0.07373573
150	0x3d780ad7	0.060557213
151	0x3dc027dd	0.09382603
152	0xbb04bd6c	-0.0020254506
153	0xbd99fc0c	-0.07518777
154	0xbd7d9554	-0.06190999
155	0xbd66adf9	-0.056318257
156	0x3c63422e	0.013870759
157	0x3c0a07de	0.008424727
158	0x3c908a70	0.017644137
159	0x3dd612df	0.10452818
160	0xbdbdf11c	-0.092745036
161	0x3d9cdffc	0.07659909
162	0x3d4f2b6a	0.050578512
163	0x3dba57c1	0.09098769
164	0xbd2579ae	-0.040399246
165	0xbd8f431b	-0.06995221
166	0xbb764836	-0.0037579662
167	0x3d4ac861	0.049507502
168	0xbc012ba6	-0.007883942
169	0xbd8bd9ce	-0.06828652
170	0x3dad86f7	0.08473008
171	0xbd7c4404	-0.061588302
172	0xba9658f1	-0.0011470598
173	0xbdb6b1b2	-0.089206114
174	0xbbadd086	-0.005304399
175	0xbd5f7a7e	-0.054560177
176	0x3d2b07b0	0.04175538
177	0x3d2abd68	0.041684538
178	0x3d74359a	0.05962143
179	0xbdb2ddf0	-0.087337375
180	0x3d71e313	0.059054445
181	0xbdf0ab22	-0.11751391
182	0xbd8d6782	-0.06904508
183	0x3db2c21c	0.0872843
184	0x3c890eed	0.01673075
185	0x3c02cb56	0.007983049
186	0xbbbd5da5	-0.0057789856
187	0x3d54262e	0.051794223
188	0xbdd39628	-0.103313744
189	0xbca52ddc	-0.020163469
190	0x3b0764dc	0.0020659482
191	0xbc2b7c71	-0.010466681
192	0xbd76775d	-0.060172427
193	0x3dcf6371	0.10126389
194	0x3d81d07c	0.06338593
195	0x3ce0c65c	0.027438335
196	0x3d4f4484	0.05060245
197	0x3d68b8b6	0.05681678
198	0x3c32a6a6	0.01090399
199	0x3d459c88	0.048244983
200	0xbdb68ccb	-0.08913573
201	0xbdbedb17	-0.09319132
202	0x3e0a2077	0.13488947
203	0x3dfd1d48	0.123591006
204	0xbdb5f7a7	-0.088851266
205	0x3dad22be	0.08453892
206	0x3d5d8a28	0.054086834
207	0xbd856c1d	-0.065147616
208	0x3e067e5a	0.13134137
209	0x3c11449b	0.0088664545
210	0xbd9f22fb	-0.07770344
211	0x3e0021d0	0.12512898
212	0x3d99b15f	0.07504534
213	0x3dd89553	0.10575356
214	0x3de578b8	0.11204666
215	0x3debac4b	0.11507472
216	0x3e071cee	0.1319463
217	0xbccd93da	-0.025094915
218	0x3d850262	0.06494595
219	0xbdfb9c6a	-0.12285693
220	0x3d93037a	0.071783975
221	0x3d9afa99	0.07567329
222	0x3dd87f37	0.10571139
223	0xbd369499	-0.044575308
224	0x3bfd5e7c	0.0077322107
225	0x3d4f5b9f	0.050624486
226	0x3cac90d5	0.021065155
227	0xbc9b40d8	-0.018951818
228	0x3d9d713f	0.076876156
229	0x3d22f6b6	0.039786063
230	0xbdb56045	-0.088562526
231	0xbdc5e9dc	-0.09663746
232	0x3ba4a324	0.0050243307
233	0xbd48f392	-0.04906041
234	0x3defca92	0.11708559
235	0xbd4cc592	-0.049993105
236	0xbce8c7d7	-0.028415604
237	0xbac4ae4a	-0.0015005555
238	0xbd9ec8bc	-0.07753131
239	0xbbd584a6	-0.006516057
240	0xbcbdaadf	-0.023152767
241	0xbbb43dfe	-0.005500554
242	0x3dae916b	0.0852383
243	0xbda5ea86	-0.081013724
244	0x3df0aef7	0.11752122
245	0xbd2ef89f	-0.042717572
246	0x3d92a7ad	0.07160888
247	0xbd94d23e	-0.07266663
248	0x3d896d81	0.06710339
249	0x3c960eaa	0.01831754
250	0x3ce04be7	0.027379943
251	0x3d952992	0.072833195
252	0x3de91c8e	0.113823995
253	0xbd8f45c7	-0.06995731
254	0x3dae93f8	0.085243165
255	0x3d445542	0.04793287

lstm.weight_hh_l1 f4 [256, 64]
0	0xbdabe0b3	-0.08392467
1	0xbdd84146	-0.10559325
2	0x3da85a28	0.08220321
3	0x3d81b81a	0.06333943
4	0x3cc2a507	0.023760332
5	0xbdf12e30	-0.11776388
6	0x3db9a286	0.09064202
7	0x3e16caea	0.14725843
8	0x3d0756bf	0.033041712
9	0x3d1467c5	0.036231775
10	0x3d54919a	0.05189667
11	0xbc74512a	-0.014911929
12	0x3db6f688	0.08933741
13	0x3d0c6f17	0.03428563
14	0x3d927b24	0.071523935
15	0x3cf7d4d6	0.030252855
16	0xbca0409f	-0.019562064
17	0x3da5861b	0.08082219
18	0x3da96c4b	0.08272608
19	0xbe04d060	-0.12970114
20	0x3dd9cd48	0.106348574
21	0x3cbeaea5	0.023276636
22	0xbdaae336	-0.08344118
23	0x3d633942	0.055474527
24	0x3df2de4e	0.118588075
25	0x3dc8dd99	0.098078914
26	0xbd09cd77	-0.033643212
27	0xbd0ad629	-0.033895645
28	0x3d814249	0.06311471
29	0xbdd0c627	-0.101940446
30	0xbb7de85c	-0.0038743233
31	0x3ced570a	0.028972168
32	0x3dc7290a	0.097246245
33	0xbdcadca3	-0.09905364
34	0xbd22b489	-0.039722953
35	0xbe1f785e	-0.1557326
36	0xbdf5c93f	-0.12001275
37	0x3d916ca6	0.07100801
38	0x3d859f2f	0.065245025
39	0x3d28c8db	0.041207176
40	0xbd516cde	-0.051129214
41	0xbce86da9	-0.028372603
42	0xbdd262d5	-0.10272757
43	0xbd39d0db	-0.045365196
44	0xbcc60f5a	-0.024177242
45	0xbd85dbda	-0.06536074
46	0x3ddcfb46	0.10790114
47	0xbdb0394a	-0.08604677
48	0xbcef3c7b	-0.029203644
49	0xbdbe34b4	-0.09287396
50	0xbcf55f9e	-0.02995282
51	0xbcbab927	-0.022793366
52	0xbd935b00	-0.07195091
53	0xbe0074a6	-0.12544498
54	0x3daea4ed	0.08527551
55	0xbcd257c2	-0.025676612
56	0xbcd45844	-0.025920995
57	0xbd374ded	-0.04475205
58	0x3dce4f75	0.10073749
59	0x3d7ab2b5	0.061205585
60	0x3c086db0	0.008326933
61	0xbd4e15a0	-0.050313592
62	0xbcf3c701	-0.029757978
63	0xbde08b6c	-0.109640926
64	0xbd4b9f47	-0.049712446
65	0x3de6ba5b	0.11266013
66	0xbc1f31ea	-0.00971649
67	0xbb8211fa	-0.003969428
68	0x3ddebab0	0.108754516
69	0xbdbbf628	-0.0917781
70	0x3dd803a2	0.10547568
71	0xbcef4bd5	-0.029210964
72	0xbdd78252	-0.105229035
73	0x3de19f27	0.11016684
74	0x3cbc2fa0	0.022971928
75	0x3d3e6a2b	0.04648797
76	0xbcf9957d	-0.03046679
77	0xbdf3ada8	-0.11898357
78	0x3ce8e62e	0.02843007
79	0xbd3df4de	-0.0463761
80	0x3dd6c732	0.10487212
81	0x3d39802e	0.045288257
82	0x3dc2d619	0.09513492
83	0xbd3c8846	-0.046028398
84	0xbda6b839	-0.081406064
85	0xbd539506	-0.05165579
86	0x3e109b2d	0.14121695
87	0xbdcb1f15	-0.09918038
88	0xbcd3193f	-0.025768874
89	0xbda993fc	-0.08280179
90	0xbdad7b6c	-0.084708065
91	0xbdaabe4e	-0.08337079
92	0x3d38cac7	0.04511526
93	0x3c4757f0	0.012166962
94	0xbe02946c	-0.12751931
95	0xbd8cb97b	-0.06871315
96	0xbd1ad842	-0.037803896
97	0xbdb7de3f	-0.08977937
98	0x3e16b89c	0.1471886
99	0xbce0ddf4	-0.027449585
100	0xbe02e54e	-0.12782785
101	0xbd39372f	-0.045218643
102	0xbd35dfc3	-0.04440285
103	0xbd41c95e	-0.04731118
104	0xbc3c1a6f	-0.011480912
105	0xbd8bd5d7	-0.06827896
106	0xbd043c12	-0.03228385
107	0xbdbe96c9	-0.09306104
108	0x3dbb77e5	0.091537274
109	0xbdb192e2	-0.08670594
110	0x3d07cd14	0.033154562
111	0x3d09403a	0.033508517
112	0xbdb4964e	-0.08817731
113	0xbccf9369	-0.025338845
114	0x3c850245	0.016236434
115	0xbda38605	-0.079845466
116	0xbcdb126a	-0.026742179
117	0x3ce26936	0.02763806
118	0x3d94090b	0.07228287
119	0xbcf0eb83	-0.029409176
120	0xbdecbdaa	-0.11559613
121	0x3d8401b4	0.06445637
122	0x3c91a624	0.017779417
123	0xbdd2168c	-0.10258207
124	0xbc76ca07	-0.0150628155
125	0xbb7ea3f3	-0.0038855046
126	0x3dddfbad	0.10839019
127	0x3dae8750	0.085219026
128	0xbddc68c2	-0.107621685
129	0xbdca2142	-0.09869625
130	0xbd930b00	-0.071798325
131	0x3db390f2	0.087678805
132	0x3dd7261e	0.10505317
133	0xbe05d725	-0.13070352
134	0xbda67820	-0.08128381
135	0x3dee09a2	0.11622931
136	0x3db7e78b	0.0897971
137	0xbd0fb916	-0.03508862
138	0xbda87a23	-0.08226421
139	0x3d8cf850	0.06883299
140	0xbde0c95b	-0.109759055
141	0x3d5d4f3d	0.054030646
142	0xbdc2ee63	-0.09518125
143	0xbd2e5589	-0.04256204
144	0x3d56f092	0.05247552
145	0xbd0eeb7a	-0.034892537
146	0xbd9f7581	-0.07786084
147	0xbdeb494e	-0.11488591
148	0x3dad35f1	0.08457554
149	0xbad59835	-0.0016295972
150	0x3e096cb0	0.13420367
151	0x3d04fa9f	0.032465573
152	0xbbf55f79	-0.007488188
153	0xbd8d6de7	-0.06905728
154	0x3d1d31c7	0.03837755
155	0x3d4ecb0f	0.05048662
156	0xbdbbf499	-0.09177513
157	0xbd3ff572	-0.046864934
158	0xbc58056f	-0.013184889
159	0xbbe1b2dc	-0.006887777
160	0xbd9af693	-0.075665615
161	0xbdc2a46e	-0.09504019
162	0xbd904e61	-0.070461996
163	0xbd64f8be	-0.05590128
164	0x3d3be133	0.045869064
165	0x3d237c60	0.039913535
166	0xbce83241	-0.028344275
167	0x3cfb2ff9	0.030662524
168	0x3d88b81a	0.066757396
169	0x3cfe7e4c	0.031066082
170	0xbe0c0b9a	-0.136763
171	0xbd182213	-0.03714187
172	0xbd96981f	-0.073532335
173	0x3dcabcb4	0.098992735
174	0xbdb7c37b	-0.08972832
175	0xbd23b9a4	-0.039971963
176	0xbc0b94ff	-0.00851941
177	0x3e0126a1	0.12612392
178	0xbd186550	-0.037205994
179	0x3daa9784	0.083296806
180	0xbcca069d	-0.024661357
181	0xbd3d0180	-0.04614401
182	0x3dfa4383	0.12219908
183	0xbc27d4a9	-0.010243573
184	0xbccbe06d	-0.024887288
185	0xbda6bb0d	-0.08141146
186	0xbce9c406	-0.028535854
187	0x3dfe3605	0.12412647
188	0xbdc98b5d	-0.098410346
189	0xbcb9c39c	-0.022676282
190	0x3d825596	0.063639805
191	0xbddcfc1b	-0.10790273
192	0xbd9dbeec	-0.07702431
193	0x3cdb5a9c	0.026776604
194	0xbddb7c8c	-0.10717115
195	0xbcec2098	-0.028824136
196	0xbda09ad9	-0.07842035
197	0x3d257cae	0.040402107
198	0xbd4ccdd5	-0.050000984
199	0x3d199039	0.037491057
200	0x3dea5f1f	0.11443924
201	0x3d64f516	0.055897795
202	0x3db9a8d8	0.090654075
203	0x3dc681ca	0.09692724
204	0xbd443e53	-0.047911
205	0x3d0f45b5	0.034978587
206	0xbcb7d9d7	-0.022442741
207	0xbd46cded	-0.04853623
208	0x3df1f505	0.11814312
209	0xbda51663	-0.080609106
210	0xbb88c42d	-0.0041737766
211	0xbdfcfd38	-0.12352985
212	0x3dcb1ece	0.09917985
213	0x3de0b05d	0.109711386
214	0xbd9b0934	-0.07570115
215	0xbdc21d2e	-0.09478222
216	0xbd13be45	-0.036070127
217	0x3d655aeb	0.05599491
218	0x3df0498a	0.117327765
219	0x3d9a6649	0.075390406
220	0x3d8e6eeb	0.0695475
221	0xbd412478	-0.04715392
222	0x3dacdce4	0.08440569
223	0x3da9d731	0.08292998
224	0xbd81a732	-0.06330718
225	0xbdcf1964	-0.10112265
226	0xbc500e2a	-0.0126986895
227	0x3da3a77c	0.079909295
228	0x3db44e0e	0.0880395
229	0x3dbb00aa	0.09130986
230	0xbd830ca9	-0.06398899
231	0xbda8b183	-0.08236983
232	0x3db36af7	0.08760636
233	0x3d68c8ef	0.05683225
234	0xbdd69ffc	-0.10479733
235	0xbdb6a423	-0.08918025
236	0x3e031050	0.12799191
237	0xbdf60785	-0.12013153
238	0xbd331f8f	-0.04373127
239	0x3db492e8	0.08817083
240	0xbdb3a10d	-0.087709524
241	0xbcaf6350	-0.02140966
242	0xbdc0b462	-0.09409405
243	0x3db5cbbf	0.08876752
244	0x3d781760	0.060569167
245	0xbddb373d	-0.10703895
246	0xbdbf42fc	-0.09338948
247	0x3caffe83	0.021483665
248	0xbd55d9c5	-0.052209634
249	0xbdeb467c	-0.11488053
250	0xbe036125	-0.12830026
251	0x3cfddca9	0.030989008
252	0xbd7c91ae	-0.06166237
253	0x3d59bbc5	0.053157587
254	0x3dcc9c4b	0.09990748
255	0x3e15999e	0.14609382

lstm.bias_ih_l1 f4 [256]
0	0x3de5d698	0.11222571
1	0xbd5aab92	-0.05338628
2	0xbd894d38	-0.067041814
3	0x3d8cce0d	0.068752386
4	0xbd506086	-0.050873302
5	0xbd90e527	-0.07074957
6	0xbd462f93	-0.048385214
7	0x3d16919f	0.03675997
8	0xbd8a9212	-0.06766142
9	0xbd7accb5	-0.06123038
10	0xbd226fe8	-0.039657503
11	0x3d77e8f8	0.06052491
12	0xbd84832e	-0.06470333
13	0x3d62855e	0.05530297
14	0x3de9ce0f	0.11416256
15	0xbdc333bb	-0.09531351
16	0xbc8fef39	-0.017570125
17	0x3d78d0e6	0.060746096
18	0xbd383026	-0.044967793
19	0xbd23e54f	-0.040013608
20	0x3dd90bb0	0.10597932
21	0xbb1ad844	-0.002362744
22	0x3c6cd4e7	0.014455057
23	0xbdd79d3f	-0.10528039
24	0x3ddbed27	0.107385926
25	0xbd9ef341	-0.07761241
26	0x3b50d01f	0.003186233
27	0xbca6bce3	-0.02035374
28	0x3d897f26	0.06713705
29	0x3d8e7d80	0.06957531
30	0xbbfff4f2	-0.007811182
31	0xbda2d43f	-0.07950639
32	0x3d9d8391	0.0769111
33	0x3d282c26	0.04105773
34	0xbce358f2	-0.027752373
35	0xbddf8666	-0.10914306
36	0x3dcdf633	0.100567244
37	0xbd2789c5	-0.04090287
38	0x3de648b6	0.11244337
39	0x3db81a50	0.08989394
40	0x3c413daa	0.011794487
41	0x3dbfa4f0	0.09357631
42	0xbd9cb892	-0.076523915
43	0xbd92a535	-0.07160417
44	0x3e046cdc	0.12932152
45	0x3d3ebe15	0.046567995
46	0x3dc6ecff	0.09713172
47	0x3d232350	0.0398286
48	0xbcf09401	-0.029367449
49	0x3d9221f0	0.07135379
50	0xbd9262b3	-0.07147732
51	0xbcbde01d	-0.023178155
52	0x3d9bbb87	0.076041274
53	0xbd819ce3	-0.06328752
54	0x3dc2652b	0.094919525
55	0xbdf02a96	-0.117268726
56	0xbce73c7a	-0.02822708
57	0xbdd8186c	-0.10551533
58	0xbd5a7a39	-0.053339217
59	0x3dd97816	0.10618608
60	0xbc04e632	-0.008111523
61	0xbd89d99b	-0.06730958
62	0xbd6287aa	-0.05530516
63	0x3db693df	0.08914923
64	0xbc5ba6f7	-0.013406507
65	0xbdc5f221	-0.09665323
66	0x3d8860a2	0.06659056
67	0x3d60aedc	0.05485426
68	0xbd77e9db	-0.060525756
69	0xbd2e3392	-0.04252965
70	0x3e02e7e4	0.12783772
71	0xbcdc62eb	-0.026902637
72	0x3e00b331	0.12568356
73	0xbd91d88f	-0.071213834
74	0x3d2f6483	0.042820465
75	0x3cd2d3cb	0.025735756
76	0xbdb4ba09	-0.08824546
77	0x3d216458	0.039402336
78	0x3dcb67f7	0.09931939
79	0xbdc82461	-0.09772564
80	0xbcdc72fc	-0.026910298
81	0x3de312d6	0.11087577
82	0x3c9ca541	0.019121768
83	0xbd7cc20c	-0.061708495
84	0xbdd9c4e1	-0.10633255
85	0xbd9bbe21	-0.076046236
86	0xbcce821b	-0.025208523
87	0xbdc82444	-0.09772542
88	0x38ba45a8	8.8821456e-05
89	0x3d3c8b85	0.046031494
90	0x3cbd5646	0.023112427
91	0xbc87f15f	-0.016594587
92	0x3d893ff9	0.06701655
93	0x3d838820	0.06422448
94	0xbd5655db	-0.052327972
95	0xbdc9ca08	-0.098529875
96	0x3de21730	0.11039579
97	0x3deb1a88	0.1147967
98	0xbc538de5	-0.012912248
99	0xbdbc2d24	-0.091882974
100	0xbc4a5774	-0.012349952
101	0xbd991fdb	-0.07476779
102	0xbddf8818	-0.1091463
103	0xbd777fa3	-0.06042446
104	0x3d2c0f03	0.042006504
105	0xbdf911fb	-0.121616326
106	0xbdd73054	-0.10507265
107	0x3cc1c565	0.023653695
108	0xbd2c7c88	-0.04211095
109	0xbda3a8f1	-0.079912074
110	0xbd980f20	-0.0742476
111	0xbc1a8d89	-0.009433159
112	0x3db0ae12	0.08626951
113	0xbcaa2744	-0.020770676
114	0xbd944b6a	-0.072409466
115	0x3b92a0e8	0.004474748
116	0xbd9cbe8d	-0.07653532
117	0x3d182c37	0.03715154
118	0xbdd96aa6	-0.10616045
119	0xbd81d9a6	-0.06340341
120	0x3dd18981	0.10231305
121	0x3d3dc04b	0.046325963
122	0x3d9d2d88	0.076747
123	0x3c00e1f4	0.007866371
124	0xbe08a2ab	-0.13343303
125	0x3dddad36	0.10824053
126	0xbd98c420	-0.07459283
127	0x3ccd6b71	0.025075646
128	0x3d88d0c0	0.06680441
129	0x3d90bb4f	0.07066976
130	0x3d86f252	0.06589188
131	0x3d8db25f	0.06918787
132	0x3dc4cff2	0.09609975
133	0xbd363050	-0.04447967
134	0x3dea1690	0.11430085
135	0xbd3f80c8	-0.046753675
136	0x3cc09f9a	0.023513604
137	0x3d5bc554	0.053654984
138	0xbde715c6	-0.1128345
139	0x3d095721	0.03353036
140	0xbdd6141d	-0.10453055
141	0xbd3f8285	-0.046755332
142	0x3d84902c	0.06472811
143	0xbda2aae3	-0.0794275
144	0x3de201eb	0.11035522
145	0x3d93bf55	0.07214228
146	0x3dd282b2	0.102788344
147	0xbde14761	-0.109999426
148	0xbdc0b29d	-0.09409068
149	0xbdb41f5e	-0.08795045
150	0xbd5acbfa	-0.053417183
151	0xbdf2afcd	-0.118499376
152	0xbdd2911d	-0.102815844
153	0x3cf2be65	0.029631803
154	0x3df6eba8	0.120566666
155	0xbde3c5dc	-0.11121723
156	0x3dceb418	0.10092944
157	0x3d57527b	0.052568894
158	0x3c887e6b	0.016661843
159	0x3c8ac9bb	0.016941896
160	0x3ab267ac	0.0013611219
161	0xbe01a553	-0.12660722
162	0xbd792e3b	-0.060835104
163	0x3dcf732a	0.10129388
164	0xbdc95655	-0.0983092
165	0xbdae0a3d	-0.084980465
166	0xbd5e9f72	-0.054351278
167	0x3d023151	0.031785313
168	0xbd02ce1b	-0.03193484
169	0x3b2d8e8f	0.0026482677
170	0x3d8b17ff	0.06791686
171	0xbda80a0f	-0.082050435
172	0x3d78d4a1	0.060749654
173	0x39f934ee	0.00047532417
174	0x3d0d7e0d	0.03454404
175	0x3b3762e4	0.0027982527
176	0x3dc1a4fe	0.09455298
177	0x3d25cb4d	0.040477086
178	0xbdbcd237	-0.09219783
179	0x3ddd5a39	0.10808224
180	0x3e001543	0.1250811
181	0x3dfa4906	0.12220959
182	0x3dac74b6	0.08420698
183	0xbd4e6b83	-0.0503955
184	0xbdb11d12	-0.08648123
185	0xbd75d5de	-0.060018413
186	0xbdc343c1	-0.095344074
187	0x3d21df57	0.039519634
188	0xbbb1f7d4	-0.0054311547
189	0x3d0f1caa	0.034939446
190	0x3de375d2	0.11106457
191	0xbd380990	-0.044930995
192	0x3d3cd8c1	0.04610515
193	0x3d96c73b	0.07362219
194	0xbcb9f2cf	-0.022698788
195	0x3d95fed9	0.07323999
196	0x3db7297d	0.0894346
197	0x3dfc0727	0.12306052
198	0x3dca05b2	0.098643675
199	0xbd1fbf21	-0.039000634
200	0x3d9e6967	0.07734948
201	0x3d05bc70	0.03265041
202	0xbdb5d3bd	-0.088782765
203	0xbd91def5	-0.07122604
204	0xbddbaff0	-0.10726917
205	0xbdbc3421	-0.0918963
206	0xbdb4892f	-0.08815228
207	0xbdc4810d	-0.09594927
208	0x3c27d4f8	0.010243647
209	0x3d70f4e5	0.0588273
210	0x3d6211a6	0.055192612
211	0x3db73a88	0.08946711
212	0x3cd6f199	0.02623825
213	0xbdb1ab72	-0.08675279
214	0xbcf8b3d3	-0.030359184
215	0x3d794a1a	0.060861684
216	0x3d255c18	0.04037103
217	0x3d9a2d18	0.07528132
218	0x3dcd94b3	0.10038128
219	0x3cbcdbde	0.02305406
220	0xbdeee41c	-0.11664602
221	0x3c3b6b3f	0.011439144
222	0x3dcedb3f	0.101004116
223	0x3c9624fb	0.01832818
224	0xbc9b854c	-0.01898446
225	0x3d897b8b	0.06713017
226	0xbd55636a	-0.05209676
227	0x3cafd1c3	0.021462327
228	0xbdbb8cfe	-0.091577515
229	0xbddf1f99	-0.10894699
230	0x3dc27cef	0.094964854
231	0x3c7f0a26	0.015566384
232	0x3d6d4e81	0.057936195
233	0xbe05c1a2	-0.13062146
234	0xbcd67bc8	-0.02618207
235	0x3d038bc6	0.03211572
236	0x3dae892b	0.085222565
237	0xbca56b9d	-0.020192916
238	0x3cf84b99	0.030309485
239	0x3d340d30	0.04395789
240	0x3d9bc535	0.07605974
241	0xbcf5accd	-0.029989624
242	0x3dc6adfe	0.09701155
243	0x3d85e5f6	0.06538002
244	0xbd884d2d	-0.06655345
245	0x3dfcf179	0.12350745
246	0xbab145ef	-0.001352487
247	0x3df38053	0.1188971
248	0x3dd1acf6	0.10238068
249	0xbd4e0477	-0.050297227
250	0x3d68d713	0.056845736
251	0x3db46157	0.088076286
252	0xbd28c845	-0.041206617
253	0xbddf1f3b	-0.108946286
254	0x3d9c1193	0.076205395
255	0x3d1c048e	0.03809028
