artifacts/SKU_02/model.pt (torch, 219227 bytes, 12 tensors)

lstm.weight_ih_l0 f4 [256, 10]
0.088843964 0.080415875 -0.014163518 0.062105052 0.07895157 -0.0660205 0.058447916 -0.054373592
-0.073603794 0.031475928 -0.049288332 -0.008807225 0.026625682 0.05823026 -0.1100549 0.10049705
0.06093198 0.13328773 -0.007409473 0.058066867 -0.009164499 0.06167124 0.00572599 -0.1213563
0.071078405 0.113551356 -0.0031206424 0.03922912 -0.03629769 -0.0355377 0.101992756 -0.08594254
0.10314223 -0.09259893 -0.114146814 -0.037190173 -0.12532383 -0.019836266 0.0053902045 -0.07567924
0.013307897 0.08773936 0.116648845 0.034767658 0.09285997 -0.065335035 -0.038186144 -0.04436239
-0.12579088 0.01554644 -0.030811053 -0.089484975 -0.09386538 0.00049333903 0.089034356 0.026293589
-0.086097084 0.07900151 -0.026279325 -0.018957488 0.10603856 -0.055285763 0.04510143 -0.021553122
-0.013937887 0.088446915 -0.062761255 0.06534181 -0.017892865 -0.10845989 0.06412571 -0.12108113
0.012665386 0.09140523 -0.048578423 -0.103536606 0.09024625 0.11075172 -0.123458676 -0.010465294
0.034463335 -0.091145575 -0.03800625 -0.08097152 -0.009816947 -0.1079971 -0.06735987 -0.0033634033
-0.052663382 -0.015257671 0.00079009595 0.11312442 -0.123494714 -0.00039273163 -0.07286041 -0.005235411
-0.04307431 0.03651043 -0.019117154 0.0067969747 0.07135522 0.011226416 -0.07367803 0.015086665
-0.074708745 0.123592496 -0.100705855 0.031881697 -0.08162484 -0.020944707 -0.0530102 0.05174599
-0.023974488 0.08374476 -0.0897129 -0.11901435 0.062825575 -0.10863133 -0.092831545 0.036239006
-0.11008303 -0.019722631 -0.10500678 -0.0040186583 0.10318594 -0.021716056 -0.02845267 -0.07982716
0.0031378795 -0.10005908 0.03777225 -0.058475457 -0.038292322 0.038067024 0.038233455 0.086945266
0.0581319 -0.0862492 -0.10139658 -0.011152937 -0.03020156 0.039934583 0.0035249027 -0.12751369
-0.11187945 0.061826028 -0.08052112 0.121907115 -0.014184618 0.034905378 -0.059754703 -0.06259943
0.028142447 0.05857857 -0.111225285 0.00046312175 -0.086812004 -0.10852241 -0.056780364 -0.084901825
-0.026113724 -0.13880652 0.021764243 -0.11711876 -0.013725812 0.034514762 -0.08770687 0.034311213
0.007107183 -0.12855496 0.070139356 0.07827161 -0.020310815 0.018742692 -0.034618367 -0.091285065
0.000225962 -0.045990173 -0.015267034 -0.06750821 -0.057076074 0.11086312 0.05543404 -0.0886953
0.11476876 0.032121293 -0.032980427 0.008119303 -0.06134626 -0.009986979 -0.06711157 -0.08638569
0.10188367 0.059776068 0.046116695 0.0072587826 0.12950033 0.09883858 0.047803678 -0.04325007
0.066009484 0.008000033 0.052251063 0.11281045 0.023052089 0.08638554 -0.08659176 -0.093821086
-0.11942026 -0.07674156 0.114753544 -0.105995566 -0.09067023 -0.08439769 0.08422699 0.037426498
0.10088185 0.051824037 -0.036846515 -0.07218769 -0.040781096 0.030256528 -0.0242086 0.071839206
-0.12952134 -0.052372143 -0.033496123 0.08511993 0.020949252 0.041897055 -0.019542051 0.030213298
0.060828827 0.021387847 0.10466681 0.068421975 -0.021813199 0.030918926 0.12296904 0.045620028
0.093364514 0.06308465 -0.08830724 0.059798587 0.057167318 0.04797235 -0.07819466 -0.014925055
-0.07670091 -0.10330446 0.122514054 -0.015820403 -0.05554633 0.019312918 -0.02214361 -0.0842715
00000000: d3f3 b53d 14b1 a43d 1a0e 68bc de61 7e3d
00000010: 5cb1 a13d c235 87bd 1567 6f3d d8b6 5ebd
00000020: 96bd 96bd e7ec 003d 90e2 49bd 2e4c 10bc
00000030: 1a1e da3c da82 6e3d 7764 e1bd 66d1 cd3d
00000040: d093 793d 947c 083e 2acb f2bb 86d7 6d3d
00000050: b226 16bc fb9a 7c3d 16a1 bb3b a789 f8bd
00000060: 8e91 913d 9d8d e83d b183 4cbb b7ae 203d
00000070: e3ac 14bd fb8f 11bd 94e1 d03d a402 b0bd
00000080: 3c3c d33d 82a4 bdbd cec5 e9bd b954 18bd
00000090: e454 00be aa7f a2bc 50a0 b03b b8fd 9abd
000000a0: 5e09 5a3c b2b0 b33d 97e5 ee3d 8868 0e3d
000000b0: 5e2d be3d 60ce 85bd 1369 1cbd 56b5 35bd
000000c0: 53cf 00be 7fb6 7e3c 7667 fcbc e643 b7bd
000000d0: 7e3c c0bd 6c53 013a a557 b63d a765 d73c
000000e0: ab53 b0bd 8bcb a13d bd47 d7bc bc4c 9bbc
000000f0: bf2a d93d 5373 62bd 47bc 383d 2c90 b0bc
00000100: bc5b 64bc a823 b53d f988 80bd edd1 853d
00000110: 0f94 92bc 3820 debd 5754 833d 62f9 f7bd
00000120: 7b82 4f3c aa32 bb3d 2bfa 46bd 000b d4bd
00000130: 07d3 b83d ccd1 e23d e7d7 fcbd a076 2bbc
00000140: 6d29 0d3d 88aa babd 71ac 1bbd 65d4 a5bd
00000150: 43d7 20bc 952d ddbd f9f3 89bd 8b6c 5cbb
00000160: 8fb5 57bd 4ffb 79bc 711e 4f3a c7ad e73d
00000170: ccea fcbd 8ce7 cdb9 d737 95bd d08d abbb
00000180: b06e 30bd f68b 153d 949b 9cbc 28b9 de3b
00000190: b022 923d 00ef 373c 82e4 96bd 0f2e 773c
000001a0: e600 99bd 101e fd3d df3e cebd 6296 023d
000001b0: ed2a a7bd 3c94 abbc 3921 59bd 9af3 533d
000001c0: 2566 c4bc 5f82 ab3d 66bb b7bd ccbd f3bd
000001d0: b2aa 803d 1a7a debd 771e bebd 5a6f 143d
000001e0: 3673 e1bd 5b91 a1bc cb0d d7bd f3ae 83bb
000001f0: 2653 d33d dfe5 b1bc 9315 e9bc 6c7c a3bd
00000200: e2a4 4d3b c6eb ccbd 13b7 1a3d f683 6fbd
00000210: 69d8 1cbd 2bec 1b3d af9a 1c3d 5c10 b23d
00000220: b71b 6e3d 6ca3 b0bd 03a9 cfbd cfba 36bc
00000230: 4369 f7bc 7292 233d 0e02 673b f392 02be
00000240: 0e21 e5bd 4a3d 7d3d 42e8 a4bd 70aa f93d
00000250: 9a66 68bc f1f8 0e3d 59c1 74bd 2134 80bd
00000260: fd8a e63c 15f0 6f3d 15ca e3bd 26cf f239
00000270: 7eca b1bd ff40 debd 8792 68bd 02e1 adbd
00000280: 73ec d5bc 4c23 0ebe ed4a b23c f6db efbd
00000290: 3ae2 60bc 5a5f 0d3d a99f b3bd ea89 0c3d
000002a0: 5fe3 e83b e9a3 03be 39a5 8f3d de4c a03d
000002b0: de62 a6bc 468a 993c fdcb 0dbd aaf3 babd
000002c0: 36f0 6c39 3160 3cbd 9522 7abc bf41 8abd
000002d0: 9ac8 69bd 340c e33d ce0e 633d e2a5 b5bd
000002e0: e20b eb3d 9e91 033d 7c16 07bd d306 053c
000002f0: 3746 7bbd 6da0 23bc ca71 89bd fbea b0bd
00000300: 63a8 d03d c0d7 743d dce4 3c3d 15db ed3b
00000310: bc9b 043e e26b ca3d cacd 433d fc26 31bd
00000320: fb2f 873d 9212 033c 3605 563d 2a09 e73d
00000330: bcd7 bc3c e7ea b03d 0557 b1bd 4525 c0bd
00000340: 9c92 f4bd ae2a 9dbd e803 eb3d 3414 d9bd
00000350: 50b1 b9bd b2d8 acbd 337f ac3d 874c 193d
00000360: 259b ce3d 7145 543d 5fec 16bd 24d7 93bd
00000370: 140a 27bd 8adc f73c 1d51 c6bc 6f20 933d
00000380: 3ea1 04be 2c84 56bd 3b33 09bd 5c53 ae3d
00000390: c49d ab3c 3f9c 2b3d a716 a0bc e181 f73c
000003a0: a627 793d 9135 af3c 8d5b d63d d220 8c3d
000003b0: 98b1 b2bc b049 fd3c 31d7 fb3d 11dc 3a3d
000003c0: e535 bf3d 8632 813d 6dda b4bd 5def 743d
000003d0: 4728 6a3d a87e 443d 8624 a0bd 3888 74bc
000003e0: 5e15 9dbd 4a91 d3bd a6e8 fa3d ca99 81bc
000003f0: 8c84 63bd 2036 9e3c 8466 b5bc 8996 acbd

lstm.weight_hh_l0 f4 [256, 64]
0.037843246 -0.08064679 0.112628445 -0.041728996 0.08536296 -0.07714058 -0.09790197 0.099939674
-0.041914355 0.005569356 -0.07259044 -0.08087762 -0.030574065 -0.026631244 0.08167871 0.04469643
-0.07787144 0.002050002 -0.01804838 -0.025409415 0.027234046 -0.087982364 -0.025850592 0.019307867
-0.13072641 0.011874944 0.093225785 -0.090968296 -0.080392495 -0.036332417 0.1077668 0.020718439
0.010830185 -0.022671357 -0.06018563 -0.030799448 -0.00564226 0.10563084 0.067661144 0.12828481
0.11085332 0.06866622 -0.07556101 0.06628143 -0.123492785 0.044586953 -0.005680085 -0.04703586
0.04764068 0.008437152 -0.04777021 0.07917945 0.01072161 -0.039850596 -0.014221123 -0.0010130634
-0.059452824 0.07523381 -0.09675461 -0.07547778 -0.09896231 0.024389757 -0.016528364 0.06544352
-0.018572014 -0.014129311 -0.05120086 -0.026950356 -0.05018982 -0.047820505 -0.13754879 0.03852347
-0.055624984 0.08055455 0.08971873 0.056810148 0.0036655434 -0.05376686 0.08068887 -0.092986375
0.061618764 -0.09953711 -0.018151518 -0.037974212 -0.057686113 -0.014841843 0.0058708712 -0.015736705
0.118760206 0.056262285 -0.034619115 -0.101288155 -0.08132786 0.010459817 -0.12841871 0.05310797
0.028451335 -0.049361162 0.053887285 -0.00322404 -0.10244671 -0.12885247 -0.06623121 0.047263745
-0.12851222 -0.002914748 0.10237897 -0.06206514 0.12939808 -0.07037336 -0.07731582 0.089888416
-0.033080433 -0.0899048 0.0004706456 -0.050719894 0.12592234 -0.04841772 -0.09662091 -0.124080606
0.0032440517 -0.11654616 -0.07792032 0.04683206 0.08822365 0.049785003 0.005318343 -0.033754937
-0.05158178 -0.0025101039 0.08087607 -0.07580911 -0.06526251 -0.08071271 0.06419799 -0.078510344
-0.103317276 0.12069535 -0.035511542 0.011686563 0.05698759 0.12014641 -0.019682461 -0.047757216
0.016353164 -0.05823504 -0.035455737 0.016861292 0.071975484 0.11227803 0.07682333 -0.06775099
0.04808718 0.09408506 0.14052598 -0.09555591 0.02929782 0.09647774 0.10045961 0.0122070955
-0.046955872 -0.019271053 0.12167822 -0.08882759 -0.04394803 0.11403992 0.05247729 -0.10227238
-0.099471 -0.02985313 -0.07653134 -0.09651047 0.078902386 -0.113440506 -0.092561774 -0.028265525
0.060730394 0.0980278 0.09162137 -0.11070961 0.05711563 -0.06872935 0.0049650786 0.055716496
-0.068523504 0.05928235 0.06538374 -0.09340817 0.0661439 0.0719273 -0.092092164 0.052837387
-0.05834121 -0.0017289841 -0.0022445312 -0.035534345 -0.10316047 0.05489363 -0.10981779 0.100863606
0.07587558 0.08636379 -0.07867736 -0.031595286 0.08440472 0.006307737 -0.09242352 -0.11904103
-0.007026702 -0.08636353 -0.045208246 -0.087179646 -0.10637157 -0.08029047 0.012534544 -0.046074335
-0.02459192 -0.11798807 -0.08855754 0.046948932 -0.085507445 -0.060620707 0.07661853 -0.038469132
-0.030864878 0.10701588 -0.09778252 -0.009166284 0.024236508 0.12247276 -0.049137224 0.06634683
0.10456253 -0.087822154 0.064192824 0.00081766595 -0.01640419 -0.09839639 -0.11617517 -0.085321434
-0.042139016 -0.07208735 0.12790096 -0.10778792 -0.06431141 0.055990584 0.0021511351 0.023811147
-0.0014204315 0.10757281 -0.04650153 0.0141092995 -0.05573715 -0.07539922 -0.017780004 0.033784624
00000000: 8501 1b3d 252a a5bd bea9 e63d 06ec 2abd
00000010: c7d2 ae3d e1fb 9dbd d480 c8bd 2cad cc3d
00000020: 63ae 2bbd 257f b63b 4caa 94bd 2aa3 a5bd
00000030: 7676 fabc c429 dabc 2b47 a73d 9b13 373d
00000040: 107b 9fbd 5459 063b 32da 93bc 6827 d0bc
00000050: ef19 df3c 1930 b4bd 9fc4 d3bc 882b 9e3c
00000060: 25dd 05be 208f 423c 29ed be3d 964d babd
00000070: d2a4 a4bd 4dd1 14bd d7b4 dc3d b7b9 a93c
00000080: 1771 313c 48b9 b9bc 3585 76bd 204f fcbc
00000090: b5e2 b8bb fb54 d83d ed91 8a3d 185d 033e
000000a0: 1107 e33d e0a0 8c3d bbbf 9abd 8fbe 873d
000000b0: c9e9 fcbd cfa0 363d 0220 babb ada8 40bd
000000c0: e022 433d fb3b 0a3c b2aa 43bd d628 a23d
000000d0: b1a9 2f3c 613a 23bd b7ff 68bc c4c8 84ba
000000e0: ce84 73bd 2f14 9a3d 4827 c6bd 1894 9abd
000000f0: c0ac cabd 07cd c73c 7e66 87bc 4107 863d
00000100: 5624 98bc a07e 67bc feb7 51bd fec6 dcbc
00000110: d793 4dbd 6fdf 43bd 97d9 0cbe c9ca 1d3d
00000120: 06d7 63bd c9f9 a43d 74be b73d c2b1 683d
00000130: 9d39 703b a43a 5cbd 3540 a53d a46f bebd
00000140: f563 7c3d 1dda cbbd 7eb2 94bc d98a 1bbd
00000150: 4648 6cbd 342b 73bc 7060 c03b 43ea 80bc
00000160: 8d38 f33d 4873 663d c6cc 0dbd 2a70 cfbd
00000170: 398f a6bd a75f 2b3c 3280 03be be87 593d
00000180: c612 e93c ee2e 4abd eab8 5c3d 6a4a 53bb
00000190: 95cf d1bd e7f1 03be 3ba4 87bd a197 413d
000001a0: b598 03be 5b05 3fbb 11ac d13d 0438 7ebd
000001b0: ee80 043e e81f 90bd c257 9ebd 6b17 b83d
000001c0: 597f 07bd 0220 b8bd fcc0 f639 aabf 4fbd
000001d0: c9f1 003e a951 46bd 2fe1 c5bd f91d febd
000001e0: 289a 543b c1af eebd b094 9fbd f9d2 3f3d
000001f0: 9aae b43d 5ceb 4b3d 7f45 ae3b 9e42 0abd
00000200: 6b47 53bd 8e80 24bb 5aa2 a53d cf41 9bbd
00000210: 5aa8 85bd b54c a5bd 3c7a 833d 08ca a0bd
00000220: 0298 d3bd 202f f73d 8d74 11bd ff78 3f3c
00000230: d26b 693d 520f f63d 1d3d a1bc 129d 43bd
00000240: 12f7 853c de87 6ebd 093a 11bd b120 8a3c
00000250: e267 933d 06f2 e53d 8d55 9d3d 08c1 8abd
00000260: 10f7 443d abaf c03d 0be6 0f3e d1b2 c3bd
00000270: fb01 f03c 1f96 c53d c5bd cd3d 4500 483c
00000280: cd54 40bd 54de 9dbc 6e32 f93d 3deb b5bd
00000290: d902 34bd c38d e93d 6df2 563d 2e74 d1bd
000002a0: 74b7 cbbd 8d8e f4bc 77bc 9cbd 48a7 c5bd
000002b0: 9397 a13d 7f53 e8bd 0791 bdbd 1a8d e7bc
000002c0: 6fc0 783d cdc2 c83d fca3 bb3d b8bb e2bd
000002d0: 14f2 693d f9c1 8cbd 19b2 a23b fb36 643d
000002e0: 0d56 8cbd 0dd2 723d e9e7 853d c84c bfbd
000002f0: 7476 873d 9f4e 933d d19a bcbd 046c 583d
00000300: 31f7 6ebd 149f e2ba fc18 13bb 768c 11bd
00000310: cc45 d3bd 25d8 603d 26e8 e0bd 9491 ce3d
00000320: a864 9b3d 80df b03d 9921 a1bd 0f6a 01bd
00000330: 62dc ac3d 22b1 ce3b 8b48 bdbd c9cb f3bd
00000340: 4040 e6bb 5ddf b0bd 482c 39bd 3e8b b2bd
00000350: 56d9 d9bd 546f a4bd b05d 4d3c 71b8 3cbd
00000360: ff74 c9bc bba3 f1bd a85d b5bd 864d 403d
00000370: 871e afbd 6b4d 78bd 2dea 9c3d cf91 1dbd
00000380: 57d8 fcbc 242b db3d 3442 c8bd 2f2e 16bc
00000390: a48b c63c 00d3 fa3d 1d44 49bd d9e0 873d
000003a0: e124 d63d 1adc b3bd 8777 833d a258 563a
000003b0: 1462 86bc 0c84 c9bd 3fed edbd 01bd aebd
000003c0: f699 2cbd 88a2 93bd 78f8 023e eabf dcbd
000003d0: b3b5 83bd 6256 653d 0ffa 0c3b 980f c33c
000003e0: c62d baba 224f dc3d 6378 3ebd b12a 673c
000003f0: a34c 64bd e86a 9abd 5fa7 91bc bf61 0a3d

lstm.bias_ih_l0 f4 [256]
-0.045471665 -0.045198053 -0.016052729 -0.08885184 -0.110103816 -0.0006424828 -0.039659824 -0.043443512
-0.067929745 -0.0023024222 0.0064218184 -0.037373472 -0.079946086 -0.045876637 0.104138866 -0.04901477
0.12990431 -0.007891553 0.04516473 0.06524227 -0.029551549 0.04798771 -0.083870746 -0.06189556
0.121851176 -0.008537544 0.13127373 -0.02261446 0.0713604 -0.06966909 -0.08946946 0.043142624
-0.06399081 -0.048069492 0.043716908 0.081111595 -0.067773536 0.052930277 -0.074218914 0.059065048
-0.10123815 0.08649811 -0.08053566 0.005370153 -0.030890347 0.052888732 -0.012996445 0.07953085
-0.06604474 -0.026852377 0.05636397 0.06978572 -0.08377074 0.027878555 -0.015157199 -0.05958984
-0.09453303 0.005698991 0.12761879 0.01335093 0.021566601 0.042590886 0.12195379 -0.11572781
0.044372384 0.11168163 0.040676754 -0.042993788 0.07538894 0.06389444 -0.07617877 0.10940723
-0.054993857 0.09766142 0.11789908 -0.09532124 0.07563847 -0.074837245 -0.01101751 -0.087372325
-0.067968935 0.05776532 -0.018073848 -0.08099743 0.13121633 -0.043188218 -0.07766861 -0.036967997
0.08666258 -0.06808429 0.11034117 -0.031924896 0.09584404 0.10824273 0.026793212 -0.08652886
0.060351636 0.021607399 -0.037240997 -0.11480692 -0.10192784 0.013938177 0.053379305 0.005838985
0.0010882849 0.018782249 -0.054784406 -0.096472435 -0.01999512 0.12653346 0.0961397 0.02503986
0.117438994 -0.032093503 0.02547213 -0.10086589 -0.075437374 -0.009199955 -0.10637319 -0.027685268
-0.12239742 -0.047847364 -0.10663622 0.046060596 -0.00078486174 0.08784623 -0.07441947 -0.021274231
0.021794252 0.04817178 0.05257806 -0.10766046 0.081944086 -0.070022635 -0.1012849 0.03413541
0.0033147642 -0.056115404 -0.030574787 -0.12106327 -0.10133511 -0.12155993 -0.07109221 0.016985027
-0.10804055 0.026628759 0.052837916 0.05142596 0.08346662 0.10066972 0.0041881716 -0.0218267
0.09442873 0.022299204 -0.08007741 0.12161636 0.0034362853 -0.039471794 0.05765591 0.02110259
0.031229375 -0.0036954365 0.0033968266 0.035618022 -0.12670018 -0.0664941 0.023062197 0.06938009
-0.019975603 0.108483255 0.07606628 -0.03836918 0.07006801 0.067381755 -0.08669272 -0.032929473
-0.07473585 -0.037337545 0.069812454 3.9413062e-05 0.040851112 0.052192125 0.06566027 0.0938401
-0.10823913 0.05376714 -0.09232712 -0.044666577 0.024878653 -0.016735516 -0.09004441 0.09522343
0.059083458 0.00858443 0.0873018 -0.024620842 0.037193052 0.07950961 -0.041756555 -0.006286256
-0.10581097 0.05927622 -0.005276042 0.13413557 0.08338655 0.08412458 0.05577231 0.085603066
-0.028502729 -0.02182667 -0.109325565 -0.114574924 0.010995529 0.08331097 0.04843603 -0.064189695
0.04383934 -0.023828985 -0.09837205 0.027706495 -0.015708901 -0.07506651 0.09703415 -0.074323766
-0.01434034 0.11901706 -0.13633452 0.049768727 0.05281428 -0.07649513 0.010188519 -0.041335814
-0.0038691903 0.057505734 -0.06949999 -0.025184432 0.118015334 -0.09886884 -0.025218708 0.0014113472
0.11639251 0.006574991 0.07390655 0.042823587 -0.0025214977 -0.014046938 -0.0996945 0.12413636
0.053000275 0.10325972 -0.050209906 -0.028532919 -0.011701371 -0.062774755 -0.09349929 0.07600069
00000000: 7f40 3abd 9821 39bd 0381 83bc f4f7 b5bd
00000010: 1c7e e1bd 4a6c 28ba 5772 22bd d3f1 31bd
00000020: c01e 8bbd 3ce4 16bb 1e6e d23b ed14 19bd
00000030: c6ba a3bd 24e9 3bbd c246 d53d b6c3 48bd
00000040: a305 053e 934b 01bc a7fe 383d bd9d 853d
00000050: 1716 f2bc c38e 443d 6dc4 abbd 3386 7dbd
00000060: 1c8d f93d 0ee1 0bbc 9f6c 063e f641 b9bc
00000070: 6725 923d abae 8ebd c43b b7bd 52b6 303d
00000080: 9d0d 83bd 84e4 44bd 8010 333d d61d a63d
00000090: dacc 8abd 6bcd 583d 1600 98bd 31ee 713d
000000a0: f255 cfbd ec25 b13d e1ef a4bd 1cf8 af3b
000000b0: c10d fdbc dba1 583d 0bef 54bc 12e1 a23d
000000c0: 7742 87bd 84f9 dbbc e8dd 663d d1eb 8e3d
000000d0: fe8f abbd 9161 e43c e755 78bc 7a14 74bd
000000e0: 899a c1bd 9abe ba3b 80ae 023e dcbd 5a3c
000000f0: 71ac b03c c873 2e3d e9c2 f93d b402 edbd
00000100: d1bf 353d 57b9 e43d ab9c 263d 411a 30bd
00000110: 8465 9a3d 17db 823d 9d03 9cbd e610 e03d
00000120: 3d41 61bd b602 c83d 1375 f13d c837 c3bd
00000130: 58e8 9a3d 4544 99bd c982 34bc 43f0 b2bd
00000140: 4c33 8bbd 549b 6c3d 9b0f 94bc fbe1 a5bd
00000150: 935d 063e 21e6 30bd b810 9fbd c16b 17bd
00000160: 277c b13d c76f 8bbd 8dfa e13d aec3 02bd
00000170: e149 c43d 5dae dd3d 707d db3c 0b36 b1bd
00000180: 4733 773d 0002 b13c 048a 18bd e41f ebbd
00000190: 8bbf d0bd f45c 643c 42a4 5a3d f554 bf3b
000001a0: c8a4 8e3a 3bdd 993c 9d65 60bd 5793 c5bd
000001b0: cecc a3bc fd91 013e e4e4 c43d 6420 cd3c
000001c0: db83 f03d 7a74 03bd eeaa d03c c792 cebd
000001d0: e97e 9abd 68bb 16bc 30da d9bd 37cc e2bc
000001e0: 80ab fabd 99fb 43bd 1764 dabd 09aa 3c3d
000001f0: 2ebf 4dba b9e8 b33d 3c69 98bd 4c47 aebc
00000200: dc89 b23c c64f 453d 185c 573d 167d dcbd
00000210: 4dd2 a73d 0768 8fbd 756e cfbd 92d1 0b3d
00000220: 843c 593b 44d9 65bd fa77 fabc 05f0 f7bd
00000230: c888 cfbd 6af4 f8bd cb98 91bd 2f24 8b3c
00000240: 5d44 ddbd 8e24 da3c 926c 583d 07a4 523d
00000250: 8cf0 aa3d ed2b ce3d ee3c 893b e8cd b2bc
00000260: da63 c13d d2ac b63c a0ff a3bd 0012 f93d
00000270: 4d33 613b 2dad 21bd 9a28 6c3d 57df ac3c
00000280: bfd4 ff3c 232f 72bb 4b9d 5e3b 34e4 113d
00000290: b1bd 01be 0f2e 88bd efec bc3c 2617 8e3d
000002a0: e0a3 a3bc 782c de3d a3c8 9b3d 0029 1dbd
000002b0: d17f 8f3d 72ff 893d f48b b1bd 0ee1 06bd
000002c0: 1c0f 99bd 41ef 18bd d5f9 8e3d 744f 2538
000002d0: 7f53 273d 69c7 553d e478 863d 3d2f c03d
000002e0: 7aac ddbd ef3a 5c3d 0016 bdbd 4df4 36bd
000002f0: 51ce cb3c ec18 89bc 3469 b8bd 8004 c33d
00000300: 7f01 723d b6a5 0c3c 49cb b23d a6b1 c9bc
00000310: be57 183d efd5 a23d ec08 2bbd f0fc cdbb
00000320: 6cb3 d8bd 9fcb 723d a6e2 acbb d65a 093e
00000330: 91c6 aa3d 8249 ac3d 8171 643d a950 af3d
00000340: 8e7e e9bc d8cd b2bc 15e6 dfbd 42a6 eabd
00000350: 9726 343c f19e aa3d dc64 463d e375 83bd
00000360: e190 333d 0135 c3bc 4977 c9bd bbf8 e23c
00000370: f4af 80bc 78bc 99bd d7b9 c63d 0f37 98bd
00000380: bff3 6abc 37bf f33d 479b 0bbe 4bda 4b3d
00000390: c953 583d 7ba9 9cbd bfed 263c be4f 29bd
000003a0: 3e92 7dbb 228b 6b3d 0356 8ebd 954f cebc
000003b0: 06b2 f13d bf7b cabd 7797 cebc f4fc b83a
000003c0: 325f ee3d 0673 d73b 515c 973d c967 2f3d
000003d0: b63f 25bb 2125 66bc a12c ccbd 343b fe3d
000003e0: d116 593d d579 d33d e7a8 4dbd debd e9bc
000003f0: 1bb7 3fbc 0d90 80bd 8e7c bfbd 40a6 9b3d

lstm.bias_hh_l0 f4 [256]
0.11820016 0.06569021 0.043692045 -0.099070266 -0.03867025 -0.05446522 0.096926846 -0.07985835
0.08107516 -0.06972737 -0.04799129 0.096658885 -0.109907776 0.03370975 0.0899889 0.053703316
0.1252091 -0.0003277266 -0.030232552 0.06505666 -0.016570657 -0.044630174 0.10969054 -0.024748221
0.028717177 -0.044665042 0.01633603 0.059291035 0.045763854 -0.012700175 0.07650779 -0.038352378
0.011564664 0.008719853 -0.04658155 0.014818602 -0.022550423 0.075840674 0.08443679 -0.052278455
-0.028919717 0.09917152 0.041820873 -0.118032016 0.10742584 -0.039974246 0.1170603 -0.10579039
-0.002182779 -0.0043963087 0.0266867 0.119285755 -0.012605878 0.050284263 -0.09354362 0.085215256
-0.038532004 -0.09552535 0.09684782 -0.13374649 -0.10060308 0.10345925 0.08637483 0.00072063535
0.08431917 -0.06476055 -0.052769814 -0.011268207 -0.07589902 -0.03470494 0.08769616 -0.030333318
0.08646041 -0.09776063 0.00013949054 0.1131161 0.112746894 0.037295025 -0.057127055 0.003007141
0.017618148 -0.12067508 -0.083783194 -0.011247373 0.130921 0.057371814 0.05161135 0.0041498337
-0.019797308 0.023974033 0.120813794 -0.052955426 -0.05920403 0.041801088 -0.13217443 0.04483236
-0.02927168 0.045479458 0.07249212 -0.09566881 -0.0450906 0.08601449 -0.05792845 -0.01688536
-0.08389897 -0.07024065 -0.052054767 0.098948486 -0.00245577 0.03936752 0.09344788 0.12718742
0.06710674 0.06275409 0.08566627 0.10723328 0.07243555 0.120458 0.0045943237 -0.07722513
-0.009293269 0.017173527 -0.072784506 -0.032796577 -0.047836486 -0.021166373 0.055956814 -0.043608427
-0.09278529 0.03756895 -0.06814013 0.023301313 0.01662134 -0.046415746 0.072528355 0.028479766
0.09383014 0.10188978 0.056977533 0.030409835 -0.032677054 0.022123195 0.111637525 -0.031519905
0.023070022 0.07000606 -0.015334991 -0.030400565 0.052585103 0.030820485 0.08522139 -0.051166818
-0.082556546 -0.032518644 0.04481394 -0.09352401 0.008586516 0.096760765 0.063253544 0.11526295
0.042783573 -0.11028625 -0.036590293 0.050128948 0.11253592 0.078618936 0.056572262 -0.032371573
0.049366802 0.08291152 0.017988797 0.0983614 -0.0043387627 -0.029678183 0.005641431 0.092653595
-0.09941168 0.059461687 -0.060261883 0.025626631 0.013004514 0.05460199 -0.008729563 -0.029324653
-0.031489205 -0.062113922 0.10977472 0.013766975 -0.036154814 0.102471575 -0.096405834 -0.09091373
0.06894175 -0.056607477 0.013300824 -0.02513526 0.11060794 -0.073586054 -0.054306597 -0.103233576
0.026532866 0.11323108 -0.02479822 -0.10700879 0.11439598 0.038157452 0.011922301 0.07237884
-0.03784512 0.0926542 -0.106656425 0.01784682 0.12430457 0.027780289 0.098661475 -0.07697063
-0.07227556 -0.06144576 0.104768105 -0.044679444 0.044605833 0.018333597 -0.06833287 0.0052069053
0.10483593 -0.10231895 0.00018521096 0.015005615 -0.1110063 -0.087183826 -0.068290904 0.028136972
0.077865526 -0.124593675 0.0060933945 -0.036105346 0.10621825 0.10522624 0.08812314 -0.011085198
-0.034211073 0.10760749 0.06699122 0.038372908 -0.05216362 -0.03872619 0.0977171 -0.082950085
-0.08334537 0.03390096 -0.07824871 -0.0076250713 0.07285517 0.1332848 0.11292857 -0.022503417
00000000: ed12 f23d 9788 863d 6ef6 323d 5ae5 cabd
00000010: b264 1ebd ec16 5fbd 9581 c63d c68c a3bd
00000020: bc0a a63d 39cd 8ebd 8492 44bd 18f5 c53d
00000030: 5417 e1bd 3c13 0a3d 1a4c b83d 02f8 5b3d
00000040: d036 003e b8d2 abb9 42aa f7bc 6d3c 853d
00000050: 30bf 87bc 21ce 36bd 6fa5 e03d c8bc cabc
00000060: 4940 eb3c b1f2 36bd 23d3 853c 28db 723d
00000070: e172 3b3d 6514 50bc 1eb0 9c3d 6217 1dbd
00000080: b779 3d3c b7dd 0e3c 4ccc 3ebd b9c9 723c
00000090: aabb b8bc 5b52 9b3d 32ed ac3d ef21 56bd
000000a0: 0be9 ecbc 701a cb3d 5d4c 2b3d c5ba f1bd
000000b0: 1402 dc3d 09bc 23bd 50bd ef3d a2a8 d8bd
000000c0: f40c 0fbb e90e 90bb 119e da3c 174c f43d
000000d0: e288 4ebc dff6 4d3d cc93 bfbd 5685 ae3d
000000e0: bcd3 1dbd cba2 c3bd 2658 c63d d7f4 08be
000000f0: fd08 cebd 71e2 d33d 49e5 b03d 05e9 3c3a
00000100: 87af ac3d 2ea1 84bd 2925 58bd 499e 38bc
00000110: f270 9bbd c426 0ebd 0b9a b33d 947d f8bc
00000120: 2812 b13d ba36 c8bd 3544 1239 6aa9 e73d
00000130: d8e7 e63d abc2 183d 0ffe 69bd 7413 453b
00000140: ef53 903c 7f24 f7bd 8696 abbd e746 38bc
00000150: 2810 063e b5fe 6a3d 6c66 533d 54fb 873b
00000160: f72d a2bc 3165 c43c 396d f73d cae7 58bd
00000170: ed7f 72bd 9e37 2b3d bc58 07be 23a2 373d
00000180: 2acb efbc ab48 3a3d c076 943d 02ee c3bd
00000190: ecb0 38bd 5d28 b03d 6246 6dbd 2b53 8abc
000001a0: 39d3 abbd 54da 8fbd 6137 55bd 81a5 ca3d
000001b0: fcf0 20bb d63f 213d 9a61 bf3d 6b3d 023e
000001c0: 426f 893d 3785 803d cc71 af3d 1f9d db3d
000001d0: 1759 943d afb2 f63d fb8b 963b 3528 9ebd
000001e0: cc42 18bc 7faf 8c3c 0b10 95bd b455 06bd
000001f0: 31f0 43bd 1a65 adbc f932 653d c09e 32bd
00000200: 3706 bebd e6e1 193d 0d8d 8bbd 65e2 be3c
00000210: 7a29 883c 701e 3ebd bf89 943d 664e e93c
00000220: 042a c03d 97ab d03d 4661 693d 0c1e f93c
00000230: 60d8 05bd b43b b53c 37a2 e43d 041b 01bd
00000240: 58fd bc3c 565f 8f3d 9d3f 7bbc 9b0a f9bc
00000250: 7a63 573d 3e7b fc3c 8d88 ae3d 4c94 51bd
00000260: 6813 a9bd 4532 05bd d28e 373d 8489 bfbd
00000270: 75ae 0c3c 822a c63d 138b 813d fb0e ec3d
00000280: d43d 2f3d c2dd e1bd b4df 15bd 0354 4d3d
00000290: 3c79 e63d f702 a13d 51b8 673d 0e98 04bd
000002a0: d834 4a3d 84cd a93d 3e5d 933c b471 c93d
000002b0: 2e2c 8ebb a91f f3bc c1db b83b 2bc1 bd3d
000002c0: 5a98 cbbd 198e 733d 2ad5 76bd f1ee d13c
000002d0: e310 553c 56a6 5f3d 7106 0fbc 413a f0bc
000002e0: d3fa 00bd 2b6b 7ebd 92d1 e03d e18e 613c
000002f0: 1217 14bd 9edc d13d 6c70 c5bd fa30 babd
00000300: 5531 8d3d 3edd 67bd b3eb 593c 76e8 cdbc
00000310: 6a86 e23d 49b4 96bd 9870 5ebd 206c d3bd
00000320: 745b d93c b2e5 e73d a325 cbbc 6d27 dbbd
00000330: 7148 ea3d fd4a 1c3d c155 433c 5b3b 943d
00000340: 7c03 1bbd 7cc1 bd3d af6e dabd 7f33 923c
00000350: 6593 fe3d 7d93 e33c 070f ca3d c7a2 9dbd
00000360: 3505 94bd 8dae 7bbd a990 d63d cb01 37bd
00000370: 9bb4 363d 5730 963c 1bf2 8bbd b09e aa3b
00000380: 38b4 d63d 998c d1bd 3035 4239 1cda 753c
00000390: 4557 e3bd 6f8d b2bd 1adc 8bbd 827f e63c
000003a0: f677 9f3d f82a ffbd 19ab c73b 33e3 13bd
000003b0: f488 d93d db80 d73d e879 b43d b19e 35bc
000003c0: e920 0cbd 5161 dc3d b132 893d e92c 1d3d
000003d0: 85a9 55bd 5a9f 1ebd e71f c83d bce1 a9bd
000003e0: fab0 aabd bcdb 0a3d dc40 a0bd bcdb f9bb
000003f0: 1735 953d d07b 083e 1847 e73d 1659 b8bc

lstm.weight_ih_l1 f4 [256, 64]
0.017801913 -0.008029137 0.074469805 -0.043786306 -0.012085244 -0.014104957 -0.07920821 0.0060649547
0.1006014 -0.0230499 0.0053984774 0.09001766 0.07900915 -0.07589812 0.08873853 0.031063784
0.0072939345 0.009979034 -0.037279412 -0.053047545 0.10430034 -0.090127796 0.14132047 0.12795304
-0.11175551 0.060421202 0.01594684 0.013433365 -0.13367908 0.06913051 -0.061736897 -0.05782391
-0.087665975 -0.07576843 -0.115571946 0.097689256 0.099452086 -0.10635454 -0.103220865 -0.0681847
-0.067614116 -0.034346897 0.071346894 0.08628402 -0.10450005 0.03453535 0.00439818 -0.121519715
0.10016837 0.07154055 -0.008637206 -0.07393185 -0.06698374 -0.09059834 0.0980562 -0.061890792
0.079443395 -0.061932787 0.0865376 0.05976535 0.06590522 0.03510904 -0.040340208 0.027020194
-0.027213173 -0.012920406 0.0919072 0.06501234 0.097897336 -0.019585 0.07667262 0.09638763
-0.040706523 -0.06812761 0.085480146 0.015590424 -0.09745389 -0.023229638 0.008581212 0.12650824
0.100294426 -0.06342849 -0.091990076 0.10270657 -0.012844503 0.064378574 0.10408267 -0.05865902
0.09095001 -0.105708405 -0.085590295 0.13798665 -0.029957697 -0.036190644 0.007029294 -0.06723704
-0.0062523414 0.08443426 0.032064978 -0.03936454 0.09417504 -0.0348874 -0.074529015 -0.11013189
-0.11471964 0.0617348 0.09433138 0.06130793 0.10875572 0.06470801 -0.114025235 -0.055272114
-0.058961865 -0.05016753 -0.06210751 -0.055628333 0.022790603 -0.036191415 -0.054285694 -0.07884064
0.0425668 -0.072099246 -0.033314016 -0.023318343 -0.044825625 0.06924393 -0.12829255 -0.07400391
-0.042072937 -0.1087262 0.065832004 0.08748185 0.11583276 0.060590453 0.062268395 -0.10769429
-0.0696812 0.065307625 -0.01772337 -0.1371528 -0.06677514 -0.11202823 -0.09165993 0.093363844
0.016813176 -0.06107901 -0.10102641 -0.025115088 -0.057702824 -0.12833072 0.07702409 -0.032312233
-0.07159977 -0.050290536 -0.08001229 0.12823157 0.0624252 -0.12856522 0.11136466 0.097434744
-0.11642291 -0.03975496 0.03485221 -0.08251554 -0.011060153 -0.015473794 -0.06791252 0.10954146
0.10952954 0.050084632 -0.014179723 -0.072332494 0.049009178 0.05279136 0.04006138 0.01413927
0.062265515 0.029211901 -0.05628816 -0.09197426 0.10414984 -0.061940644 -0.09559745 -0.07731409
0.027159449 -0.0771437 -0.06348191 -0.10771022 0.053857945 0.0024508005 -0.02710541 0.08264042
0.0021615666 -0.09080463 -0.11382571 -0.13098086 -0.08767899 -0.05099023 0.021670386 0.10563275
-0.012421948 -0.023919135 0.05753974 0.01937857 0.09399287 0.015957423 0.07352178 0.09358851
-0.092431836 0.044365883 0.0112970555 -0.13795172 0.09113638 -0.0770875 0.11322878 0.0933034
-0.055020805 0.12390329 -0.09838518 -0.047290623 -0.052344434 0.025277285 0.070521526 0.04447853
0.026441082 0.067606896 0.03876325 -0.10240906 0.028371219 0.038595162 0.05222275 0.07764712
-0.06236385 0.10364063 0.037451398 -0.005264662 -0.0042258077 -0.07438548 0.09440009 0.08914915
0.010224096 -0.12922911 0.021337679 0.057638362 -0.06605986 0.071997456 -0.12647103 0.038214102
0.088368714 0.11043467 0.025312874 -0.104953624 0.055238083 0.033720147 -0.09821605 -0.09670181
00000000: 51d5 913c a48c 03bc a083 983d 4559 33bd
00000010: 3001 46bc 7a18 67bc ea37 a2bd 87bc c63b
00000020: 1b08 ce3d 25d3 bcbc b6e5 b03b 2e5b b83d
00000030: 8dcf a13d 7970 9bbd 8cbc b53d 7a79 fe3c
00000040: f501 ef3b 1a7f 233c 4cb2 18bd 6248 59bd
00000050: 6b9b d53d ec94 b8bd 50b6 103e 1f06 033e
00000060: 13e0 e4bd 397c 773d f3a2 823c 9e17 5c3c
00000070: 2be3 08be 4c94 8d3d d4df 7cbd c4d8 6cbd
00000080: 388a b3bd 7b2c 9bbd fcb0 ecbd 4e11 c83d
00000090: 89ad cb3d 69d0 d9bd 7665 d3bd 6ca4 8bbd
000000a0: 4579 8abd 55af 0cbd 521e 923d adb5 b03d
000000b0: 1f04 d6bd f074 0d3d 9c1e 903b 54df f8bd
000000c0: 1325 cd3d da83 923d 1183 0dbc 9569 97bd
000000d0: c52e 89bd 9f8b b9bd b0d1 c83d 3381 7dbd
000000e0: 38b3 a23d 3cad 7dbd a03a b13d 83cc 743d
000000f0: 51f9 863d 7fce 0f3d c63b 25bd 7459 dd3c
00000100: 29ee debc 1cb0 53bc d839 bc3d 3125 853d
00000110: 667e c83d b970 a0bc 8906 9d3d e166 c53d
00000120: e2bb 26bd 7d86 8bbd 3710 af3d fa6e 7f3c
00000130: e895 c7bd 154c bebc 3698 0c3c 608b 013e
00000140: 2a67 cd3d cce6 81bd 4b65 bcbd d257 d23d
00000150: c071 52bc ead8 833d 4b29 d53d 7144 70bd
00000160: 0044 ba3d a67d d8bd f749 afbd 5f4c 0d3e
00000170: d869 f5bc a43c 14bd fe55 e63b 93b3 89bd
00000180: 71e0 ccbb dfeb ac3d 9156 033d b63c 21bd
00000190: d8de c03d 17e6 0ebd aba2 98bd d48c e1bd
000001a0: 21f2 eabd a1dd 7c3d d030 c13d 061e 7b3d
000001b0: 52bb de3d a285 843d 1086 e9bd 0365 62bd
000001c0: ff81 71bd 787c 4dbd 7264 7ebd 89da 63bd
000001d0: 5cb3 ba3c 733d 14bd ad5a 5ebd 3477 a1bd
000001e0: 865a 2e3d c5a8 93bd 4774 08bd 1c06 bfbc
000001f0: 139b 37bd c3cf 8d3d 1f5f 03be 5d8f 97bd
00000200: ac54 2cbd d8ab debd eed2 863d af29 b33d
00000210: ba39 ed3d b22d 783d 250d 7f3d d38e dcbd
00000220: 04b5 8ebd 01c0 853d 9a30 91bc c971 0cbe
00000230: 68c1 88bd 0f6f e5bd 34b8 bbbd 8b35 bf3d
00000240: c9bb 893c fc2d 7abd efe6 cebd 28be cdbc
00000250: cc59 6cbd 2169 03be cebe 9d3d d559 04bd
00000260: e6a2 92bd 73fd 4dbd 7cdd a3bd 234f 033e
00000270: 91b1 7f3d 9aa6 03be 2813 e43d de8b c73d
00000280: 226f eebd 19d6 22bd 31c1 0e3d e8fd a8bd
00000290: a535 35bc cc85 7dbc b815 8bbd 4657 e03d
000002a0: 0651 e03d 8b25 4d3d 1252 68bc 0f23 94bd
000002b0: d9bd 483d c13b 583d 6717 243d 66a8 673c
000002c0: 200a 7f3d cc4d ef3c 6a8e 66bd 005d bcbd
000002d0: 834c d53d 79b5 7dbd 99c8 c3bd da56 9ebd
000002e0: 7e7d de3c 84fd 9dbd ce02 82bd 2d97 dcbd
000002f0: 269a 5c3d 9c9d 203b 2a0c debc 613f a93d
00000300: 12a9 0d3b c7f7 b9bd 741d e9bd d91f 06be
00000310: 0b91 b3bd 22db 50bd 1886 b13c fc55 d83d
00000320: 6d85 4bbc 10f2 c3bc caae 6b3d cfbf 9e3c
00000330: 557f c03d 24b9 823c 9692 963d 55ab bf3d
00000340: e74c bdbd 00b9 353d 4917 393c 3743 0dbe
00000350: b6a5 ba3d 0de0 9dbd 7ee4 e73d da15 bf3d
00000360: 7f5d 61bd 02c1 fd3d 2b7e c9bd d0b3 41bd
00000370: 1e67 56bd 4f12 cf3c 976d 903d 1e2f 363d
00000380: f89a d83c 7c75 8a3d 37c6 1e3d d7bb d1bd
00000390: c26a e83c f615 1e3d 86e7 553d 7405 9f3d
000003a0: 3d71 7fbd 8a41 d43d a366 193d 3083 acbb
000003b0: a578 8abb 6a57 98bd d654 c13d d493 b63d
000003c0: f782 273c a354 04be 5bcc ae3c 3416 6c3d
000003d0: 644a 87bd 6773 933d 9f81 01be 6486 1c3d
000003e0: a8fa b43d 922b e23d f25c cf3c edf1 d6bd
000003f0: 5441 623d 231e 0a3d 7f25 c9bd 990b c6bd

lstm.weight_hh_l1 f4 [256, 64]
0.007023429 0.02400725 -0.08328089 0.12106797 -0.032236934 -0.03135035 0.09884739 0.09267706
-0.024884744 0.11416693 0.049969587 -0.08338218 -0.045111146 -0.082498096 0.08956191 -0.08980568
-0.10666728 0.08256078 -0.07819631 -0.07631557 0.09363595 -0.05696895 0.0603249 -0.053988066
0.057881698 -0.025269512 -0.07876492 0.04080862 0.071274795 -0.08050417 0.027913185 0.06067864
-0.049682684 0.081105106 -0.025704391 0.016710438 0.050172694 0.024405533 -0.022080407 0.1141822
0.04394208 -0.10562517 -0.10970211 -0.04169175 -0.0356824 0.052681092 -0.10225328 -0.018730246
-0.046371162 -0.019730022 0.12365564 0.017261045 0.062440008 -0.102156065 -0.118654676 0.10004452
-0.09149195 -0.04128036 -0.056311864 0.022213476 -0.1106605 0.029820167 0.0154364705 0.06369603
-0.059224058 -0.02671983 -0.0010619691 -0.08599259 0.024625242 0.06603115 0.05954723 -0.014587451
-0.009267202 0.09593065 0.10404795 -0.10426374 0.03985234 0.07371332 -0.08430343 0.093193166
0.116776764 -0.11877422 -0.01918859 -0.007905024 -0.056084525 -0.08941617 0.024319971 0.045044594
0.070854716 0.115280844 0.108011216 0.06000117 -0.1251398 -0.03384802 -0.0087182745 -0.015459006
-0.0189212 0.101203635 -0.056849726 -0.05123985 -0.1016564 0.029116206 -0.098334484 0.11563992
0.07470659 -0.09692719 -0.0856534 0.02935182 0.04773429 -0.04842264 -0.045684062 -0.0245192
-0.043054532 0.038940802 -0.086544745 0.03610332 -0.025725195 -0.074086435 -0.061490458 0.030008383
0.06905054 0.033325054 -0.11026575 -0.012445642 0.029795358 -0.059256922 0.121784486 -0.0581153
-0.13039348 0.09857541 -0.116651006 -0.11645718 -0.09349167 0.0671094 0.0865241 -0.13199416
-0.04581931 -0.049340248 -0.07534044 -0.068532944 -0.022787303 -0.0020975715 0.06157799 -0.034572735
-0.040591072 0.10851488 0.056067377 -0.012269033 0.024512028 0.0322133 0.05201297 0.025298595
0.008833884 -0.098005086 0.063958764 0.05165905 0.120784916 -0.10200391 0.108566396 0.0099302
0.0034045007 0.035241578 0.07761361 -0.05905366 -0.048669215 -0.051813036 0.08755475 -0.094514206
0.06323217 -0.03215425 -0.08504315 0.0048493175 -0.08858518 -0.08189695 -0.13179423 0.041379433
-0.0022407717 0.047339 0.0689116 -0.0561079 0.03172212 0.027871123 -0.007686424 -0.04597226
0.08773329 -0.012916859 -0.10921968 0.018392554 -0.056382045 -0.08718826 0.020037573 0.0022618352
0.032180913 -0.10137744 0.04445814 0.060058534 -0.04802136 -0.0061797476 0.022138743 -0.07168194
-0.049635023 0.06446198 0.12020049 -0.08785455 0.068599485 0.004740419 0.106100634 -0.056070376
0.011395762 -0.05287715 -0.015309123 0.05032607 0.11309745 0.0014954641 0.063693285 0.001633831
0.09457553 0.00808566 -0.068461046 0.10149328 -0.021705793 -0.044873763 0.060805388 0.038344815
-0.10485204 -0.0703742 -0.023350343 -0.063575484 0.015947387 0.024208574 0.089340396 0.12850602
-0.045557726 -0.08293337 0.0024654793 0.019285511 0.00084367604 -0.0016413799 -0.048291393 0.008507635
-0.019040484 -0.01211412 -0.033563886 -0.04298908 -0.02286028 0.09217722 -0.02117955 -0.006701855
-0.07478088 -0.022252444 -0.04586696 0.06603324 -0.094571404 0.05160832 0.060155008 -0.08506285
00000000: cb24 e63b daaa c43c 2c8f aabd 7cf2 f73d
00000010: e00a 04bd 3969 00bd 8070 ca3d 78cd bd3d
00000020: 17db cbbc 5ad0 e93d e9ac 4c3d 47c4 aabd
00000030: 77c6 38bd c3f4 a8bd 3c6c b73d 0aec b7bd
00000040: 6074 dabd a015 a93d 6325 a0bd 564b 9cbd
00000050: 34c4 bf3d 4658 69bd 3e17 773d 9722 5dbd
00000060: 5c15 6d3d 0202 cfbc 814f a1bd f126 273d
00000070: 85f8 913d 5fdf a4bd 31aa e43c 2a8a 783d
00000080: 1280 4bbd 6f1a a63d 0492 d2bc 54e4 883c
00000090: e281 4d3d 1dee c73c f8e1 b4bc 5bd8 e93d
000000a0: 9cfc 333d 0252 d8bd 80ab e0bd f8c4 2abd
000000b0: b527 12bd 21c8 573d 2b6a d1bd 2c70 99bc
000000c0: b0ef 3dbd dba0 a1bc 2b3f fd3d 0967 8d3c
000000d0: 18c1 7f3d 3337 d1bd 3901 f3bd 24e4 cc3d
000000e0: 2260 bbbd 9815 29bd 45a7 66bd 09f9 b53c
000000f0: f9a1 e2bd 6c49 f43c 40e9 7c3c 1073 823d
00000100: ed94 72bd 8ce3 dabc c531 8bba e21c b0bd
00000110: e0ba c93c 573b 873d cce7 733d 3400 6fbc
00000120: 76d5 17bc 4a77 c43d 1717 d53d 3a88 d5bd
00000130: 353c 233d 02f7 963d 47a7 acbd 0fdc be3d
00000140: a828 ef3d e63f f3bd 6431 9dbc 1384 01bc
00000150: e3b8 65bd d31f b7bd ad3a c73c ae80 383d
00000160: 471c 913d 5d18 ec3d fc34 dd3d c9c3 753d
00000170: a624 00be 39a4 0abd 18d7 0ebc c547 7dbc
00000180: a200 9bbc da43 cf3d 42db 68bd e1e0 51bd
00000190: 3b31 d0bd 1c85 ee3c 9763 c9bd 9fd4 ec3d
000001a0: c5ff 983d c381 c6bd 0d6b afbd 3a73 f03c
000001b0: 0885 433d d156 46bd 361f 3bbd 7ddc c8bc
000001c0: f359 30bd 6480 1f3d 5f3e b1bd 13e1 133d
000001d0: a5bd d2bc a1ba 97bd 6bdd 7bbd 24d4 f53c
000001e0: 5f6a 8d3d da7f 083d 02d3 e1bd cee8 4bbc
000001f0: 6515 f43c 63b7 72bd 256a f93d 4f0a 6ebd
00000200: de85 05be e8e1 c93d b9e6 eebd 1a81 eebd
00000210: 9078 bfbd a770 893d 8c33 b13d 7a29 07be
00000220: 07ad 3bbd 0019 4abd 174c 9abd 005b 8cbd
00000230: 70ac babc 6977 09bb 3439 7c3d 249c 0dbd
00000240: d342 26bd 0d3d de3d e8a6 653d 0e04 49bc
00000250: 73cd c83c 18f2 033d 8d0b 553d 003f cf3c
00000260: ffbb 103c e4b6 c8bd d0fc 823d 7198 533d
00000270: 155e f73d 6de7 d0bd 0f58 de3d 47b2 223c
00000280: 0b1e 5f3b 7959 103d e2f3 9e3d 40e2 71bd
00000290: 5f59 47bd e839 54bd e84f b33d aa90 c1bd
000002a0: de7f 813d 2db4 03bd 1a2b aebd 06e7 9e3b
000002b0: 266c b5bd 97b9 a7bd 11f5 06be 7b7d 293d
000002c0: e9d9 12bb 8ae6 413d 8621 8d3d 66d1 65bd
000002d0: 0eef 013d fb51 e43c 66de fbbb 694d 3cbd
000002e0: 83ad b33d 3ca1 53bc 91ae dfbd fbab 963c
000002f0: dcf0 66bd c28f b2bd d625 a43c 4c3b 143b
00000300: 22d0 033d fa9e cfbd bd19 363d f0ff 753d
00000310: 0cb2 44bd 7b7f cabb 4f5c b53c fbcd 92bd
00000320: 184e 4bbd a404 843d ad2b f63d 16ed b3bd
00000330: e37d 8c3d 8455 9b3b 4a4b d93d 0daa 65bd
00000340: 4ab5 3a3c b695 58bd 1ed3 7abc b622 4e3d
00000350: a39f e73d 7303 c43a a071 823d 4526 d63a
00000360: d1b0 c13d b779 043c 4e35 8cbd b5db cf3d
00000370: 59d0 b1bc 8dcd 37bd 120f 793d 740f 1d3d
00000380: abbc d6bd 5920 90bd 3849 bfbc dd33 82bd
00000390: 18a4 823c 0f51 c63c 19f8 b63d 1597 033e
000003a0: bd9a 3abd f8d8 a9bd e193 213b a6fc 9d3c
000003b0: 242a 5d3a 9223 d7ba 32cd 45bd 9c63 0b3c
000003c0: cafa 9bbc 4d7a 46bc 497a 09bd 5115 30bd
000003d0: 7b45 bbbc 69c7 bc3d bc80 adbc 3c9b dbbb
000003e0: b826 99bd c24a b6bc fede 3bbd 6f3c 873d
000003f0: a7ae c1bd 3f63 533d 1965 763d 6e35 aebd

lstm.bias_ih_l1 f4 [256]
0.027746418 0.017869992 0.02952161 -0.007155051 -0.035000097 0.11316979 -0.11542743 -0.068079494
-0.01328866 0.105187334 0.034639634 0.030467704 0.12980781 0.09168239 -0.0964769 0.07158339
0.06582516 0.079347834 -0.025262777 0.08406754 0.0936266 -0.06964599 0.072207056 0.038136203
-0.060107194 -0.09628373 -0.02448629 -0.007203207 0.10186449 -0.0669074 0.042767957 -0.08766159
0.01885421 -0.07753638 -0.006176466 0.08209054 0.107207455 -0.057095814 0.029204208 0.12692666
-0.01929435 0.010617157 -0.06990486 -0.016990598 0.08475031 0.11256491 0.06096407 0.09041331
-0.07578415 -0.11837219 0.10498392 0.033965472 -0.11904518 0.08807226 0.024604507 -0.095502265
0.052264158 0.07309951 0.08218403 -0.035332143 0.061313413 0.09607589 -0.11241666 0.019037155
-0.012597008 -0.06277022 -0.023295468 0.06269786 -0.07443069 -0.035442807 -0.07687145 0.0670514
0.020825967 0.037872475 0.06945199 -0.04608874 -0.057563633 0.05635563 0.11128287 0.09814455
-0.021352785 0.026801774 -0.05087517 0.08289277 0.00276758 -0.034955263 -0.034507755 -0.0015777844
0.03190577 0.044273853 -0.08862814 -0.111549914 -0.028886363 0.11251305 0.117817834 0.11300943
0.034541674 -0.081888214 0.021104716 0.12624577 0.040009636 0.098080374 0.05997847 0.08094734
0.073542066 0.038847234 0.117531694 0.055765875 0.059672035 0.100770384 -0.06200518 0.12131508
0.002692063 0.030340593 0.018926969 0.05338568 -0.037114166 -0.089920826 -0.10568628 0.12069991
-0.105909936 0.1095885 -0.06590579 0.08188513 0.057878654 -0.11467432 0.050572917 -0.11311169
-0.053808413 -0.025974933 0.072323084 -0.035830855 -0.08679704 0.07398756 -0.08884568 -0.08521039
0.0261526 0.037238054 -0.09644311 0.095996894 -0.06325229 -0.066123195 0.07681644 -0.040634707
0.10600255 -0.032837503 -0.10687158 -0.059879497 -0.09615472 -0.073545635 -0.092484064 0.11034205
0.051193424 0.09592568 -0.005630933 -0.04208588 -0.028647643 0.07960605 0.09491973 0.018541697
-0.007917063 -0.06307988 -0.10627948 0.07557635 0.10624048 0.08424213 -0.010906649 0.019932615
0.001597511 -0.11159611 -0.02155287 0.08661935 -0.11316847 -0.11370297 0.109078 0.08212376
0.00498695 0.021660209 -0.03875347 0.07444717 -0.08612898 0.0065930975 -0.113082245 0.045686398
0.036287166 0.029054048 0.066981934 -0.10545757 -0.02927444 0.04806158 0.11472959 -0.037790306
0.040190283 0.042303838 0.1288177 -0.054369982 0.01618464 -0.07062361 0.0039620227 0.08205287
-0.112872325 -0.021737307 0.06743936 -0.027821867 -0.10137461 -0.0941638 -0.06562411 -0.052341852
-0.044817623 0.116357535 0.11020571 0.07642825 -0.10017307 -0.07968616 0.05995164 0.12381798
0.106157966 0.033374496 0.07522584 -0.09247569 0.110820286 0.07481316 -0.07033996 0.105753936
-0.12224054 0.025566902 0.07693065 -0.11994029 0.07184551 0.027195008 -0.09443677 -0.05372916
0.05708922 -0.09124765 -0.09092284 -0.109002106 -0.018034378 0.017748917 0.018021042 0.07365122
-0.004956084 -0.05526684 -0.1057124 0.057508823 0.06976758 -0.032170653 0.009749445 -0.010815347
0.0033166278 -0.100134365 0.07713456 0.12411486 0.060616102 -0.034245234 -0.0744174 -0.065929376
00000000: 754c e33c 1764 923c 4ed7 f13c eb74 eabb
00000010: 435c 0fbd 90c5 e73d 3765 ecbd 436d 8bbd
00000020: aeb8 59bc 756c d73d 4ae2 0d3d 6897 f93c
00000030: 57ec 043e fac3 bb3d ae95 c5bd 509a 923d
00000040: 57cf 863d 1e81 a23d e2f3 cebc 9a2b ac3d
00000050: 4ebf bf3d 8fa2 8ebd 4be1 933d b534 1c3d
00000060: f632 76bd 6730 c5bd 7997 c8bc e108 ecbb
00000070: 549e d03d bf06 89bd 742d 2f3d eb87 b3bd
00000080: 2574 9a3c 65cb 9ebd f463 cabb 161f a83d
00000090: 958f db3d 4ddd 69bd aa3d ef3c 10f9 013e
000000a0: 2f0f 9ebc 96f3 2d3c 472a 8fbd de2f 8bbc
000000b0: 9291 ad3d 6e88 e63d 76b5 793d 9d2a b93d
000000c0: b834 9bbd 1e6d f2bd cf01 d73d 611f 0b3d
000000d0: f6cd f3bd 3b5f b43d 648f c93c b196 c3bd
000000e0: f112 563d 32b5 953d 1a50 a83d 70b8 10bd
000000f0: c623 7b3d 70c3 c43d b53a e6bd cff3 9b3c
00000100: ae63 4ebc ac8d 80bd 23d6 bebc bc67 803d
00000110: 1e6f 98bd 7a2c 11bd c76e 9dbd 3f52 893d
00000120: 389b aa3c 2b20 1b3d d83c 8e3d 8cc7 3cbd
00000130: d8c7 6bbd 29d5 663d 46e8 e33d 0300 c93d
00000140: 09ec aebc 658f db3c 7b62 50bd afc3 a93d
00000150: 4a60 353b 402d 0fbd 0158 0dbd a9cd ceba
00000160: a0af 023d 8058 353d ac82 b5bd 4874 e4bd
00000170: 18a3 ecbc 3e6d e63d 7a4a f13d 7d71 e73d
00000180: 927b 0d3d 02b5 a7bd cce3 ac3c 9246 013e
00000190: 25e1 233d 5dde c83d fcab 753d b8c7 a53d
000001a0: 399d 963d 471e 1f3d 75b4 f03d c26a 643d
000001b0: aa6a 743d b460 ce3d 25f9 7dbd 0a74 f83d
000001c0: 536d 303b d68c f83c bb0c 9b3c f1aa 5a3d
000001d0: 0605 18bd 6928 b8bd 0c72 d8bd 8431 f73d
000001e0: 4fe7 d8bd ef6f e03d 9df9 86bd 64b3 a73d
000001f0: 2b12 6d3d 5fda eabd 8c25 4f3d 1aa7 e7bd
00000200: 3666 5cbd 62c9 d4bc 201e 943d 60c3 12bd
00000210: a6c2 b1bd ca86 973d b9f4 b5bd c982 aebd
00000220: fa3d d63c ee86 183d f783 c5bd 059a c43d
00000230: 6b8a 81bd 996b 87bd f051 9d3d 9470 26bd
00000240: dd17 d93d 9e80 06bd 7ddf dabd 3444 75bd
00000250: c4ec c4bd 189f 96bd 4968 bdbd 03fb e13d
00000260: 32b0 513d af74 c43d b183 b8bb 3e62 2cbd
00000270: 76ae eabc 7f08 a33d 4765 c23d c2e4 973c
00000280: 92b6 01bc 0630 81bd 0ea9 d9bd c6c7 9a3d
00000290: 9c94 d93d 2387 ac3d cdb1 32bc b949 a33c
000002a0: 9363 d13a 808c e4bd a58f b0bc 7c65 b13d
000002b0: dfc4 e7bd 1add e8bd 4964 df3d 8030 a83d
000002c0: 9269 a33b c070 b13c f5bb 1ebd c277 983d
000002d0: 6464 b0bd e90a d83b aa97 e7bd a921 3b3d
000002e0: daa1 143d c102 ee3c d32d 893d 23fa d7bd
000002f0: f3d0 efbc 38dc 443d 59f7 ea3d 02ca 1abd
00000300: 919e 243d ca46 2d3d cae8 033e 0fb3 5ebd
00000310: a695 843c 1ca3 90bd dbd3 813b 560b a83d
00000320: 9b29 e7bd 7012 b2bc a61d 8a3d afea e3bc
00000330: 7e9d cfbd f3d8 c0bd ef65 86bd 6964 56bd
00000340: af92 37bd dc4c ee3d 88b3 e13d 6a86 9c3d
00000350: 8a27 cdbd 7f32 a3bd da8f 753d 4894 fd3d
00000360: 5969 d93d b2b3 083d 0110 9a3d e563 bdbd
00000370: bff5 e23d a437 993d 660e 90bd 8595 d83d
00000380: 4059 fabd ae71 d13c d18d 9d3d 41a3 f5bd
00000390: bd23 933d 11c8 de3c 1168 c1bd 1c13 5cbd
000003a0: 63d6 693d 0ce0 babd c135 babd 7f3c dfbd
000003b0: d5bc 93bc 2d66 913c dda0 933c 73d6 963d
000003c0: a566 a2bb 7b5f 62bd be7f d8bd 5f8e 6b3d
000003d0: 4ee2 8e3d 60c5 03bd 23bc 1f3c da32 31bc
000003e0: c85b 593b 3f13 cdbd b9f8 9d3d ef2f fe3d
000003f0: 9748 783d bb44 0cbd 2668 98bd fb05 87bd
