artifacts/SKU_02/model.pt (torch, 219163 bytes, 12 tensors)

lstm.weight_ih_l0 f4 [256, 10]
0	0x3df54181	0.119753845
1	0x3c075281	0.008259417
2	0xbcf013ad	-0.029306257
3	0x3c4c242a	0.012459794
4	0x3de584f5	0.11207
5	0xbd591209	-0.052995715
6	0xbde1c5da	-0.11024065
7	0x3d229bdb	0.039699417
8	0x3d4d9db2	0.050199218
9	0xbd28b367	-0.041186716
10	0x3dd093f8	0.10184473
11	0x3d832d03	0.0640507
12	0xbe01e7d8	-0.12686098
13	0xbdde1897	-0.10844534
14	0xbc877bbb	-0.016538491
15	0xbd1d30d5	-0.038376648
16	0xbde0b4fc	-0.1097202
17	0xba1c3eb9	-0.0005960274
18	0xbc7d9381	-0.015477062
19	0x3dde17a4	0.10844353
20	0x3d8e7323	0.06955554
21	0xbe038969	-0.12845387
22	0x3d9a7442	0.07541706
23	0xbd9ef7fd	-0.07762144
24	0x3d0a4dff	0.03376579
25	0x3dcb2d1d	0.09920714
26	0x3d92dd8e	0.071711645
27	0x3d813f4d	0.06310902
28	0x3d41dd53	0.04733021
29	0xbdbde352	-0.092718735
30	0x3db2a6fa	0.087232545
31	0x3d812b86	0.063071296
32	0xbcfc89c3	-0.030827409
33	0xbdf2c5c7	-0.11854129
34	0x3dd97e4d	0.10619793
35	0x3de4a671	0.11164559
36	0xbd7590fa	-0.059952714
37	0x3e04230e	0.12903997
38	0xbdaaf932	-0.083483115
39	0xbd338fc4	-0.043838277
40	0x3ddd53ba	0.10806985
41	0xbd342195	-0.04397734
42	0x3dd26345	0.102728404
43	0x3d8591b6	0.06521933
44	0x3d7c1185	0.061540145
45	0x3c7e2738	0.01551228
46	0x3d128566	0.03577175
47	0x3d28a468	0.041172415
48	0xbcd7be98	-0.026336
49	0x3bbef6cf	0.0058277617
50	0xbdb54cd4	-0.088525444
51	0xbd6ea5c0	-0.05826354
52	0xbc5320ad	-0.0128862085
53	0xbad8b7cc	-0.0016534268
54	0x3d8bb61b	0.06821843
55	0x3dda05fb	0.10645672
56	0x3d26e06e	0.040741377
57	0x3db8bfdf	0.090209715
58	0x3d9c0eb3	0.07619991
59	0x3dc3ca3e	0.09560059
60	0x3d67902f	0.05653399
61	0xbda4dc25	-0.08049802
62	0x3d257a31	0.040399734
63	0x3d8475fc	0.06467816
64	0x3cbc1ba8	0.022962406
65	0x3dba7783	0.09104826
66	0x3d40707b	0.04698227
67	0xbd981a63	-0.07426908
68	0x3ddd6c11	0.10811628
69	0xbd6e05b1	-0.058110896
70	0x3aa12f42	0.0012297409
71	0x3cdc9f8c	0.026931547
72	0xbd4a59d4	-0.049402073
73	0xbd60a0d3	-0.054840874
74	0xbd83cd26	-0.06435613
75	0x3d890148	0.066896975
76	0x3dffe1a0	0.124942064
77	0x3dbed46c	0.0931786
78	0xbde4f6ff	-0.11179923
79	0x3da13a0b	0.07872399
80	0x3d6a2baa	0.057170548
81	0x3dcc93af	0.09989106
82	0xbd8a5bbd	-0.06755779
83	0x3dde24d7	0.108468704
84	0x3dc878aa	0.0978864
85	0xbdb0f31d	-0.0864012
86	0x3db9e2c8	0.09076458
87	0x3c2b6d0e	0.010463012
88	0x3dd6e11e	0.104921564
89	0x3cfe8723	0.031070298
90	0x3e0f526d	0.13996287
91	0xbd87ace3	-0.066247724
92	0x3d0674d3	0.032826256
93	0x3d7eb994	0.0621887
94	0x3d85058a	0.06495197
95	0x3d4f3c7b	0.050594788
96	0x3d8f5f58	0.07000607
97	0xbdaca52e	-0.08429943
98	0x3ce2c342	0.027680997
99	0xbd92779c	-0.0715172
100	0x3ac38ffd	0.0014920231
101	0x3dc0047d	0.09375856
102	0xbdf75cd5	-0.12078253
103	0x3de1d1b6	0.11026327
104	0xbd42ecd4	-0.04758914
105	0x3d01ef2d	0.031722236
106	0x3d2a08cd	0.0415123
107	0x3ce1dc57	0.027570887
108	0xbdf7d6a0	-0.12101483
109	0xbd39a44c	-0.0453227
110	0xbdf06167	-0.11737328
111	0xbd98c687	-0.07459741
112	0x3d7f0b20	0.06226647
113	0x3dd78ef1	0.10525311
114	0xbdad91af	-0.084750526
115	0x3d203991	0.0391174
116	0xbd281851	-0.041038815
117	0x3d5586ee	0.052130632
118	0x3ce983d0	0.028505236
119	0xbc7462ac	-0.014916103
120	0xbe05f196	-0.13080439
121	0x3e0107fc	0.12600702
122	0xbdf3534a	-0.118811205
123	0x3c778d07	0.015109307
124	0xbdeaca7f	-0.11464404
125	0xbd52dfc4	-0.05148293
126	0xbd1db4bc	-0.03850244
127	0x3d79f34a	0.061023034
128	0x3df8e054	0.12152162
129	0xbde91c74	-0.1138238
130	0x3d41d48d	0.047321845
131	0x3dc78889	0.09742839
132	0x3d86fd98	0.06591338
133	0xbd6e8c41	-0.058239225
134	0x3d2b1186	0.04176476
135	0x3ce7ad13	0.02828077
136	0xbc8b2d7a	-0.016989458
137	0xbd315bb2	-0.043300338
138	0x3d04e806	0.032447837
139	0xbb0295b4	-0.0019925656
140	0xbd47975a	-0.048728324
141	0x3dac20ce	0.084046945
142	0xbd14e1b6	-0.036348067
143	0xbc9d7e2b	-0.0192252
144	0x3c88b3e5	0.016687343
145	0x3d83e991	0.06441034
146	0x3d97c0e4	0.07409838
147	0xbd5a74ac	-0.053333923
148	0xbd900687	-0.07032495
149	0x3dff8e0f	0.124782674
150	0xbe11a86b	-0.14224403
151	0xbd97bf5a	-0.07409544
152	0xbc0d0b9e	-0.008608727
153	0x3b4c78fe	0.0031200047
154	0xbcd3da8f	-0.025861053
155	0x3d9220ef	0.07135188
156	0x3d2cf473	0.042225312
157	0x3defad7e	0.11703013
158	0x3dd50ce5	0.1040285
159	0xbc43ab82	-0.011942746
160	0x3d35bdd9	0.044370506
161	0x3c7af9b8	0.015318327
162	0xbb26917a	-0.00254163
163	0x3dfb43ac	0.12268767
164	0x3dcc06d0	0.09962237
165	0xbdf2afce	-0.11849938
166	0x3cb47654	0.02202908
167	0xbdc4d478	-0.09610838
168	0xbc6555d8	-0.0139975175
169	0x3cf4f14f	0.029900221
170	0x3cab75f2	0.020930264
171	0xbdaf3ba2	-0.08556296
172	0xbd2f82e5	-0.04284944
173	0x3c97cf49	0.018531458
174	0x3daa0f21	0.08303667
175	0xbd58e962	-0.052956946
176	0xbdf32893	-0.11872973
177	0xbcac851a	-0.021059562
178	0xbd01c82d	-0.031685043
179	0xb99709be	-0.00028808223
180	0x3e10c71b	0.14138453
181	0xbba132c2	-0.004919381
182	0xbc9e34d1	-0.019312294
183	0xbd835c95	-0.06414143
184	0xbcb78b8d	-0.02240541
185	0xbb8b3459	-0.0042481837
186	0xbd37363a	-0.04472945
187	0xbcedff8d	-0.02905252
188	0xbd046142	-0.032319315
189	0xbd351523	-0.04420961
190	0xbc2c99f6	-0.010534754
191	0xbda56562	-0.08075978
192	0x3db3fa8c	0.087880224
193	0xbd3a5360	-0.04548967
194	0xbd520e16	-0.051282965
195	0xbdc45496	-0.09586446
196	0x3cd2b5c4	0.025721438
197	0x3dd267f8	0.10273737
198	0x3decdd9e	0.115657076
199	0x3dc620e5	0.09674243
200	0x3d8f7ba9	0.07006008
201	0xbddde028	-0.1083377
202	0xbdd5408a	-0.104127005
203	0x3dbacb8d	0.091208555
204	0xbd38cd6d	-0.045117784
205	0xbe05d3da	-0.13069096
206	0x3ce65edc	0.028121404
207	0x3d748b00	0.059702873
208	0x3db84ebc	0.089993924
209	0x3d5ec4bc	0.05438684
210	0xbd9048f7	-0.07045167
211	0x3da2922a	0.07938035
212	0xbdde3f8d	-0.10851965
213	0xbd07cb3e	-0.03315281
214	0xbd3c6d02	-0.046002395
215	0x3d90d74b	0.07072314
216	0x3ba2b089	0.0049648923
217	0xbd99061b	-0.07471868
218	0x3dab1fcf	0.083556764
219	0xbd52cd08	-0.051465064
220	0x3d81547e	0.06314944
221	0x3d60fb47	0.054927137
222	0xbd4d5bad	-0.050136257
223	0xbdab94e9	-0.08378012
224	0x3c8b6629	0.017016487
225	0xbd639fe2	-0.055572398
226	0x3d384882	0.044991024
227	0x3c69bed7	0.014266691
228	0xbdd26e43	-0.10274937
229	0x3daa96c3	0.08329537
230	0xbdcca079	-0.09991545
231	0x3d6a06d9	0.057135437
232	0x3dae92df	0.08524107
233	0x3d9f1494	0.07767597
234	0xbddd7a91	-0.10814393
235	0x3d809471	0.06278313
236	0xbd9d1772	-0.076704875
237	0x3d72b775	0.05925699
238	0xbc299592	-0.010350602
239	0xbdadd6b6	-0.084882185
240	0x3c524b32	0.012835311
241	0xbde3060f	-0.1108514
242	0xbb47fd57	-0.0030515993
243	0x3e06a80b	0.13150041
244	0x3d44a385	0.048007507
245	0xbdb7bd9c	-0.08971712
246	0xbdd8b9e2	-0.10582329
247	0x3d9b725f	0.07590174
248	0xbcf8ecb2	-0.030386303
249	0xbd27a19d	-0.04092561
250	0x3da32d10	0.07967579
251	0xbdf67aec	-0.12035164
252	0x3dee24af	0.116280906
253	0xbbf41fdf	-0.0074500884
254	0x3d3b196e	0.04567855
255	0x3ddc5c3c	0.1075978

lstm.weight_hh_l0 f4 [256, 64]
0	0x3d0f1601	0.034933094
1	0x3d0ec94b	0.034859937
2	0xbd9e023b	-0.07715269
3	0xbdc46976	-0.095904276
4	0x3d985bb7	0.07439368
5	0x3bac9b4e	0.005267537
6	0xbdb48e3d	-0.08816192
7	0xbc2a0602	-0.010377409
8	0xbe0ec085	-0.13940628
9	0xbc3af2db	-0.01141044
10	0xbde3f5e7	-0.111308865
11	0xbd9d127d	-0.07669542
12	0xbc7c2507	-0.015389687
13	0xbdc33a51	-0.09532607
14	0xbdba5662	-0.090985075
15	0xbdaea336	-0.08527224
16	0xbdd29903	-0.10283091
17	0x3dc5d8f3	0.096605204
18	0x3dd75e3f	0.10516023
19	0xbd4ca553	-0.049962353
20	0xbd30c723	-0.04315866
21	0x3d9b5e36	0.07586329
22	0x3bab5659	0.0052287993
23	0x3d044b32	0.032298274
24	0xbd2cfe41	-0.042234663
25	0x3d680ceb	0.056652945
26	0x3d9e5a5b	0.07732078
27	0xbc3684b8	-0.011140041
28	0xbdd1c636	-0.10242884
29	0xbd423329	-0.04741207
30	0x3d204b35	0.039134223
31	0xbdb6927d	-0.08914659
32	0xbd11ebf5	-0.035625417
33	0xbd7a94ba	-0.061176993
34	0x3d616df0	0.055036485
35	0x3e0693df	0.13142346
36	0xbc913cfd	-0.017729277
37	0x3dd2d3af	0.10294282
38	0xbcfc3d68	-0.030791
39	0xbdd18987	-0.102313094
40	0x3e00d8cc	0.12582701
41	0xbd1b0e53	-0.037855458
42	0x3dfb3f2e	0.1226791
43	0xbd82b2fe	-0.06381796
44	0xbdd19c9b	-0.10234948
45	0xbe049975	-0.12949164
46	0x3cdf22a8	0.027238205
47	0x3ca36fb6	0.019950729
48	0xbe0e2cd6	-0.13884291
49	0x3d39d885	0.045372505
50	0xbd6e86c9	-0.05823401
51	0xbe0342fd	-0.12818523
52	0x3db536af	0.08848321
53	0x3d1cb5b2	0.038259216
54	0xbbd18367	-0.006393838
55	0x3dbff216	0.09372346
56	0xbdc64501	-0.0968113
57	0xbba8a54a	-0.005146657
58	0x3c9ee63b	0.019396892
59	0xbdda66d4	-0.10664144
60	0xbc2e1597	-0.010625265
61	0xbc00e57e	-0.007867215
62	0xbde62081	-0.112366684
63	0x3d9ec368	0.077521145
64	0x3ddcb251	0.10776199
65	0x3c3702af	0.011170073
66	0x3d872171	0.06598175
67	0x3dca9b76	0.09892933
68	0x3e01e50e	0.12685034
69	0xbca94815	-0.020664254
70	0xbd415007	-0.04719546
71	0xbc444f5b	-0.01198181
72	0xbc9fb944	-0.019497521
73	0x3dac7213	0.084201954
74	0xbdd7a6c6	-0.105298564
75	0x3dde6f7d	0.108611085
76	0x3d98dcc1	0.074639805
77	0x3de1c1ab	0.11023267
78	0x3da60c7b	0.08107849
79	0xbd436cb6	-0.047711097
80	0xbcd28507	-0.025698198
81	0xbdb4bb25	-0.088247575
82	0xbda73782	-0.08164884
83	0xbd521fdf	-0.051299926
84	0x3d35c96c	0.044381544
85	0xbd8f61f0	-0.07001102
86	0x3d97f25a	0.07419272
87	0x3d7bc01e	0.061462514
88	0x3cbdcec9	0.023169892
89	0x3ddba3e5	0.1072462
90	0xbd4c3ac8	-0.049860746
91	0xbd3d640b	-0.046237987
92	0x3da5d4af	0.08097207
93	0xbdeb4045	-0.11486868
94	0xbd41f5c1	-0.04735351
95	0x3d099cb2	0.033596702
96	0xbd655d61	-0.055997256
97	0xbd4df30f	-0.050280627
98	0x3c89d8ce	0.016827013
99	0x3dbbd210	0.091709256
100	0xbdccdc7a	-0.1000299
101	0x3df46c25	0.119346894
102	0xbda46d39	-0.08028645
103	0x3e0e1f60	0.13879156
104	0x3d948cd5	0.07253424
105	0x3da7c3ce	0.08191644
106	0x3d8b5490	0.068032384
107	0x3d98c22c	0.0745891
108	0x3d649238	0.055803508
109	0xbd92a850	-0.07161009
110	0xbdcad1ba	-0.099032834
111	0xbc819aef	-0.015820948
112	0x3b80d6ba	0.0039318474
113	0xbdc5b817	-0.09654253
114	0xbdacb5d7	-0.08433121
115	0x3b086afa	0.0020815716
116	0xbbe1d12a	-0.0068913894
117	0x3d81010d	0.062990285
118	0x3d8b124d	0.067906
119	0x3dfc2d04	0.123132735
120	0x3d6fd88d	0.05855613
121	0xbd34f6f9	-0.044180844
122	0x3e05f71f	0.1308255
123	0xbdaa495e	-0.08314775
124	0xbdb6274c	-0.08894214
125	0x3d67a7d3	0.056556534
126	0x3d855cc0	0.06511831
127	0x3dd555d6	0.104167625
128	0xbdde75c5	-0.108623065
129	0x3c7a2b48	0.015269108
130	0xbde7676c	-0.11299023
131	0x3dd4599c	0.10368654
132	0x3dc7f7fc	0.09764096
133	0xbd995bfc	-0.07488248
134	0xbb8b20fc	-0.0042458754
135	0x3db9fee2	0.09081818
136	0x3defd7f4	0.11711112
137	0x3d20a810	0.039222777
138	0xbdf40a1a	-0.11915989
139	0xbc9613b6	-0.018319946
140	0xbbe36566	-0.006939578
141	0x3d0075ba	0.031362273
142	0x3c4f191f	0.012640267
143	0xbd355fb1	-0.04428071
144	0x3d87a771	0.06623734
145	0xbe042761	-0.12905647
146	0x3cec2f9d	0.028831298
147	0xbd6fe236	-0.05856534
148	0x3ca23404	0.019800194
149	0xbdc5fcc0	-0.09667349
150	0xbd16c48c	-0.036808535
151	0x3d9397b6	0.07206671
152	0xbd4c0e31	-0.04981822
153	0x3e011484	0.12605482
154	0xbdd8f143	-0.10592892
155	0xbd94c056	-0.07263248
156	0x3aaad2f3	0.0013032838
157	0xbd9c2943	-0.076250575
158	0xbd99019e	-0.074710116
159	0xbdca024a	-0.09863718
160	0xbd7992c2	-0.060930975
161	0x3ca99564	0.020701118
162	0xbcbbee50	-0.022940785
163	0xbd313228	-0.043260723
164	0xbccc18a6	-0.024914097
165	0xbc950728	-0.018191889
166	0xbd8ac1bd	-0.06775234
167	0x3d848a40	0.064716816
168	0xbc434739	-0.011918836
169	0xbd27a0da	-0.040924884
170	0x3d9f080f	0.07765209
171	0xbdae7699	-0.085187145
172	0x3dc3e7a8	0.09565669
173	0xbdfe1fa8	-0.12408382
174	0x3d80dae7	0.06291752
175	0x3dbab3c5	0.091163196
176	0xbb6d51df	-0.003621213
177	0xbdad454b	-0.08460482
178	0xbdf65e2a	-0.12029679
179	0xbc3b6789	-0.011438259
180	0xbdbc6f3e	-0.09200905
181	0x3d573382	0.052539356
182	0x3dc34d07	0.09536176
183	0x3b09ddc0	0.0021036714
184	0x3c3b2e57	0.0114246225
185	0xbc49fac9	-0.012327858
186	0xbd976b42	-0.07393505
187	0x3db42325	0.08795766
188	0xbd94aff6	-0.072601244
189	0x3d77486f	0.060371812
190	0x3d5931a4	0.053025857
191	0xbcb690a6	-0.02228577
192	0x3d174515	0.036931116
193	0x3dcc1f0a	0.09966858
194	0x3e111d2a	0.14171281
195	0x3d41428a	0.047182597
196	0xbd848209	-0.06470115
197	0xbd228fbc	-0.039687857
198	0x3db130fb	0.086519204
199	0x3d100063	0.03515662
200	0x3d94e18d	0.07269583
201	0xbdb0e577	-0.08637517
202	0xbda05268	-0.07828218
203	0x3de60afc	0.11232564
204	0x3d8a59bd	0.067553975
205	0x3c83b638	0.0160781
206	0x3db3a79b	0.087722026
207	0xbc6b3616	-0.014356157
208	0x3d9ff9eb	0.0781134
209	0xbdf5d830	-0.12004125
210	0x3dbf038e	0.0932685
211	0xbd7400b0	-0.05957097
212	0xbdd446ad	-0.10365043
213	0x3d058682	0.03259898
214	0x3db9c685	0.09071068
215	0x3dc01e14	0.09380737
216	0xbda3a1b4	-0.07989827
217	0x3a281036	0.0006411107
218	0xbb9e5b4f	-0.004832662
219	0xbc1f81c6	-0.00973553
220	0xbda5fc98	-0.08104819
221	0xbd434969	-0.04767743
222	0xbd582f25	-0.052779336
223	0x3dae6663	0.085156225
224	0x3dba460e	0.09095393
225	0xbdaac414	-0.0833818
226	0x3d3822a5	0.044954915
227	0xbd80afd8	-0.062835395
228	0xbde33c27	-0.110954575
229	0xbce82616	-0.028338473
230	0x3d9a9257	0.07547443
231	0xbdd65492	-0.10465349
232	0xbc95c9da	-0.018284727
233	0xbba33aab	-0.004981359
234	0x3db1fbe8	0.086906254
235	0x3d588bc0	0.05286765
236	0x3dc94de5	0.0982931
237	0xbd95a79b	-0.07307359
238	0xbdb8e9b2	-0.09028949
239	0xbdf101cd	-0.117679216
240	0xbd169552	-0.036763497
241	0x3c0daa49	0.008646556
242	0xbdc6c775	-0.09706012
243	0x3c150b11	0.009096877
244	0xbcd6ec39	-0.026235687
245	0xbd422594	-0.04739912
246	0x3cebff52	0.02880827
247	0xbda91959	-0.08256788
248	0x3d0254b1	0.03181905
249	0xbdc5d25f	-0.09659266
250	0xbdc06bdd	-0.09395573
251	0xbdf23510	-0.11826527
252	0xbe054d9d	-0.13017888
253	0xbc5aaa21	-0.013346226
254	0x3d958582	0.07300855
255	0xbd0a7bd8	-0.033809513

lstm.bias_ih_l0 f4 [256]
0	0xbde2e030	-0.110779166
1	0x3d17670e	0.036963515
2	0x3d1cb202	0.0382557
3	0x3d75f7c6	0.06005075
4	0x3dd31047	0.10305839
5	0x3cceda4b	0.025250575
6	0xbcd136c9	-0.025538819
7	0x3db9d97a	0.090746835
8	0x3d9e38c6	0.077256724
9	0x3e02d592	0.12776783
10	0x3d8bd1a6	0.06827097
11	0x3c9586dd	0.018252784
12	0xbbc35a2b	-0.0059616766
13	0xbdc9dbf2	-0.09856404
14	0xbd3306c1	-0.043707613
15	0xbdd81eb4	-0.10552731
16	0xbdc00d62	-0.093775526
17	0xbd94dcee	-0.072687015
18	0x3b0fbdf9	0.00219333
19	0xbdbe8826	-0.09303312
20	0x3e050874	0.12991506
21	0xbdc4ac5c	-0.096031874
22	0x3c12cb05	0.008959536
23	0xbd18342d	-0.037159134
24	0xbdd7e2c2	-0.105412975
25	0x3da05c42	0.07830097
26	0x3e0a1fd5	0.13488705
27	0xbd9d1283	-0.076695465
28	0x3d8bc109	0.06823928
29	0x3ddc4c02	0.10756685
30	0xbd709658	-0.05873713
31	0x3da0ca41	0.07851077
32	0x3cf2fc87	0.02966143
33	0x3dfd6511	0.123727925
34	0x3cf17cba	0.02947842
35	0x3d8f928c	0.070103735
36	0xbd90d66e	-0.07072149
37	0x3cf7fefa	0.03027295
38	0xbd129f38	-0.035796374
39	0x3ddeea14	0.108844906
40	0x3d1ed6b4	0.038778976
41	0xbdd105a8	-0.10206157
42	0x3d77e98c	0.060525462
43	0xbdac45f3	-0.08411779
44	0xbbd66b12	-0.0065435255
45	0x3b05b234	0.0020400407
46	0x3db1b810	0.08677685
47	0xbd140228	-0.03613487
48	0xbc024b5d	-0.007952538
49	0x399b2a18	0.00029595266
50	0x3d110de0	0.035413623
51	0x3c84461d	0.016146714
52	0xbdc8616e	-0.09784208
53	0x3df72fac	0.120696396
54	0x3dcdfbf6	0.10057823
55	0xbcdb8789	-0.026798027
56	0x3dbd11a4	0.0923188
57	0x3de871fb	0.11349865
58	0x3dd6b541	0.1048379
59	0x3e0ebfe7	0.13940392
60	0x3d063545	0.032765646
61	0x3e084fe0	0.1331172
62	0xbdd3cefb	-0.10342213
63	0x3dbafff9	0.09130854
64	0x3df1054c	0.117685884
65	0xbd6aaaac	-0.05729167
66	0xbdb2189e	-0.086961016
67	0xbdb60c96	-0.08889119
68	0xbd5e77e4	-0.054313555
69	0xbdcb2969	-0.09920008
70	0xbd00fef9	-0.03149316
71	0xbd07f40d	-0.03319173
72	0x3c94f245	0.01818193
73	0x3e04a2ea	0.12952772
74	0x3dea6692	0.11445345
75	0x3bf5a469	0.007496406
76	0xbdbff140	-0.09372187
77	0x3b733a81	0.0037113728
78	0x3dada8c2	0.084794536
79	0xbd6900f9	-0.056885693
80	0x3ba04767	0.0048913243
81	0x3b9c5067	0.004770327
82	0x3dec6702	0.11543085
83	0x3dbcf4c2	0.09226371
84	0xbd20508e	-0.039139323
85	0x3d99c9a8	0.07509166
86	0xbd9e33e9	-0.07724745
87	0xbd81acd5	-0.06331793
88	0xbd95a99a	-0.073077396
89	0x3ca09da2	0.019606415
90	0x3e07c0ac	0.13257092
91	0xbddea756	-0.108717605
92	0x3bddb7e7	0.0067663076
93	0x3cf2b8ac	0.029629074
94	0x3d913f38	0.07092136
95	0xbdffe210	-0.1249429
96	0xbddaac6d	-0.10677419
97	0x3c4c5a48	0.012472697
98	0xbdb08cc4	-0.08620599
99	0xbb06101e	-0.0020456384
100	0xbd34572f	-0.044028457
101	0x3dc98f77	0.09841817
102	0x3cb2eaa9	0.02184041
103	0xbdbed4ce	-0.09317933
104	0x3dd80e07	0.105495505
105	0x3d21bbca	0.03948573
106	0xbd91b3a7	-0.07114344
107	0x3d0af588	0.033925563
108	0xbd9fa8c0	-0.077958584
109	0xbc6bf969	-0.014402726
110	0xbd065106	-0.032792114
111	0x3df7655b	0.12079879
112	0x3db71d63	0.08941152
113	0xbdb7056e	-0.089365825
114	0x3caec2ae	0.021333065
115	0xbdae9480	-0.08524418
116	0xbcba1f9b	-0.022720149
117	0x3df25362	0.1183231
118	0xbe0b6c8c	-0.13615626
119	0x3d241d06	0.04006674
120	0xbcadd935	-0.021221736
121	0xbc53a255	-0.012917121
122	0x3d71aa8d	0.05900054
123	0x3e055839	0.13021936
124	0x3dce3445	0.10068563
125	0xbdd3a355	-0.103338875
126	0x3cf74f53	0.030189192
127	0x3d5634fb	0.05229662
128	0xbc56eff7	-0.0131187355
129	0x3d9ccc7d	0.076561905
130	0x3c77cb33	0.01512413
131	0x3d9329a5	0.071856774
132	0x3d0937d4	0.033500507
133	0xbdabd163	-0.08389547
134	0x3d0988e7	0.033577826
135	0xbdb0c25f	-0.08630823
136	0xbdee8ff2	-0.11648549
137	0x3d7421e1	0.059602622
138	0x3d9e29ef	0.07722842
139	0xbd83cbcf	-0.06435358
140	0x3cfac5ad	0.030611837
141	0x3d94efa4	0.0727227
142	0xbdd73344	-0.10507825
143	0x3db9cc8d	0.09072218
144	0x3d88c223	0.06677654
145	0xbdbcada0	-0.09212804
146	0x3c796c13	0.015223521
147	0xbd34f933	-0.044182967
148	0x3dc0fa24	0.094227105
149	0x3d702513	0.058629107
150	0x3e095252	0.13410309
151	0xbdb2d2ce	-0.08731614
152	0x3d723cff	0.0591402
153	0xbdc40380	-0.0957098
154	0x3c5a02c9	0.013306328
155	0xbdbc19c7	-0.09184604
156	0x3d5c0875	0.053719003
157	0x3cdaac88	0.026693597
158	0x3cc8cf08	0.024512783
159	0x3db501f5	0.08838264
160	0xbd54ea8d	-0.051981498
161	0x3de129ce	0.10994302
162	0xbda7686b	-0.08174213
163	0xbd30a285	-0.04312374
164	0xbd8e19eb	-0.06938537
165	0x3deea11a	0.116518214
166	0x3d8415fc	0.06449506
167	0xbd6e5871	-0.058189813
168	0xbda15e02	-0.07879259
169	0xbd8edfd4	-0.069762856
170	0x3aac9855	0.0013167957
171	0x3d199f87	0.037505653
172	0xbd193eb0	-0.0374133
173	0x3dee0ed7	0.11623924
174	0x3d80f389	0.06296451
175	0x3da8a48a	0.08234508
176	0x3d5d12c8	0.05397299
177	0x3d6cfada	0.05785642
178	0xbc025016	-0.007953664
179	0xbbbcd940	-0.005763203
180	0x3a9a854a	0.0011788991
181	0xbd61ee5c	-0.055158958
182	0xbda43d70	-0.08019531
183	0x3da5b7d5	0.08091704
184	0x3d91daa8	0.071217835
185	0x3d7f8b66	0.0623888
186	0xbd683b96	-0.05669745
187	0x3b9c74e6	0.0047746776
188	0x3cd69a6a	0.026196677
189	0x3d99345c	0.0748069
190	0x3da66a82	0.081257835
191	0xbb12586c	-0.0022330536
192	0xbe0232cd	-0.12714691
193	0x3d50ad78	0.050946683
194	0x3d1e2081	0.038605217
195	0xbdc55a9e	-0.096364245
196	0x3cbc9232	0.02301893
197	0xbccba856	-0.024860542
198	0xbdd26d4c	-0.10274753
199	0xbd8e9dde	-0.069637045
200	0x3d12e439	0.03586218
201	0x3d4f2da0	0.05058062
202	0x3cdd2cce	0.026998904
203	0xbdcd4eff	-0.10024833
204	0x3d6c800d	0.057739306
205	0xbd2c95c9	-0.042135034
206	0x3cdd2a0e	0.026997592
207	0xbc8f9fb1	-0.017532201
208	0xba8bfa8e	-0.001067953
209	0x3d3ee4a8	0.046604782
210	0x3d9fc2d5	0.07800833
211	0x3da2fbd8	0.07958192
212	0xbd1c4a65	-0.038156886
213	0x3dad15b7	0.084514074
214	0xbd588926	-0.05286517
215	0x3dd0e02a	0.10199006
216	0xba96869a	-0.0011484206
217	0x3ccd8c1c	0.025091223
218	0x3d4346cf	0.04767495
219	0x3cf7abfc	0.030233376
220	0xbd9dc67c	-0.077038735
221	0xbd41e2f3	-0.047335576
222	0xbd088ead	-0.03333919
223	0xbc9bd303	-0.019021517
224	0xbe0cf102	-0.13763812
225	0x3d274766	0.040839575
226	0xbd9d7ace	-0.07689439
227	0x3d3c622b	0.045992058
228	0x3c070247	0.008240289
229	0xbcd42d87	-0.025900615
230	0x3dcf4322	0.101202264
231	0x3d137465	0.035999674
232	0xbdef1968	-0.11674768
233	0xbbb5cf9a	-0.0055484297
234	0xbdc466aa	-0.09589894
235	0x3dc593c7	0.09647327
236	0xbbf906ec	-0.007599702
237	0xbd68e876	-0.056862317
238	0xbdf72683	-0.120678924
239	0x3ddafa5e	0.10692285
240	0xbdbfd4ed	-0.09366784
241	0xbd8e23f4	-0.06940451
242	0x3ce07092	0.027397428
243	0x3d87a5bd	0.06623409
244	0xbdbed191	-0.09317315
245	0x3db23f3b	0.087034665
246	0xbdfbb9b5	-0.1229128
247	0xb94bd838	-0.00019440136
248	0x3d9f0cc7	0.07766109
249	0x3e055e79	0.1302432
250	0x3dd75398	0.10513991
251	0x3d011291	0.031511847
252	0x3cc145e6	0.0235929
253	0xbb49cd2f	-0.0030792465
254	0xbd6fd112	-0.058548994
255	0xbd96ba68	-0.07359773

lstm.bias_hh_l0 f4 [256]
0	0xbdf230ae	-0.11825691
1	0xbd862cdc	-0.06551525
2	0xbdad6850	-0.08467162
3	0xbd8a0d14	-0.06740776
4	0x3d6dfd7e	0.058103077
5	0xbd5de13e	-0.054169886
6	0x3cc68c97	0.02423696
7	0xbd8f20db	-0.069886886
8	0xbc404543	-0.011735263
9	0xbd5a16b2	-0.0532443
10	0x3de59964	0.112108976
11	0x3dbfec76	0.09371273
12	0xbd4402bf	-0.04785418
13	0x3d92419a	0.07141419
14	0x3d7bbc49	0.06145886
15	0x3c1e8cc1	0.009677113
16	0xbdc6cf20	-0.09707475
17	0x3cdb506b	0.026771745
18	0xbc9b095b	-0.01892536
19	0xbde07050	-0.10958922
20	0x3e000aa0	0.12504053
21	0x3dd43d26	0.10363226
22	0xbdefd323	-0.11710193
23	0xbbd9c764	-0.0066460837
24	0x3d28e3ee	0.041232996
25	0x39ec6ee2	0.00045096042
26	0x3cdcac4d	0.026937628
27	0x3d16f33f	0.03685307
28	0x3c278cd0	0.010226443
29	0x3d6579d5	0.05602439
30	0x3ca6cfc4	0.020362742
31	0x3cd8f27a	0.02648281
32	0xbd4e821c	-0.05041705
33	0x3daf5f4f	0.085631005
34	0x3d4a730d	0.049426127
35	0x3da09eaa	0.07842763
36	0xbdcab2c2	-0.098973766
37	0x3d8f21da	0.069888785
38	0x3d9fa251	0.07794631
39	0xbd9d55f6	-0.076824114
40	0x3d6347c9	0.05548838
41	0xbdc9fa60	-0.09862208
42	0x3d9080b9	0.07055802
43	0xbdff8d05	-0.12478069
44	0x3d2dab57	0.04239973
45	0x3df94f34	0.1217331
46	0xbda897a4	-0.08232048
47	0xbde6df99	-0.112731166
48	0x3d4a5c99	0.049404714
49	0x3d72d4e8	0.059285074
50	0x3d813371	0.0630864
51	0x3ca766dd	0.020434791
52	0xbda6c912	-0.0814382
53	0x3e0299dc	0.12754005
54	0x3cb6403b	0.022247424
55	0xbc607ae9	-0.013701179
56	0x3d1e9443	0.038715612
57	0x3c96a707	0.018390192
58	0xbd5c52a7	-0.05378976
59	0x3d488526	0.048955105
60	0x3d2a4bdc	0.04157625
61	0xbb9d1b82	-0.004794539
62	0xbd02c178	-0.031922787
63	0xbd32b6c5	-0.043631334
64	0xbde43b4a	-0.11144121
65	0x3e02842b	0.1274573
66	0xbdd05db2	-0.10174121
67	0x3d20c388	0.039248973
68	0xbd4e878a	-0.05042223
69	0x3d0a277d	0.033729065
70	0xbd4021e3	-0.046907317
71	0x3db2657e	0.08710764
72	0xbcf9d191	-0.030495437
73	0xbd600438	-0.054691523
74	0xbd44ecd2	-0.048077412
75	0xbd660bbb	-0.05616353
76	0x3d728064	0.059204474
77	0xbd66b99b	-0.05632935
78	0x3c79e532	0.015252398
79	0x3d51a8d6	0.051186405
80	0xbd8c8e56	-0.06863086
81	0x3dd9353e	0.10605858
82	0xbc0ca877	-0.008585087
83	0x3dce5ad2	0.10075916
84	0xba4ae5e9	-0.0007739948
85	0x3d724f5d	0.059157718
86	0xbc972797	-0.018451495
87	0x3d12b587	0.03581765
88	0xbdda794a	-0.10667665
89	0x3ce9984a	0.028515
90	0x3cdff5b4	0.02733884
91	0xba42bbaa	-0.0007428477
92	0x3d3e59da	0.046472408
93	0x3dfaa689	0.12238795
94	0xbd2bb695	-0.04192217
95	0x3d847b20	0.06468797
96	0x3d0d3e62	0.03448332
97	0xbd9c962d	-0.07645831
98	0x3c24bb1f	0.010054379
99	0x3dc8b50c	0.09800157
100	0x3dc17fe9	0.09448225
101	0xbb4f3d97	-0.0031622404
102	0xbbc61eb9	-0.006046143
103	0x3d878afe	0.066183075
104	0xbd072d6f	-0.033002313
105	0xbd9057ce	-0.070479974
106	0xbdd026c7	-0.10163646
107	0xbcc0b98f	-0.023525981
108	0xbc1b360e	-0.009473337
109	0xbcace115	-0.021103421
110	0x3d0beb6f	0.034160074
111	0xbce58037	-0.02801524
112	0x3df4dc1b	0.11956044
113	0xbd775193	-0.06038053
114	0xbbb0b5c5	-0.0053927624
115	0xbdb10ea4	-0.086453706
116	0x3cf4d567	0.029886914
117	0xbb9c5598	-0.0047709458
118	0xbd07262a	-0.03299538
119	0xbc0bdba0	-0.008536249
120	0x3aaa32b1	0.0012985078
121	0xbd52094d	-0.0512784
122	0x3b559b37	0.0032593736
123	0x3e03c371	0.12867524
124	0x3e0d1a27	0.13779508
125	0x3daca871	0.08430565
126	0x3d8e74a9	0.06955845
127	0xbd4237a5	-0.047416348
128	0xbdb57040	-0.088593006
129	0x3d4e0c03	0.050304424
130	0x3d64f329	0.055895958
131	0xbd064929	-0.032784615
132	0x3a168121	0.00057412876
133	0xbce3aa92	-0.027791295
134	0xbda7cf62	-0.08193852
135	0xbdc4779f	-0.095931284
136	0xbca4dd80	-0.02012515
137	0x3e03d27d	0.12873264
138	0x3db74a43	0.08949711
139	0x3d98b527	0.07456427
140	0xbd30eb02	-0.04319287
141	0xbd0e4a2f	-0.034738716
142	0xbd9627f6	-0.07331841
143	0x3dee5af9	0.116384454
144	0xbd7d3ccd	-0.061825562
145	0x3e07f51f	0.132771
146	0xbde5c1e4	-0.11218622
147	0xbd7edde0	-0.062223315
148	0x3da2bfd0	0.079467416
149	0xbd95fc53	-0.07323518
150	0x3dad1751	0.08451713
151	0xbdc4f3f4	-0.09616843
152	0xbdbdf8ea	-0.09275992
153	0xbc985b9a	-0.018598367
154	0xba966636	-0.0011474553
155	0xbd9b4db9	-0.07583184
156	0xbdf0d120	-0.117586374
157	0x3d5c0bc9	0.053722177
158	0x3ca48db2	0.020087097
159	0xbdca1e35	-0.09869043
160	0xbb187551	-0.0023263285
161	0xbbc0e61e	-0.005886807
162	0x3da5d6b9	0.08097596
163	0xbe0fb3c1	-0.14033414
164	0x3d7fd569	0.062459383
165	0xbd797d30	-0.060910404
166	0x3db80b53	0.08986535
167	0x3c68d0ee	0.014209969
168	0xbd9de956	-0.07710521
169	0xbd04f47e	-0.03245973
170	0x3d9dc64b	0.07703837
171	0xbde4f90f	-0.11180317
172	0x3cc1206f	0.023575036
173	0xbdb76009	-0.08953864
174	0x3d1b7884	0.03795673
175	0xbd21b432	-0.03947849
176	0x3da9815b	0.08276626
177	0xbcff24fc	-0.031145565
178	0x3d935862	0.07194592
179	0x3deac6c7	0.11463695
180	0xbc40c026	-0.011764562
181	0xbd0d41b8	-0.034486502
182	0x3c5ea1e1	0.0135884
183	0xbd51faa1	-0.05126441
184	0x3bad8988	0.005295936
185	0xbda87c7b	-0.08226868
186	0xbc0460ea	-0.008079747
187	0x3d354fdd	0.044265617
188	0x3bfcb02a	0.00771143
189	0xbd1456da	-0.03621564
190	0x3dc48686	0.09595971
191	0x3dbe55ac	0.09293684
192	0xbdfb0150	-0.1225611
193	0x3d8dd2b3	0.06924953
194	0xbdb9000d	-0.09033213
195	0x3ded409a	0.115845874
196	0x3d8f0004	0.06982425
197	0x3e009412	0.12556484
198	0x3dc24a5c	0.09486839
199	0xbd13a7a5	-0.03604855
200	0xbd9d5f19	-0.07684154
201	0x3d8f401b	0.06994649
202	0xbde8f85e	-0.11375497
203	0xbda7ad15	-0.0818731
204	0x3d0d85e0	0.0345515
205	0x3d18f1e7	0.03734007
206	0xbdf4fbf4	-0.11962119
207	0x3dc4843a	0.09595533
208	0x3d709765	0.05873813
209	0x3dc750a5	0.097321786
210	0xbd5aa166	-0.053376578
211	0xbd72f23c	-0.059313044
212	0x3e056dee	0.13030216
213	0xbcea2d0e	-0.028585937
214	0xbde2b286	-0.11069207
215	0x3df0ede2	0.117641225
216	0xbd58484c	-0.052803323
217	0xbadca12e	-0.0016832703
218	0xbdbf4615	-0.09339539
219	0x3d441357	0.047870006
220	0xbd8257bc	-0.0636439
221	0xbd36d4d7	-0.044636574
222	0xbd463175	-0.04838701
223	0xbd9bf1e4	-0.07614496
224	0xbdce326c	-0.10068211
225	0xbd83dc85	-0.06438545
226	0xbdae3fa2	-0.08508231
227	0x3d2d150f	0.04225641
228	0xbdd79214	-0.10525909
229	0x3de65362	0.11246373
230	0xbdc78cda	-0.09743662
231	0x3dd89b39	0.10576481
232	0x3cfab700	0.03060484
233	0xbce9a446	-0.028520714
234	0xbc17a507	-0.009255654
235	0x3d6117e2	0.054954417
236	0x3c8b968b	0.017039558
237	0x3d5a8436	0.053348742
238	0xbd6162e9	-0.05502597
239	0xbdab91be	-0.083774075
240	0xbc3a375e	-0.01136574
241	0xbdf63e63	-0.12023618
242	0xbb737eae	-0.0037154364
243	0x3c5f6121	0.013633997
244	0xbdc95d67	-0.09832268
245	0xbdd90a8b	-0.10597714
246	0x3d988131	0.07446516
247	0xbd70c4b7	-0.058781352
248	0x3da57d99	0.080805965
249	0xbd3c64da	-0.045994617
250	0xbd7af4dc	-0.061268672
251	0xbda19863	-0.078903936
252	0x3dd2051a	0.10254879
253	0x3d16d229	0.036821518
254	0x3ddc38ff	0.10753059
255	0x3dd0929a	0.10184212

lstm.weight_ih_l1 f4 [256, 64]
0	0x3caaedd3	0.020865357
1	0x3d3ec73e	0.04657673
2	0x3bd12cab	0.0063834987
3	0xbdad8344	-0.084723026
4	0x3d164c63	0.03669394
5	0xbd9278b3	-0.07151928
6	0xbddf4af7	-0.1090297
7	0xbdd43849	-0.10362298
8	0xbdd6a321	-0.10480333
9	0xbdaaed4d	-0.08346043
10	0x3d3cffaa	0.046142258
11	0x3dfd30f7	0.12362855
12	0x3dd302a2	0.103032365
13	0x3da3a804	0.07991031
14	0xbdb506ff	-0.08839225
15	0x3c988ae5	0.018620918
16	0x3d36228c	0.04446654
17	0xbd195a5e	-0.037439696
18	0x3c1a7624	0.009427581
19	0x3cadfb5c	0.021238022
20	0x3ce5a8fb	0.028034678
21	0xbc399c33	-0.011328745
22	0xbdafb17b	-0.085787736
23	0x3de02136	0.109438345
24	0xbbefc821	-0.0073175584
25	0xb9a59a89	-0.0003158639
26	0xbd137e95	-0.03600939
27	0x3dc8c4a9	0.09803135
28	0xbd36965d	-0.04457699
29	0x3dc49e9c	0.09600565
30	0x3dbfcdb8	0.093654096
31	0xbdd06e44	-0.101772815
32	0x3d0cd20b	0.03438
33	0x3dee0e99	0.11623878
34	0x3cd8238e	0.026384141
35	0x3d53095e	0.051522605
36	0x3d4e5e22	0.05038274
37	0xbd9b15da	-0.07572527
38	0x3dbfab70	0.09358871
39	0x3d8441c3	0.064578556
40	0xbd2f3c56	-0.04278215
41	0xbd19df00	-0.037566185
42	0x3e00505f	0.12530659
43	0xbd1e39d4	-0.038629368
44	0x3dd5007f	0.10400485
45	0xbcecf4fd	-0.028925413
46	0xbdc5e706	-0.09663205
47	0x3c8f6883	0.01750589
48	0xbdb54cd5	-0.08852545
49	0x3db299f1	0.08720768
50	0x3e0bd3b4	0.13654977
51	0x3cea3f1f	0.028594552
52	0xbd4dc090	-0.05023247
53	0x3db66bd0	0.08907282
54	0x3c7f0dd0	0.015567258
55	0x3cb0a4c9	0.02156295
56	0x3d87af75	0.06625263
57	0x3dce77b6	0.10081427
58	0x3bd23b16	0.006415735
59	0x3d3985d6	0.04529365
60	0x3d447681	0.047964577
61	0x3c96cde2	0.01840872
62	0xbd90b3d1	-0.07065547
63	0xbd93b1cd	-0.07211647
64	0x3d16d6ca	0.036825933
65	0x3aa80261	0.0012818092
66	0x3dfabd38	0.12243122
67	0xbd4cd870	-0.0500111
68	0xbd469677	-0.04848334
69	0xbd69c17e	-0.057069294
70	0xbdda5667	-0.10661011
71	0x3e03646a	0.12831274
72	0x3d39dcfa	0.045376755
73	0xbb25e894	-0.002531563
74	0xbddbae0a	-0.10726555
75	0x3d5ccee3	0.05390824
76	0xbdaf2ebc	-0.08553836
77	0xbdba5eb8	-0.091000974
78	0xbcd045c7	-0.025423897
79	0xbd856ee5	-0.06515292
80	0x3dc0e11c	0.09417936
81	0x3ddc0c41	0.10744525
82	0xbdb23419	-0.08701343
83	0xbb6109c3	-0.0034338094
84	0x3d59938a	0.05311922
85	0xbcef574b	-0.02921643
86	0x3bf184d3	0.00737057
87	0x3d99efd4	0.07516447
88	0xbdc1935a	-0.09451933
89	0xbdc1f5e2	-0.094707265
90	0x3d024d19	0.031811807
91	0xbdc341f4	-0.09534064
92	0xbd6f06cc	-0.05835609
93	0x3d03a2b9	0.032137606
94	0x3d60e12a	0.054902233
95	0xbd9932b4	-0.07480374
96	0x3afc625b	0.0019255386
97	0x3d8fb74b	0.07017382
98	0x3dc7f71d	0.0976393
99	0x3d224681	0.03961802
100	0xbce8d70b	-0.028422853
101	0x3d1f0ee7	0.03883257
102	0xbc024e4d	-0.007953239
103	0x3d95ac91	0.07308305
104	0x3de66a6a	0.112507656
105	0xbdd2965b	-0.10282584
106	0x3df4d42e	0.119545326
107	0xbd319331	-0.043353263
108	0x3da42488	0.0801478
109	0x3d6c4769	0.05768529
110	0xbdbaa91f	-0.091142885
111	0xbe05ab83	-0.13053708
112	0x3d825f33	0.06365814
113	0xbd6e471e	-0.05817329
114	0xbd3d0b90	-0.046153605
115	0x3b3958f2	0.0028281775
116	0x3daaccaa	0.08339818
117	0x3da3fe14	0.08007446
118	0x3d99deeb	0.07513221
119	0x3b97c6fc	0.004631875
120	0x3c9ba3b4	0.018998958
121	0x3cb74b09	0.022374647
122	0x3dadca7d	0.08485887
123	0xbdbde89b	-0.092728816
124	0xbd55c6b7	-0.052191462
125	0x3dc68509	0.09693343
126	0xbda5ef40	-0.08102274
127	0xbdffe855	-0.12495486
128	0x3e07dad2	0.13267067
129	0x3da42e5a	0.08016653
130	0x3dcb6476	0.09931271
131	0x3cca7270	0.024712771
132	0x3d1cd9a5	0.0382935
133	0xbd570f83	-0.052505028
134	0xbdb17ec2	-0.08666755
135	0xbde9bbb9	-0.114127584
136	0xbd5e0f3a	-0.05421374
137	0x3d2919ca	0.04128436
138	0x3e0ab014	0.13543731
139	0xbd8cf4b8	-0.06882614
140	0xbd44079c	-0.04785882
141	0xbd31b4ab	-0.04338519
142	0x3d8802d5	0.06641165
143	0x3d49d1e1	0.04927242
144	0x3d07b0f5	0.033127744
145	0x3d1a57ab	0.037681263
146	0xbd16b6ad	-0.036795307
147	0xbd81a5ae	-0.06330429
148	0x3da27c12	0.07933821
149	0x3d4f4a7e	0.05060815
150	0xbd2ed6d3	-0.04268534
151	0xbdd45df1	-0.103694804
152	0xbe033f74	-0.12817174
153	0x3d014fc6	0.03157022
154	0x3d49bece	0.04925423
155	0x3d9bb644	0.07603124
156	0x3c5458cd	0.012960625
157	0xbdd5c295	-0.10437504
158	0xbdb1ba75	-0.08678142
159	0xbd06b13a	-0.03288386
160	0x3d743bc4	0.05962731
161	0x3dd30762	0.103041425
162	0xbc6eba10	-0.014570728
163	0xbdab868c	-0.08375272
164	0xbd10db36	-0.035365306
165	0x3dd1ebac	0.10250029
166	0xbd739332	-0.05946655
167	0xbd6f48cf	-0.058419045
168	0x3de61f2a	0.11236413
169	0x3d29034b	0.041262906
170	0x3d1a876f	0.037726816
171	0x3d5d8c5c	0.054088935
172	0xbd346d25	-0.0440494
173	0xbc4279c3	-0.011869851
174	0xbce765a6	-0.028246712
175	0x3d464811	0.04840857
176	0x3d1d0ac9	0.038340364
177	0xbd18857b	-0.037236672
178	0x3d2f7ca7	0.042843487
179	0xbe00cba4	-0.12577683
180	0x3e0d6a40	0.13810062
181	0x3d972ed1	0.073819764
182	0x3dc65b12	0.09685339
183	0x3d805670	0.06266487
184	0x3d0d0e2d	0.034437347
185	0xbd421dc5	-0.04739167
186	0xbd293e35	-0.04131909
187	0xbd0923a6	-0.033481263
188	0xbbf87aba	-0.0075829895
189	0x3d12c92d	0.035836387
190	0x3b3446b3	0.002750796
191	0x3d9dc3ad	0.07703338
192	0xbdbfc8cf	-0.09364473
193	0xbc2467a2	-0.010034474
194	0xbdbdfa93	-0.09276309
195	0x3d0e499d	0.03473817
196	0xbc5b3a15	-0.013380547
197	0x3dc7ded9	0.09759302
198	0xbdd2b3f0	-0.102882266
199	0xbde24583	-0.110484146
200	0x3cdc4b7f	0.026891468
201	0xbd5a5da3	-0.053311955
202	0x3d9f7ae7	0.07787114
203	0xbd708002	-0.058715828
204	0xbdbbd26b	-0.091709934
205	0xbc512a01	-0.012766362
206	0x3c75b5e4	0.014996979
207	0x3be65c1c	0.0070300233
208	0xbdd1bc5b	-0.10241004
209	0x3d41654b	0.04721574
210	0x3dc1dfaf	0.094664924
211	0x3e08e655	0.13369115
212	0x3df901f5	0.121585764
213	0x3d19b23e	0.0375235
214	0x3d185929	0.037194405
215	0x3d48a0db	0.04898153
216	0x3d474a5d	0.048654903
217	0xbb90d917	-0.0044204104
218	0xbb9cc68b	-0.0047844104
219	0xbde055ce	-0.10953866
220	0x3e004a3f	0.12528323
221	0x3cc657dc	0.024211816
222	0xbd0d22ba	-0.034456946
223	0xbd7f5569	-0.062337313
224	0xbda38811	-0.07984937
225	0x3dbfc388	0.093634665
226	0x3caa2587	0.020769848
227	0xbe0e3746	-0.13888273
228	0x3d532fd5	0.051559288
229	0x3dfec50b	0.12439927
230	0xbdd5dd54	-0.104426056
231	0xb954513c	-0.00020248158
232	0xbd0a4a6b	-0.033762377
233	0xbda0baf0	-0.078481555
234	0xbdabb782	-0.08384611
235	0x3d709a4a	0.05874089
236	0x3dc436cc	0.09580764
237	0xbdd57b8d	-0.10423956
238	0x3ccf0269	0.025269704
239	0xbccafca8	-0.024778679
240	0x3d9273d5	0.071509995
241	0x3b904b08	0.0044034757
242	0xbe0b0ffd	-0.13580318
243	0xbd5862fd	-0.052828778
244	0xbd747421	-0.05968106
245	0xbd167b52	-0.0367387
246	0x3dc9615e	0.098330244
247	0xbca30fb7	-0.019904954
248	0x3d6cedc5	0.057843942
249	0x3dce13b8	0.10062355
250	0xbd80d7d3	-0.06291165
251	0xbdf03636	-0.1172909
252	0xbda106ef	-0.078626506
253	0xbdd93d88	-0.10607439
254	0x3d088f7e	0.03333997
255	0x3dddf8d9	0.108384795

lstm.weight_hh_l1 f4 [256, 64]
0	0xbd3345da	-0.043767788
1	0x3d5fe9c7	0.054666307
2	0x3d9e4d3f	0.07729577
3	0xbdfe3d6e	-0.124140605
4	0x3d2bec9a	0.041973688
5	0x3d853169	0.06503565
6	0xbd247979	-0.040154908
7	0x3dcaac38	0.09896129
8	0x3e02438d	0.12721081
9	0xbd237d32	-0.039914317
10	0xbdb2b017	-0.08724993
11	0xbd870d94	-0.06594387
12	0xbbfdcce0	-0.0077453703
13	0xbdb8f8df	-0.090318434
14	0xbd34b670	-0.0441193
15	0xbd47d69d	-0.048788656
16	0xbdf50939	-0.1196465
17	0xbc8b7a72	-0.01702616
18	0x3d6bba35	0.057550628
19	0xbd335d16	-0.043789946
20	0xbc3e86dc	-0.011628833
21	0xbb4ae877	-0.0030961314
22	0xbc80ffcc	-0.015746973
23	0x3dc06d9d	0.09395907
24	0xbdaac5c3	-0.08338501
25	0x3d83f0b5	0.064423956
26	0xbd7a1bd0	-0.06106168
27	0xbddac6d1	-0.106824525
28	0xbde6e4d7	-0.112741165
29	0x3db1baaa	0.086781815
30	0x3c1abb2e	0.009444041
31	0x3da97d69	0.08275873
32	0x3b64b971	0.003490057
33	0x3d13f9a5	0.03612675
34	0xbd760a04	-0.060068145
35	0xbd81ee8d	-0.06344328
36	0x3e023a86	0.12717637
37	0x3de4ee51	0.11178268
38	0x3c424e58	0.011859499
39	0x3cc87b7c	0.024472944
40	0x3d2d970d	0.04238038
41	0x3da1f7af	0.0790857
42	0x3dbd30f9	0.092378564
43	0x3c4c1054	0.012455065
44	0x3de028a1	0.10945249
45	0xbd5cf8c8	-0.053948194
46	0xbde5c970	-0.11220062
47	0x3c96c3fd	0.018404001
48	0x3da3f8c9	0.080064364
49	0xbc16df2e	-0.009208484
50	0xbb6401e1	-0.003479116
51	0xbceb95c6	-0.028757941
52	0xbced3502	-0.02895594
53	0xbbcccb53	-0.006249824
54	0x3d00ed26	0.031476162
55	0xbd30f264	-0.04319991
56	0xbda90d9f	-0.08254551
57	0xbc8ea449	-0.017412322
58	0x3c4b9e51	0.012427882
59	0x3dbf9f74	0.09356585
60	0x3dbda6a3	0.09260299
61	0x3d93dc84	0.072197944
62	0xbd927a5a	-0.07152243
63	0x3dcb3b3a	0.09923406
64	0xbdc22422	-0.09479548
65	0xbc74d617	-0.014943621
66	0x3df95f42	0.12176372
67	0x3dd38b80	0.10329342
68	0x3da85acf	0.08220445
69	0xbdc209fb	-0.0947456
70	0xbd484e91	-0.04890305
71	0xbdb1d1e0	-0.086826086
72	0xbc69c33a	-0.014267737
73	0xbdef344b	-0.11679896
74	0xbc1f919f	-0.009739309
75	0xbe01cdf8	-0.12676227
76	0xbce34a75	-0.027745465
77	0xbd8b0396	-0.06787793
78	0x3bdf0a74	0.006806666
79	0x3caf518d	0.021401191
80	0xbdb4b5cc	-0.088237375
81	0x3dace259	0.0844161
82	0xbc3dc7d4	-0.011583287
83	0x3d0bcb59	0.034129474
84	0xbd957f75	-0.07299701
85	0xbdef485a	-0.11683722
86	0x3c6e2c28	0.014536895
87	0x3d80f649	0.06296975
88	0x3de92399	0.11383743
89	0xbd643663	-0.05571593
90	0x3ded567d	0.11588762
91	0xbdd6a73b	-0.104811154
92	0xbd8a9965	-0.06767539
93	0xbc554f9e	-0.0130194705
94	0x3da0aa02	0.078449264
95	0xbda81118	-0.082063854
96	0x3ad113be	0.0015951318
97	0x3ce5bfdf	0.028045593
98	0x3d8635a8	0.06553203
99	0x3d6f5d63	0.05843867
100	0x3e0bd182	0.1365414
101	0x3d75a3a6	0.05997052
102	0xbb5e3395	-0.0033905257
103	0xbc4ebb7f	-0.012617945
104	0x3d7fb7ec	0.06243126
105	0x3d9e8c4d	0.07741604
106	0x3d6f04c8	0.05835417
107	0x3dd178d1	0.10228122
108	0xbdc4201b	-0.09576436
109	0x3dcb06bc	0.09913394
110	0x3ccc7f64	0.024963088
111	0x3d406ab2	0.046976753
112	0xbdf9132f	-0.12161862
113	0xbd6d29c6	-0.057901166
114	0xbd9bb86d	-0.07603536
115	0x3d6acd5d	0.057324756
116	0x3d7f9d98	0.062406152
117	0x3d2dda8f	0.04244476
118	0x3ca48c70	0.020086497
119	0x3dded80a	0.1088105
120	0xbdb9b9a9	-0.09068615
121	0xbd7e9b50	-0.062159836
122	0xbd199684	-0.03749706
123	0xbdf96657	-0.12177723
124	0xbd9eea67	-0.077595524
125	0xbcd2659f	-0.025683222
126	0xbd93c9e0	-0.07216239
127	0xbdcaced2	-0.09902729
128	0xbc30b1ca	-0.010784576
129	0x3debecf6	0.11519806
130	0x3d47fae9	0.04882327
131	0xbd7c42c2	-0.061587103
132	0xbd45e89b	-0.048317533
133	0x3c137560	0.009000152
134	0x3d7d1e44	0.06179644
135	0xbd617248	-0.055040628
136	0xbd324522	-0.04352296
137	0x3da83cb4	0.08214703
138	0x3c9163b9	0.017747747
139	0x3d0355be	0.032064192
140	0xbd9ec110	-0.077516675
141	0x3ddc81cd	0.10766945
142	0x3d2f0dc7	0.04273775
143	0x3dcf5e57	0.10125416
144	0x3da83ab3	0.08214321
145	0xbdd42816	-0.10359208
146	0x3d874712	0.066053525
147	0xbcc2d8f5	-0.023785094
148	0x3c4280de	0.011871545
149	0xbba510d9	-0.005037409
150	0x3c66a5f8	0.014077656
151	0xbd14db4b	-0.036341947
152	0xbd5ecef9	-0.054396603
153	0xbc2584a4	-0.010102425
154	0x3db62421	0.0889361
155	0xbdf2c281	-0.11853505
156	0x3ddb70fa	0.10714908
157	0x3bd35301	0.006449104
158	0x3d17c9bd	0.037057627
159	0x3b504301	0.0031778219
160	0xbdc18bde	-0.09450506
161	0xbc043b69	-0.008070805
162	0xbdbf933f	-0.09354257
163	0xbd78d96d	-0.06075423
164	0x3cca4a1a	0.024693538
165	0x3be081ef	0.006851427
166	0x3bfe5407	0.0077614817
167	0xbd9c77aa	-0.076400116
168	0xbcac46ef	-0.021029918
169	0x3c50af46	0.012737101
170	0x3d3465dd	0.044042457
171	0x3c55affa	0.013042444
172	0xbce5ad9c	-0.028036885
173	0x3db9c475	0.09070674
174	0xbddbf584	-0.10740188
175	0x3d0f4f87	0.034987953
176	0x3d836e28	0.06417495
177	0xbcf7d5f7	-0.030253394
178	0x3daf0b4b	0.08547076
179	0x3c0569bb	0.008142884
180	0xbdcd3f14	-0.10021797
181	0x3c94366b	0.018092355
182	0xbd8b6a92	-0.06807436
183	0x3dbaf352	0.09128441
184	0xbce3da46	-0.027814042
185	0xbd0db9d3	-0.034601044
186	0xbdbf0402	-0.09326936
187	0xbc55c941	-0.013048471
188	0xbde93538	-0.11387104
189	0xbcc22572	-0.023699496
190	0x3b76f53f	0.00376828
191	0xbc9fa75b	-0.019488981
192	0xbda3fb46	-0.08006911
193	0x3d68a3ea	0.056796946
194	0xbc92028c	-0.01782348
195	0x3d4c5b88	0.04989198
196	0xbdb4748c	-0.08811292
197	0x3cc61ff9	0.024185168
198	0xbd91303c	-0.07089278
199	0xbdb36899	-0.08760185
200	0xbd086446	-0.033298753
201	0xbcf5cdd3	-0.030005371
202	0x3d699000	0.057022095
203	0xbc88ee9a	-0.016715337
204	0xbde61afd	-0.11235616
205	0x3db1e0b2	0.08685435
206	0x3dfec93a	0.12440725
207	0x3c934029	0.01797493
208	0x3d209d22	0.039212354
209	0x3c6970e5	0.014248108
210	0xbd0b5976	-0.034020863
211	0x3db5b8b9	0.08873124
212	0xbdf9f056	-0.122040436
213	0xbd323995	-0.043511946
214	0x3de4999f	0.111621134
215	0xbc5be9f0	-0.013422474
216	0x3d9d3463	0.076760076
217	0x3d63f432	0.055652805
218	0xbce0f0b4	-0.027458526
219	0x3d40344d	0.046924878
220	0xbcecb24e	-0.028893616
221	0xbd87956d	-0.066202976
222	0x3d6fb4ec	0.05852215
223	0xbdc182ed	-0.094488
224	0xbd5b39cf	-0.053521927
225	0xbd869e1e	-0.06573127
226	0x3da30241	0.07959414
227	0x3e04b676	0.12960228
228	0xbd9fb411	-0.07798017
229	0x3d24863d	0.040167082
230	0xbdf41db7	-0.1191973
231	0xbe00f278	-0.12592494
232	0x3ddab6e6	0.10679416
233	0xbca86f82	-0.020560984
234	0xbdd18638	-0.10230678
235	0xbdb31e7a	-0.08746047
236	0xbddaa988	-0.10676867
237	0x3d8d52de	0.06900571
238	0xbd5f9be3	-0.054592025
239	0xbce39f16	-0.027785819
240	0x3dfc929b	0.1233265
241	0xbd7b3ab7	-0.06133529
242	0xbcc276dd	-0.023738319
243	0xbd6acb88	-0.05732301
244	0x3d8f8a51	0.07008804
245	0xbd0d49be	-0.034494154
246	0xbd3167ab	-0.043311756
247	0xbd15eb63	-0.036601435
248	0xbda3caa8	-0.07997638
249	0xbd610ef5	-0.054945905
250	0x3de8697a	0.11348243
251	0xbd85054c	-0.06495151
252	0x3d6c9d64	0.057767287
253	0xbd1efd96	-0.038816057
254	0x3e0ed7dd	0.13949533
255	0xbdf530d7	-0.11972206

lstm.bias_ih_l1 f4 [256]
0	0x3df404f7	0.119150095
1	0x3d4effd4	0.050536945
2	0xbd490203	-0.049074184
3	0x3dda6251	0.106632836
4	0xbd837136	-0.06418078
5	0xbc18ba1b	-0.009321715
6	0x3de5df2f	0.112242095
7	0x3db54c57	0.08852451
8	0x3d611aaa	0.05495707
9	0x3d9d90d9	0.07693643
10	0x3db16c96	0.08663289
11	0x3da711f0	0.08157718
12	0x3d1d0891	0.038338248
13	0x3d76031f	0.06006157
14	0xbe0d83b0	-0.13819766
15	0x3c5a17bc	0.013311323
16	0x3dee79c8	0.11644322
17	0x3b9518d2	0.004550078
18	0xbd4a1c0e	-0.04934316
19	0x3d667dfc	0.05627249
20	0x3d837634	0.0641903
21	0x3ce3b11d	0.027794415
22	0xbd890490	-0.06690323
23	0x3e0452b4	0.12922174
24	0xbd9bca13	-0.07606902
25	0xbc23637e	-0.009972451
26	0xbd49f35f	-0.049304362
27	0xbdea7378	-0.11447805
28	0x3cfd12fe	0.030892845
29	0x3ddb9358	0.10721463
30	0xbcdcee19	-0.026969003
31	0x3d993364	0.07480505
32	0x3c9a56b3	0.01884017
33	0x3d330efe	0.04371547
34	0x3ceeddda	0.029158521
35	0x3de3da81	0.11125661
36	0x3db74bd3	0.08950009
37	0x3d17e924	0.037087575
38	0x3d96a324	0.07355335
39	0xbc04136f	-0.008061274
40	0x3daa2f27	0.08309775
41	0xbd15f35c	-0.03660904
42	0xbc883911	-0.016628774
43	0xbdb14340	-0.08655405
44	0xbcc65343	-0.024209624
45	0xbdf09a3d	-0.117481686
46	0xbda39eeb	-0.079892956
47	0x3d960119	0.07324428
48	0x3d989a3c	0.07451293
49	0xbd18223b	-0.03714202
50	0xbdb00442	-0.08594562
51	0x3de7c195	0.1131622
52	0xbcff3962	-0.031155292
53	0xbd41194e	-0.047143273
54	0x3d7f914d	0.06239443
55	0xbdc7d28a	-0.09756954
56	0x3c1088b9	0.00882166
57	0x3d18e8ad	0.037331272
58	0xbd1c834f	-0.038211163
59	0x3d17f2b9	0.037096713
60	0xbdd8cc02	-0.105857864
61	0x3e09fb25	0.1347471
62	0xbd4e9924	-0.050439015
63	0xbb583f3c	-0.0032996675
64	0xbd65a71a	-0.056067564
65	0xbe0087cd	-0.12551804
66	0xbc80844d	-0.015688086
67	0xbdd43b04	-0.10362819
68	0x3d15f91c	0.036614522
69	0xbd88069b	-0.06641885
70	0x3ca16d24	0.019705363
71	0xbcf27514	-0.029596843
72	0x3b19d990	0.0023475625
73	0xbb77fdf3	-0.0037840575
74	0xbd8ced76	-0.068812296
75	0x3d9135f5	0.070903696
76	0x3d48da7e	0.049036495
77	0xbdc3ca79	-0.09560103
78	0xbd1bbf70	-0.038024366
79	0xbda7a247	-0.08185249
80	0xbd86dddb	-0.06585284
81	0x3cab407c	0.020904772
82	0xbdc82720	-0.097730875
83	0x3d0a618a	0.033784427
84	0xb964030c	-0.0002174491
85	0xbdb1ce7b	-0.08681961
86	0xbdb4f54f	-0.088358514
87	0x3e0f64c6	0.14003286
88	0x3cd55d86	0.026045572
89	0x3dad2bf7	0.08455651
90	0x3c846ed0	0.01616612
91	0x3deca307	0.115545325
92	0x3d8231f1	0.06357182
93	0xbd9a0e31	-0.07522238
94	0x3b757f18	0.0037459787
95	0x3df10bab	0.117698036
96	0xbd94cd23	-0.07265689
97	0x3cfe5859	0.031047987
98	0x3d9c8b79	0.0764379
99	0xbdddc08f	-0.10827743
100	0xbd191c72	-0.037380643
101	0xbd9a8c1c	-0.07546255
102	0x3c68027c	0.014160749
103	0x3d622026	0.05520644
104	0xbdff95a7	-0.12479716
105	0x39a9ad16	0.0003236315
106	0xbd740fde	-0.059585445
107	0x3c265b5c	0.010153618
108	0x3cf6a96f	0.03011009
109	0x3dae50ff	0.085115425
110	0xbcad8061	-0.02117938
111	0x3d3946f0	0.045233667
112	0xbda9fe9e	-0.083005175
113	0x3bb79e8b	0.0056036166
114	0x3da34bb1	0.07973421
115	0xbe0217d6	-0.12704405
116	0x3c1a46cb	0.009416292
117	0xbda35808	-0.07975775
118	0xbd29423f	-0.041322943
119	0xbe091013	-0.13385038
120	0x3d39ce37	0.045362677
121	0xbddee3d9	-0.10883302
122	0x3dbd0ce2	0.09230973
123	0xbd65d76d	-0.05611365
124	0xbdf00539	-0.11719746
125	0x3dc1c3b8	0.094611585
126	0xbbaae9f0	-0.005215876
127	0x3dc3ae75	0.095547594
128	0x3d90833b	0.0705628
129	0x3c67e72d	0.014154238
130	0xbd412d10	-0.047162116
131	0x3df950f1	0.121736415
132	0xbdc1e7c6	-0.094680354
133	0xbd94659b	-0.07245942
134	0x3c6fab4f	0.0146282455
135	0x3de643e6	0.11243419
136	0x3c488c2e	0.012240453
137	0xbd70d622	-0.058797963
138	0xbd5f865d	-0.0545715
139	0x3dedab00	0.11604881
140	0x3d9bb982	0.07603742
141	0x3d66b7cd	0.05632763
142	0x3dcd9249	0.10037667
143	0xbded6af4	-0.11592665
144	0x3cbe30d3	0.02321664
145	0x3ce64d30	0.028112978
146	0xbb74f9a6	-0.0037380247
147	0xbde30566	-0.11085014
148	0xbcae0cec	-0.021246396
149	0x3c770856	0.015077671
150	0x3aa3523a	0.0012460419
151	0xbd85495c	-0.06508133
152	0x3d34a9e0	0.044107318
153	0x3d059fab	0.032622974
154	0xbd3c4259	-0.04596171
155	0xbdf26eac	-0.11837515
156	0x3daaf69b	0.083478175
157	0x3da99ac1	0.0828147
158	0xbd9e79e6	-0.07738094
159	0x3df4236c	0.11920819
160	0x3d148e9c	0.036268815
161	0x3d405d73	0.04696412
162	0x3dd61e27	0.1045497
163	0x3b3415ad	0.002747874
164	0xbd15b48d	-0.03654914
165	0xbc8a9c7f	-0.016920326
166	0x3de24d68	0.1104992
167	0x3dda633a	0.10663457
168	0xbd5a824b	-0.053346913
169	0xbc3c0ec7	-0.011478133
170	0xbd14174e	-0.036155038
171	0xbdab457c	-0.083628625
172	0xbdb9ec22	-0.09078242
173	0xbd352c0a	-0.044231452
174	0xbd14660d	-0.036230136
175	0xbdb5376c	-0.088484615
176	0x3b09ba89	0.0021015725
177	0xbca9d825	-0.020732949
178	0xbcb314ea	-0.021860559
179	0xbddb386e	-0.107041225
180	0x3dc57b07	0.09642606
181	0xbbe7230d	-0.007053739
182	0xbc5494fa	-0.012974972
183	0xbdd31675	-0.10307018
184	0x3de6612d	0.112490036
185	0xbd68cdc2	-0.05683685
186	0xbcb77271	-0.022393437
187	0xbdb6d79b	-0.08927842
188	0x3d70db7a	0.05880306
189	0x3d9781af	0.07397782
190	0xbd03484e	-0.032051377
191	0x3db70e67	0.08938294
192	0xbd4cbae6	-0.049982928
193	0xbdc77dc6	-0.09740786
194	0x3df3731d	0.118871905
195	0x3c477590	0.012174025
196	0x3dda8cd5	0.10671393
197	0x3ca079e9	0.019589381
198	0xbc3cbf92	-0.011520283
199	0xbe133d9f	-0.14378975
200	0x3dcdf0e0	0.10055709
201	0xbd8434b4	-0.06455365
202	0x3da69f90	0.08135903
203	0x3dacbf45	0.08434919
204	0x3c5338af	0.012891932
205	0x3d381df8	0.044950455
206	0xbd4b8978	-0.049691647
207	0xb9834374	-0.00025036524
208	0x3de32285	0.110905685
209	0x3da82e18	0.08211917
210	0xba56176f	-0.0008166944
211	0xbde2f240	-0.11081362
212	0xbd76e119	-0.060273264
213	0xbd2f873a	-0.04285357
214	0x3cf589ed	0.029972995
215	0x3d3e4dc5	0.046460886
216	0x3b9247cc	0.0044641253
217	0x3db57fbb	0.08862253
218	0x3d0d0e1a	0.034437276
219	0xbd892ad5	-0.06697623
220	0x3e00c7f1	0.12576272
221	0x3df65452	0.120278016
222	0xbdef8490	-0.11695206
223	0xbd8f6285	-0.07001213
224	0xbdca64f2	-0.09882535
225	0xbdcb71b9	-0.099338
226	0x3dbf3700	0.09336662
227	0xbd74b63b	-0.0597441
228	0xbd557f68	-0.052123457
229	0xbdc7775f	-0.09739565
230	0xbd2abb4c	-0.041682526
231	0x3b82f390	0.00399632
232	0xbdc3d876	-0.09562771
233	0x3d9a00e4	0.07519701
234	0x3be003b7	0.0068363803
235	0x3d35666f	0.04428714
236	0x3d94cbb1	0.072654136
237	0xbdf7ffd0	-0.12109339
238	0xbdb2ac94	-0.08724323
239	0xbd987bcd	-0.07445488
240	0x3db21028	0.08694488
241	0xbd5c0347	-0.053714063
242	0xbd2f7061	-0.042831782
243	0xbd2d0261	-0.042238597
244	0xbdaeb578	-0.08530706
245	0x3dab1ab1	0.083547
246	0x3d3459de	0.044031017
247	0x3d13ac08	0.036052734
248	0xbd43b3c8	-0.047778875
249	0x3a9164e4	0.001109269
250	0x3dda5bff	0.10662078
251	0xbdbba1a4	-0.0916169
252	0xbdf4b2e0	-0.1194818
253	0x3c790d45	0.015200918
254	0xbd989525	-0.07450322
255	0xbc1b0781	-0.009462238
