artifacts/SKU_02/model.pt (torch, 219227 bytes, 12 tensors)

lstm.weight_ih_l0 f4 [256, 10]
000000 a9 fa 9a 3d 1a 4a e4 bd ba 52 ea bd d8 1f e8 3d
       0.07567341 -0.11146946 -0.1144156 0.11334199
000010 35 e8 fd 3d 35 f1 84 bd 1a 83 a4 3d df e2 87 3b
       0.123978056 -0.06491319 0.08032818 0.004146918
000020 27 9e 94 bd b3 ba f1 3c 9d f5 d1 3d ad cc 72 3c
       -0.07256728 0.02950797 0.10251925 0.014819306
000030 29 b9 8f bd 41 81 b7 bd e8 8e c7 bd 9b 87 f7 3b
       -0.07017738 -0.089602 -0.09744054 0.007554007
000040 01 62 af bd 62 86 0d be fe 62 ad bc 87 08 b4 3d
       -0.08563615 -0.13820794 -0.021165367 0.08790689
000050 4f 42 02 3e 27 ad 9d bd aa 3a 01 3e 47 ce 19 bd
       0.12720607 -0.07699042 0.12620035 -0.037550237
000060 34 f8 ba bd 1a 3c ba bb e0 2a 0f 3e fc 08 e6 bd
       -0.09129372 -0.005683434 0.139812 -0.112321824
000070 00 50 41 3d bd 4b 25 3d f5 36 ed bd de fb 8d bd
       0.047195435 0.040355433 -0.11582748 -0.069328055
000080 d3 4a 78 bd fa ae aa bd e2 70 48 3d 0d fb 65 3d
       -0.060618233 -0.083341554 0.04893578 0.056147624
000090 d0 ac 95 3b 0a 1b ad bd ea 05 d6 3c 8c 64 22 3d
       0.00456772 -0.08452423 0.026125867 0.03964667
0000a0 d0 61 d0 3d 1f 92 e5 3d c8 41 42 3c 67 a6 a8 3d
       0.10174906 0.11209511 0.011856504 0.08234864
0000b0 02 5e b9 bd 13 33 d6 bd 5e f0 c7 3d 1c ac 0a 3e
       -0.09051134 -0.104589604 0.09762643 0.13542217
0000c0 1a 8e ac 3d 0d c2 be 3d 6a 0b 07 3e e4 44 fe 3d
       0.08425541 0.09314356 0.13187948 0.124154836
0000d0 e4 fb 3b bd 35 d4 90 bd 24 68 fd 3d dc 78 e9 3d
       -0.04589452 -0.07071725 0.12373379 0.11400005
0000e0 91 fa 82 3d 1f b9 02 be d9 8b e7 3d ad 32 2e 3d
       0.06395448 -0.1276593 0.11305971 0.042528797
0000f0 21 73 00 3e f3 00 a3 bd 48 ae 94 bd 36 05 94 bc
       0.12543918 -0.079591654 -0.07259804 -0.018068891
000100 e7 cf fd bd ef fc 6f 3d 8b 0c de bb 56 d4 2e 3c
       -0.1239317 0.058590826 -0.0067763976 0.010670742
000110 1c 4a d2 3d b5 49 e4 bc 5f 0b 25 bc e1 d7 bb bd
       0.102680415 -0.027867178 -0.010073512 -0.09172035
000120 a9 0f 9c 3d c0 0d 49 bb ea 2d dc bd 20 04 93 bd
       0.076201744 -0.0030678362 -0.10750945 -0.07178521
000130 11 04 48 bd 0b d3 bf bd c4 07 bd bd 9b bf d7 bc
       -0.048832003 -0.09366425 -0.09229997 -0.026336482
000140 5a 45 c5 bb 70 a0 30 3d 84 d2 d2 3d eb 49 af 3c
       -0.0060202302 0.043121755 0.10294059 0.021397552
000150 34 1d ff 3c 7d 54 28 bd 07 b4 f2 bb 52 c0 97 3d
       0.031141855 -0.0410962 -0.007406715 0.07409729
000160 26 79 7e 3d 6a 13 7f 3d 98 56 94 bd 61 1a 60 bd
       0.062127255 0.062274374 -0.07243079 -0.054712657
000170 45 a0 37 3d 45 e4 fb 3c aa 7d a1 3c 73 08 ba 3d
       0.04483058 0.030748496 0.019713242 0.09083643
000180 78 5e 28 bd b9 48 cf 3d 2e 41 67 3d cb fe bf bd
       -0.041105717 0.101212926 0.056458645 -0.0937477
000190 ae f6 4a bd 9d 6c 8a 3c 03 81 2b 3d 9e 7f 87 bc
       -0.04955166 0.016897494 0.041871082 -0.016540345
0001a0 82 ea b6 3c b3 53 96 3b a8 da ae 3d 62 02 13 bd
       0.022328619 0.0045876144 0.08537799 -0.035890944
0001b0 46 14 b5 3d 1c 15 70 bd a5 1b 9c 3d 1e 65 c5 bd
       0.088417575 -0.05861388 0.0762246 -0.09638427
0001c0 8b 75 d6 bd 27 09 93 bd 06 e2 6c bd bb f4 0f 3c
       -0.10471638 -0.0717948 -0.05783274 0.008786376
0001d0 e3 a0 24 3d 5d 85 b5 bd 10 64 b0 bd bd 38 32 bd
       0.040192496 -0.08863328 -0.086128354 -0.04351114
0001e0 62 bd 30 bd 67 7a 02 bd 98 ae ed bd 52 bd b1 bb
       -0.04314936 -0.031855013 -0.11605567 -0.00542418
0001f0 2b c9 cd bd c3 c7 68 bd b4 21 77 3d 2b 38 dd bd
       -0.10048135 -0.056831133 0.060334876 -0.10801729
000200 fc 37 da bd 99 e1 55 3d 0b 0d 92 bd cd 21 d8 3d
       -0.106552094 0.0522171 -0.07131394 0.10553322
000210 27 85 30 bd f3 0e 59 3c e9 5e 4e bc 89 1c be 3d
       -0.043095734 0.013248193 -0.0125958705 0.092827864
000220 4a fd 17 bd e3 ad 93 3c 78 10 b2 bd 12 1c 3c 3d
       -0.03710679 0.018027252 -0.086945474 0.045925207
000230 5e 85 c6 3d 54 c8 7a bd cc 66 37 3c a4 60 ac 3c
       0.096934065 -0.061226204 0.011193942 0.021042176
000240 e3 e9 02 bd 77 71 a6 bd e8 46 97 3d c3 ed a4 bd
       -0.031961333 -0.081271105 0.07386571 -0.08053162
000250 49 ca e6 3b 95 d6 5c bd c2 f0 b3 3d 59 22 9c bd
       0.0070431572 -0.05391558 0.08786155 -0.07623739
000260 a1 15 8c 3d 5c 04 74 bd 02 3a cd 3d 78 f4 70 3d
       0.06840063 -0.05957447 0.1002083 0.058826894
000270 3b 80 dc bd 9d e5 92 bc ae 43 fb bc 60 5c 23 bd
       -0.107666455 -0.017931754 -0.03067192 -0.039883018
000280 f9 96 db bd 20 1a a7 3d 99 cd df 3b a3 73 8d 3d
       -0.10722155 0.0815928 0.006829929 0.069068216
000290 d6 06 a6 bd 67 cc 01 bd e5 94 f1 bd 27 26 79 bd
       -0.081067726 -0.031689074 -0.117959775 -0.0608274
0002a0 9e 48 90 3b 32 ae 8f bd e1 c6 56 bd aa 82 c6 bc
       0.004403188 -0.07015647 -0.05243576 -0.024232227
0002b0 13 cb fa bd 75 85 8c bc a3 88 b0 3d aa 51 38 bc
       -0.122457646 -0.017153481 0.086198114 -0.011249939
0002c0 5f 0c 8a bc 66 60 80 3d a7 e4 8a 3c 14 4a 95 3d
       -0.016851602 0.062683865 0.016954733 0.0728952
0002d0 54 34 e1 bd 33 e7 17 bd 43 88 70 3d 03 c2 0c be
       -0.10996309 -0.037085723 0.0587237 -0.13745885
0002e0 ea b7 a0 3d 9f 49 0f 3d ab d8 e0 bd e4 dd b6 bd
       0.07847579 0.03498232 -0.10978826 -0.08929041
0002f0 9a de 69 bc c6 aa a7 bd f0 3c ac bb 38 4b 25 bd
       -0.014274264 -0.08186869 -0.0052562878 -0.040354937
000300 78 d2 ba bb 3c 0b 81 3d b3 9d e1 3d 54 37 d6 3d
       -0.0057013594 0.06300971 0.11016407 0.10459772
000310 fa 9c 51 3d 58 ac 9d 3d 5d ae e1 3d fa 12 e7 bd
       0.051175095 0.076988876 0.11019585 -0.11282916
000320 03 fb 75 bd 8d 23 8a bc 1b 51 8d 3d c6 40 8c bd
       -0.060053837 -0.016862655 0.06900235 -0.06848292
000330 af d0 10 3b 24 19 b4 bd 70 d0 3d 37 f1 77 32 3d
       0.0022097041 -0.08793858 1.13138085e-05 0.043571416
000340 bd d4 d7 3d 8e ad 93 3d fa a8 d9 3c e3 09 1c bd
       0.105386235 0.07210837 0.026569832 -0.038095366
000350 64 20 0d bd 73 6d 09 3c 8c 52 bc bc 12 ee c7 3d
       -0.03445472 0.008387911 -0.02298858 0.09762205
000360 e1 64 71 3d 7e fc fb 3d 33 82 d6 bd a2 c0 92 3d
       0.058934096 0.123040184 -0.10474052 0.07165648
000370 89 be 93 3d af 91 9e 3d 84 62 c5 bc 1a 55 f1 3d
       0.07214076 0.07742631 -0.024094827 0.1178381
000380 a3 83 9e bd 81 d7 4c bc 10 c8 aa bc 50 8d e8 bd
       -0.077399515 -0.012502552 -0.02084735 -0.11355078
000390 55 61 12 3c 81 b3 5a bd 78 d3 53 3d 31 f8 d3 3c
       0.008934339 -0.053393845 0.051715344 0.025875183
0003a0 56 ed 53 3d 30 51 96 bd a7 3e ad bb 19 c2 8a 3d
       0.051740013 -0.07339704 -0.0052870098 0.067753024
0003b0 5f e7 89 bd a7 20 bf 3d 46 9d d8 3c 57 c7 93 bd
       -0.06733584 0.093324 0.026442181 -0.072157554
0003c0 95 1e 4b bd 84 c6 c8 bd 7c 65 a2 bd f0 2e 78 bd
       -0.049589712 -0.09803489 -0.07929513 -0.060591638
0003d0 8b fa 72 3d 19 76 1d bd 9e c7 93 3d 1b 07 12 3d
       0.059320968 -0.038442705 0.07215808 0.035651308
0003e0 a3 3b 8c bd 1c fa 35 bd 4f df 81 bd 01 e8 d8 bd
       -0.06847312 -0.044427976 -0.06341421 -0.10591126
0003f0 c1 aa ca 3d 69 c4 bb 3d 45 be 07 3e 5a 98 54 3d
       0.0989585 0.09168322 0.13256176 0.051903106

lstm.weight_hh_l0 f4 [256, 64]
000000 ba 68 e2 3d 46 cf d6 ba 40 8f 8d bd 06 41 07 3e
       0.11055131 -0.0016388677 -0.069120884 0.13208398
000010 f3 39 c5 3d 03 fa 05 3e 96 1a 05 3e 98 48 41 bd
       0.096301936 0.13083653 0.12998423 -0.04718837
000020 b3 23 da bd 06 d1 eb 3c c1 d6 a5 3c 74 1a ee bc
       -0.1065134 0.028786194 0.020244004 -0.029065348
000030 cb 33 dd 3d da 30 ca 3c 97 3e d6 3d b3 90 4c bd
       0.10800894 0.024681497 0.10461157 -0.049942683
000040 65 ce cb bd 44 c2 22 bd 62 7a d5 3d a4 98 0d bd
       -0.09951476 -0.039736047 0.10423733 -0.034569398
000050 9a e4 73 bc ee f5 80 3d b4 14 e0 bd 03 78 e7 bd
       -0.014886046 0.06296907 -0.10941449 -0.11302187
000060 73 dd 02 be 9a 32 e6 3d 4e 93 b5 bd fd 90 b6 3d
       -0.12779789 0.1124012 -0.08865987 0.08914373
000070 b3 d4 04 bd c4 d4 f0 3c d6 48 4d bd f3 3c 87 3c
       -0.03242941 0.02939833 -0.05011829 0.016508555
000080 31 6d 4f bd 92 22 90 3c c8 0a 88 bd 6f e7 8b 3d
       -0.050641242 0.01759461 -0.06642681 0.06831252
000090 13 c2 2e 3d a8 30 8d 3c 27 1e f9 3d ef fe 8d bd
       0.042665552 0.017235115 0.12163954 -0.0693339
0000a0 01 33 43 3d 50 be fb 3b af d1 94 3d 85 27 1a bd
       0.047656063 0.007682599 0.072665565 -0.037635345
0000b0 e0 a3 e5 3d 5e 50 c2 bc 7a 38 8c bd 7a 5e 3d bd
       0.11212897 -0.023719963 -0.068467095 -0.046232678
0000c0 51 a7 7e 3d 1f da d1 3d 78 65 eb bc fa 72 c5 3d
       0.062171284 0.102466814 -0.028734908 0.09641071
0000d0 90 99 3d bd 09 11 f4 bc 8b ff 47 bb 85 06 e7 bd
       -0.046289027 -0.02979328 -0.0030517306 -0.112805404
0000e0 cf f4 7d bd 83 9a e3 bc e1 ed 26 3d ac 82 dd bd
       -0.062001046 -0.027783638 0.040754203 -0.10815939
0000f0 5b 61 e1 3d cc b8 9c 3c 71 5f 9d 3d b9 31 ee 3d
       0.11004897 0.019131087 0.0768422 0.116305776
000100 7c de a7 bd ec 6c 71 3b bf 43 b3 3d 75 ea a4 3d
       -0.081967324 0.0036838604 0.08753156 0.08052532
000110 fc f7 7e bd de 91 c0 bd 16 0e 06 3e bc 83 5d bd
       -0.062248215 -0.09402822 0.13091311 -0.05408071
000120 0b 2c 2e 3d 1b 4f 97 bd 9e 42 1a bc 8b 36 ac bd
       0.04252247 -0.07388135 -0.009415297 -0.08408841
000130 7e 8a 84 3d ba ad fc bc 02 bf dc 3d 6f 8d c9 3b
       0.06471728 -0.030844558 0.10778619 0.0061508934
000140 11 5c 87 bd ae 6c c9 3d 6a 06 d5 bd 40 71 d2 bd
       -0.06609357 0.09835182 -0.10401614 -0.10275507
000150 02 86 9e bd 10 97 ab 3d 0a c3 ce bc 64 4e 10 3d
       -0.07740404 0.08378422 -0.025239486 0.03523101
000160 02 2c c3 bd 40 38 ba ba 2e 05 b8 3d 63 8e e4 3d
       -0.09529878 -0.0014207438 0.08985363 0.111599706
000170 8a 2f 7f bd 9d 1d 8c bd 10 5d d1 3c d4 ed b6 bd
       -0.062301196 -0.06841586 0.025557071 -0.08932081
000180 19 90 97 bd 5d da cb 3d dc 21 ea 3c 73 57 9e 3d
       -0.07400531 0.09953759 0.028580599 0.07731523
000190 50 48 01 3e 92 e3 0e 3d be a3 f6 3d da 26 af 3c
       0.12625241 0.034884997 0.1204295 0.02138083
0001a0 3f 12 d8 3c 82 8a e9 3d 0c 98 e3 bd 4f bc 85 3d
       0.026375888 0.114033714 -0.11112985 0.06530058
0001b0 10 dd 93 3d 51 14 7b bd b6 9e 08 bc 27 9d 9e 3d
       0.07219899 -0.061298672 -0.008338621 0.07744818
0001c0 3b 3c 27 bd e7 2d 00 be 4e 50 34 bd 0a 84 ce bd
       -0.040828925 -0.1251751 -0.044021897 -0.10083778
0001d0 e6 11 4d 3d a2 a9 ed bd 4a 3c a7 bd e9 d4 91 bd
       0.050065897 -0.116046205 -0.08165796 -0.071206875
0001e0 c3 37 91 bd a9 0b ae bc 1e ba 2e bd 45 d1 67 3d
       -0.07090714 -0.021245794 -0.042657964 0.05659606
0001f0 74 08 d5 bd 50 47 f8 bd 38 7c 8b bd e6 34 6e bd
       -0.10402003 -0.12122977 -0.06810802 -0.058155917
000200 22 6b 2d bd d2 35 3b bd 27 42 b1 bd 4c 0a 53 3d
       -0.042338498 -0.045705624 -0.08655196 0.05152349
000210 d8 e6 e2 3d 2f f6 93 bd cd d2 fa bd 79 83 01 3e
       0.11079186 -0.0722469 -0.12247238 0.12647809
000220 a6 20 28 3d 4e 77 3b 3c 62 9b 3e bd 69 bc b2 bd
       0.04104676 0.011442019 -0.046534903 -0.08727343
000230 b8 c6 0f 3d b8 fb a4 3d ba d0 f6 bc f0 38 2f bc
       0.035101622 0.08055824 -0.030128825 -0.010694727
000240 62 f6 b7 bd fa 98 e3 3d 55 18 59 bd 82 39 70 bd
       -0.08982541 0.11113162 -0.05300172 -0.058648594
000250 d4 b9 5e 3d 1e 26 0c be 5b 45 90 ba a4 f9 d3 3d
       0.05437644 -0.13686416 -0.0011006998 0.103503495
000260 a0 7f c3 3d 62 36 22 3c 84 de 34 bb 25 5f da bd
       0.09545827 0.009900661 -0.002759845 -0.10662679
000270 ec bd 34 3d 23 a6 f4 bd 21 85 10 3d aa 8c 5d 3d
       0.044126436 -0.119457506 0.03528321 0.054089226
000280 d9 61 18 3d 5b 81 0c 3d ea 1b 06 3d d0 5f 05 be
       0.03720269 0.03430305 0.032741465 -0.13024831
000290 84 aa 93 3d 3e b7 76 bd 5a f4 ac bd bb fd e4 3c
       0.07210258 -0.060233347 -0.08445044 0.02795302
0002a0 f6 be ad bd c2 6e 1a 3d b4 23 43 bd 07 5b 80 bb
       -0.084836885 0.037703283 -0.04764147 -0.0039171013
0002b0 82 0b 13 bc 80 f0 9e bd 83 e3 93 bd 36 28 4d 3b
       -0.008974912 -0.077607155 -0.07221129 0.0031304485
0002c0 e4 0f 87 ba 87 f1 c2 3c a5 ba 96 3c 49 d4 59 bd
       -0.0010304418 0.02379681 0.018399546 -0.053180967
0002d0 f1 80 fe 3d 80 fd 17 3c 6a b1 8b 3c 94 ba 4a 3d
       0.12426937 0.009276748 0.017052371 0.04949434
0002e0 83 dc 32 3d 3e 7c 42 bd 05 1c 4d 3d cc 04 fd bd
       0.043667328 -0.047481768 0.05007555 -0.123544306
0002f0 62 93 0a 3d 31 a0 64 3c 01 c6 ea bd ed fe ab 3d
       0.03383196 0.013954208 -0.114635475 0.083982326
000300 31 c6 95 3d 10 e7 8a 3d 38 58 fc 3d a4 ef 9b 3d
       0.07313193 0.06782353 0.12321514 0.07614067
000310 d8 ac ed bd 03 a7 79 bc 2e ce d2 3d 13 9d b9 3d
       -0.11605233 -0.015237573 0.10293232 0.09063163
000320 aa ef ad 3d 3a 70 f0 bd 26 d2 f6 3c ad d0 0b bd
       0.08492978 -0.117401555 0.030129503 -0.034134556
000330 41 b4 f4 bd 40 f1 09 3c 46 5c 91 3d 19 a8 11 bd
       -0.11948443 0.008419335 0.07097678 -0.0355607
000340 fc 07 86 bd 7e d0 b9 bd b6 d8 7d bd 52 c6 6c bc
       -0.06544492 -0.0907297 -0.06197425 -0.01445158
000350 9f 0e 4a 3d 69 17 c9 3d 8b f7 b8 3d 1d ea d5 bd
       0.04933035 0.09818918 0.0903159 -0.10445044
000360 cc aa 57 3b 00 9d da bd 79 c2 ea bd 73 58 8b 3d
       0.00329082 -0.106744766 -0.11462874 0.0680398
000370 dc ea a3 bc 03 90 6e 3d 6b 08 c8 3d f1 e7 4e bb
       -0.02000945 0.05824281 0.097672306 -0.0031571353
000380 10 94 ec bc 3d 57 31 bc d5 9c 98 bd 61 50 d3 3d
       -0.028879195 -0.010824022 -0.07451788 0.103180654
000390 7f 1d 13 3d 14 bc e0 bd 8a 77 9a 3d e2 71 84 bd
       0.0359168 -0.10973373 0.075423315 -0.06467034
0003a0 5a 1f 8d bd 24 2e 9d 3d 73 0e f1 3c 75 7d f7 3d
       -0.068907455 0.07674816 0.029425835 0.12084476
0003b0 7b aa 5d 3b b5 83 e3 3d da 94 13 bc fe 22 84 3d
       0.0033823538 0.111091055 -0.009007657 0.06451987
0003c0 d4 ba 43 3d 30 17 b2 bd ee a9 9d bb 86 b5 3e bd
       0.047785595 -0.08695829 -0.004811517 -0.046559833
0003d0 90 6f 94 bc 41 b6 10 be 35 ae 9c 3c ff ce d0 bd
       -0.018119603 -0.14132024 0.019126037 -0.10195731
0003e0 ad 96 ab bc d8 c5 53 3d e2 13 e2 bc d5 3f 3b 3d
       -0.020945871 0.05170235 -0.027597371 0.04571517
0003f0 77 e9 72 bc 75 0b c0 bd 5e 1c 27 3d 20 09 75 bd
       -0.01482617 -0.09377185 0.040798537 -0.059823155

lstm.bias_ih_l0 f4 [256]
000000 9f a9 ad 3c dd 41 d6 3c 67 f1 2d 3d 20 ad 49 3c
       0.021199046 0.026154453 0.042466547 0.012309343
000010 bd ad f6 bc ff 21 bc 3d c4 5a 7c 3c a0 00 eb 3d
       -0.030112142 0.09186172 0.0154025 0.114747286
000020 e8 5b 07 bd dd ae e9 bd 14 35 75 3c 7a c8 e4 3d
       -0.033046633 -0.11410306 0.014966268 0.1117105
000030 79 6c 06 bd 81 b5 c6 3d c9 e0 b7 bd 60 dc eb 3d
       -0.03281829 0.09702588 -0.08978421 0.115166426
000040 aa 5d e5 3c a6 56 10 bd 54 88 81 bd 38 92 81 3d
       0.027998764 -0.035238884 -0.06324831 0.06326717
000050 4a f0 69 bd 2f 3e c0 3c 28 49 59 3d 55 7a e6 3d
       -0.057113923 0.023467151 0.053048283 0.11253802
000060 35 bc ab 3d ec 4b c6 3c 88 c9 da bd f8 34 05 3e
       0.08385507 0.024206124 -0.1068297 0.13008487
000070 50 99 10 3d b3 47 ec 3b 83 02 1d 3d 44 71 b3 3d
       0.03530246 0.0072106957 0.038332473 0.08761838
000080 b9 6b a8 3d 6d d7 bb bd b7 5e d6 3d d8 19 e2 3d
       0.082236715 -0.091719486 0.10467284 0.110400856
000090 9d 3d f3 bd ec 8b 69 3d 81 d5 a9 3d 8b 22 aa 3c
       -0.11876986 0.057018206 0.08292676 0.020768424
0000a0 5f 75 6d 3d 55 8c 4b 3d c6 02 26 bd 0b 48 97 3d
       0.057973262 0.049694378 -0.04052999 0.07386788
0000b0 73 00 72 bd cc b5 ca 3d 80 10 5e bd a2 08 4b 3a
       -0.05908246 0.09897956 -0.054214954 0.0007745122
0000c0 04 41 28 bd a7 07 e8 bd bb c5 1a 3d 1b 5e bf 3b
       -0.04107763 -0.113295846 0.037786227 0.0058400757
0000d0 ee b0 35 3d 59 41 8d 3d b2 48 04 be 88 88 ab 3c
       0.044358186 0.0689723 -0.12918356 0.020939127
0000e0 2b ce 87 bc 77 9c e0 bd 2e 2a 15 3d 3e 0c a8 bd
       -0.0165778 -0.10967343 0.03641718 -0.0820546
0000f0 4e 6c 40 bd 6f 87 7d bd 56 46 f7 bc b1 2a d5 bb
       -0.046978287 -0.061896738 -0.030184906 -0.0065053334
000100 af 5a 61 3d e4 f1 f6 bc 8c f2 e0 3d 0e db 78 3d
       0.055018123 -0.03014464 0.10983762 0.06075578
000110 99 2a 04 be 3a ae cf 3d 19 f9 ae bb ef 4a 98 3d
       -0.12906875 0.10140653 -0.0053397533 0.074361674
000120 ee 23 27 3d e2 5c 85 bd 21 f1 be bd 65 28 1e 3c
       0.04080575 -0.065118566 -0.093233354 0.0096531855
000130 08 89 be 3b ca 45 12 3d 66 8d 04 be 65 27 1c 3d
       0.0058146752 0.035711087 -0.12944564 0.038123507
000140 77 67 b6 3c ad 87 d4 bc b0 f7 2e bd d1 3f be 3d
       0.022266133 -0.025943602 -0.042716682 0.09289516
000150 bf 16 bc 3d d8 a0 8a bd 9f 57 97 bd e8 24 f6 3d
       0.09184026 -0.0676896 -0.07389759 0.12018758
000160 a0 dc 6e bd e6 0a ab bd ee 9c e2 3d 58 65 ab 3d
       -0.058315873 -0.08351688 0.11065088 0.08368939
000170 e8 f6 f0 3c ca 11 98 3d c0 df 96 bd bc 82 ee 3d
       0.02941461 0.07425268 -0.07366896 0.11646029
000180 9b 65 c5 3d b9 4a d3 bd fc c7 c2 3d 91 ec 29 bd
       0.0963852 -0.103169866 0.095108 -0.041485373
000190 0a fc 1d 3d 1f 17 64 3c 27 8d 46 bc 6d 75 d7 bd
       0.03857044 0.013921528 -0.012118614 -0.10520444
0001a0 01 26 17 3d 84 4b 07 3c 31 6b 6b 3d 36 c3 a7 3d
       0.036901478 0.00825775 0.057475273 0.081915304
0001b0 99 80 cd 3d 6a ab 7b 3d b3 77 6b bd 67 12 01 3e
       0.10034294 0.06144277 -0.0574872 0.12604676
0001c0 2b eb 76 3d 0b 66 d3 bd 77 48 41 3d 68 54 72 bd
       0.060282867 -0.103221975 0.04718825 -0.059162527
0001d0 6d 14 86 3d 34 6c b9 3d e8 ae 0f be 96 c0 b8 3d
       0.06546865 0.09053841 -0.14031565 0.09021108
0001e0 dc 88 e5 3d fe 85 93 3d b0 68 29 3d 53 d4 d0 bc
       0.112077445 0.07203291 0.041359603 -0.02549187
0001f0 7a 0f e5 3d af 37 92 bd b6 fe d4 3d ff 9a 8f 3d
       0.111845925 -0.07139527 0.10400145 0.07011985
000200 66 43 b0 3d c9 40 63 3d 07 dc e7 3a fa b1 cd bd
       0.08606605 0.055481706 0.0017689475 -0.10043712
000210 42 21 e9 bc b4 93 e7 3d 82 be 6a bc 54 6b 4c 3d
       -0.028458241 0.11307469 -0.014327647 0.049907044
000220 86 35 64 bd 4d 2d ad bb 64 d4 9c 3d e0 24 82 3d
       -0.055715106 -0.0052849413 0.07657698 0.063546896
000230 35 58 d9 bd 96 f7 13 3d 16 84 02 3d 35 21 92 3b
       -0.10612527 0.03612479 0.03186425 0.004459525
000240 ee a1 a7 3d ba d7 93 3c 08 8e f4 3d e1 49 a5 bd
       0.081851825 0.018047202 0.11941153 -0.08070732
000250 f5 7d 56 3d 5f 61 b4 bb d0 04 f4 bd 53 00 44 3d
       0.052366216 -0.0055047716 -0.119149804 0.04785187
000260 5c a6 f1 bd 40 8a e4 3d af 48 ce bd f5 90 82 bd
       -0.11799309 0.111591816 -0.10072457 -0.063753046
000270 3e bc 5b 3d dd cf 87 3d 5a 41 60 bd 8e 22 b0 bc
       0.05364632 0.06631444 -0.054749824 -0.021500852
000280 63 57 9e bd db 1f 9d bd 71 e0 fb bd 67 5e a6 3d
       -0.077315114 -0.076720916 -0.12298668 0.081234746
000290 ad 37 03 3d e5 0b 47 bd cd c3 af 3d da 30 b6 bd
       0.03203552 -0.048595328 0.08582268 -0.088960364
0002a0 6c 50 15 3d 22 12 98 bd 47 f9 f2 3d 11 44 c8 bd
       0.03645365 -0.074253336 0.11863952 -0.09778608
0002b0 3c 5b 2c bd f2 4d f2 bd 99 08 99 3c 33 ef 44 3d
       -0.042079195 -0.11831273 0.018680857 0.04807968
0002c0 3e a5 be bd a4 28 56 3d 5e 95 b6 3d 40 d5 5c bd
       -0.09308861 0.05228485 0.08915208 -0.05391431
0002d0 86 07 82 bc da 17 5f 3d 67 5d b6 bd 14 62 ed 3c
       -0.015872728 0.054466106 -0.08904534 0.028977431
0002e0 79 3d 22 3c 5a a7 4d bd f8 e5 31 3c f1 0a f5 3d
       0.009902352 -0.050208427 0.0108580515 0.119649775
0002f0 7f e6 86 3d 3f d6 cb bd 25 f7 36 bb fa 6e e5 bc
       0.065869324 -0.099529736 -0.0027918306 -0.02800702
000300 13 87 cd bd 4b 6f 88 3c 5d 62 58 bd 29 c6 27 3d
       -0.10035529 0.016654631 -0.05282818 0.040960465
000310 3a 55 cc bd 1b 1f 9e bd a2 69 b6 ba 08 c6 ac 3d
       -0.09977193 -0.07720777 -0.0013916979 0.08436209
000320 51 d9 8d bd 07 07 c7 bd fd 79 c2 3d 95 d3 cb 3d
       -0.069262154 -0.09718137 0.09495924 0.099524654
000330 d7 fd e7 3d 32 d4 93 3c a2 35 c5 3d 1d ca eb bc
       0.11327713 0.018045519 0.0962937 -0.028782899
000340 b4 6d 0c 3d 3c c0 3f bd ef 3c 3a 3d 4b 8b 52 3c
       0.03428431 -0.04681419 0.045468267 0.012850593
000350 2a 9a 2d 3d a1 b1 58 bd 2c 98 07 bc 99 53 83 bd
       0.04238335 -0.052903775 -0.008276027 -0.06412429
000360 c4 9f ee bd dd 5a fd 3c 7d b0 b9 3d 23 62 69 3d
       -0.116515666 0.030927116 0.090668656 0.056978356
000370 a9 9e 08 be 7c ce bf bd e0 7c c6 bd a3 5e fc bc
       -0.13341774 -0.09365556 -0.09691787 -0.030806845
000380 ba 27 aa bd 3a 4e 33 bd f3 81 c3 3c 95 3a b1 3d
       -0.083083585 -0.043775775 0.023865676 0.08653752
000390 71 75 fc 3d 9e 51 e5 3d ae 6c 6b 3c a6 80 99 bd
       0.12327088 0.11197208 0.014369173 -0.07495241
0003a0 2b c8 84 bd 66 4b 3f 3d 51 38 28 bc 16 dc be bd
       -0.064834915 0.046702765 -0.010267333 -0.09319322
0003b0 1b 24 87 bc 9b 60 d5 3d 12 67 d8 bb 78 10 eb bd
       -0.016496709 0.10418817 -0.006604084 -0.114777505
0003c0 52 8b 1c 3d 3a ac c4 3d 9a 1f 6f bb 63 13 96 3d
       0.038218804 0.09603162 -0.0036487342 0.073279165
0003d0 3b 8f 9e bd 78 4c c1 3d 38 86 a4 bd 36 19 a7 bc
       -0.07742163 0.094384134 -0.08033413 -0.020397764
0003e0 ea 3f 08 3b 27 9b e6 bd 5d bc b0 bd 91 cf 6f 3c
       0.002079005 -0.11260062 -0.086296774 0.01463689
0003f0 af 90 af 3d 6f 57 a8 bd 35 e1 84 3d 7e 07 04 bb
       0.08572518 -0.08219802 0.06488267 -0.0020146067

lstm.bias_hh_l0 f4 [256]
000000 b4 12 c9 bd ba 6a 91 3d c4 f7 d9 bc e2 1e bb 3c
       -0.098180205 0.071004346 -0.026607402 0.022841875
000010 e4 4e bd 3d 58 f5 0f bd fe 22 dc bc f8 ba ff 3d
       0.09243563 -0.035146087 -0.026872154 0.12486833
000020 b2 f2 dc bc bd 9e d0 3d af 39 ce bd 3e d2 b8 3d
       -0.026971195 0.10186527 -0.10069596 0.090244755
000030 95 ab d8 3b 94 97 88 3d 6b 4f 71 bb a8 01 e1 3d
       0.006612251 0.06669536 -0.0036821018 0.10986644
000040 4b 1a bb 3d fe 42 d6 3d 6a 9c 58 3d aa bf e4 bd
       0.09135874 0.104619965 0.052883543 -0.111693695
000050 91 31 b7 3d f0 c9 20 bd dc e6 fe 3d ad 99 8d 3d
       0.08945001 -0.039255083 0.12446377 0.06914077
000060 fb ef 22 bd cc b8 a5 3a fd e8 a9 3c 10 1c 79 3c
       -0.039779644 0.0012643575 0.02074098 0.0152044445
000070 ff 3c 86 bd b3 72 08 bd 44 e2 ea bc 9d 37 c2 ba
       -0.06554603 -0.03331251 -0.028672345 -0.00148176
000080 96 2a 5b bd 04 3a 5f bd af 66 ae 3d f2 0e bb 3d
       -0.05350741 -0.054498687 0.08515679 0.0913371
000090 71 a5 89 bd 10 c6 6f bd 78 90 6d ba 22 0b 69 3d
       -0.067210086 -0.058538496 -0.000906236 0.056895383
0000a0 b2 68 e8 3d 30 e2 88 bd 07 ee 81 3d 61 b5 d2 3d
       0.11348094 -0.06683767 0.06344228 0.102885015
0000b0 8b f3 57 bd 3e a7 d9 3d ec 38 85 bd a9 73 37 bd
       -0.052722495 0.10627602 -0.065049976 -0.044788036
0000c0 c6 c4 90 3c 36 81 b0 3c 4a 80 4c 3b f4 1f e0 3d
       0.017671954 0.021545988 0.0031204396 0.109435946
0000d0 9b 66 a1 3c ec 3f 2d bd b0 64 b0 bd 62 0f be 3d
       0.019702246 -0.04229729 -0.086129546 0.09280278
0000e0 ff 7a 28 3b 57 d2 ec 3d 9f 57 7e 3d 38 e4 2f 3d
       0.0025708077 0.11563557 0.06209528 0.042942256
0000f0 a1 63 db 3b 8e 52 dd bd 91 fe df bd 88 93 55 bc
       0.0066952263 -0.10806762 -0.109372266 -0.0130356625
000100 9e 98 9a bd be 61 db bd 0c d6 30 bc e5 37 06 3e
       -0.07548641 -0.10712002 -0.01079322 0.1310726
000110 e8 22 56 3c 7b 68 b1 bb dd 6f 14 bc 18 20 2f 3d
       0.013069846 -0.0054140664 -0.009059873 0.042755216
000120 ca 5a ba 3c bf 63 ce bd 10 0a 92 bc 94 df f1 3d
       0.02274837 -0.10077619 -0.017827064 0.11810222
000130 4d 79 91 bc aa 7d 28 bd ea 1b e0 3d 19 d7 e3 bd
       -0.017758036 -0.041135468 0.10942824 -0.11125011
000140 37 40 e0 bd cb e6 e4 3c d9 1f 0e 3d 0b f7 5c bd
       -0.10949748 0.027942082 0.03469834 -0.053946536
000150 09 b0 22 3d 9e 00 a2 bd fb 07 2b 3d 57 49 91 3d
       0.03971866 -0.07910274 0.041755658 0.070940666
000160 ed e9 da 3c ae f8 a8 3d 88 be e3 bd 25 e4 89 bb
       0.026722873 0.08250557 -0.11120325 -0.004208105
000170 17 ac 3f 3d e6 ea 9c bd 9c f0 d8 3d 8c b3 80 3d
       0.046794977 -0.07661991 0.105927676 0.06284246
000180 b9 34 a7 3d f0 38 20 3d 81 a9 0a be 98 db b0 bd
       0.08164353 0.0391168 -0.13541223 -0.08635634
000190 f9 4e f5 3c 03 ab 03 3e ed 89 bb 3d 6f 14 ca bb
       0.029944884 0.12858205 0.09157167 -0.0061669867
0001a0 e3 64 ee 3d df c5 8d 3d c4 92 90 bd b2 a9 83 bd
       0.11640336 0.069225065 -0.07059243 -0.06428851
0001b0 86 aa 48 bc 12 26 e8 bd a8 d9 d7 bc 04 80 29 3d
       -0.012247687 -0.11335386 -0.026348904 0.04138185
0001c0 23 49 8b bd 7e 35 55 bc 19 6e bd 3d 84 6f 0b bd
       -0.06801059 -0.013013242 0.09249515 -0.034041896
0001d0 17 24 fc 3d 04 b9 8e bd f6 bb ca 3d 1c 16 d5 bd
       0.12311571 -0.06968883 0.09899132 -0.10404608
0001e0 a8 f6 15 bd 09 38 7c bd 30 a4 50 bd 6d 16 aa 3c
       -0.036612183 -0.061576877 -0.05093783 0.020762647
0001f0 f1 b5 51 3d 61 8e c2 bd 20 35 da 3d c8 9a b8 bd
       0.051198903 -0.09499813 0.10654664 -0.09013897
000200 72 50 74 3c a0 91 8c 3d 76 8c eb 3d 62 03 9e bd
       0.014911758 0.06863713 0.115014 -0.07715489
000210 87 c3 68 bd 32 01 95 bd 5e bb 87 3d 75 e7 dd bd
       -0.056827094 -0.072756186 0.06627534 -0.108351626
000220 d1 16 ae bd 37 34 fa bd b6 e5 d6 bd ef e8 7a 3d
       -0.08500446 -0.122169904 -0.10493033 0.0612573
000230 2d e3 b0 3d 95 06 9e bd 4e 5e a7 3d 56 14 5a bc
       0.0863708 -0.07716099 0.08172284 -0.0133105125
000240 28 d2 99 bd 71 49 45 3d 18 d0 a6 3d 70 3b 2d 3d
       -0.07510787 0.048165742 0.081451595 0.042293012
000250 19 60 bd bd 30 50 8f 3d 48 b7 e2 3c 1a 0d d1 bd
       -0.09246845 0.069977164 0.027675286 -0.10207577
000260 52 7d 7d bd 21 92 35 3d 3f af a6 bd ee 50 f6 3d
       -0.061887093 0.044328813 -0.08138894 0.12027155
000270 20 8d db bd 85 22 ef bd 4b c1 00 3d 12 08 e6 3c
       -0.10720277 -0.11676506 0.03143434 0.02808002
000280 ff 0f 88 3d fd 9d df 3d 1c 45 ce bd 31 2d 92 bd
       0.06643676 0.10918806 -0.10071775 -0.07137526
000290 4e 1f da 3d ab d8 e0 3c d1 24 70 bd cc 24 77 3d
       0.10650502 0.027447065 -0.05862886 0.060337827
0002a0 d5 81 f8 bd ab 53 1c bd 97 e5 d6 3d 09 dc aa bd
       -0.121341385 -0.03816573 0.104930095 -0.083427496
0002b0 89 e0 97 3c 30 49 86 bd 58 1e d7 bb 08 f6 9f bd
       0.018539684 -0.06556928 -0.0065648966 -0.078105986
0002c0 cc 88 d6 3d 34 33 a4 3d 9c f0 3f bd bc b7 d7 3d
       0.10475311 0.08017579 -0.046860322 0.105330914
0002d0 09 06 30 bc 46 f0 67 3d 08 8e 19 3d 10 3c 86 bd
       -0.010743626 0.056625627 0.037488967 -0.06554425
0002e0 ee 58 60 bd 82 98 d9 3d fa 90 e2 bc 5d ea 8a 3d
       -0.05477231 0.10624792 -0.02765702 0.067829825
0002f0 a6 97 c4 bd 15 ca d5 bd bc a6 f4 bd a1 4e ee 3b
       -0.09599237 -0.10438935 -0.119458646 0.007272557
000300 ca c8 64 bc d6 44 d6 3a 22 c7 c4 bd 96 6e 9f bd
       -0.0139638875 0.0016347419 -0.09608294 -0.077847645
000310 05 a2 f3 bc ab 4c e3 bd 91 18 a5 bc 19 5e b3 bb
       -0.029740343 -0.11098608 -0.020153316 -0.005473864
000320 6c 07 5a ba 92 d3 4f bd 37 e5 ea bd 6a c6 11 3a
       -0.0008317146 -0.05073888 -0.114695005 0.0005560877
000330 b1 43 b2 3d 34 81 f7 3d a2 f7 da bd 6e a3 89 bd
       0.08704317 0.120851904 -0.106917635 -0.06720625
000340 23 dc ca bd 7e d0 d9 3d 0b d7 da 3c 6a dd a1 bd
       -0.09905269 0.1063547 0.026713869 -0.079035595
000350 27 03 9d 3d f9 1d d6 3d be a9 c7 3c 7f 68 bd bd
       0.07666617 0.104549356 0.024372932 -0.09248447
000360 6a 14 8c bd 8d b3 fc 3c db 73 c8 bd 39 f5 2e bd
       -0.06839831 0.030847335 -0.09787723 -0.04271433
000370 37 a6 10 bd 6a b6 f5 bc c8 3a cb 3d 66 c3 2c bd
       -0.035314765 -0.029994208 0.09923321 -0.042178534
000380 3a 85 99 bd 46 93 08 3d a3 46 a7 3d d6 85 fc bc
       -0.07496114 0.033343576 0.0816777 -0.030825537
000390 06 e3 fb 3d 9c 60 d0 bd dd 43 81 3d fb 9c 2e bb
       0.12299161 -0.10174677 0.06311772 -0.002664386
0003a0 81 77 31 bd 7b 65 30 bc 34 db da 3d 09 24 1d 3d
       -0.04332686 -0.010766382 0.10686341 0.038364444
0003b0 c6 6f af 3d 09 80 b4 bd f3 ff 8f bb 36 7c 24 bb
       0.08566241 -0.08813483 -0.004394525 -0.002509845
0003c0 d2 e3 66 3d e3 49 02 be 93 49 17 3d 34 0f 19 bd
       0.05636961 -0.12723498 0.0369354 -0.037368014
0003d0 c0 fb 6e bc df 95 5d 3d c0 7f b6 3d ca 7a 92 3d
       -0.014586389 0.054098006 0.08911085 0.071523264
0003e0 90 97 26 bd 05 e0 37 3d eb f1 e2 3d 70 47 46 bd
       -0.040671885 0.044891376 0.110812984 -0.04840797
0003f0 f3 d5 7e 3c 64 98 5b bd 29 8f bb bd 7d a2 0b 3e
       0.015553939 -0.053612128 -0.09158165 0.13636203

lstm.weight_ih_l1 f4 [256, 64]
000000 1b b8 ef 3d a7 e4 fd 3c 14 9d a2 3d e0 0c a0 bd
       0.11705037 0.030992819 0.079401165 -0.07814956
000010 2e 44 e8 39 98 e8 c6 bc 63 7d 4e bb 3a b5 ea bc
       0.00044301286 -0.024280831 -0.0031507842 -0.028650869
000020 25 be 4c bd e3 91 41 bd ae 10 1c 3d a9 c2 9d bd
       -0.049986023 -0.04725827 0.038101844 -0.07703144
000030 69 a6 4f bd 4c 79 a6 3d c6 6b de bd f3 0a d1 3d
       -0.05069581 0.08128604 -0.108604 0.102071665
000040 23 a0 18 3c 00 b6 71 3d 56 2f 49 3b 97 01 b9 3d
       0.009315523 0.05901146 0.003069838 0.09033506
000050 dd e5 96 bd 21 ac fe 3d 22 ed f7 bd 9e ae d4 bd
       -0.07368062 0.12435175 -0.12105776 -0.10384868
000060 3d 06 b3 bd 7a 65 02 be 9b 7f 5f bd 08 b5 1b 3d
       -0.08741424 -0.12734023 -0.054565053 0.03801444
000070 c1 3b f6 3d a6 7e 16 3d aa 1f 8c 3d 25 df b2 3b
       0.12023116 0.036741875 0.06841977 0.00545873
000080 31 5e a0 bd d2 f0 c6 3d 25 11 11 be b3 a8 6b 3c
       -0.078304656 0.097139016 -0.14166696 0.014383483
000090 95 f8 f5 3d 5b 0d 91 3d 1b 5a 89 bc 6a 22 af 3c
       0.12010304 0.070826255 -0.016766598 0.021378715
0000a0 37 32 cd bc 1a 3a 97 bd 8b 9d 62 3d a8 81 c4 3d
       -0.025048358 -0.07384129 0.055326026 0.095950425
0000b0 2e a6 59 bd 75 6d 89 3c 40 c9 88 3c 65 ad bd 3c
       -0.053136997 0.016775826 0.016697526 0.02315397
0000c0 e9 0c c6 3d 9d 4a 70 3c a9 62 1d bd 68 92 c9 bd
       0.09670431 0.014666227 -0.038424168 -0.09842378
0000d0 37 32 62 3c 45 13 a9 bd 1c f9 9c bd 22 f8 c6 3d
       0.013805917 -0.082556285 -0.07664701 0.09715296
0000e0 91 bc 91 3d 0d 90 09 bd c9 38 d1 bd c2 95 d2 bd
       0.07116044 -0.033584643 -0.10215909 -0.1028247
0000f0 8a 85 9e bd b4 27 b3 3d 8c 16 8f bd 78 f3 32 bc
       -0.07740314 0.08747807 -0.06986722 -0.010922305
000100 e5 2e 70 3d 2f 06 02 bd 06 15 f3 bd 54 c2 a2 3d
       0.058638472 -0.03174418 -0.11869244 0.079472214
000110 ad 3a b2 bd 4f da db bd f2 78 77 3d 21 98 16 bd
       -0.08702598 -0.107349984 0.060418077 -0.036766175
000120 be 9d 81 bd 11 1f 0c bc 97 58 86 3b d3 ef ce bc
       -0.06328915 -0.008552329 0.004099916 -0.025260841
000130 31 36 ab bd b6 33 64 bd f1 dc 9f bc 50 30 97 bd
       -0.083599456 -0.055713378 -0.019514533 -0.07382262
000140 b9 ef d8 bd 4b 0d 4d 3d 1c f9 32 bc 4a 6e f1 bc
       -0.105925985 0.050061505 -0.01092365 -0.029471535
000150 56 02 6d 3d 6a 2a d3 bd 85 25 ad 3c 3b 79 af 3d
       0.057863556 -0.10310824 0.021136055 0.08568045
000160 81 70 9c bd 9f a5 e5 3d 8d d0 ed bc ad 2d d7 3b
       -0.07638646 0.1121323 -0.029030109 0.0065667243
000170 63 be b4 bd 72 ab be bc 97 3d 14 bd b8 d1 53 3b
       -0.08825376 -0.02327511 -0.03619155 0.0032321047
000180 79 d9 f6 3d 7e ed c5 bd 9b 09 8b 3d 12 6c ba 3d
       0.12053198 -0.09664439 0.067889415 0.09102644
000190 79 3f 99 3c a5 51 02 3e a8 a7 9e bd 34 27 e2 bd
       0.018707024 0.12726457 -0.07746822 -0.11042634
0001a0 ad 88 5d bd 29 ce 6b 3d 97 9a fa 3c 10 76 89 bd
       -0.054085422 0.057569657 0.030591292 -0.06711972
0001b0 1f e5 bc 3d d2 09 03 3d 62 fc 7a bd 2b 15 2e bd
       0.09223389 0.031991787 -0.061275847 -0.042500656
0001c0 a8 27 5c 3c 82 19 c8 3b 72 f2 0e 3e 19 11 d8 3d
       0.013437189 0.0061065564 0.13959673 0.10550136
0001d0 02 cb d9 bd 5c ad 88 3d db 0d d5 bd e1 e2 64 bd
       -0.10634424 0.06673691 -0.10403033 -0.05588043
0001e0 2f d5 9c bd 63 58 03 bd 7d 5d fc bd 9e 3d 8e bd
       -0.07657849 -0.032066714 -0.12322519 -0.06945346
0001f0 e2 e7 a8 3d 46 53 a6 bd e3 77 da bd 5d 87 65 bd
       0.08247353 -0.08121352 -0.10667398 -0.056037296
000200 03 08 fc bc 4b d4 a8 3d dc e1 02 3e 04 39 a1 bc
       -0.030765539 0.08243617 0.12781471 -0.019680507
000210 c6 ed e5 3d a0 26 e0 bd e1 ff f8 bc 43 00 df 3b
       0.11226992 -0.10944867 -0.03039545 0.006805451
000220 8a c0 4e 3d 92 c4 3e bd 43 d4 e1 bb 6e 15 68 bd
       0.05047659 -0.046574183 -0.0068917586 -0.056661062
000230 f4 c7 da 3d 85 28 8b 3d a5 27 79 3d cd 39 31 bb
       0.10682669 0.06794838 0.060828824 -0.0027042509
000240 ac 0f 7b bc 49 03 ab bd 52 93 17 3c 9b fa 9b 3c
       -0.015323561 -0.08350236 0.0092514325 0.019040396
000250 6c 06 f4 bd a3 43 e3 3d 10 85 57 3d 80 5a f3 bb
       -0.119152874 0.11096885 0.052617133 -0.00742656
000260 78 2f 74 bb 61 fc e2 3d bb f7 a3 3d e3 dc 95 bc
       -0.003725974 0.11083294 0.08006235 -0.018293804
000270 f7 ef e2 bd 39 9d d6 3d 29 5f e3 bd 45 6c 71 3d
       -0.11080926 0.104792066 -0.11102135 0.058941144
000280 6c da 43 bd 94 69 a3 bb be 40 55 bd 5d d4 c6 bd
       -0.047815725 -0.004986951 -0.052063696 -0.09708474
000290 91 ae 90 bd cd 25 7d 3d 1e 0b e8 bd 9a 8f d5 bd
       -0.07064546 0.061803628 -0.113302454 -0.104277804
0002a0 5b 0c e3 bc fa e4 a1 3d a1 a1 c3 bc ef 64 7d 3d
       -0.027715852 0.07905002 -0.023880782 0.061863836
0002b0 4d ae e8 bd 36 df 15 3d 4a a0 ce 3d fa c8 c6 3d
       -0.1136137 0.036589824 0.100891665 0.09706302
0002c0 d8 b2 d2 3d 37 dd e6 3b 23 b6 ca 3d 1e 8e ba 3d
       0.10288018 0.007045414 0.09898021 0.09109138
0002d0 1d ce f9 3d 58 43 27 3d 58 66 5f bd f0 cf b0 bd
       0.12197516 0.04083571 -0.054540962 -0.08633411
0002e0 26 db c1 bd 3a 14 ab bd f7 70 e2 3c 9d b7 4f 3d
       -0.09465627 -0.08353467 0.027641756 0.050712217
0002f0 f1 1c ed 3c 31 67 b7 bd da 24 e8 bd 6f 62 a7 3d
       0.028944464 -0.08955229 -0.11335154 0.081730716
000300 08 0b 9d 3c 8d f5 06 3d 52 f7 cb 3c 6b 7a 1d 3d
       0.0191703 0.03294902 0.024898205 0.038446825
000310 02 40 a1 bd 31 f9 af 3c 74 a3 41 3c 8a f6 0b 3d
       -0.07873537 0.021481128 0.011818755 0.034170665
000320 41 10 b6 3d e0 f7 fc 3d 60 1a 42 3d 33 7c f9 bd
       0.08889819 0.12351966 0.047388434 -0.12181892
000330 e9 a9 1f bd 04 f3 0c bd e2 f0 7c 3d 15 86 f8 3d
       -0.0389804 -0.034411445 0.06175316 0.12134949
000340 09 83 77 3c 2b ac e8 bd c5 95 89 3d 67 f6 a8 bd
       0.015106925 -0.113609634 0.067180194 -0.082501225
000350 1e 66 b2 3d 09 8c b7 bd ea 5e de bd fa 9f 46 bd
       0.087108836 -0.089622565 -0.10857947 -0.04849241
000360 43 85 b6 bc 57 71 e3 3d 21 89 1b 3d e9 a4 98 bd
       -0.022280341 0.11105602 0.037972573 -0.07453329
000370 99 a2 c3 3d b7 cd c8 3d 72 70 d0 3d 18 4d d8 bd
       0.095524974 0.09804862 0.10177697 -0.105615795
000380 d1 7f 87 3d 80 4d 91 3b 96 d0 b1 bd a2 12 db 3d
       0.06616176 0.0044342875 -0.08682363 0.10696913
000390 6b 4e f0 3d ce c1 f4 3d ca d2 1c 3d f0 70 79 bd
       0.11733707 0.11951028 0.03828696 -0.06089872
0003a0 3c 20 be 3d bc 57 c9 3d 36 94 f8 3d b7 78 3c 3c
       0.09283492 0.09831187 0.12137644 0.01150339
0003b0 e0 50 b9 3b 7f db ed bd 18 7e 5b 3c 2e b2 73 3d
       0.005655393 -0.11614131 0.013396762 0.059496097
0003c0 c5 10 c6 bc 82 70 02 3e bc c9 f8 3b b9 e0 05 bd
       -0.024177918 0.12738231 0.007592408 -0.032685015
0003d0 5f b7 98 bd 03 60 d6 3d c9 23 ac bd 24 69 f2 bd
       -0.0745685 0.104675315 -0.08405263 -0.1183646
0003e0 90 f0 28 bd 42 e5 9b 3c c7 d1 c9 bd 4a 12 e6 3d
       -0.041245043 0.019030217 -0.09854465 0.11233957
0003f0 17 5a a0 bc 70 f5 db bd be fc 39 3d 62 5e 6b bd
       -0.019574208 -0.10740173 0.04540705 -0.057463057

lstm.weight_hh_l1 f4 [256, 64]
000000 20 9c a2 bd f6 c8 06 3c 1a b2 e9 bd 55 b5 68 bc
       -0.07939935 0.008226624 -0.11410923 -0.014203389
000010 85 2a 0c bd ea c3 66 bb 68 38 01 3e db 69 8a 3d
       -0.034220237 -0.0035211989 0.12619174 0.067584716
000020 55 57 81 3a 28 0b a0 3d 8c 5e a4 bb 0f 00 88 bd
       0.0009867946 0.07814628 -0.0050161537 -0.06640636
000030 69 fb 1f bc 11 95 22 bd 34 73 c3 bc c7 02 fe bd
       -0.009764531 -0.039692942 -0.023858644 -0.124028735
000040 2f bf 9d bd 3d 43 1c bd 12 26 aa bc ef 74 7e 3d
       -0.07702481 -0.03815006 -0.020770106 0.062123235
000050 55 2a 0c bc 9d 50 77 3d e6 86 b7 3d 69 97 d7 3c
       -0.008555015 0.060379613 0.08961277 0.026317315
000060 93 ba 97 bc 31 e9 b1 3d 87 ff ee 3d 7b 6f 7c bd
       -0.018521583 0.08687056 0.11669832 -0.061629754
000070 8e 47 f0 bd 8f ca d2 3c ae d4 bd 3d 15 76 08 3e
       -0.11732398 0.025731353 0.09269081 0.13326295
000080 d0 52 ad bb c1 46 de bd f0 e5 ff bc f0 3e 86 3b
       -0.005289413 -0.10853339 -0.031237572 0.004096858
000090 ab f2 d3 bd 31 a8 8c bd 34 24 0c bd d1 45 43 bc
       -0.103490196 -0.068680175 -0.034214213 -0.011918501
0000a0 e1 02 ba 3d 4e 46 ba 39 54 ff b8 bd 00 f1 86 3d
       0.0908258 0.00035529066 -0.09033075 0.06588936
0000b0 86 c0 0b be 54 01 25 3d bc c0 83 3d 96 1a c8 bb
       -0.1364766 0.04028447 0.064332455 -0.006106685
0000c0 25 59 b4 3d 46 c9 de bd 9a d7 cb bd 90 28 b7 3d
       0.088060655 -0.108782336 -0.09953232 0.089432836
0000d0 e0 71 c1 bd 86 aa a4 bd 8c 32 6f bd bf 4a 5e bd
       -0.09445548 -0.08040337 -0.058397815 -0.054270502
0000e0 2f 2e d1 bb 3c b4 14 bd d7 4f dc 3d 69 cd f3 3d
       -0.0063836793 -0.036304697 0.10757416 0.11904413
0000f0 5f 7c f3 bd 75 2f a8 3b a5 19 a9 bd e0 57 0f bd
       -0.11888956 0.0051326104 -0.082568444 -0.034995914
000100 78 48 74 bd 64 25 4c 3d 54 e9 82 3d df 49 7e 3d
       -0.059639424 0.049840346 0.0639216 0.062082168
000110 49 49 78 bd 11 f3 27 3d b5 65 67 bd 98 46 d7 3d
       -0.060616765 0.04100329 -0.05649348 0.105115116
000120 32 0c 20 bd f7 c3 98 3d e6 71 5a 3b 38 6f 1d 3d
       -0.03907413 0.07459252 0.003333205 0.038436145
000130 de f7 49 3d 13 fd e4 bd d2 6d af 3d 45 96 cd 3c
       0.04930865 -0.111810826 0.085658684 0.025096068
000140 44 92 9f 3d 96 2c c2 bd fd f9 a3 3d 9a e4 ca 3d
       0.0779157 -0.0948116 0.08006666 0.099068835
000150 0e 8d a3 3d 64 2b 1c bc 38 a8 e2 3d ab 50 96 bc
       0.079858884 -0.0095318295 0.110672414 -0.018349012
000160 c3 0e 64 3d c9 8a 37 bc 8f c4 f1 3c 0a 34 c3 3d
       0.05567814 -0.011202523 0.029512672 0.0953141
000170 2f d5 a4 bd a8 7d 5a 3d da ce 15 bd 11 43 e2 3d
       -0.08048474 0.05334249 -0.036574222 0.11047948
000180 77 cf c5 3d 67 73 85 bc 93 33 f5 3d c1 af bc 3c
       0.096587114 -0.01629038 0.119727276 0.023033025
000190 df 04 bf 3d 5c bc f5 3c ad 89 d8 bd 97 1c f3 bd
       0.09327101 0.029997043 -0.105731346 -0.118706875
0001a0 0f df 2a bc 88 64 8d bd ae d8 29 3d 33 7a e2 3d
       -0.010429158 -0.069039404 0.041466407 0.11058464
0001b0 07 04 f4 bb b4 3f 4c bd 9c bb 58 3d 42 92 aa bd
       -0.007446769 -0.04986544 0.052913293 -0.08328678
0001c0 cf fd 9f 3d bf 9d c7 bd 7a d0 b7 bc 1a 3c d1 3d
       0.07812082 -0.097468846 -0.022438277 0.102165416
0001d0 88 f7 5f 3d dd c1 92 3d 85 84 7a 3c 6e ff 25 bd
       0.054679424 0.07165883 0.015290384 -0.0405268
0001e0 2e 92 db ba 02 a5 34 bd 14 bc 0d bd de dc a6 bd
       -0.0016751939 -0.044102676 -0.034603193 -0.08147596
0001f0 a0 64 29 bd 3b 72 de 3d d6 41 da 3d f4 d4 79 bd
       -0.04135573 0.108616315 0.106570885 -0.060994104
000200 d5 eb 04 bc 47 40 d7 3d 3f 88 c3 bc 66 ad a1 bd
       -0.008112867 0.10510307 -0.023868678 -0.07894401
000210 0f 02 cd bd ea fe b6 3d a5 69 b1 3b d6 6b 71 bd
       -0.10010158 0.0893534 0.005414205 -0.05894073
000220 f6 17 a7 bd dc 07 80 3c 3e d0 7d bc 2e 22 16 3d
       -0.08158867 0.015628748 -0.015491543 0.03665369
000230 69 b0 ff bd 5d b5 c4 3d cd 2b 2f 3d c8 4e c1 3d
       -0.124848194 0.09604905 0.04276638 0.094388545
000240 54 e0 b7 3d 35 a7 8a bd 77 04 db bd fe 83 ba 3d
       0.08978334 -0.067701735 -0.10694211 0.09107207
000250 7b bf 28 bd 2b 7f d5 bd 32 21 ac bd 7b 66 86 bc
       -0.041198235 -0.10424646 -0.08404769 -0.016406288
000260 18 a6 a5 bd 2a bb 72 bd 84 59 60 3d 54 a9 3b bd
       -0.080883205 -0.059260525 0.05477287 -0.04581578
000270 9c 67 67 bc 68 c7 0b be fc ee 07 3e 98 be 5d 3c
       -0.0141238235 -0.13650286 0.13274759 0.013534211
000280 90 e6 d8 bc 53 2a 01 bd 3d d8 69 3d c0 3f f8 bd
       -0.026477128 -0.031534504 0.057090987 -0.12121534
000290 6f 96 8c 3d ec 48 3b 3d 29 2d 47 bb 23 b4 5f 3d
       0.068646304 0.04572384 -0.0030391908 0.05461515
0002a0 7b e9 03 3e 0b 42 b5 3d c6 8e e1 bd a9 58 6d 3c
       0.12882034 0.08850487 -0.1101356 0.01448647
0002b0 bf 1b 77 bd 88 25 6e bd 56 65 cb bc a0 4e 22 3c
       -0.060329195 -0.05814126 -0.024828594 0.009906441
0002c0 c9 00 80 bd c0 74 08 bd 2f 8c dc 3d 6e 54 d4 bd
       -0.0625015 -0.033314466 0.107689254 -0.10367666
0002d0 c6 c8 ed 3d df 69 e0 bc 5c db bd bb 6e 1c fa 3b
       0.1161056 -0.027394233 -0.005793972 0.0076327836
0002e0 66 c0 09 be 32 13 72 bd 4b fa 9c bd 28 3d dc bc
       -0.134523 -0.059100337 -0.07664927 -0.02688463
0002f0 0e 93 54 bd 21 1d af bd 35 7f 01 3e d2 fe be bd
       -0.051898055 -0.08550478 0.12646182 -0.09325947
000300 6e 9f 9e bd dd ca d0 bd 31 7f cd 3d ec ac 2f bd
       -0.077452525 -0.10194943 0.100340255 -0.04288952
000310 a3 5a 1e 3d 7a d2 b9 3b 27 41 4b bc 95 80 0f 3b
       0.038660657 0.0056708427 -0.01240567 0.002189671
000320 78 c9 78 3d 18 8f d7 bb 17 ee 09 3d c6 e7 4a 3d
       0.06073901 -0.0065783374 0.033674326 0.049537443
000330 a1 59 fc bd c7 58 a2 bd dc b2 ac bc c8 b1 59 bd
       -0.12321783 -0.07927089 -0.02108138 -0.05314806
000340 6b c6 03 3e 1b 17 c3 bd 24 cf d1 3d 62 83 fc bd
       0.12868659 -0.095258914 0.10244587 -0.12329747
000350 a3 36 96 bd b5 c1 d4 3d 3f 1d 8c bd 89 c0 e7 3d
       -0.0733464 0.10388509 -0.06841516 0.1131602
000360 56 3a c0 bd fa 5a 74 3c ae 93 11 3d ee 80 07 bb
       -0.09386127 0.014914269 0.03554123 -0.0020676213
000370 f0 35 92 3d 6e 00 e1 bc 16 a5 0d 3d 0b 7e 8d 3c
       0.07139194 -0.027466025 0.034581266 0.017272016
000380 cf f5 0c bd 31 3a 4d 3d 07 fe 5a bd c4 de c6 bc
       -0.03441411 0.050104324 -0.053464916 -0.024276145
000390 39 e5 ca bd 49 15 87 bc e9 54 ee 3c 46 52 b4 bc
       -0.09907002 -0.016489642 0.029093223 -0.022011887
0003a0 1a 2c 56 bc f4 35 d1 bd 3a 25 dd 3d d0 b2 cf 3d
       -0.013072038 -0.10215369 0.10798116 0.10141528
0003b0 bf 46 ce bd e4 7d a7 3d 8d 45 af bd 0f 88 c4 bd
       -0.100720875 0.081783086 -0.08558188 -0.095962636
0003c0 70 44 63 bd 2e ca a7 ba f6 df 07 3d e1 1e 06 3e
       -0.05548519 -0.0012801343 0.03317257 0.13097717
0003d0 2d b9 5f bd 77 75 6c 3c 74 20 97 3c 4e 8f 8f bd
       -0.054619957 0.014432303 0.018448092 -0.07009755
0003e0 a1 2f b7 3d 03 90 08 bd 74 3a dc bc af d8 38 bd
       0.08944631 -0.033340465 -0.026883341 -0.04512852
0003f0 9a 53 07 3d 14 63 c0 bd 35 13 c5 3d 93 a5 93 3d
       0.033038713 -0.09393898 0.09622804 0.07209315

lstm.bias_ih_l1 f4 [256]
000000 89 d8 23 3c 8d d7 37 3d 40 5d aa 3d c5 ee 6a bd
       0.0100003565 0.0448833 0.08318567 -0.057356615
000010 47 8d 98 bd fd b3 85 bd 16 8d b8 bd c9 b6 24 bd
       -0.074488215 -0.06528471 -0.09011285 -0.04021338
000020 aa 4f 91 bd 24 cf bf 3d 77 7c 3f 3c b3 96 93 bd
       -0.07095273 0.09365681 0.01168739 -0.07206478
000030 a4 9a e4 bd ef a1 fe bc f5 4f b7 3d 17 6b fe bc
       -0.11162308 -0.031083075 0.089507975 -0.031056924
000040 63 bf 07 3c b1 e8 04 be b1 49 8c bd d5 bb 94 3d
       0.008285376 -0.1297939 -0.06849993 0.072623886
000050 c2 40 80 3d 23 56 f4 3c 68 c6 d3 bd 1c a7 85 3c
       0.062623516 0.02982623 -0.10340577 0.016315036
000060 c9 af b1 3c 1a 01 cc bd 31 7b bb bd a0 6b 23 bd
       0.021690266 -0.099611476 -0.09154356 -0.03989756
000070 ab 28 b3 bd 27 70 70 3d 52 52 b2 bc 11 fd 9c 3d
       -0.08747991 0.058700707 -0.021767769 0.07665456
000080 6c fa 72 bd 9b 1c ab bd 91 32 c8 bd 2b 6d f0 3c
       -0.059320852 -0.083550654 -0.0977527 0.02934893
000090 ee 9f ae bd 5f 49 03 3b f0 01 03 bd 7c 04 4e 3c
       -0.08526598 0.0020032746 -0.03198427 0.012574311
0000a0 b6 05 f2 3d 9d d9 a6 3d 8c 4f d9 3d 73 0e bf 3c
       0.118174955 0.08146975 0.106108755 0.02332232
0000b0 b2 19 62 bc 2e 75 a3 bd 9f 99 e2 3b 69 34 9b 3d
       -0.013800072 -0.079813346 0.0069152857 0.07578356
0000c0 07 d2 f1 3d ae 17 a2 3d 71 1c 61 bc 06 dd c6 bd
       0.11807638 0.07914673 -0.013739691 -0.097101256
0000d0 d8 45 cb 3d 7d a3 c0 ba 10 00 a7 bd 60 a7 ba bc
       0.09925431 -0.0014697161 -0.08154309 -0.022784889
0000e0 14 92 39 bc 6e a5 00 be 7c 57 28 bd 14 d4 d1 bd
       -0.011326332 -0.12563106 -0.041099057 -0.10245529
0000f0 f6 c9 56 3d 46 3e 87 bc 32 e6 a8 ba 59 77 bf 3b
       0.0524387 -0.016509186 -0.0012885986 0.005843085
000100 7f 7a d5 bd 8d 17 88 bd 9b 84 11 3c 1f 97 7a 3d
       -0.10423755 -0.06645117 0.008881713 0.061179277
000110 a0 18 9d bc 3e 2b a3 3d 37 bb 19 bd 88 aa d6 bd
       -0.019176781 0.07967232 -0.037532058 -0.10481745
000120 c7 8f cd 3d a7 37 01 bd 4f 34 d8 bd 6d bf 74 bd
       0.10037189 -0.031547215 -0.10556852 -0.05975287
000130 60 1e cf bb 56 bf 82 bd d5 d0 53 bc 60 3c e8 bd
       -0.0063207597 -0.06384151 -0.012928207 -0.113396406
000140 b8 fe 61 3d e5 6f 1a 3d e9 d0 a1 bd bf e6 c3 3c
       0.05517456 0.037704367 -0.079011746 0.02391374
000150 28 8a 9b 3d 78 a8 9b bd 3e af af 3d 9c b5 97 bd
       0.075947106 -0.07600492 0.08578347 -0.07407686
000160 c9 16 e8 3d 97 09 e9 3d 13 de 6d bd 0f 02 e0 3b
       0.11332471 0.11378782 -0.058073115 0.006836183
000170 09 51 e4 bd e9 7e 36 3d f7 7a e5 3d 16 aa 2c bc
       -0.11148269 0.044554625 0.11205094 -0.0105385985
000180 ad 83 8b bd 55 2c f6 bc cf 56 e3 bc 58 50 9d bc
       -0.068122245 -0.030050436 -0.027751355 -0.01920335
000190 3c ee 72 bd 9a 15 4f bc c3 38 b2 bd cf 36 68 3d
       -0.05930923 -0.012639428 -0.08702233 0.056692895
0001a0 02 53 a5 bd 46 cd d2 3d 50 63 82 3d fc 9c e2 3d
       -0.08072473 0.10293059 0.063665986 0.11065099
0001b0 f5 46 2f 3d 36 80 51 bd c1 50 2b bd 30 d9 db bc
       0.04279228 -0.051147662 -0.04182506 -0.026836962
0001c0 f5 97 e4 3d 61 12 a3 3d e4 4d 90 3d 3e e5 03 be
       0.11161796 0.0796249 0.070461065 -0.12880418
0001d0 a0 09 50 3d 31 c7 a6 3d 3a 84 e5 3d 5c 19 50 3d
       0.05079043 0.081434615 0.11206861 0.050805435
0001e0 6a 0b 32 bd ae 89 45 bd e1 0e f2 3d f4 9c f5 bd
       -0.043467917 -0.048227005 0.11819244 -0.11992827
0001f0 e1 45 9f bd b8 bd b5 bd 26 a0 ce ba ea be ea bd
       -0.07777 -0.088740766 -0.0015764281 -0.11462195
000200 e4 e9 93 3d fc 44 8b 3d 91 32 a9 bd 34 4f b1 3d
       0.072223455 0.06800267 -0.08261598 0.08657685
000210 06 6d 51 3c 71 c2 da bc b8 bd bc 3d b1 be ec 3c
       0.012782341 -0.026704045 0.092158735 0.028899522
000220 66 9d 55 bd c1 75 9d 3d a9 40 7c bd 33 6a ee 3c
       -0.05215206 0.076884754 -0.061585102 0.029103374
000230 fa d0 41 bd 2d df d6 bd 8d 04 5c bd 8f 3b 87 bd
       -0.047318436 -0.10491786 -0.053715277 -0.06603157
000240 23 20 90 3d b0 79 9c bc ec 07 ae bd c2 a9 fd 3c
       0.070373796 -0.019100994 -0.08497605 0.030964736
000250 09 4c da 3d 51 7d 30 3d 7c 7c 63 3d 22 9f 55 bd
       0.10659034 0.04308826 0.05553864 -0.052153714
000260 97 ed 1d 3d 95 22 74 3c 34 98 af 3c 5a 32 de bc
       0.03855666 0.014900823 0.02143488 -0.027123619
000270 19 fe c5 bd 3f eb f2 bc 58 14 37 bd 73 fa f7 ba
       -0.09667606 -0.02965319 -0.044697136 -0.0018919244
000280 6e d5 bf 3c 32 ab e5 3d 2d 1b 90 bd 9c 9b 80 3d
       0.0234172 0.112142935 -0.07036433 0.0627968
000290 51 8b 48 3d af a8 30 bc 39 ce 89 3d 28 fe e1 bd
       0.048960987 -0.010782405 0.06728787 -0.110348046
0002a0 bc c6 e0 3d 22 c5 20 bd 37 fc 98 3d 63 5a 88 bd
       0.109754056 -0.0392505 0.07469981 -0.06657865
0002b0 35 31 76 3d 7b bd f9 bd 8f 85 8a bd e6 dc e9 3d
       0.06010552 -0.12194344 -0.067637555 0.11419086
0002c0 f5 92 96 bc ca 49 2a bd 03 aa 08 3d b1 97 2e bb
       -0.018380621 -0.041574277 0.03336526 -0.0026640708
0002d0 77 bf b1 bc 31 0f ce bd 08 2b 25 bd 7a 9c 17 bd
       -0.021697743 -0.10061491 -0.04032424 -0.037014462
0002e0 2e e9 dc bd 3c b2 41 3d 2d 37 bf bc a4 c2 91 3c
       -0.10786663 0.04728912 -0.02334174 0.017793007
0002f0 a3 b9 a3 bd d4 18 8d 3d 8e 9f dd bb 08 9f fd bd
       -0.07994392 0.06889501 -0.006763405 -0.123838484
000300 d5 60 32 3d 79 ca e3 bd e3 46 69 bc 4a 16 e3 bd
       0.043549377 -0.11122603 -0.014238092 -0.11088236
000310 e5 66 59 bd 64 29 4b bd 17 1c b0 3d be 10 d8 bd
       -0.053076643 -0.04960002 0.08599108 -0.10550068
000320 26 54 da bd b0 66 bb 3d 19 9c 88 3d d9 06 b8 bd
       -0.10660581 0.091504455 0.06670398 -0.08985681
000330 ea 38 84 bd 29 91 c5 bd 81 bc 8b 3d ee b1 aa bc
       -0.06456168 -0.09646828 0.06823064 -0.020836797
000340 a8 ad 58 3d 68 50 22 3d 33 5f 42 3c 56 71 e0 bd
       0.052899987 0.039627463 0.011863518 -0.10959117
000350 2b bb 01 be e5 ec 8b bd 4a e4 98 3d 39 04 c1 3d
       -0.12669055 -0.068322934 0.07465418 0.094246335
000360 b9 c0 0f 3d 8e df 7b bc fd b5 a5 bd 5d 29 a2 bc
       0.035095904 -0.015373124 -0.08091352 -0.019795114
000370 e3 a1 9e 3c 23 32 6e bd cc a9 da 3d dc cd c2 3d
       0.019364303 -0.058153283 0.106769174 0.09511921
000380 c2 f0 f4 3d ba 9c cb bd b7 33 f9 bd e2 d5 6b 3d
       0.119599834 -0.099420026 -0.12168067 0.05757702
000390 60 82 10 bd 81 8b 86 bd ed f6 bd bb 80 f1 4c 3d
       -0.035280585 -0.06569577 -0.005797258 0.050035
0003a0 be da 01 be e9 95 f7 3c 80 fe b2 bd 93 bb 2b bd
       -0.126811 0.03022285 -0.08739948 -0.04192693
0003b0 b8 42 f4 bd f8 10 31 bc 03 d9 e3 3d 22 39 50 bc
       -0.11926788 -0.010807268 0.11125376 -0.012708934
0003c0 09 82 62 bd b2 67 3c bd 70 d1 88 bd 8f 3f 7c 3d
       -0.055299792 -0.04599733 -0.06680572 0.06158405
0003d0 1e e3 16 bd 4a 54 ea bd e4 9b 97 bc 5b fe a6 bc
       -0.03683769 -0.11441858 -0.018506952 -0.020384958
0003e0 de 73 3e bc a5 13 66 bd 90 85 04 3d b9 dc 6d bd
       -0.011624305 -0.05617108 0.032353938 -0.058071826
0003f0 10 27 e7 3d 11 c8 4f bd f7 11 d2 bc c9 ec ba 3d
       0.112867475 -0.050727908 -0.025643332 0.091271944
