artifacts/SKU_01/model.pt (torch, 219163 bytes, 12 tensors)

lstm.weight_ih_l0 f4 [256, 10]
00000000: e11e be3d 4f6c b43d cff4 4abd d1f1 c13d
00000010: 3b39 14bd 99f1 af3c 76ef 6cbd 2fdf a33d
00000020: 4693 bf3d 1a9b a8bd ac4d f43d 8816 5d3b
00000030: a6fd 953d ce7c 06bb 9924 513d 0467 39bb
00000040: b26a e33d 6701 b13c d414 71bd 021c 4d3c
00000050: 10ce 44bd 1366 68bc c695 13bd debb c93d
00000060: 0a4d c7bd 2bec 80bd 443a 23bd f825 adbd
00000070: fd84 f73c 26c5 0ebe 6a88 e93d 1804 dabd
00000080: 43e4 bb3d fb47 273c 39de 0ebd 5879 9a3d
00000090: 24f8 703c a63b e13d e040 6d3c bee5 adbc
000000a0: 2450 f63c ad1e 44bd 7072 843d c59a fd3d
000000b0: 213e a93d 6f39 6cbd eb9f 853d 8fcd f33c
000000c0: 3ba6 683d 2c9c 6dbd 02b8 0abe 9bce f0bc
000000d0: ef9b ebbd a269 ae3d b16a 543d a2ac 7e3d
000000e0: 0ce4 e73c a298 31bc 3972 bb3d 3c88 93bd
000000f0: 5c70 773c c6fa b8bd c8f4 003d 8da7 46bd
00000100: bdfd 693d af37 21bd d8ab af3d 1aec 74bd
00000110: ad01 a4bd c042 81bd ea85 ef3d be50 043d
00000120: e3b4 fe3d 8ebc cfbd 0670 f9bd 630b a9bd
00000130: 6821 aebd 8676 173d 62b8 6b3d c6dc ac3d
00000140: 7a6f 87bd 6b91 8dbd d58f 523d 6b5b 7dbd
00000150: 6cd8 c13d 813d edbc 68ce 633d 80a0 bcbd
00000160: be5b 94bd 8190 4b3d f201 053d c11f 42bd
00000170: f44d aa3d 4875 af3d cf10 d5bd bada 69bd
00000180: b066 033e 77ab bdbc b6e4 20bd 655b fabd
00000190: e255 85bd ab03 1f3d b6ab 76bc 42fb d1bd
000001a0: ec6f 893c 5c48 c1bd 4c93 e1bd a35a 90bd
000001b0: a17d bcbd 891f c6bd 666f f03d 87fc 783b
000001c0: 78c4 6b3d 9cbd c6bd 1306 81bd 16a9 27bd
000001d0: f85c 0439 602b bebd 7f55 43bd db7b 77bd
000001e0: e8a9 acb7 f7bf 73bd 5b33 d3bc 0b14 cdbd
000001f0: e1e4 cebd 484f 9dbd 2246 cebc 1d85 d2bd
00000200: c7c1 d23d f6e7 35bd 4fc7 003e 10ee 533d
00000210: b645 d9bd f6b5 a93d 51b2 64bc b0e8 18bd
00000220: 5536 febd 0b88 d6bd 9c86 4c3d c7ff 2abd
00000230: 488a 863d fbef b4bd 485e b33d 4fe3 d2bd
00000240: f8f7 cfbb 2f80 3e3c 52ef 4b3d a6f7 cd3d
00000250: 404b d53d c352 eebd 0446 4f3d af6c 73bd
00000260: 2cfd 05bd a044 e6bd f4fd ec3d 22dd 9abd
00000270: 16ba 8a3d 92d4 7c3d d640 5c3d f496 b0bd
00000280: 1bd4 ee3d 50aa 533c e43f 413b 6a2c eebd
00000290: 0dad 5b3d 01c9 4cbc bb4b 6abd 942a da3d
000002a0: 353f 023d 03ea 7dbd 6748 53bd f6cf 163c
000002b0: 2f4b 513d b355 4dbd b111 b8bd f561 20bd
000002c0: 5826 c5bd 213e c83c dc3c e63d 146e 0bbe
000002d0: 2107 b73c cfb3 7c3d 8f4a c83c cfec 2cbd
000002e0: 4355 783d b101 4a3d 019f 5c3d 50ca 26bd
000002f0: a547 f6bc a4b5 78bb 621a 7fbb d85c aebc
00000300: 8541 863d 5718 cb3d 91e4 ce3b 0712 2fbc
00000310: 0875 91bc 727d 83bc 27fb 2b3d a2a3 c93c
00000320: 992a edbd aa02 d5bc 8932 b33d ad45 073d
00000330: bd97 02bc f4c5 72bd f48a 9bbd 0d66 debd
00000340: eb7e 57bd b75d 6f3d 3a76 953d e712 763d
00000350: 50a8 ecbd a9a3 a8bd d66d fcbc 9b14 f03d
00000360: 5202 0f3d ebc7 57bd a8bb 563d d251 06bd
00000370: a28a a3bd 72d9 a53d 15cb 74bd b6b0 dcbc
00000380: 15d8 e3bd 494a 853d 27b6 a73d ae64 543d
00000390: daa7 b7bd 7e6a dabd 8de1 e0bd 9e89 a83d
000003a0: 4e93 263d a6a1 b03d ce8d ae3d 518b 2d3d
000003b0: 7529 aabc 100c d1bd 67d0 c1bd 2771 d5bd
000003c0: b34b 383d a997 93bd e670 bebc 76d1 8dbd
000003d0: a008 a9bc 4fad a5bd 4a63 b5bd 2b0b f83c
000003e0: d74f bdbc f840 8a3d 1d2f c2bc a4a9 a9bd
000003f0: 9f47 8bbc cc22 6bbd 9330 a0bc 968a 0dbe
0.092832334 0.08809721 -0.049549874 0.09469951 -0.03618739 0.021477507 -0.057845555 0.08001553
0.09354262 -0.08232708 0.11928877 0.0033735353 0.0732377 -0.0020521167 0.051060293 -0.0028290162
0.11104335 0.021607114 -0.058857754 0.012518885 -0.04804808 -0.014184493 -0.036031507 0.09850286
-0.09731491 -0.062950455 -0.03985049 -0.084545076 0.030214781 -0.13942394 0.11402972 -0.10645312
0.09174397 0.010210033 -0.034879897 0.07542676 0.014707599 0.10997705 0.014480799 -0.021227714
0.03006751 -0.047880817 0.0646714 0.123830356 0.08263803 -0.05767196 0.065246426 0.029761104
0.056799155 -0.058010265 -0.13546756 -0.029395392 -0.11504351 0.085162416 0.05185956 0.062176354
0.028306983 -0.010839613 0.091526456 -0.07203719 0.015102472 -0.09032206 0.03148344 -0.048499633
0.05712675 -0.039359745 0.085776985 -0.059795476 -0.08008132 -0.0631156 0.11695464 0.032303564
0.12436845 -0.10143386 -0.1217957 -0.08254125 -0.085024655 0.036978267 0.057548888 0.08440547
-0.06613059 -0.06912502 0.0514067 -0.06185476 0.09465107 -0.028959991 0.055616766 -0.092103004
-0.07244061 0.049698357 0.03247256 -0.047393564 0.0831565 0.085672915 -0.104035966 -0.05709336
0.12832141 -0.02315305 -0.039280616 -0.122244634 -0.065105215 0.038821857 -0.0150555875 -0.10253002
0.016777001 -0.094376296 -0.11014423 -0.070485376 -0.09203649 -0.096739836 0.117399976 0.0037992315
0.057560414 -0.09704134 -0.06299987 -0.040932737 0.00012623135 -0.09285617 -0.047688957 -0.060420852
-2.0583117e-05 -0.059509244 -0.025781324 -0.100135885 -0.10102249 -0.07681137 -0.025179926 -0.102792956
0.10290866 -0.04441067 0.1257603 0.051740706 -0.106089994 0.082866594 -0.01395853 -0.037331283
-0.12412707 -0.10475167 0.04993306 -0.041747835 0.06569344 -0.08834835 0.08758217 -0.10297262
-0.006346699 0.011627241 0.04978878 0.10057001 0.104147434 -0.11636879 0.05060388 -0.05942982
-0.032712147 -0.11243558 0.11571875 -0.07561709 0.06773774 0.06172616 0.05377277 -0.08622542
0.1166155 0.012919024 0.0029487545 -0.11629565 0.05363183 -0.012499095 -0.05720113 0.106526524
0.03179856 -0.06199075 -0.05158272 0.009204855 0.05109709 -0.050130557 -0.08987749 -0.03915592
-0.09626454 0.024443688 0.11242077 -0.1361621 0.022342267 0.061694916 0.024449615 -0.042218026
0.060628187 0.04931802 0.053862575 -0.040720284 -0.03006346 -0.0037950063 -0.0038925637 -0.021284506
0.065554656 0.09916752 0.0063138683 -0.01068545 -0.017756 -0.016051028 0.041987564 0.024614159
-0.115803905 -0.026002247 0.08749873 0.033025432 -0.007970748 -0.059270814 -0.075948626 -0.108593084
-0.052611273 0.058438983 0.072979406 0.06007662 -0.115555406 -0.08234341 -0.030814093 0.1172268
0.034914322 -0.05268089 0.052425057 -0.032792874 -0.079854265 0.08098115 -0.059763987 -0.026939731
-0.11125199 0.065083094 0.0818904 0.051853828 -0.08967562 -0.10664843 -0.109805204 0.082293734
0.040667824 0.08624582 0.08523141 0.04236919 -0.020771721 -0.10207379 -0.09463578 -0.10421973
0.044994067 -0.07206661 -0.023247194 -0.06924717 -0.020633996 -0.080896966 -0.088568285 0.030278763
-0.02310936 0.06750673 -0.023704106 -0.082843095 -0.017001925 -0.05740623 -0.019554412 -0.13822398

lstm.weight_hh_l0 f4 [256, 64]
00000000: f032 96bd 12a6 b63d fb97 8b3d dbd4 1c3d
00000010: 6e22 7abd a9cd 673c 2334 ab3c 8319 003e
00000020: 2933 e23c dc45 773c ed34 a33c 8d58 9f3d
00000030: 1c2a 44bb caeb ea3d 9cc2 903d a7f0 aabd
00000040: 3a8b 5dbb 3750 e1bd fc96 d0bd 17e3 f43c
00000050: c942 013d ae83 00ba 580a 0d3e ce4c 9ebd
00000060: 76f2 48bd 6143 b1bc f977 923c a078 8ebc
00000070: 77af f73d efc0 3bbd aeb3 94bd ec9b 1a3c
00000080: 1427 bc3d 55a1 f83c 4c55 783d 1b9d a53c
00000090: fc78 c03d 9236 953d 776b c63d c93d 13bd
000000a0: 6db0 b5bd 1fe7 89bd fbbe 143d 5658 af3d
000000b0: 7fb7 81bd fc0e e03d 7cdd 873c de8c b03b
000000c0: e64c f9ba a8d4 69bc c684 003e b466 6cbc
000000d0: b070 ae3d 139c dbbd 0c6c 82bd a28a 943c
000000e0: 7101 aa3d 0f48 903d 796f 7c3c f8db 02be
000000f0: 948b 1eba 5770 a5bd a8c5 b0bd b738 723c
00000100: cdda c8bd ca37 c13d 63c5 86bd cba7 c03c
00000110: b29e 783d cd22 e9bd 6f9c a83d 696a 87bc
00000120: 0c4d a63d fffd 0b3e b5e7 06bd c64f 1bbd
00000130: 5c4a cd3d 45b0 f03c 1e77 06bd aad6 db3d
00000140: 0d61 90bd 00ec 71ba 0e80 cf3d 1bd6 883d
00000150: d28c cebd 9c91 543d e0e7 ddbd 8181 b1bd
00000160: c296 c93d c785 2fbd 8fa1 4cbd dbed 25bc
00000170: b588 423d a0b0 7bbd c3c8 d2bd 4f47 10be
00000180: 1e2f 4d3c 46bb a3bd cda3 01bc 8e04 1cbd
00000190: c703 cdbd fc31 d2bc 5744 9fbd 4a4e 95bd
000001a0: cd3a 6a3c 6231 b1bd 9bc8 03be 0d62 b93d
000001b0: ec8c f6bb d642 9bbd 8b03 bcbc ec1f 9f3d
000001c0: 8d39 f9bd d3f2 3ebd 312a 93bd 57b9 c5bc
000001d0: 99ac 7e3c 9404 ebbd 0381 9a3d 94f3 9fbd
000001e0: 9126 cf3d 9922 89bd 1d02 06bd e1fb 0e3d
000001f0: 667c 12bd 25cc 073e a97b d2bd 3959 4e3c
00000200: 4267 e5bd ffa3 013d b125 c83d 8328 c63d
00000210: 88a0 413a 0fa7 99bd 392c e83d 2f86 30bc
00000220: 80ef c83d df8a 35bd 1e5b 85bd 0165 bcbd
00000230: 78b4 c43d 12d3 133d 6c06 c5bd ba98 e53c
00000240: 7d16 86bd 6eec f2bb 50a9 7c3d 33db 2bbd
00000250: b713 8e3c 4bb4 71bd 8929 043d 9b40 0bbe
00000260: ca62 063d f30b 103e 0dc1 ea3d 753c cf3c
00000270: b7a3 e43d 293b 0f3e a323 783c 7970 ba3c
00000280: 4c4a 26bb 671f 003e 9b5e b33d 34f2 9fbd
00000290: d323 a2bc 671d 37bd 5395 833d d588 e9bd
000002a0: ac31 5d3d 2c7f 37bd e32b d73c df66 6a3d
000002b0: 55e3 a0bd 7768 5b3d d902 0b3d 13d5 b1bd
000002c0: e8d5 de3d 2ff1 f93d 1e8e c53d 5b58 06bd
000002d0: b38d 813d 8d36 b4bd 5615 55bd 81b4 a23d
000002e0: cc0c 513d 586c 713d 6f89 0cbe 659b f53d
000002f0: 43b7 56bd e9fc 023e 017c ab3d 4efe 863d
00000300: 36ee e93d 1013 a93d 7c59 893d b40d 32bd
00000310: d54e d23d 5968 8a3c 04b2 8d3d 1a43 abbc
00000320: 873d e03d d63d e73d 6ae9 c5bd 8590 c43d
00000330: f9ed b5bd f22d a7bd 8e7d d7bd aede 163d
00000340: 312a d3bd 61bd 49bd d586 7abd 9d77 f13c
00000350: 390c f0bd 716d 4abd 66c7 9d3b fcd0 80bb
00000360: 3b6c 80bd 4b8b 283d d95f bbbd d744 d9bd
00000370: 372d dabb 20f6 6bbd 05ea 9d3d bd4d adbd
00000380: bccb 13bc 388b 773d edf5 e7bd d97b ce3d
00000390: dcbf 94bd 1e01 06bd b24a 93bd 1f78 42bd
000003a0: 0599 24bd d119 04be e6bf 1d3d 0c0f c5bb
000003b0: 72b8 db3d c798 ae3d 5d6e cf3d 483b 573d
000003c0: 6609 793d e729 ec3d eb7f b73d ac79 c6bd
000003d0: 60f9 c8bc c094 dbbd 04d4 e23b abae 35bd
000003e0: 080f be3d b7ac 0e3d dd30 ec3b 0a41 c5bd
000003f0: b88b c9bd 056c a63c ea92 59bd 2fcc 6dbd
-0.07333934 0.08918394 0.06816097 0.038288932 -0.06106799 0.014148154 0.020898884 0.12509732
0.027612286 0.015092339 0.019922698 0.077805616 -0.0029932326 0.114707544 0.07068369 -0.08346682
-0.003380491 -0.11001628 -0.10185048 0.029893441 0.031557832 -0.00049024343 0.13773477 -0.07729493
-0.049059354 -0.021638574 0.017879473 -0.017391503 0.12094014 -0.045838293 -0.07260834 0.009436589
0.09187141 0.030350367 0.06062822 0.020216515 0.09398076 0.07285799 0.09688466 -0.035947595
-0.08871541 -0.06733536 0.036314946 0.085617706 -0.06333827 0.10940358 0.016585104 0.0053878864
-0.001902011 -0.014271893 0.12550649 -0.014428783 0.08517587 -0.10723128 -0.063682646 0.018132512
0.08301056 0.07044994 0.0154074365 -0.12779224 -0.00060480204 -0.08078068 -0.0863145 0.01478403
-0.09807358 0.09434469 -0.06580617 0.02351751 0.06069822 -0.11383591 0.08232962 -0.016530233
0.08120164 0.1367111 -0.032935817 -0.037917875 0.100239486 0.029380927 -0.032828443 0.10734303
-0.07049761 -0.0009228587 0.10131846 0.066814624 -0.10085453 0.051896676 -0.10835242 -0.08667279
0.09843208 -0.04285219 -0.04995876 -0.01012751 0.047493655 -0.06144774 -0.102921985 -0.14089702
0.012523441 -0.07994704 -0.007912588 -0.03809028 -0.10010486 -0.0256586 -0.07776707 -0.07290323
0.014296246 -0.08651997 -0.12869494 0.09051905 -0.0075241234 -0.07581107 -0.022950908 0.077697605
-0.1216918 -0.046618294 -0.07185782 -0.024136228 0.01554408 -0.114754826 0.07544138 -0.07810131
0.10114778 -0.06696052 -0.03271686 0.03490818 -0.035763167 0.13261469 -0.102774926 0.0125945145
-0.112013355 0.03165054 0.09772814 0.09675696 0.0007386287 -0.07502567 0.1133656 -0.010774179
0.09811306 -0.04432189 -0.0651152 -0.091989525 0.09604734 0.036089964 -0.096203655 0.028026927
-0.06547258 -0.0074134385 0.061684906 -0.04195709 0.017343385 -0.05900983 0.032266174 -0.13598864
0.032809056 0.14067058 0.11462603 0.025297383 0.11164039 0.13987412 0.015145215 0.02275871
-0.0025373874 0.12511979 0.08758279 -0.078098685 -0.019792473 -0.044705775 0.06424966 -0.11403052
0.05400245 -0.044799015 0.026266044 0.05722701 -0.0785586 0.053566422 0.033938263 -0.08683219
0.10880643 0.12204205 0.09646247 -0.032799106 0.06325855 -0.08799467 -0.0520223 0.07944585
0.051037595 0.058941215 -0.13724302 0.1199253 -0.052420866 0.1279179 0.08373261 0.065914735
0.11422388 0.08255589 0.06706521 -0.0434701 0.10268942 0.01689546 0.069187194 -0.02090602
0.109492354 0.11291091 -0.09663661 0.095978774 -0.0888328 -0.0816306 -0.105219945 0.036833458
-0.10310782 -0.04925287 -0.061163742 0.029475981 -0.11721081 -0.049420778 0.00481503 -0.003931163
-0.06270643 0.041148465 -0.09149141 -0.10608833 -0.006658222 -0.05760777 0.07710651 -0.08462093
-0.009020742 0.060435504 -0.113262035 0.10082216 -0.07263157 -0.03271591 -0.071919814 -0.047477838
-0.040184993 -0.12900473 0.038513087 -0.0060137566 0.107285395 0.08525234 0.10128472 0.05254677
0.06079998 0.1153143 0.08959945 -0.09691176 -0.024532974 -0.10721731 0.006922247 -0.04435603
0.09280211 0.034832682 0.0072079734 -0.09631546 -0.09841102 0.02031518 -0.053118624 -0.058056053

lstm.bias_ih_l0 f4 [256]
00000000: 603c 25bd fa42 74bd 8d52 113e 274a c33d
00000010: ac9a f8bd 6b22 cbbd b00e 0f3d 31b7 55bd
00000020: 279c 1a3d 6685 683b ed00 f3bc ebee f53d
00000030: 1e4c 6e3d defb 643d 1529 d0bd f901 f6bc
00000040: 1113 9b3d e133 873d fd4f d53c 49a5 dcbd
00000050: 33d1 5bbd d943 033e b4a8 ef3d 363f 933d
00000060: ea63 a0bd 7a0b 58bd 7083 dd3c c499 b8bd
00000070: a25e 8dbb a424 e93c 4423 5a3d d83f 2c3d
00000080: fbc7 c53c 804f b03d 7db7 e0bd 1f11 46bd
00000090: e42f 48bd 0c63 bc3d 739c cbbd 55e7 e43d
000000a0: 45b6 62bd 4da4 8cbc fde9 c13d 3515 ea3d
000000b0: e9af 213d 481c 08bd 81f2 c83d b865 4cbb
000000c0: 7d7b 663d 180e 603d eab8 d239 68ea 063e
000000d0: 5e32 9c3d fb88 023e d387 093e 54e3 923c
000000e0: 9d5b 2dbd 8dfa 32bd d0f6 bfbc b32c c4bc
000000f0: 499d 7b3c a67b 033e 8b36 c23d 7569 b13c
00000100: 7033 983d 2903 55bd bcbb 8a3d 0399 e93d
00000110: c28c 013d aba8 233c 89bd ad3d ae09 abbd
00000120: d47d aa3d 1953 95bc db66 fbbd f07a 9a3d
00000130: e7fa fdbb 8785 4ebc b76a 94bd efa6 21bd
00000140: 534a 69bb b8ef 09be 2063 923d d447 003d
00000150: 478b 623d 8841 033e aac5 85bc 009c a6bd
00000160: b622 c5bd a1f6 0ebb fd3a 32bd a4b4 4d3d
00000170: fe53 693c 6ae9 1a3d bba6 80bd 3292 01be
00000180: 088e 9f3c 4944 843c 0ab4 3bbd 6455 11bd
00000190: 1bb6 26bd 52d6 cbbd e84f ec3d 785f a13d
000001a0: 2eaa 9cbd a211 cbbd ea7f da3d 04ce c13d
000001b0: 13d0 d1bd e679 f93c c9d2 b0bd 7366 bbbd
000001c0: 797f a3bd 82ab 25bc 1198 f43d 30bd 933d
000001d0: ff18 cdbd 657e 9f3d 16b5 033e 2d8d b03d
000001e0: def9 d03d cc40 b4bd 048e 90bd d115 b03d
000001f0: 7d96 a8bd a9aa e9bc ac02 bd3d 167d 2c3d
00000200: 54bf 04bd 2d30 633d 2b03 3dbd 569c 6ebd
00000210: 438a 253d f630 70bd 5989 cf3d 1cb8 673d
00000220: 689c 953d bd26 b53d 3dd5 a83c 8bbf 5bbd
00000230: d395 bfbd 2cb5 ddbc cd22 c3bd 0829 ac3d
00000240: 1783 dd3b 1a71 68bd 2d2a a63a 07e3 df3d
00000250: 8e7a 5bbd 37d1 e63c a6f0 643c bc6e 3dbc
00000260: 1da8 f8bc d264 3f3d a4f1 0fbd 3930 d0bd
00000270: 4f87 e73c 5d70 94bd ba30 83bd edc4 af3b
00000280: 4df8 803d b45c 2bbd 2403 9cbd 16b5 653d
00000290: d6fc 99bd f427 e73c e321 253d 11f0 29bb
000002a0: f8d4 8abc da42 73bc 4e61 8cbd 799c b03d
000002b0: a407 28bc d8f6 35bd 0eb3 52bd c93a 2b3d
000002c0: 4550 7cbd b977 463d dcb2 753b 0797 e5bd
000002d0: abd2 a63d 499c 453d 95d4 163d ad6c 71bd
000002e0: 03b2 d8bd 5e3b 803d a65a cebd 6233 783d
000002f0: b776 cc3d 7e17 b1bc 769d b5bd b46d c43d
00000300: aa1e e7bd 9a18 bebc 4101 95bd 09e7 7e3d
00000310: f738 d13d 8d8c 7cbd 7553 abbd e997 e13d
00000320: cbc7 9e3d 0abc ca3d b5e9 a3bd 7efb 033e
00000330: 3e53 e6bc 256f 4ebd a55a 49bd c6f0 ce3c
00000340: cc72 b93d c085 0cbd 48bd 92bd f099 033d
00000350: c2d0 dbbd 39ff c2bd e7b0 203d e099 eb3d
00000360: 71f3 9ebd 9d3a ac3d 13b1 c4bd 4c18 e8bc
00000370: d7f3 083e b78f 743c 65d5 47bd be67 99bd
00000380: a5e1 333d 0731 a33d 625b d53d e8e0 c83c
00000390: 322b 93bd e199 a63d 14b9 d9bd 1a61 5a3c
000003a0: 15ef c8bd 47f5 b8bb e543 193a 46ca c03d
000003b0: c3a7 f63c 9346 babd c7f2 8a3d 0e61 953b
000003c0: c580 c6bd 8b02 d0bd 545c f53c ef1b 6bbd
000003d0: 1e5b 03bd d1ab 61bd 9839 9dbd 4582 b3bd
000003e0: c8c9 75bb 2133 5cba 8ceb a43d 6ee6 afbd
000003f0: 0ca8 de3d b53d fb3d 16ac ddbd 29ab 893d
-0.04034078 -0.059634186 0.14191647 0.09535628 -0.12138876 -0.09918674 0.034926116 -0.052176658
0.037746575 0.0035479902 -0.029663527 0.120084606 0.05817806 0.05590426 -0.10164086 -0.030030238
0.07571996 0.06601692 0.026039118 -0.10773713 -0.053666305 0.1281885 0.117020994 0.07189791
-0.07831557 -0.05274532 0.027040213 -0.090137035 -0.0043142596 0.028459854 0.05325629 0.042053074
0.02414321 0.086089134 -0.109724976 -0.04835617 -0.048873797 0.09198579 -0.0994195 0.111769356
-0.055349607 -0.017168188 0.09468458 0.11429826 0.0394744 -0.033230096 0.09811879 -0.0031188559
0.05627011 0.05470094 0.00040192093 0.13175356 0.07626794 0.12747566 0.13430719 0.017930664
-0.042323697 -0.043695975 -0.023433119 -0.023947095 0.015357324 0.12840137 0.094830595 0.021656731
0.07431686 -0.052004967 0.06774089 0.11406138 0.031628378 0.009988944 0.084834166 -0.08351456
0.08324781 -0.0182281 -0.122754775 0.0754298 -0.007750857 -0.012605078 -0.07246917 -0.03946584
-0.003559728 -0.13470352 0.07147813 0.0313185 0.055308606 0.12817967 -0.016329605 -0.081352234
-0.09625761 -0.0021814483 -0.043513287 0.0502211 0.014241217 0.037820257 -0.06281801 -0.12653425
0.019476905 0.016145842 -0.045825996 -0.035481825 -0.040701013 -0.09952988 0.115386784 0.07879537
-0.07649647 -0.099154726 0.10668929 0.094631225 -0.10244765 0.030453634 -0.08633954 -0.091504
-0.07983298 -0.010111691 0.11943067 0.07213819 -0.10014533 0.0778778 0.12862048 0.08620677
0.102039084 -0.088014215 -0.07058337 0.08597911 -0.08231828 -0.02852376 0.09229025 0.04211148
-0.032409027 0.055465866 -0.0461456 -0.058254562 0.04041506 -0.058640443 0.10133619 0.056572065
0.07305223 0.08845279 0.020609492 -0.053649466 -0.093547486 -0.027063929 -0.09528122 0.084062636
0.006760012 -0.056748487 0.0012677364 0.10931974 -0.053583674 0.028175933 0.013973391 -0.011562046
-0.0303536 0.04672701 -0.035142556 -0.10165448 0.028262762 -0.07247994 -0.06405778 0.0053640516
0.062973596 -0.041836455 -0.076177865 0.0560809 -0.07518928 0.028217293 0.04031552 -0.0025930444
-0.016947255 -0.014847482 -0.06854497 0.08623595 -0.010255728 -0.04442486 -0.05144029 0.04180411
-0.06159999 0.04845402 0.0037490642 -0.11210447 0.081456505 0.04824475 0.036823828 -0.058941532
-0.10580828 0.062613234 -0.100758836 0.060595877 0.099835806 -0.021617647 -0.08867924 0.09591237
-0.112851456 -0.02320509 -0.0727563 0.06223205 0.10215943 -0.061657477 -0.083655275 0.11015303
0.07752951 0.09899147 -0.080035605 0.12888905 -0.028115865 -0.050398964 -0.04915871 0.025261294
0.09055099 -0.03430724 -0.07165009 0.032129228 -0.10733177 -0.09521336 0.039231207 0.11503959
-0.077612765 0.08409617 -0.09604087 -0.028331898 0.13374268 0.014926842 -0.048787493 -0.074904904
0.043916363 0.079683356 0.104178205 0.024521306 -0.07185973 0.08134819 -0.10631004 0.013328815
-0.09811226 -0.0056444737 0.0005846604 0.094135806 0.030109292 -0.09095492 0.06784587 0.004558689
-0.096925296 -0.10156735 0.029951252 -0.057399686 -0.032069318 -0.055095498 -0.07677001 -0.08765081
-0.0037504304 -0.0008399953 0.080527395 -0.08588873 0.10871896 0.12267629 -0.108238384 0.06722099

lstm.bias_hh_l0 f4 [256]
00000000: 660e e33d b8ff 9cbd 7d5f ad3d e050 803d
00000010: 0325 603d 61f9 cdbc 041c 9dbd 6249 183c
00000020: 4cdc b6bc 70c9 893d 97c1 abbd 078d f43d
00000030: 7a56 babc 5342 b83d 128e 45bd b2f0 aabb
00000040: 50dd 123d 564e e7bd c402 903d 88db 023e
00000050: cd67 a3bd fb5a 583d 3604 c9bd 47b0 973a
00000060: f1ed 7ebd 3b4e bfbd 07e6 153d 94d3 bd3d
00000070: d6df df3c 42ea b93c 4971 85bd cd5e 813d
00000080: a59d a9bd e0ac 03bd ff1c 05bd 47c2 1abd
00000090: 0299 bd3d 14db ec3d 57a0 7f3d 481e eabc
000000a0: 058b 75bd 87f5 65bc 5cf5 3ebd 2746 c03b
000000b0: 5f3d 853d d2bc e23d 113b c73d c64e ccbd
000000c0: 76de b43d 802c e5bd eee3 8a3c 8098 ea3c
000000d0: 560d ccbb 57e6 e8bc ab37 1abd 2806 863d
000000e0: a512 82bd 2c3d bc3c 043e 2a3d 3528 e63d
000000f0: f0be 9a3b f198 ea3d c3f0 e0bd c334 a7bd
00000100: 3b56 cbbd 9640 753c f1ff 74bd 3f36 b43d
00000110: 00b9 8bbd 3620 993c ab6e b73d a6d2 d4bd
00000120: 0c93 833d fed4 cdbd f13f 593d 5a80 e0bc
00000130: 4756 b8bd 94c2 133d c01e cbbb dd86 393d
00000140: e091 b93d 92b5 cbbc 77a7 41bd 4ca4 0c3e
00000150: ac69 f3bc 1ccf e23d 5664 c23d bd04 04be
00000160: 7911 52bd 5266 bd3c b66e f4bd ebd5 dd3c
00000170: 65b4 3dbd f136 8bbd ab58 c03d dfad 0e3d
00000180: de8e 0e3e 9ae6 12bd cad3 b0bc c8cf 90bd
00000190: c8fa 93bb f0ec e13d ee2d 75bc b77f 5fbd
000001a0: 44e1 c13d 2638 c73c 2eaa 7f3c 0881 de3d
000001b0: a0a3 043e 4edc fc3d 4d76 f5bd 9b0b b23c
000001c0: 91bb de3d 893b c63d 69fe d5bd 3939 d93d
000001d0: 72f1 2dbd 147d 55bd 9c42 62bd 2f30 8cbd
000001e0: a423 07bd d3f5 8fbc 68df 7cbd 835d c63d
000001f0: cee3 63bd 1a0a f23d 68c6 e1bd 4aef 373d
00000200: 8eb2 9abd a228 83bd 11c4 2b3d 9e03 96bc
00000210: 52cb a5bd 42a8 babb 7722 9bbd 6a86 96bd
00000220: 3a73 913d 1792 d33b d986 f9bc 55a0 bd3d
00000230: 90d7 db3c 89dc cb3d 6c5f 7c3d c84e 963c
00000240: b0d5 48bd 1eec 6fbd 5fb5 ea3d 53c7 3b3d
00000250: 32a9 dc3d 2753 a13d 3cfd 04bc 87e8 e0bd
00000260: 052d 493d 5bfd e3bc 65f0 f73c 536c 36bd
00000270: 0442 c93d 49e2 f63d ddcb 97bd a36a e4bc
00000280: a8c2 b8bd b80a 613d bebe bbbd 6863 c9bd
00000290: 68f9 b6bd f1f2 cbbd 617a cf3d 94ee 5abd
000002a0: 8757 bd3d fa97 05bd af94 11bd a482 f7bc
000002b0: 5aca cdbd e005 333d 2c19 08bd 3b71 c43c
000002c0: bb4d babd dd34 863c 3cce d63d 73bf 0fbd
000002d0: 3f4d e73c abc7 febd c33a 89bd 7224 ce3d
000002e0: 37f3 563d 0db4 4a3d c673 503d 955d c6bc
000002f0: bdf3 7bbd 1f72 e43d 4a12 08bd 7b3d 00bc
00000300: aae7 b3bd df7b e93d bd05 abbc 6a30 19bd
00000310: 1772 b5bd 7011 423d bb98 debd 5983 ee3d
00000320: 094d dd3d 6a49 abbd 894e d7bd 122d 373d
00000330: 0dad 69bd 8e78 d7bd 94a0 913d 637b 69bc
00000340: 45f3 313d e7b6 343c 3e9e 85bd 4763 4abd
00000350: 0f4f 673d 671e d9bd e511 9ebb 508c ecbb
00000360: 07f0 98bd 1412 0c3e d212 04be b98c bdbd
00000370: 8112 a5bd 9a7a 543d 4bc7 d1bd 907f 6a3d
00000380: 3c11 0d3e 9357 f43d 23ba 013e 6d02 123d
00000390: c8d0 f1bd 2056 4b3d 920b 4c3d 3a5d 013c
000003a0: 975e bdbd e24f eb3d fd29 d03c fa93 9b3d
000003b0: dade 4abc e54c f2bd 8c70 ef3d a1f1 f7bd
000003c0: 898f dabd 2b6d f23d a67a 02bd ce8d a83d
000003d0: fa20 bd3d 5cbb bbbb 6473 10bc 1dc6 473d
000003e0: 31a3 2cbc f4bf 5c3d f80f 32bd 167f 54bd
000003f0: 341e 9ebd 529f efbd f64a d0bc 3a21 90bd
0.11086731 -0.07665962 0.084654786 0.06265426 0.054722797 -0.025143327 -0.07671359 0.00929484
-0.022321843 0.06727874 -0.08386534 0.11940961 -0.022746313 0.08997025 -0.048231192 -0.0052166814
0.03585559 -0.11294238 0.070317775 0.12779057 -0.07978783 0.05282114 -0.09815256 0.001157292
-0.062238637 -0.09341093 0.036596324 0.09268871 0.027328413 0.02269471 -0.06515748 0.0631691
-0.082820214 -0.03214729 -0.032498356 -0.037782934 0.092576995 0.11565223 0.06240877 -0.028578892
-0.059947032 -0.014035589 -0.04662071 0.005867738 0.06505846 0.11071171 0.09728063 -0.09975962
0.088314936 -0.11190128 0.016954388 0.02863717 -0.0062271757 -0.028430147 -0.037650745 0.06544143
-0.063512124 0.022978388 0.04156305 0.11238138 0.0047224686 0.114549525 -0.10983422 -0.081643604
-0.099285565 0.014969012 -0.059814397 0.08799409 -0.06822395 0.018692117 0.08956655 -0.103917405
0.06424531 -0.10050391 0.053039495 -0.027404953 -0.09000831 0.036074236 -0.006198734 0.04529463
0.090610266 -0.024866853 -0.047278848 0.1373455 -0.029713474 0.11074659 0.09491794 -0.12892433
-0.051286194 0.02312008 -0.11935179 0.027079543 -0.046314616 -0.067975886 0.09391912 0.034833785
0.13921687 -0.03586445 -0.021585364 -0.07070881 -0.0045159794 0.1103152 -0.014964564 -0.054565158
0.09466794 0.024318766 0.015604539 0.108644545 0.12953043 0.12346707 -0.11985455 0.02173405
0.10875619 0.09679324 -0.104489155 0.106066175 -0.04246659 -0.052121237 -0.055239305 -0.06845128
-0.032992974 -0.017573273 -0.061736494 0.09685805 -0.055637173 0.11818333 -0.11024171 0.04490594
-0.07553588 -0.064042345 0.04193503 -0.018312272 -0.08095421 -0.0056963274 -0.07574933 -0.07349856
0.07102056 0.0064566243 -0.030459808 0.092590965 0.026836187 0.09954173 0.06161444 0.018348113
-0.049031913 -0.05857479 0.11460375 0.045844387 0.10774459 0.07877188 -0.008117016 -0.10981851
0.0491152 -0.02783077 0.030265996 -0.0445369 0.098270446 0.12054879 -0.07411931 -0.02788288
-0.09021503 0.054941863 -0.091672406 -0.09833413 -0.08934289 -0.09958447 0.10130764 -0.053450182
0.0924521 -0.03261564 -0.035542186 -0.030213661 -0.10048361 0.043706775 -0.03322713 0.023979774
-0.09096857 0.016382629 0.10488555 -0.03509469 0.028235076 -0.124404274 -0.06700661 0.10065545
0.05247804 0.049488116 0.05089166 -0.024214545 -0.061511744 0.11154579 -0.033220567 -0.007827158
-0.08784421 0.1140058 -0.02087676 -0.037399687 -0.088596515 0.04737991 -0.10868975 0.11646146
0.10805709 -0.08363612 -0.10513026 0.044720717 -0.0570498 -0.10521041 0.07110706 -0.014250609
0.04344489 0.011029935 -0.06524323 -0.049411085 0.05647188 -0.10601502 -0.0048239105 -0.007218875
-0.074676566 0.13678771 -0.12897804 -0.09255356 -0.0806017 0.051874734 -0.1024309 0.05725056
0.13776106 0.11930766 0.12668662 0.035646845 -0.118074 0.049642682 0.04981572 0.007895762
-0.09246557 0.11489846 0.025410647 0.07596584 -0.0123822335 -0.11831073 0.116913885 -0.12106634
-0.106719084 0.118372284 -0.031855248 0.08230172 0.092348054 -0.005729122 -0.008816574 0.04877292
-0.010536955 0.053894 -0.04347226 -0.05187901 -0.077206045 -0.1170031 -0.02542637 -0.070375875

lstm.weight_ih_l1 f4 [256, 64]
00000000: a53f 603d 799a 313c 6999 96bd 934c d9bd
00000010: f1dd 12bd 26f7 7a3d 2705 94bb 3a7f 7d3c
00000020: 0e2d a5bd 8d37 86bd 9d9e 04bc 3c17 313d
00000030: 5a1b fabd e978 333d 8747 943d ea9e 0cbe
00000040: 8353 2c3d b3ac e73c 2562 2d3d efdf 84bd
00000050: af1f 793d 4e9c a7bd e5d8 2ebd 2887 473d
00000060: b4f2 80bc 8f58 cd3d e520 bfbc fc8f dcbd
00000070: cde5 efbd c682 77bb e7dc d7bd 979a c43d
00000080: bd98 b73d ea3a ac3d c4d0 c7bd 84ae a1bc
00000090: 9b52 da3d 5c0e 363d d83f 003c 1519 ff3b
000000a0: f6ce a9bd 562d d0bc dd85 603d 9151 2dbc
000000b0: fb58 90bc ae26 3a3d e6dd 8abd bfae e3bc
000000c0: d230 da3d 96c2 133d b306 923d a89b 3cbd
000000d0: 9ed4 7a3d 7fe3 a6bd 7c98 db3d 1a38 acbc
000000e0: bd55 a2bd 5c49 11bd 6b74 c53d 4aff e63d
000000f0: 17d3 953c 1b1a d33d 61b7 2ebd bbee 00bc
00000100: b679 c23d 0540 69bc b70f 153c 9a04 813d
00000110: a987 923c e59f 84bd 6d9e b73c 42fd 32bc
00000120: b152 9ebc 4165 fa3d 18f4 f33d 7a20 fabd
00000130: ac33 27bd 89d6 9dbc cc28 623d 0056 a5bc
00000140: b9ee 37bc f650 c5bc a4f0 a3bd 96fa debd
00000150: da7b aebd 4693 e23c 7f47 8d3d 9318 bbbb
00000160: b99a de3d 232a fabc a190 bc3d 4a40 c5bc
00000170: 23c9 92bd 8bb7 c63b cca5 f8bd 2ecd 393d
00000180: 0858 c43c 9368 443d 7a61 8b3d 230e e73d
00000190: 9f27 a1bd 5709 fbbd 579e 123c 271c 96bd
000001a0: 3065 bc3b 864b fb3d 2435 883c c398 0e3c
000001b0: a0c9 ddbd e587 c9bb d363 c4bd fe9e 09bd
000001c0: 2449 b83d 4c1a 89bc e688 543d 0c2d 393d
000001d0: b0cf ab3d 7d8a 2f3d bd94 e9bd e2a8 48bc
000001e0: 9428 0c3b 73ec 3abd 9063 adbd 38ad b3bd
000001f0: 2df5 603d 83fe 3abd c207 8abb 5411 1e3d
00000200: 694c 963d 13d3 aa3d 0ceb 183d 87d5 063e
00000210: d65b 963b 91cf 89bd 5fdf 363d daf0 ee3b
00000220: cc1b 0b3e 3e85 ccbd ae01 5ebd 94ca 9b3d
00000230: 00e8 c8bd 2ccf a03d 7629 82bd b622 c73c
00000240: 1ff2 b63d 8fc4 2c3d d32b b9bd 7e04 573d
00000250: a33f 9ebc 4776 f3bc 2e3c d8bd 54ea b8bd
00000260: 0fc2 d9bc e898 de3d e196 d4bd 18d8 e9bd
00000270: 634f a8bd 3b3d 653d 07dd ecbd cad3 08be
00000280: 0546 1cbc 6af1 cbbd 35aa a93c 6419 52b9
00000290: 140d d43d fe47 ecbc 43bf ecbd 978c 66bd
000002a0: 87e9 27bc 1918 8fbd 929a de3d bd6a a6bd
000002b0: 815b efbd 0876 293d f9b5 f4bc d0a0 ba3d
000002c0: cdc4 1c3c 9209 773d 6c4a c33d a7d4 a4bb
000002d0: 5155 43bd 2538 5bbd 9e16 3fbd 931c c8bd
000002e0: b33f af3d aeb3 903d d65f 4fbd 7509 e83d
000002f0: 4e74 8d3d b81d 813d c23c aa3d cb11 043c
00000300: 5889 54bc a166 e53d 2cac c03c 9b09 8b3d
00000310: fcf6 573d 7ad5 8ebd 8f97 40bd 6380 d33d
00000320: ab7b 13bd 7dbc 21bd 031f 20bd e534 f0bd
00000330: 7676 673d 2578 883d f3de 88bd 3b29 0cbe
00000340: eab3 493c 84b8 6e3c 2437 943d 2afb 183d
00000350: 033a 0bbd 0c61 873d 3ce8 ca3d 7b98 9b3d
00000360: 0e3c cf3d 3811 c7bd 4f08 0e3d 2c88 643d
00000370: e582 a73d 828a 0bbd 270b b63c b9d7 efbd
00000380: 8d73 ac3d 9bd1 cf3c dfed 973d 22e4 553d
00000390: 1851 32bd 8730 b03d 0ec5 823d ec5d 4cbd
000003a0: 3c68 a8bb 772f b1bd 3e41 d7bd 767e 823d
000003b0: 59af b4bd c47f 063d 494b c4bd 7e23 543c
000003c0: 7b4e 39bd bc4e 973d c2d8 003e 0515 9ebd
000003d0: 3cc9 51bd ec42 0bbd 6910 00be 3a27 c4bd
000003e0: 0459 4dbd eb41 18bd 3af5 003e c078 613d
000003f0: e7af d33d b24c b1bd d1af 56bd 06fa a1bb
0.054748196 0.010840052 -0.073534794 -0.106103085 -0.03585619 0.061270855 -0.004517216 0.015472228
-0.08065234 -0.06553564 -0.008094457 0.04323505 -0.12212248 0.04381648 0.07240205 -0.13732496
0.04207183 0.028280592 0.042329926 -0.064880244 0.06082123 -0.0818411 -0.042687315 0.04871288
-0.01574073 0.10026657 -0.023331115 -0.1076965 -0.11713753 -0.0037767156 -0.10540181 0.09599798
0.089646794 0.084096745 -0.09756616 -0.019736536 0.10660287 0.044447288 0.007827722 0.0077849724
-0.08291428 -0.025412243 0.054815162 -0.010578529 -0.017620554 0.045447044 -0.06780605 -0.027793286
0.10653843 0.036074243 0.07130184 -0.046046883 0.061237924 -0.0814886 0.107224435 -0.021022845
-0.079265095 -0.03547035 0.096413456 0.11279161 0.018289132 0.103077136 -0.042655353 -0.007869418
0.09495871 -0.014236455 0.009097985 0.06299706 0.017886953 -0.0647581 0.02241441 -0.010924639
-0.01932654 0.12226344 0.119117916 -0.12213226 -0.040820763 -0.019267337 0.05521469 -0.02018261
-0.0112263495 -0.024086457 -0.08004883 -0.10887639 -0.085197166 0.027658116 0.068984024 -0.0057097166
0.10869355 -0.03053767 0.09207273 -0.024078507 -0.0716727 0.0060643605 -0.12140998 0.04536169
0.023967758 0.047951292 0.068057016 0.11281993 -0.07868885 -0.12257641 0.008948884 -0.073295884
0.005749367 0.12270264 0.016626902 0.008703413 -0.108294725 -0.006150233 -0.095893525 -0.033598892
0.089983255 -0.016736172 0.05188837 0.045208976 0.083892226 0.042856682 -0.11405323 -0.012247296
0.002138649 -0.04563565 -0.08466256 -0.08773273 0.054921318 -0.045652878 -0.0042123506 0.038590744
0.07338793 0.083410405 0.037333533 0.13167392 0.0045885844 -0.06729043 0.044646617 0.0072918953
0.13584822 -0.099863514 -0.05420082 0.07606998 -0.098098755 0.07852015 -0.06355564 0.024308544
0.089329 0.04217964 -0.09041562 0.05249452 -0.019317454 -0.029719485 -0.10558353 -0.090290695
-0.026581792 0.10869008 -0.1038034 -0.1141817 -0.08218267 0.055966597 -0.11565595 -0.13362041
-0.009538178 -0.099581555 0.020711044 -0.0002003662 0.10354057 -0.028842922 -0.11559918 -0.05628642
-0.010248548 -0.06987018 0.10869326 -0.081258275 -0.11687375 0.04137233 -0.029871928 0.09112704
0.009568405 0.06031186 0.09535679 -0.005030233 -0.047688786 -0.05352034 -0.04665243 -0.09771075
0.085570715 0.07065521 -0.050628506 0.11329929 0.06906949 0.063044965 0.0831237 0.008060883
-0.012972198 0.112012155 0.023519598 0.067889415 0.052725777 -0.06974311 -0.047019538 0.10327222
-0.03600661 -0.039486397 -0.039092075 -0.11728839 0.056509458 0.06663541 -0.06683149 -0.13687603
0.012310961 0.014570359 0.0723708 0.037348904 -0.03399087 0.06610307 0.099075764 0.07597443
0.101188764 -0.09720081 0.034675892 0.055793926 0.08179263 -0.03406764 0.022222115 -0.11711068
0.08420477 0.025368502 0.07418417 0.052219518 -0.04353437 0.08603006 0.063852414 -0.04989426
-0.005139379 -0.08651631 -0.10510491 0.06371777 -0.088225074 0.03283669 -0.09584672 0.012947915
-0.04524086 0.07388064 0.12582687 -0.07718853 -0.051217303 -0.03399937 -0.1250626 -0.095777944
-0.05013372 -0.03717224 0.12593547 0.055046797 0.10336285 -0.086572066 -0.052413765 -0.004943135

lstm.weight_hh_l1 f4 [256, 64]
00000000: 7013 c7bd 63fd 62bd 863f d83d e1ce bebd
00000010: db3a c23c 4c0d dfbc 03eb 0d3d ee03 1bbb
00000020: ee25 a6bd 10fd 0bbe 4ddc babd 2905 06bd
00000030: 269f 1c3d 58ba c23d e5dc 1c3c cbfb e13c
00000040: 2a74 5dbd 12c7 7abd 05ba 863b 76fc 3fbd
00000050: 670a 61bd 14ba 9f3d d01b 7cbc 7b97 16bc
00000060: 2cb8 a2bc 0ec5 fbbd 9108 59bd 1281 533c
00000070: f26f adbd d8c4 fa3d 2685 8e3b bcb9 ae3d
00000080: fc1b c9bd fc28 2dbd 8db0 59bd 55d4 633d
00000090: 70de eb3d 7ac9 4f3d 3bdd f7bd e786 813d
000000a0: dd8e 063e 3a7a d3bb 5f89 c7bd 5e68 693c
000000b0: 783c a4bd d418 e1bd 0a99 6cbd 11b9 a43d
000000c0: 96d4 e83d d962 1f3d 8d9d 373b a1c3 b7bc
000000d0: 00df 97bd 4fdd 72bd 1d58 da3d 1850 853d
000000e0: 6bc2 413c ab87 4fbc c9a2 3dbc cda8 e2bd
000000f0: 767f 9f3d 2370 cd3d 0ced d9bd 9e38 adbd
00000100: 979c 1bbd c226 bbbc d21a 56bd 1601 d73d
00000110: b288 6f3c 3b22 b9bd 322c 24bd 00db f73d
00000120: 1c95 813d 9ecb d03c afb8 98bd 1cc0 233c
00000130: 23bf e93c fd2a b3bc 3d85 d9bd 169b f73d
00000140: 2b55 ce3d b96d 42bc 6663 36bd deb7 bb3d
00000150: 67d7 ddbd 6ffc 473d c3fb cd3d 1912 ca3d
00000160: 709a febd 9764 e33d 31fc f83d 5d1d e13d
00000170: b78f cf3c c63d 08be 2aa6 603d 28d1 e4bd
00000180: e6b6 ffbd c756 14bd de6d da3d c8e8 d6bd
00000190: c098 b4bd 1290 9ebd 7fdb aebd f4d1 c5bd
000001a0: b6ea 9e3b b111 e9bd 4080 b73d 3acf c53d
000001b0: 4b8e febd 6ace 6e3d 0978 aa3d 86ad 7fbd
000001c0: 0afe bebd 412b 033d 4d21 b13d e4ba cfbc
000001d0: a961 37bd 8413 1abd 6e78 323d 8493 103b
000001e0: 1c49 85bd af26 553d 3a02 e0bd f271 93bd
000001f0: a85f 53bd e3f6 343d 27b8 a23d 0c19 47bc
00000200: f7bf ebbd d411 babd 4056 623d 51eb 7d3c
00000210: 9da8 bfbd 978d c6bd a7f7 e93d 49d2 bdbd
00000220: ee19 c8bc f869 f93d 1280 bbbc 2aa6 963d
00000230: fcbc 943d 248e ecbd 48a8 e53d c427 d5bd
00000240: f378 403d ca57 5cba 2361 c73c 2f10 a53d
00000250: cb30 43bd cefc 28bd 6248 96bd 518c a63d
00000260: f5f9 253d 6bc5 7f3d 0ef4 893d 17ea 1bbc
00000270: 5d7f 90bd 5416 adbd a638 38bd fe3f 65bd
00000280: fc40 06bd e0b1 ac3c 49be fabd 7749 c9bd
00000290: effe b93d f90d bebd 0349 caba c516 963d
000002a0: bf73 18bd db59 123d 0104 0f3d 1b97 3d3d
000002b0: a38b a43c c6ad 12bd 4b88 5fbd aa00 793d
000002c0: 4747 debd 86ed fb3d d532 9d3d e3d2 c43c
000002d0: aac3 cd3d 6396 abbd 454f 363d 4d11 6abd
000002e0: e9f5 9f3d fcfb 96bc 8fd3 d43d fd27 cebd
000002f0: 3ae9 60bd 96fa d93d 541e 43bd 069a ecbb
00000300: e4e0 243d 0ec4 843d 5c0c 653d 6a19 653d
00000310: 24e2 87b9 7ea6 ae3c 425b ba3d e03b 09be
00000320: 9dfe d43d 38ec 1f3c b535 f8bd b633 2dbd
00000330: 4cb5 c0bd d244 d03d f7a9 dbbd 7c23 efbc
00000340: 0910 e53d 8b71 343c aaea fcbd d785 a63c
00000350: 0ab2 0a3e 5ecc 453d 951f d23c d364 9bbd
00000360: 7fc2 853d 81e9 ac3d 9039 0d3e be48 013e
00000370: c401 093e 84ae 083d 3844 56bd 5c75 ae3d
00000380: db0d d2bc fc1c 2f3c be88 633d c9f6 143d
00000390: e52a 38bd 3d4f 7dbd 6fa7 66bd 40a0 103c
000003a0: 8114 a9bd 5a91 dbbd 5d34 bcbc 3ef3 d6bd
000003b0: 4c3c ed3c a9fa 11bd 22ae 01bc d588 143d
000003c0: 6410 bcbd 5a62 4dbd a354 0f3d e690 a13d
000003d0: 403e eb3d 784c e63d 9b5b 523d 7ccb 2abc
000003e0: a4d6 afbd 2900 86bc 4bcc c4bb 175b 283d
000003f0: 90f5 dfbb 82f6 87bd 9740 213c 36ce d23d
-0.09720504 -0.05541743 0.10558991 -0.09316803 0.023709705 -0.02722802 0.034647953 -0.0023653465
-0.08112703 -0.13670754 -0.0912405 -0.032719765 0.038237713 0.095081985 0.00957415 0.027585885
-0.05406586 -0.061225004 0.0041115307 -0.046871625 -0.05494156 0.077991635 -0.01538749 -0.009191389
-0.01986321 -0.122934446 -0.052986685 0.012909191 -0.084686175 0.12244576 0.0043493686 0.0853152
-0.09819791 -0.042275414 -0.053146888 0.055622417 0.11517036 0.050729252 -0.12102743 0.06324559
0.13140436 -0.0064537795 -0.09742998 0.0142460745 -0.08019346 -0.10991064 -0.057763137 0.08043111
0.113686725 0.038912628 0.0028017492 -0.02243215 -0.07415581 -0.059293088 0.106613375 0.06509417
0.011826138 -0.012666623 -0.011574456 -0.110673524 0.07787983 0.10031154 -0.10640916 -0.084580645
-0.037991133 -0.02284563 -0.05227167 0.10498254 0.014619993 -0.09039732 -0.04008121 0.12102318
0.063272685 0.025487717 -0.074571006 0.009994533 0.028533524 -0.021871084 -0.10621116 0.12090127
0.10074838 -0.01186698 -0.044528387 0.09165929 -0.108321 0.048824724 0.10057785 0.09866733
-0.124318 0.1110317 0.12157477 0.10991929 0.025337083 -0.13304815 0.054845966 -0.11172706
-0.12486057 -0.03621557 0.10665487 -0.10493618 -0.08818197 -0.07742323 -0.08537959 -0.09659186
0.004849757 -0.113803275 0.089600086 0.09658666 -0.12429484 0.05830232 0.08323676 -0.062421344
-0.09325798 0.032023672 0.0864893 -0.025357671 -0.04477087 -0.037616268 0.043571882 0.0022060582
-0.06508085 0.052038845 -0.10937925 -0.07199468 -0.051604897 0.044180762 0.079452805 -0.012151968
-0.11511224 -0.09085432 0.055258036 0.015497998 -0.09358332 -0.09694975 0.11424189 -0.09268624
-0.024426427 0.12178415 -0.022888217 0.07355912 0.072626084 -0.11550549 0.11213738 -0.10407975
0.046990346 -0.00084054156 0.02433831 0.080597274 -0.047653954 -0.04125672 -0.07338025 0.08132232
0.04052158 0.06244413 0.06736003 -0.009516261 -0.070555426 -0.084515244 -0.0449759 -0.05596923
-0.032776818 0.021080911 -0.12243325 -0.098284654 0.09081828 -0.09280009 -0.0015433136 0.07328562
-0.03721976 0.035730224 0.034915928 0.046286684 0.020086115 -0.035810255 -0.05457334 0.06079165
-0.10853439 0.123011634 0.07675711 0.02402634 0.100470856 -0.08378293 0.04450919 -0.057145406
0.078105755 -0.018430702 0.10391914 -0.10066221 -0.054909922 0.106434986 -0.047636345 -0.0072205095
0.040253535 0.06482707 0.05591999 0.05593244 -0.00025917694 0.021319624 0.09099437 -0.13401747
0.10400126 0.009760909 -0.12119619 -0.042285644 -0.0940958 0.101693764 -0.107257776 -0.029191725
0.11184699 0.011013399 -0.12349446 0.020327492 0.13544479 0.048290603 0.025649825 -0.0758759
0.06531238 0.08442975 0.1379149 0.12625405 0.1337958 0.033369556 -0.052311152 0.08518478
-0.025641372 0.010688063 0.05555033 0.036368165 -0.044962782 -0.061843146 -0.05631202 0.008827269
-0.08255864 -0.10721083 -0.022974188 -0.104956135 0.028959416 -0.03563944 -0.007915052 0.036263306
-0.09182814 -0.050142623 0.034992825 0.07888965 0.114864826 0.11245054 0.051356893 -0.010424491
-0.08585861 -0.016357498 -0.006005799 0.041102495 -0.0068346933 -0.066388145 0.00984206 0.10293238

lstm.bias_ih_l1 f4 [256]
00000000: 8b31 04bc 5f9e db3d 2f77 963c 8781 ac3d
00000010: f77b abbd c54e 723d 6c16 783d f0dd aabd
00000020: 9d16 f33d 381f 1cba 7bcf a13d a8af 263b
00000030: 29d3 b6bd ddb3 ae3d b737 ccbc 01df a0bd
00000040: 455f aa3d 37ab 133d 7490 753d 474f 963d
00000050: 3c90 123d 9939 f73d 20b1 b33c 297c 0b3b
00000060: b35d 95bd ad2d c13d 95bf e23d b059 a0bd
00000070: 2fe6 93bc 3c01 96bd 2e5a ab3d 20e6 d8bc
00000080: b095 09bd 546d cbbd a752 893d 77c3 adbd
00000090: a8a9 e63d 3087 233c b796 d9bd ded6 81bd
000000a0: 6770 e63d b49a 243d cf9f 0e3e 4e52 6abb
000000b0: 329f e5bb f0f8 da3d 73ca 67bd 0a39 d23d
000000c0: 79a7 00bc 2963 d6bd 6c80 e039 42f2 aa3d
000000d0: 6028 753d 12c7 8a3c c5d7 b83b af73 9d3b
000000e0: 3296 fa3c 60e7 92bd ad34 e0bd 5e54 b1bd
000000f0: 2b1b 22bd c474 8c3c 2327 dcbc c5d5 d6bd
00000100: fe91 08be f0de d63c 338f 0abd 5bbd 2a3d
00000110: 05f8 b23d fc09 c1bd f185 0f3d 0e63 c1bd
00000120: 3e0d 813c 7ca2 473d 36aa 8b3d 0a3e 83bd
00000130: 0d6c 45bd b3b5 f1bd 8d63 9ebd 005d c8bc
00000140: 572d 43bd b89f b8bd bfde 213d 4d20 34bc
00000150: e190 83bd 4387 9c3d bdf0 44bd d99e acbd
00000160: 944e d7bd bf08 d73d bcfb d33c 3f2f 07be
00000170: 358f 32bd b17a a9bd db1a c13d 3bdc e83d
00000180: fd97 69bd 2d94 9abd 3782 ce3c e7bb f73d
00000190: 2b0e 713d f68d b1bb aeac 123d a82a ae3c
000001a0: f915 74bd 196c 06bd c471 dc3d 705c 1d3d
000001b0: a671 e03d 0474 82bd ae01 003a f12c 04be
000001c0: cd3f 563d 77cc 2b3c 9055 323d beec 8ebd
000001d0: 13e5 d4bd c44f 75bd 285f d33c c682 fcbd
000001e0: 7f25 233c 8cf9 7eb9 50d4 7b3c fee4 a73c
000001f0: 2ce2 dcbd 5d8b 303d 116e afbd 3c1e d4bc
00000200: 67bf 333b 0703 b33d e6a1 a9bd a3ed fbbd
00000210: af40 c4bd 21be 68bd e56b 9ebd 3676 013b
00000220: 6eba d6bd 491d 3cbd 8729 d53c 95af febc
00000230: d2cb 26bd f238 91bd 0ae1 873c aa2c 9fbd
00000240: 6d32 71bd e0e9 d63d 6c59 843d e426 d03c
00000250: 167f 8cbc be69 a63d 9b84 dfbd 9aa3 efbd
00000260: ebdc 4d3d f779 fcbb a6ff e5bd 7a12 d4bd
00000270: 8011 993c eb08 a6bd 61bf 42bd 96b4 e73c
00000280: 410d a0bd d590 b4bd 5e34 c9bc c8a5 b1bc
00000290: ca8c d1bd 86da 2fbd b9ba 643d 20c4 db3d
000002a0: ac0e 05bd 66f8 20bd 3845 f9bd 97bd a8bc
000002b0: 9b58 993d 8170 483d 9440 553d 9a13 e6bc
000002c0: 38ed 1ebd 9292 023d 2bb3 0dbd 7731 e6bb
000002d0: 9082 7bbd 9b1d 1bbd ee26 3dbc d80e 83bd
000002e0: d7d0 59bd da8e 97bc bd97 ab3d dde8 e2bc
000002f0: 6a1d 75bd 2038 633d 3eba 243b abc0 233d
00000300: fda7 a9bd 154a 98bd 3f5c f7bd 5e3f cbbd
00000310: 2424 063d 26a0 b13d 7537 b7bb 3c26 05bc
00000320: da3f 8c3d ad66 9c3d 40d0 50bc 08a6 2fbb
00000330: 9648 c3bd f0e3 8abd 9c4f cc3d f297 a4bd
00000340: 6524 5bbc 5f96 91bd ed0b 06be 7e52 c6bd
00000350: 5773 0e3d 7cb9 903c 0952 b43d a4ab 61b9
00000360: 8232 483c 0aef dfbd 26bf 05bb e769 f73d
00000370: 3604 533d f3b2 953b 759c 6a3c 66df 88bd
00000380: ceea f9bd 4300 2cbd 1cf4 983d 584d 00be
00000390: 2ee2 fabd f97e c2bd d7e1 39bd 6341 a0bd
000003a0: 4be2 d83d 3738 903b f1a7 b4bd 6796 c93d
000003b0: 43df 22bd 1411 edbd 9b2f cb3d f7a8 a0bd
000003c0: 8681 cbbd 732b 54bd 4b19 b8bb 851c a73d
000003d0: 02ed fdbd fcbd 15bd c0bd b0bd de36 a13c
000003e0: ca83 9c3d c743 783d c2f5 6f3d c569 7d3a
000003f0: 961a 8ebd 5250 cdbc 05fc c13d b1cb 393d
-0.008068453 0.10723566 0.018367378 0.08423143 -0.08373254 0.05915715 0.06056826 -0.083431125
0.118695475 -0.00059555797 0.07900902 0.002543429 -0.08926994 0.085304 -0.02492891 -0.078550346
0.083189525 0.036051955 0.059952214 0.0733934 0.035782084 0.12071533 0.021935046 0.0021283722
-0.07293262 0.0943254 0.110716976 -0.078296065 -0.018054096 -0.07324454 0.0836681 -0.02647692
-0.03359002 -0.09932962 0.06705218 -0.084845476 0.11262828 0.009980962 -0.1062445 -0.06339811
0.11251908 0.0401866 0.1392815 -0.0035754624 -0.007007503 0.10692012 -0.056589555 0.102647856
-0.007852429 -0.10468132 0.0004282029 0.08346988 0.059852958 0.016940627 0.005640956 0.0048050503
0.030589197 -0.071730375 -0.10947547 -0.0865867 -0.03957669 0.017145522 -0.02687413 -0.10489992
-0.13336942 0.026229352 -0.03382797 0.04168449 0.08738712 -0.094257325 0.035039846 -0.09442721
0.015753385 0.04873894 0.068195745 -0.064083174 -0.04819875 -0.118022345 -0.077338316 -0.024458408
-0.04765066 -0.09014839 0.039519068 -0.010994029 -0.06424118 0.076429866 -0.04808115 -0.08428735
-0.105130345 0.10499715 0.025876872 -0.13201617 -0.043593604 -0.08275355 0.094289504 0.11370131
-0.057029713 -0.075477935 0.025208576 0.120963864 0.058851402 -0.0054185344 0.03580921 0.021260574
-0.059591267 -0.032817934 0.107638866 0.038418233 0.10959177 -0.063697845 0.0004883063 -0.12907769
0.05230694 0.01048576 0.04353863 -0.06978749 -0.10395255 -0.059890524 0.02580221 -0.123296306
0.00995767 -0.00024316291 0.015370443 0.020494934 -0.10785326 0.043101657 -0.085659154 -0.025893323
0.0027427317 0.08740812 -0.08282833 -0.12301185 -0.0958265 -0.056821946 -0.07735423 0.0019754297
-0.104847774 -0.045926366 0.026020778 -0.031089583 -0.040721722 -0.070909396 0.0165868 -0.07772191
-0.05888598 0.10493827 0.06462368 0.02540917 -0.017150443 0.081256375 -0.10913964 -0.117011264
0.050259512 -0.007704969 -0.11230402 -0.103550866 0.018685102 -0.0810717 -0.047545794 0.028284352
-0.07815028 -0.08816687 -0.024561103 -0.021685496 -0.102319315 -0.04293301 0.055842135 0.10730767
-0.032484695 -0.03929939 -0.121714056 -0.020598216 0.07487603 0.048935417 0.05206354 -0.028085519
-0.03880045 0.03187806 -0.034594696 -0.0070249396 -0.06140381 -0.03787003 -0.011544926 -0.063993156
-0.05317768 -0.018500734 0.08378551 -0.027698928 -0.059842505 0.055473447 0.0025135423 0.039978664
-0.08283994 -0.07436005 -0.120781414 -0.09924196 0.03274931 0.08673124 -0.005591328 -0.008126792
0.06848116 0.07636771 -0.012744963 -0.0026801843 -0.09535329 -0.06781757 0.09976122 -0.08036794
-0.013375376 -0.07108759 -0.13090487 -0.09683703 0.034777965 0.01766657 0.088047095 -0.00021521613
0.012219073 -0.10934265 -0.0020408123 0.12080746 0.051517688 0.0045684515 0.014319529 -0.06683235
-0.122029886 -0.041992437 0.07468435 -0.12529504 -0.122501716 -0.09496874 -0.045381393 -0.078249715
0.10590037 0.0044012326 -0.08821095 0.0984314 -0.0397637 -0.11575523 0.099211894 -0.078447275
-0.09936814 -0.05179925 -0.0056182495 0.081597365 -0.12398721 -0.036558136 -0.08629942 0.019679483
0.07642324 0.060611513 0.058583982 0.0009666945 -0.069386646 -0.025062714 0.09471897 0.04536027
