artifacts/SKU_01/model.pt (torch, 219227 bytes, 12 tensors)

lstm.weight_ih_l0 f4 [256, 10]
0.08031291 0.09682091 -0.051219195 0.09366614 -0.03734925 0.020176098 -0.061811153 0.06814602
0.101267226 -0.09693951 0.11608046 0.00055716967 0.08999749 0.022593025 0.064855486 -0.014810589
0.09690407 -0.0016131492 -0.0767079 0.03804326 -0.07894854 -0.023878258 -0.062409434 0.0720568
-0.105889864 -0.05081665 -0.03421561 -0.09500609 0.016480036 -0.13919206 0.10614308 -0.106460094
0.09490473 0.01725899 -0.036769375 0.07666452 0.017705344 0.11381537 0.018562632 -0.052049946
0.0406154 -0.042308256 0.06261815 0.121716626 0.07757815 -0.04533463 0.068289496 0.027095448
0.06767746 -0.074849404 -0.14312509 -0.027461458 -0.08873732 0.114154056 0.051420223 0.04807546
0.02953279 -0.017933318 0.09896105 -0.06857081 0.008309867 -0.06420456 0.048475903 -0.03426108
0.05909372 -0.031107537 0.08314946 -0.08073405 -0.06527473 -0.066393256 0.10967675 0.037417978
0.11466515 -0.10674623 -0.1207437 -0.08984619 -0.08560663 0.03830709 0.05327703 0.08297377
-0.07571382 -0.07160942 0.06324932 -0.05077275 0.09798047 -0.031586025 0.049809705 -0.08838877
-0.07135037 0.04520305 0.0072629857 -0.049765505 0.057050597 0.06646172 -0.10841229 -0.04828644
0.13432609 -0.02684729 -0.04259069 -0.12602453 -0.08228127 0.027712094 -0.029059894 -0.09993035
0.01374674 -0.0782872 -0.10712437 -0.07773687 -0.098251484 -0.09996106 0.11961769 0.028772768
0.054478135 -0.09905048 -0.060902286 -0.043041114 -0.001914751 -0.08864521 -0.06466603 -0.063943304
-0.018548025 -0.065054245 0.007967274 -0.06823671 -0.09780456 -0.07054318 -0.028304374 -0.107619844
0.0931799 -0.047752142 0.0874726 0.05377683 -0.12132739 0.070697896 -0.011674189 -0.054908577
-0.1261115 -0.10204637 0.044359285 -0.045764364 0.055088375 -0.08607629 0.09009677 -0.09948043
-0.012698934 0.011059587 0.052286487 0.10270761 0.10296609 -0.116287276 0.026292456 -0.04389605
-0.035255812 -0.11443596 0.11951265 -0.10921577 0.06501697 0.052423675 0.04969562 -0.062427398
0.100699626 0.004778029 0.031773087 -0.09522483 0.058517456 -0.020905795 -0.058882542 0.09864381
0.03745517 -0.07438881 -0.05856755 0.014443011 0.051654737 -0.0494847 -0.09208413 -0.03588927
-0.08396407 0.023591764 0.115955554 -0.13514592 0.023286086 0.057110086 0.02163103 -0.04615886
0.059220638 0.05383356 0.047732387 -0.044317354 -0.016407913 -0.005311744 -0.037738085 -0.017854944
0.097121805 0.12282787 0.00149818 -0.008393942 -0.019113703 0.0013220028 0.041491948 0.017699799
-0.12943204 -0.023979846 0.10401483 0.048400734 -0.0071829264 -0.05633175 -0.07701252 -0.1135747
-0.030550575 0.06071206 0.080967724 0.061205897 -0.12406638 -0.088062786 -0.042053025 0.10815468
0.03790324 -0.054487947 0.047131807 -0.02979792 -0.07460705 0.09910116 -0.074757285 -0.042317215
-0.12625496 0.07024537 0.11428867 0.05931072 -0.09570884 -0.11236326 -0.121455014 0.07069578
0.04160279 0.08542075 0.08189359 0.025007095 -0.016049134 -0.10361872 -0.1085891 -0.111875795
0.057208184 -0.047530394 -0.040175125 -0.08892078 -0.044154506 -0.069672294 -0.07036775 0.018637426
-0.018482232 0.058192212 -0.039291523 -0.08248786 -0.027010003 -0.06847049 -0.03564417 -0.13371606
00000000: 187b a43d 0b4a c63d 38cb 51bd 09d4 bf3d
00000010: 87fb 18bd 5848 a53c b12d 7dbd 2490 8b3d
00000020: 3165 cf3d 3988 c6bd 98bb ed3d 060f 123a
00000030: 9b50 b83d 0215 b93c f4d2 843d 1da8 72bc
00000040: a475 c63d 4e70 d3ba 0819 9dbd 40d3 1b3d
00000050: c6af a1bd 569c c3bc 09a1 7fbd 8492 933d
00000060: c9dc d8bd 1f25 50bd ab25 0cbd 8e92 c2bd
00000070: 2401 873c 5d88 0ebe 8b61 d93d c007 dabd
00000080: 695d c23d ba62 8d3c 7c9b 16bd 4a02 9d3d
00000090: cc0a 913c 0818 e93d a910 983c 5332 55bd
000000a0: 555c 263d 6c4b 2dbd f23d 803d 9146 f93d
000000b0: 4be1 9e3d ceb0 39bd 5ddb 8b3d 46f7 dd3c
000000c0: 7b9a 8a3d a54a 99bd 628f 12be daf6 e0bc
000000d0: e9bb b5bd 9ac9 e93d 039e 523d c6ea 443d
000000e0: c0ee f13c e5e8 92bc 17ac ca3d da6e 8cbd
000000f0: 1c26 083c ae7d 83bd ab8e 463d 5955 0cbd
00000100: 420c 723d 3cd5 febc 444a aa3d e557 a5bd
00000110: c2ae 85bd 30f9 87bd 349e e03d 9843 193d
00000120: 90d5 ea3d c49d dabd 7948 f7bd 4701 b8bd
00000130: 8752 afbd e5e7 1c3d 0439 5a3d 27ee a93d
00000140: d90f 9bbd f6a7 92bd dc88 813d 16f7 4fbd
00000150: fca9 c83d 5960 01bd 4305 4c3d 2c05 b5bd
00000160: 2520 92bd d526 393d 57fe ed3b ead6 4bbd
00000170: e3ad 693d 151d 883d 4307 debd 01c8 45bd
00000180: c78c 093e d9ee dbbc 9373 2ebd 930c 01be
00000190: 1583 a8bd 7904 e33c 040f eebc 49a8 ccbd
000001a0: 023a 613c 0a55 a0bd 0664 dbbd 8234 9fbd
000001b0: 1338 c9bd 62b8 ccbd 1ffa f43d deb4 eb3c
000001c0: 7724 5f3d fada cabd ad74 79bd e14b 30bd
000001d0: 62f8 faba 9f8b b5bd a06f 84bd b5f4 82bd
000001e0: 07f2 97bc 293b 85bd 2b89 023c b0bf 8bbd
000001f0: c24d c8bd f178 90bd 93de e7bc cb67 dcbd
00000200: 1ad5 be3d c097 43bd d624 b33d 1845 5c3d
00000210: 7f7a f8bd 0fca 903d 1945 3fbc d1e7 60bd
00000220: 6023 01be b0fd d0bd 15b2 353d 6a73 3bbd
00000230: 59a4 613d c448 b0bd a884 b83d 65bc cbbd
00000240: 310f 50bc 4533 353c 5b2a 563d 5e58 d23d
00000250: e3df d23d 0628 eebd 4763 d73c 58cc 33bd
00000260: 6668 10bd 675d eabd 0cc3 f43d 85ac dfbd
00000270: 9e27 853d 35ba 563d a28d 4b3d dfb3 7fbd
00000280: 9b3b ce3d 0391 9c3b 7f24 023d 3c05 c3bd
00000290: 00b0 6f3d a142 abbc d22e 71bd c405 ca3d
000002a0: 986a 193d 2959 98bd 87e4 6fbd 61a2 6c3c
000002b0: eb93 533d 78b0 4abd 9b96 bcbd a100 13bd
000002c0: 5bf5 abbd 8443 c13c 1b7a ed3d b163 0abe
000002d0: 76c2 be3c 44ec 693d 8f33 b13c 1311 3dbd
000002e0: 5791 723d 9480 5c3d 0983 433d 1d86 35bd
000002f0: e369 86bc 230e aebb 4093 1abd 8844 92bc
00000300: cce7 c63d 2e8d fb3d 945e c43a bf86 09bc
00000310: 5794 9cbc 0e47 ad3a 76f3 293d 2bff 903c
00000320: d589 04be 6271 c4bc ba05 d53d d93f 463d
00000330: c15e ebbb 1fbc 66bd bdb8 9dbd da99 e8bd
00000340: 3345 fabc 36ad 783d 68d2 a53d 09b3 7a3d
00000350: 8416 febd 435a b4bd cb3f 2cbd 3380 dd3d
00000360: 6e40 1b3d c12e 5fbd 480d 413d c41a f4bc
00000370: 95cb 98bd 8df5 ca3d 591a 99bd d154 2dbd
00000380: fb48 01be cedc 8f3d 2e10 ea3d ccef 723d
00000390: ff02 c4bd b51e e6bd 68bd f8bd f3c8 903d
000003a0: b067 2a3d 13f1 ae3d d4b7 a73d aedb cc3c
000003b0: 7979 83bc 0d36 d4bd f663 debd 231f e5bd
000003c0: 2153 6a3d 3baf 42bd ac8e 24bd 191c b6bd
000003d0: 5bdb 34bd 59b0 8ebd f81c 90bd 84ad 983c
000003e0: 0d68 97bc f55a 6e3d 26f0 20bd 65ef a8bd
000003f0: 1544 ddbc 423a 8cbd 9fff 11bd ddec 08be

lstm.weight_hh_l0 f4 [256, 64]
-0.067535326 0.06593078 0.09511559 0.00013754272 -0.05725897 0.022951448 0.014304854 0.10283973
0.031196417 0.028451312 -0.009888308 0.07850225 0.020665282 0.117377706 0.06333876 -0.100675315
0.00038372184 -0.11158339 -0.073480986 0.040081803 0.028488362 0.011518962 0.107872896 -0.07880561
-0.0698934 -0.042663008 0.015183536 -0.030200543 0.1275814 -0.046811014 -0.07765624 0.015701108
0.1059329 0.026207393 0.055071875 0.010570716 0.09503011 0.087731145 0.10284604 -0.008941252
-0.09129837 -0.040300485 0.032729793 0.06751577 -0.064078204 0.11345217 0.0037829396 -0.011517132
-0.0012232319 -0.013046173 0.13277863 -0.016182428 0.09128093 -0.11745 -0.052359913 -0.007038328
0.09216536 0.057727132 0.014313683 -0.14623491 0.0154380845 -0.07020543 -0.109628566 0.036618527
-0.069604 0.09270727 -0.06809146 0.031022128 0.0931186 -0.10749536 0.08331943 -0.019330762
0.044264928 0.0983078 -0.03087184 -0.055532224 0.12186174 -0.007015095 -0.033562966 0.107839964
-0.039476648 0.01585678 0.06544319 0.036255766 -0.083253756 0.026843451 -0.086793855 -0.087989725
0.07854664 -0.052284483 -0.0775707 0.018434683 0.010671737 -0.09859096 -0.082357876 -0.114847116
0.010174297 -0.101985894 0.02279077 -0.011207427 -0.072161414 -0.049523246 -0.096968636 -0.08424489
0.0047619455 -0.09256367 -0.1066209 0.072516434 0.008046666 -0.076659165 -0.0060521597 0.07352006
-0.08849266 -0.06846782 -0.08008581 -0.012785537 -0.009945661 -0.08029245 0.08854806 -0.10936947
0.10065618 -0.067475945 -0.0043863477 0.0017650533 -0.065318234 0.096847974 -0.07316049 -0.010430205
-0.07334696 0.016127022 0.12889025 0.093720384 0.020368895 -0.04168405 0.12235972 -0.012104046
0.103022195 -0.044643156 -0.07869892 -0.08661233 0.13363203 0.03053185 -0.104419135 0.015445174
-0.04258334 -0.0069039306 0.062999204 -0.04375558 0.022111969 -0.057550162 0.0033603725 -0.12779583
-0.002718648 0.103349306 0.13145387 0.025623389 0.10862048 0.11628873 0.022248724 0.023997929
0.036426794 0.094915465 0.0909192 -0.08002411 0.010132642 -0.050644666 0.06549784 -0.10671567
0.044418156 -0.015807271 0.03218864 0.02779427 -0.07014184 0.07185674 0.030790014 -0.12495677
0.12155282 0.115028396 0.09877155 -0.023702348 0.06560371 -0.085232444 -0.026850164 0.041713525
0.07385332 0.031108579 -0.13046692 0.08297258 -0.033596307 0.12947 0.0838568 0.068104304
0.10275038 0.07406569 0.07141013 -0.044535965 0.10617106 0.03660329 0.07427562 -0.0090523185
0.099105746 0.10775423 -0.092931926 0.104613185 -0.089489274 -0.08368589 -0.10662665 0.024535606
-0.10287065 -0.038437054 -0.061408605 0.04155504 -0.13425054 -0.054412562 -0.011972979 0.015876362
-0.058059137 0.041271012 -0.0843622 -0.10697107 -0.00597582 -0.06019786 0.067246564 -0.09096792
-0.0068161967 0.06370505 -0.120364055 0.099319816 -0.0655415 -0.027103215 -0.066951446 -0.03984356
-0.04642524 -0.10641453 0.030358823 0.007349832 0.111554995 0.07596285 0.10229947 0.021068726
0.060413808 0.13049734 0.09991858 -0.08747625 -0.020778842 -0.13716006 -0.005356848 -0.03405581
0.10702596 0.014861979 0.0007789488 -0.09143733 -0.09025409 0.02987335 -0.0611456 -0.05324107
00000000: f64f 8abd b706 873d f6cb c23d 5839 1039
00000010: 6288 6abd ad04 bc3c e85e 6a3c a39d d23d
00000020: a18f ff3c ba12 e93c 9202 22bc cac5 a03d
00000030: 3d4a a93c b963 f03d c0b7 813d dc2e cebd
00000040: 462e c939 d585 e4bd 337d 96bd d12c 243d
00000050: 6d60 e93c 07ba 3c3c 77ec dc3d d664 a1bd
00000060: 4524 8fbd 68bf 2ebd 5ec4 783c 2167 f7bc
00000070: b3a4 023e e8bc 3fbd 3c0a 9fbd 9c9f 803c
00000080: 59f3 d83d e3b0 d63c 0c93 613d cc30 2d3c
00000090: 259f c23d 63ac b33d f2a0 d23d 547e 12bc
000000a0: a4fa babd 1f12 25bd ad0f 063d b545 8a3d
000000b0: 6f3b 83bd 9c59 e83d 32eb 773b 5ab2 3cbc
000000c0: da54 a0ba 9ebf 55bc 1ff7 073e 0391 84bc
000000d0: 7ff1 ba3d a089 f0bd 5977 56bd c6a1 e6bb
000000e0: 31c1 bc3d 4973 6c3d f083 6a3c 9bbe 15be
000000f0: 05f0 7c3c ddc7 8fbd f184 e0bd 4ffd 153d
00000100: 8b8c 8ebd 4fdd bd3d 8973 8bbd 1e22 fe3c
00000110: f7b4 be3d 8726 dcbd 61a3 aa3d 8c5b 9ebc
00000120: 244f 353d 9a55 c93d f1e6 fcbc c275 63bd
00000130: a692 f93d e2de e5bb 5279 09bd 33db dc3d
00000140: 44b2 21bd 14e6 813c 1407 863d ed80 143d
00000150: f280 aabd cce6 db3c fac0 b1bd f533 b4bd
00000160: 10dd a03d 4128 56bd 63dd 9ebd 5504 973c
00000170: 82d8 2e3c 0fea c9bd 3fab a8bd f734 ebbd
00000180: 18b2 263c fbdd d0bd b5b3 ba3c 5b9f 37bc
00000190: 5dc9 93bd e3d8 4abd 7e97 c6bd 9688 acbd
000001a0: 180a 9c3b 0592 bdbd 0f5c dabd 7f83 943d
000001b0: 2ad6 033c 7bff 9cbd 3251 c6bb af91 963d
000001c0: a43b b5bd db38 8cbd 0704 a4bd 6e7a 51bc
000001d0: 20f3 22bc 5e70 a4bd af58 b53d 1afd dfbd
000001e0: d424 ce3d d430 8abd 5abb 8fbb 5c59 e73a
000001f0: 91c5 85bd 3b58 c63d 2bd5 95bd 73e3 2abc
00000200: ee36 96bd d11c 843c cefb 033e 79f0 bf3d
00000210: abdc a63c e5bc 2abd bc97 fa3d 0c50 46bc
00000220: 4dfd d23d bedb 36bd e62c a1bd ce61 b1bd
00000230: d6d6 083e ee1d fa3c b3d9 d5bd c10d 7d3c
00000240: de6b 2ebd 5e3a e2bb ba05 813d 0d39 33bd
00000250: 2924 b53c b8b9 6bbd b239 5c3b e9dc 02be
00000260: 582b 32bb cda8 d33d d89b 063e 24e8 d13c
00000270: 6a74 de3d c928 ee3d f542 b63c 4e97 c43c
00000280: 4334 153d 0a63 c23d d833 ba3d aee3 a3bd
00000290: 6203 263c c870 4fbd bb23 863d bf8d dabd
000002a0: d0ef 353d 407e 81bc 3cd8 033d cfb0 e33c
000002b0: 86a6 8fbd a029 933d 573b fc3c 56e9 ffbd
000002c0: aff0 f83d 0294 eb3d bd48 ca3d 6d2b c2bc
000002d0: 3d5b 863d 598e aebd e0f4 dbbc cddb 2a3d
000002e0: 6940 973d 6bd7 fe3c 1f99 05be 87ed a93d
000002f0: 489c 09bd c993 043e 1dbd ab3d 457a 8b3d
00000300: cb6e d23d c1af 973d 793f 923d 586b 36bd
00000310: 3670 d93d 55ed 153d d11d 983d 2d50 14bc
00000320: f4f7 ca3d 40ae dc3d 1853 bebd 703f d63d
00000330: 2746 b7bd 8263 abbd 135f dabd e5fe c83c
00000340: d9ad d2bd 2c70 1dbd 9787 7bbd 9e35 2a3d
00000350: f978 09be b5df 5ebd 502a 44bc 250f 823c
00000360: 6bcf 6dbd cb0b 293d 17c6 acbd a613 dbbd
00000370: d0d0 c3bb 0892 76bd 91b8 893d 644d babd
00000380: 675a dfbb cb77 823d 6e81 f6bd 3068 cb3d
00000390: 9f3a 86bd 9007 debc d71d 89bd 0033 23bd
000003a0: 6428 3ebd dcef d9bd 11b3 f83c dcd6 f03b
000003b0: f276 e43d 6992 9b3d 6282 d13d 5298 ac3c
000003c0: 7874 773d 18a1 053e 1da2 cc3d c026 b3bd
000003d0: 6438 aabc b073 0cbe 7f88 afbb 1b7e 0bbd
000003e0: 6d30 db3d a87f 733c 5e32 4c3a 7f43 bbbd
000003f0: 23d7 b8bd f5b8 f43c cf73 7abd 4f13 5abd

lstm.bias_ih_l0 f4 [256]
-0.03371563 -0.08577557 0.14337187 0.09231145 -0.1172478 -0.09775034 0.04621687 -0.059663206
0.032948937 0.010997259 -0.028241197 0.1121545 0.060052697 0.05771828 -0.100186296 -0.03867255
0.071463734 0.064228654 0.018912919 -0.106508955 -0.05129208 0.12189199 0.09478993 0.08575859
-0.07888493 -0.06797516 0.06070106 -0.086931735 -0.00343039 0.02827123 0.052428592 0.05308344
0.02269566 0.09087509 -0.118394464 -0.053446736 -0.04181433 0.09486747 -0.096047 0.109880604
-0.053756855 -0.016972076 0.099037625 0.11822438 0.041814797 -0.02291687 0.10781468 -0.000998226
0.059459593 0.05339404 0.0077609182 0.13241093 0.06858473 0.13339163 0.13402821 0.010158124
-0.04906516 -0.040744092 -0.018214185 -0.023445254 -0.001581683 0.1356292 0.09472629 0.029481346
0.086021274 -0.05086457 0.06942525 0.11312417 0.03206008 0.020214362 0.08394754 -0.10262147
0.074731104 -0.025786621 -0.10949294 0.062138908 -0.00555998 -0.010103933 -0.07151372 -0.05403316
-0.0046162345 -0.13780378 0.07062537 0.033332188 0.06097964 0.11910145 -0.03378677 -0.05679538
-0.09049013 -0.017827254 -0.009185083 0.032710247 0.016612917 0.021204593 -0.06793152 -0.10736333
0.006156554 0.021331143 -0.049605735 -0.035011657 -0.04180683 -0.0982157 0.11885103 0.076007225
-0.077904224 -0.099746175 0.10990961 0.093194254 -0.10265235 0.03930796 -0.084734954 -0.096048474
-0.074518554 -0.012568702 0.12825227 0.072944775 -0.11676006 0.08497062 0.12770048 0.076320894
0.10880361 -0.06848176 -0.06668362 0.08533225 -0.101385206 -0.022412252 0.090519935 0.036082692
-0.032261133 0.047578882 -0.05414227 -0.059222613 0.04210837 -0.066054255 0.09311207 0.055811156
0.071310975 0.09075763 0.023918474 -0.051434875 -0.09633608 -0.027046002 -0.09751459 0.08302145
0.0047246343 -0.05863281 -0.0015735527 0.10610721 -0.055661436 0.02715557 0.019413002 -0.011387725
-0.025403261 0.046829008 -0.037486777 -0.104416996 0.030925063 -0.07159658 -0.06318773 0.003602686
0.058441244 -0.040069226 -0.076998 0.059651054 -0.07393782 0.025906539 0.03960211 -0.003138887
-0.025975393 -0.016749619 -0.07223017 0.0827663 -0.009453658 -0.045482565 -0.049019948 0.05041634
-0.06368091 0.046859257 0.0064166705 -0.117200084 0.08223995 0.04722025 0.034942437 -0.05796259
-0.10886102 0.06710513 -0.09910733 0.06048847 0.096181884 -0.015392247 -0.08381535 0.09707133
-0.10605328 -0.051146213 -0.07190382 0.0599818 0.10669781 -0.06048745 -0.07623635 0.10204031
0.07326475 0.10670139 -0.07772362 0.121479355 -0.025626838 -0.049554724 -0.047453474 0.013323169
0.085921705 -0.03538148 -0.07773489 0.036032725 -0.104471825 -0.10517425 0.022079138 0.1300977
-0.079822145 0.06941291 -0.062669314 -0.0243687 0.1358779 0.014492131 -0.0489707 -0.062251505
0.042717397 0.08429393 0.09619227 0.019649377 -0.065142356 0.08422999 -0.10347206 0.013320823
-0.09662234 -0.005581085 0.0060541984 0.09781616 0.031898085 -0.07978661 0.07719299 0.013050935
-0.09719099 -0.1023865 0.03595795 -0.05687506 -0.040729903 -0.049352847 -0.07655691 -0.09427569
-0.010031525 -0.00059454585 0.08629675 -0.085577354 0.093768984 0.12886664 -0.10887761 0.074254334
00000000: 6719 0abd 1aab afbd 13d0 123e c90d bd3d
00000010: 9d1f f0bd 5531 c8bd e74d 3d3d 6861 74bd
00000020: 77f5 063d d92d 343c 155a e7bc 42b1 e53d
00000030: d1f9 753d 016a 6c3d 792e cdbd 1c67 1ebd
00000040: 945b 923d 508a 833d 44ef 9a3c 5e21 dabd
00000050: a517 52bd 82a2 f93d 3921 c23d 33a2 af3d
00000060: 6c8e a1bd 9036 8bbd ada1 783d 4409 b2bd
00000070: 65d0 60bb 1199 e73c 5dbf 563d 056e 593d
00000080: 40ec b93c b81c ba3d cc78 f2bd f7ea 5abd
00000090: 8145 2bbd e049 c23d 4ab4 c4bd 1509 e13d
000000a0: 2630 5cbd 0609 8bbc 3dd4 ca3d a01f f23d
000000b0: fe45 2b3d 29bc bbbc f1cd dc3d e8d6 82ba
000000c0: e78b 733d b5b3 5a3d 4d4f fe3b bb96 073e
000000d0: 2776 8c3d d197 083e b13e 093e 436e 263c
000000e0: 8df8 48bd 47e3 26bd ea35 95bc 4310 c0bc
000000f0: 7a50 cfba 62e2 0a3e dbff c13d dd82 f13c
00000100: ec2b b03d 5e57 50bd d32e 8e3d a5ad e73d
00000110: 6e51 033d 9798 a53c b0ec ab3d 352b d2bd
00000120: 9f0c 993d 773e d3bc d63d e0bd 5e85 7e3d
00000130: 7e30 b6bb f78a 25bc c975 92bd e051 5dbd
00000140: c843 97bb 6f1c 0dbe 09a4 903d 5587 083d
00000150: c9c5 793d 76eb f33d ff63 0abd 46a2 68bd
00000160: e452 b9bd 760a 92bc 087d 16bc 2efb 053d
00000170: d017 883c 41b5 ad3c ae1f 8bbd 4ee1 dbbd
00000180: ebbc c93b a6be ae3c 622f 4bbd 6268 0fbd
00000190: a33d 2bbd 5025 c9bd 2b68 f33d ada9 9b3d
000001a0: 408c 9fbd b947 ccbd 4a18 e13d a1dc be3d
000001b0: 653b d2bd 6201 213d 8589 adbd 10b5 c4bd
000001c0: 2f9d 98bd f5ec 4dbc 9054 033e 1264 953d
000001d0: e61f efbd 1405 ae3d eac3 023e 214e 9c3d
000001e0: 6dd4 de3d 2a40 8cbd 6c91 88bd adc2 ae3d
000001f0: 0ca3 cfbd e699 b7bc 8462 b93d 72cb 133d
00000200: 4024 04bd 13e2 423d 49c4 5dbd 6993 72bd
00000210: d479 2c3d 7447 87bd 8ab1 be3d 3d9a 643d
00000220: 7d0b 923d 23df b93d adf0 c33c 60ad 52bd
00000230: da4b c5bd 948f ddbc bbb5 c7bd 2607 aa3d
00000240: 1bd1 9a3b f528 70bd ab3f ceba bd4e d93d
00000250: 3ffd 63bd 5c75 de3c 0408 9f3c 9593 3abc
00000260: 801a d0bc c6cf 3f3d bc8b 19bd 94d8 d5bd
00000270: 8f56 fd3c 3aa1 92bd 9268 81bd 0b1b 6c3b
00000280: 1660 6f3d a11f 24bd 21b1 9dbd aa54 743d
00000290: b66c 97bd f339 d43c d235 223d c9b5 4dbb
000002a0: 59ca d4bc 7f36 89bc 69ed 93bd 6181 a93d
000002b0: 84e3 1abc ed4b 3abd 24c9 48bd 5d81 4e3d
000002c0: 236b 82bd 7eef 3f3d ef42 d23b 9906 f0bd
000002d0: 6b6d a83d 056a 413d cd1f 0f3d 2e6a 6dbd
000002e0: 87f2 debd 6a6e 893d c9f8 cabd c2c2 773d
000002f0: 02fb c43d c32f 7cbc 62a7 abbd 55cd c63d
00000300: 7632 d9bd b17e 51bd 4f42 93bd 7aaf 753d
00000310: 6284 da3d b0c1 77bd ce21 9cbd 83fa d03d
00000320: d40b 963d 4286 da3d 902d 9fbd 2bca f83d
00000330: 60ef d1bc e5f9 4abd 935e 42bd 6c49 5a3c
00000340: b8f7 af3d 2cec 10bd 7833 9fbd 0d97 133d
00000350: 53f5 d5bd 9965 d7bd 4fdf b43c 5538 053e
00000360: cb79 a3bd 5b28 8e3d c558 80bd dea0 c7bc
00000370: 9423 0b3e 6770 6d3c 8095 48bd 6ffb 7ebd
00000380: 70f8 2e3d 4ca2 ac3d 7400 c53d bbf7 a03c
00000390: 5b69 85bd c680 ac3d 29e9 d3bd 953f 5a3c
000003a0: efe1 c5bd 89e1 b6bb 4c62 c63b d753 c83d
000003b0: 91a7 023d 2a67 a3bd 5c17 9e3d 97d3 553c
000003c0: 120c c7bd 03b0 d1bd a548 133d d3f5 68bd
000003d0: 66d4 26bd 3626 4abd dfc9 9cbd 9d13 c1bd
000003e0: 445b 24bc 4cdb 1bba 5abc b03d 2e43 afbd
000003f0: f409 c03d 9ef5 033e 39fb debd a812 983d

lstm.bias_hh_l0 f4 [256]
0.11749247 -0.102800995 0.08611016 0.059609428 0.05886374 -0.023706902 -0.065422826 0.0018082795
-0.027119484 0.074728005 -0.08244302 0.111479506 -0.020871678 0.09178427 -0.046776645 -0.013858988
0.031599376 -0.114730656 0.06319158 0.12901874 -0.077413596 0.046524614 -0.12038363 0.015017968
-0.06280799 -0.108640775 0.07025717 0.09589401 0.028212285 0.022506094 -0.065985166 0.07419948
-0.08426778 -0.027361305 -0.041167863 -0.04287351 0.09963649 0.11853391 0.065781265 -0.030467633
-0.058354277 -0.013839479 -0.042267684 0.009793875 0.06739885 0.12102494 0.10697652 -0.09763899
0.09150442 -0.113208175 0.024313381 0.02929454 -0.0139103625 -0.02251416 -0.037929747 0.057668883
-0.070253566 0.025930265 0.046781983 0.1128832 -0.012216536 0.12177738 -0.10993852 -0.073818974
-0.08758116 0.016109409 -0.05813005 0.08705688 -0.06779223 0.028917532 0.088679925 -0.12302432
0.055728618 -0.10806243 0.066301316 -0.04069582 -0.08781742 0.038575377 -0.0052432856 0.030727312
0.089553766 -0.027967112 -0.048131604 0.13935918 -0.024042437 0.10166836 0.07746078 -0.10436747
-0.045518737 0.0074742762 -0.08502358 0.009568703 -0.043942925 -0.08459154 0.088805616 0.054004703
0.12589656 -0.030679157 -0.025365105 -0.07023862 -0.0056218025 0.11162938 -0.01150033 -0.057353288
0.093260184 0.023727307 0.018824857 0.107207574 0.1293257 0.13232145 -0.11824996 0.01718957
0.11407062 0.09433621 -0.09566757 0.10687276 -0.059081305 -0.045028403 -0.056159303 -0.078337155
-0.026228439 0.0019591968 -0.057836767 0.09621119 -0.074704096 0.124294825 -0.11201203 0.038877152
-0.075387985 -0.07192935 0.03393836 -0.019280322 -0.0792609 -0.0131101115 -0.08397345 -0.07425948
0.069279306 0.008761454 -0.027150828 0.094805546 0.024047583 0.09955965 0.05938106 0.01730692
-0.0510673 -0.06045911 0.11176246 0.04263186 0.10566687 0.077751525 -0.002677407 -0.109644204
0.054065548 -0.027728783 0.02792178 -0.04729941 0.10093277 0.121432126 -0.07324925 -0.029644247
-0.09474738 0.056709092 -0.09249254 -0.094763994 -0.08809143 -0.10189523 0.10059424 -0.05399602
0.08342398 -0.034517776 -0.039227378 -0.033683266 -0.099681556 0.04264907 -0.030806763 0.032592002
-0.09304949 0.014787854 0.10755314 -0.04019031 0.029018525 -0.12542878 -0.06888801 0.10163442
0.049425315 0.053979985 0.052543193 -0.024321968 -0.06516568 0.11777118 -0.028356675 -0.0066681984
-0.08104603 0.08606467 -0.020024285 -0.039649926 -0.084058136 0.04854993 -0.101270825 0.10834875
0.103792325 -0.0759262 -0.10281828 0.037311036 -0.0545608 -0.10436617 0.07281232 -0.026188733
0.038815614 0.009955699 -0.07132803 -0.04550759 0.059331827 -0.11597591 -0.021975981 0.007839276
-0.076885946 0.12210449 -0.0956065 -0.08859041 -0.07846641 0.051440023 -0.10261413 0.069903985
0.13656211 0.123918235 0.11870068 0.030774912 -0.11135662 0.0525245 0.052653693 0.007887769
-0.09097565 0.11496185 0.030880192 0.07964619 -0.010593439 -0.10714242 0.12626103 -0.11257411
-0.10698478 0.11755314 -0.025848547 0.08282636 0.083687484 1.3508776e-05 -0.008603463 0.042148046
-0.016818052 0.05413945 -0.03770292 -0.05156764 -0.09215602 -0.110812746 -0.026065588 -0.06334255
00000000: e49f f03d 5489 d2bd 865a b03d 0429 743d
00000010: 1b1b 713d fa34 c2bc 67fc 85bd cb03 ed3a
00000020: ae29 debc ff0a 993d e3d7 a8bd 5e4f e43d
00000030: 15fb aabc 64f9 bb3d de98 3fbd cf10 63bc
00000040: 596e 013d e8f7 eabd 966a 813d 7d1d 043e
00000050: 058b 9ebd 9890 3e3d b18b f6bd ec0d 763c
00000060: 7aa1 80bd 0e7f debd fee2 8f3d 1464 c43d
00000070: 731d e73c b35e b83c 3b23 87bd e6f5 973d
00000080: 9694 acbd d124 e0bc a29f 28bd 229c 2fbd
00000090: 370e cc3d e8c1 f23d 54b8 863d 4297 f9bc
000000a0: e504 6fbd fbbe 62bc e120 2dbd 7d76 203c
000000b0: 6908 8a3d ecdb f73d 8116 db3d f3f6 c7bd
000000c0: ab66 bb3d b0d9 e7bd db2c c73c 1afb ef3c
000000d0: 4ae8 63bc 9e6f b8bc 395c 1bbd 3536 6c3d
000000e0: 1ae1 8fbd b56b d43c 779e 3f3d 4f2f e73d
000000f0: de27 48bc 6b66 f93d 7227 e1bd 672e 97bd
00000100: c05d b3bd e1f7 833c c619 6ebd e14a b23d
00000110: a7d6 8abd 76e4 ec3c d29d b53d 2df4 fbbd
00000120: b143 643d d64f ddbd fcc8 873d a9b0 26bd
00000130: 9fd9 b3bd 3701 1e3d decf abbb d8b7 fb3c
00000140: f767 b73d 491b e5bc a525 45bd 2cb4 0e3e
00000150: a5f4 c4bc 8037 d03d c2a3 9e3d 9dbe d5bd
00000160: db71 3abd c6ea f43b d820 aebd 0dc6 1c3c
00000170: 7ffd 33bd 543e adbd b8df b53d 0934 5d3d
00000180: 07eb 003e db52 fbbc 7bca cfbc 44d9 8fbd
00000190: 1937 b8bb f29d e43d e16b 3cbc 48eb 6abd
000001a0: 32ff be3d c55f c23c 9636 9a3c a58f db3d
000001b0: f56d 043e 467f 073e 092d f2bd 24d1 8c3c
000001c0: db9d e93d 5833 c13d 5ced c3bd 1be0 da3d
000001d0: 3dff 71bd b46f 38bd 4c07 66bd 3b6f a0bd
000001e0: 06dd d6bc de65 003b 3fe6 6cbd 5f0a c53d
000001f0: 76fe 98bd 498e fe3d 9066 e5bd a63d 1f3d
00000200: 0465 9abd b24f 93bd f302 0b3d c4f1 9dbc
00000210: 8a53 a2bd cbcb 56bc 46fa abbd 5b15 98bd
00000220: 4fe2 8d3d 348c 0f3c 6a6b debc 6929 c23d
00000230: 70ff c43c eee5 cb3d 8e39 733d 3ec7 8d3c
00000240: f22b 51bd f9a3 77bd b7e3 e43d bf9e 2e3d
00000250: df67 d83d 313c 9f3d 7077 2fbb 248d e0bd
00000260: d673 5d3d 7927 e3bc 37bc e43c 07bd 41bd
00000270: d7b5 ce3d 68b1 f83d b403 96bd 7ed8 f2bc
00000280: ea0a c2bd cb47 683d bb6c bdbd a013 c2bd
00000290: 4869 b4bd 72ae d0bd 5a04 ce3d ee2a 5dbd
000002a0: 31da aa3d 8362 0dbd e3ac 20bd 77f7 09bd
000002b0: d825 ccbd cbb0 2e3d 775e fcbc 317f 053d
000002c0: bb90 bebd c148 723c d244 dc3d 989e 24bd
000002d0: 42b8 ed3c 6770 00be 2815 8dbd b525 d03d
000002e0: 3372 4a3d 1e1a 5d3d 8837 573d dd3e c7bc
000002f0: 9675 85bd 0432 f13d 424c e8bc e780 dabb
00000300: 76fb a5bd ac42 b03d f809 a4bc f667 22bd
00000310: ac26 acbd 4bdc 463d 1467 cfbd f3e5 dd3d
00000320: 1291 d43d 327f 9bbd 6492 d2bd 75d3 183d
00000330: 257b 5fbd eebd d5bd a01e 953d c189 d6bc
00000340: 1ffd 1e3d 3a1d 233c 6e14 92bd 2b66 3abd
00000350: ee05 733d c784 edbd f906 b4bc 4f70 003c
00000360: 6176 9dbd eb11 fa3d 57cd c3bd e46e b5bd
00000370: ffb2 a0bd c6b2 523d 5b27 d2bd d229 8f3d
00000380: f0d6 0b3e d8c8 fd3d 5819 f33d ab1b fc3c
00000390: f10e e4bd ee23 573d 66ab 573d b33b 013c
000003a0: 7151 babd 1e71 eb3d 75f8 fc3c 8b1d a33d
000003b0: 1b90 2dbc 7c6d dbbd 924a 013e 418d e6bd
000003c0: d61a dbbd b3bf f03d 55c0 d3bc dea0 a93d
000003d0: 5864 ab3d c0a3 6237 8af5 0cbc 6ea3 2c3d
000003e0: 03c6 89bc 54c1 5d3d 616e 1abd 9738 53bd
000003f0: 4cbc bcbd cbf1 e2bd 8087 d5bc bdb9 81bd

lstm.weight_ih_l1 f4 [256, 64]
0.057704005 0.00033580087 -0.063151054 -0.10800951 -0.03729965 0.06454426 0.0011515875 0.014207735
-0.07428117 -0.07061559 -0.019268584 0.063844964 -0.11640251 0.050631665 0.07833547 -0.14193134
0.045071382 0.024266003 0.053407066 -0.05470806 0.05917813 -0.08348498 -0.062104046 0.051000785
-0.01995671 0.10035752 -0.007933794 -0.10382815 -0.10706965 -0.0071378434 -0.10918966 0.09588723
0.09377621 0.08794742 -0.10574134 -0.036395147 0.10901036 0.04679797 0.018352488 0.011397162
-0.08230729 -0.021514734 0.053457547 -0.008101012 -0.016679047 0.046707097 -0.07435375 -0.037333015
0.098614484 0.036830947 0.07366697 -0.04630117 0.07306757 -0.08523154 0.10890563 -0.025055863
-0.074024014 -0.04357625 0.07959788 0.11127659 0.02662816 0.10574538 -0.050395846 -0.00013775815
0.09826528 -0.017015854 0.020854363 0.06941478 0.028156249 -0.07301788 0.022220708 -0.027180232
-0.019088402 0.12887715 0.10953112 -0.11815124 -0.03304069 -0.021406427 0.055696968 -0.009650141
-0.0004903481 -0.021669576 -0.079142265 -0.10734548 -0.08235921 0.02537217 0.06208439 0.00016007229
0.115188584 -0.030101858 0.091199234 -0.028802933 -0.07141624 -0.00033439338 -0.12037927 0.03881739
0.019095507 0.0415956 0.066521145 0.11008213 -0.07183553 -0.12721814 0.008285256 -0.06657833
-0.0030072578 0.11873611 0.020835843 0.0011367375 -0.10444049 -0.008399615 -0.09404596 -0.031509206
0.09642777 -0.024194416 0.053223725 0.03507511 0.080480695 0.042902537 -0.11552146 -0.030605052
0.009637315 -0.052375924 -0.085669294 -0.09842027 0.05102776 -0.047394007 -0.007453065 0.036977876
0.06606147 0.084293365 0.054321107 0.12234773 0.0022450525 -0.050452203 0.06963361 0.00907181
0.13802342 -0.11120625 -0.05975458 0.090883195 -0.099752985 0.08281556 -0.062207147 0.017264375
0.08720621 0.05049831 -0.07976955 0.052735183 -0.02107337 -0.030818531 -0.12517253 -0.086860344
-0.037350968 0.09182384 -0.07882565 -0.10261808 -0.081899494 0.05940446 -0.11833389 -0.12558746
0.015501108 -0.09799156 0.025492236 -0.0151963895 0.09473211 -0.028323762 -0.10889628 -0.05519905
0.0012586922 -0.061724935 0.10335233 -0.079443485 -0.12356469 0.051442787 -0.03449156 0.06330126
0.0026570824 0.06342692 0.091317765 -0.0032761241 -0.039095443 -0.056190453 -0.03802371 -0.095643975
0.09574356 0.05468039 -0.05816837 0.10765422 0.06807001 0.063936785 0.08232311 0.019091599
-0.019277116 0.114515595 0.054145094 0.07140897 0.051078804 -0.06677109 -0.047274485 0.11515647
-0.035578687 -0.0649496 -0.03892972 -0.097148366 0.05390965 0.058695905 -0.06823113 -0.14008777
0.009857177 0.022801558 0.078587286 0.039745625 -0.0366258 0.05840319 0.08826705 0.080103084
0.10337634 -0.0969676 0.049805745 0.067668706 0.08737257 -0.03226463 0.020062862 -0.11811246
0.093105264 0.027491786 0.08292416 0.045794908 -0.04159097 0.087140635 0.086574465 -0.04951353
-0.006184953 -0.05492176 -0.10512465 0.066130064 -0.0867032 0.031624302 -0.10841704 -0.01405834
-0.054833576 0.07611619 0.11750467 -0.07530375 -0.021024281 -0.036483366 -0.12680657 -0.09501856
-0.04383661 -0.0431612 0.10468861 0.057222765 0.12577105 -0.08517673 -0.070452735 0.019944586
00000000: 095b 6c3d 6e0e b039 5755 81bd 1734 ddbd
00000010: 85c7 18bd c82f 843d ddf0 963a 8fc7 683c
00000020: ba20 98bd e89e 90bd 26d9 9dbc 26c1 823d
00000030: 7064 eebd 2663 4f3d 596e a03d 7356 11be
00000040: c59c 383d 7fc9 c63c 5ec1 5a3d 8f15 60bd
00000050: c464 723d 2cfa aabd d060 7ebd 33e6 503d
00000060: 417c a3bc 3e88 cd3d befc 01bc daa3 d4bd
00000070: 5547 dbbd 92e4 e9bb d49e dfbd 8660 c43d
00000080: be0d c03d c71d b43d ea8e d8bd 1413 15bd
00000090: d340 df3d 3aaf 3f3d f557 963c 2abb 3a3c
000000a0: b990 a8bd ab3f b0bc 4df6 5a3d 1bba 04bc
000000b0: 7fa2 88bc f14f 3f3d c746 98bd 81ea 18bd
000000c0: 64f6 c93d 0cdc 163d b5de 963d 4ca6 3dbd
000000d0: 73a4 953d e08d aebd ea09 df3d f441 cdbc
000000e0: e799 97bd 037d 32bd 3704 a33d fbe4 e33d
000000f0: 4d23 da3c 0991 d83d e06b 4ebd 2c73 10b9
00000100: 4f3f c93d d564 8bbc c5d6 aa3c 5629 8e3d
00000110: efa7 e63c 668a 95bd 3408 b63c 14a9 debc
00000120: 485f 9cbc 5ff8 033e da51 e03d 47f9 f1bd
00000130: ad55 07bd 885c afbc 8122 643d a01b 1ebc
00000140: b48a 00ba 6584 b1bc 5715 a2bd f2d7 dbbd
00000150: f2ab a8bd 4cd9 cf3c 344c 7e3d 14d9 2739
00000160: fee7 eb3d 2c98 f6bc aac6 ba3d 21f4 ebbc
00000170: ad42 92bd 8551 afb9 6889 f6bd fcfe 1e3d
00000180: 2e6e 9c3c 2660 2a3d 3d3c 883d bd72 e13d
00000190: 821e 93bd 7945 02be e2be 073c 385a 88bd
000001a0: 6a15 45bb eb2b f33d eeaf aa3c 95fe 943a
000001b0: e5e4 d5bd 8a9e 09bc 2b9b c0bd cc0f 01bd
000001c0: ec7b c53d 5e33 c6bc 1f01 5a3d ebaa 0f3d
000001d0: 10d3 a43d 92ba 2f3d 8496 ecbd 72b7 fabc
000001e0: d4e5 1d3c 2388 56bd 6273 afbd 9190 c9bd
000001f0: 7c02 513d 3820 42bd d738 f4bb 1d76 173d
00000200: 3c4b 873d 00a2 ac3d cf7f 5e3d 7291 fa3d
00000210: bb21 133b f8a6 4ebd 119c 8e3d eea1 143c
00000220: 0356 0d3e 1ac0 e3bd 38c1 74bd f820 ba3d
00000230: 4b4b ccbd 349b a93d eccc 7ebd 056e 8d3c
00000240: 2b99 b23d 51d7 4e3d 385e a3bd d900 583d
00000250: 0fa2 acbc 2577 fcbc 3a2d 00be d6e3 b1bd
00000260: 54fd 18bd 230e bc3d 586f a1bd 6e29 d2bd
00000270: ecba a7bd 1752 733d 0a59 f2bd 009a 00be
00000280: 5cf8 7d3c cdaf c8bd 18d5 d03c 47fa 78bc
00000290: e902 c23d 3c07 e8bc 0305 dfbd 6618 62bd
000002a0: b4fa a43a 49d3 7cbd 63aa d33d 44b3 a2bd
000002b0: 7c0f fdbd acb5 523d 0647 0dbd 17a4 813d
000002c0: 7222 2e3b f9e5 813d cf04 bb3d 3eb4 56bb
000002d0: 8b22 20bd f627 66bd c0be 1bbd fde0 c3bd
000002e0: 3315 c43d 8bf8 5f3d f541 6ebd d179 dc3d
000002f0: 4a68 8b3d 4af1 823d 0599 a83d fc65 9c3c
00000300: 0beb 9dbc 2787 ea3d 3fc7 5d3d de3e 923d
00000310: 0238 513d 48bf 88bd e4a2 41bd 28d7 eb3d
00000320: f5ba 11bd 4c04 85bd c574 1fbd b9f5 c6bd
00000330: 5dd0 5c3d 1e6b 703d c3bc 8bbd 2b73 0fbe
00000340: ff7f 213c 55ca ba3c 5ff2 a03d 4fcc 223d
00000350: ef04 16bd 2f38 6f3d 5bc5 b43d 160d a43d
00000360: f9b6 d33d f396 c6bd 1c01 4c3d e495 8a3d
00000370: 64f0 b23d eb27 04bd df5a a43c f2e4 f1bd
00000380: f9ad be3d 7436 e13c 24d4 a93d 7193 3b3d
00000390: 4b5b 2abd ca76 b23d f44d b13d b3ce 4abd
000003a0: 25ab cabb a4f5 60bd 984b d7bd 336f 873d
000003b0: 7391 b1bd 7c88 013d c109 debd f454 66bc
000003c0: 2c99 60bd cee2 9b3d 4aa6 f03d da38 9abd
000003d0: 1d3b acbc 956f 15bd 95d9 01be 1799 c2bd
000003e0: 048e 33bd ccc9 30bd fb66 d63d 6b62 6a3d
000003f0: 20ca 003e 2371 aebd 8649 90bd d462 a33c

lstm.weight_hh_l1 f4 [256, 64]
-0.10115905 -0.045944747 0.09890619 -0.096153736 0.009711377 -0.03376343 0.030026378 -0.00964269
-0.088386364 -0.13115458 -0.085976705 -0.038490158 0.030840997 0.094349906 -0.0019238616 0.026007924
-0.061464284 -0.051340602 0.01042314 -0.058662444 -0.064785935 0.08487312 -0.016933018 -0.006248722
-0.01860585 -0.12787934 -0.060154982 -0.005131359 -0.073591016 0.12351934 -0.0050309375 0.08244901
-0.094960764 -0.04643655 -0.047465585 0.06311451 0.114778124 0.042831436 -0.11564267 0.06963061
0.12875429 -0.0117148 -0.09677735 0.015736464 -0.07565204 -0.10707333 -0.04246742 0.08039731
0.096781895 0.04053853 0.014387829 -0.024165621 -0.076646626 -0.057706837 0.104993135 0.057898734
0.02946004 -0.0020770803 -0.001966285 -0.10752535 0.06801095 0.10985236 -0.12058241 -0.08587298
-0.036252238 -0.023039747 -0.052052733 0.10665241 0.014069778 -0.08849661 -0.03959092 0.120553784
0.06472284 0.02511755 -0.083606705 0.010322288 0.030659273 -0.021057108 -0.10458653 0.12168536
0.102255955 -0.011432254 -0.044926275 0.091034725 -0.10814363 0.048475184 0.10015015 0.08671004
-0.12283323 0.109538876 0.12172219 0.10833633 0.02572264 -0.1356527 0.05551334 -0.110221826
-0.12679432 -0.036059003 0.10655489 -0.105609365 -0.08858535 -0.07630103 -0.08713879 -0.09673492
0.0034872645 -0.11248633 0.08097159 0.097107284 -0.12491064 0.055115975 0.08184697 -0.05871849
-0.090045564 0.03150944 0.08578385 -0.024458736 -0.045995057 -0.038490053 0.038506784 0.0034369105
-0.06889457 0.048284568 -0.110134155 -0.06471654 -0.05121138 0.04523113 0.080127686 -0.014513533
-0.120346956 -0.090597235 0.053210136 0.014881866 -0.09569041 -0.101272926 0.114294715 -0.09430531
-0.026896644 0.12557253 -0.0142819295 0.072448224 0.06963509 -0.11611643 0.10909331 -0.10780576
0.04432454 0.00064795476 0.02447562 0.07626524 -0.050788395 -0.039046146 -0.07336248 0.08865536
0.04118092 0.05927914 0.06621235 -0.011450712 -0.07067751 -0.0832198 -0.048932422 -0.05603919
-0.0323044 0.019929817 -0.120115414 -0.09446866 0.0886065 -0.09689411 -0.0021913927 0.074512675
-0.040826432 0.031025141 0.054092363 0.05324389 0.020664003 -0.036783155 -0.050164483 0.05847806
-0.11463633 0.12260961 0.08425466 0.019684171 0.104143925 -0.0814593 0.04711062 -0.060139045
0.08836037 -0.008558169 0.10594141 -0.10230677 -0.05662868 0.105939336 -0.053625755 -0.003726673
0.042704616 0.06651869 0.057539597 0.05953496 -0.016354345 0.022981603 0.10175093 -0.1351069
0.09950346 0.008544042 -0.12282542 -0.044576146 -0.09882341 0.103979014 -0.12897429 -0.032600734
0.11338485 0.022201337 -0.12645616 0.016215637 0.12034067 0.047164712 0.028231904 -0.07423252
0.06243591 0.081887685 0.13592933 0.10242173 0.14133386 0.03515382 -0.05817282 0.080803804
-0.024314927 0.012863414 0.05505669 0.03522985 -0.042746793 -0.06740105 -0.065772 0.011680562
-0.08102904 -0.115069926 -0.021820508 -0.09683305 0.03638562 -0.040042274 0.011489361 0.033620767
-0.121604696 -0.055413175 0.06169808 0.07788128 0.1262528 0.11517634 0.050341025 -0.008471526
-0.07476763 -0.015789082 0.0071584294 0.051266976 -0.009283434 -0.0626967 -0.011231333 0.1185261
00000000: 7a2c cfbd 8f30 3cbd 548f ca3d 40ec c4bd
00000010: 781c 1f3c 864b 0abd e1f9 f53c 60fc 1dbc
00000020: e903 b5bd 634d 06be 8e14 b0bd dba7 1dbd
00000030: 42a6 fc3c 863a c13d 152a fcba 920e d53c
00000040: f9c1 7bbd 864a 52bd d1c5 2a3c 0848 70bd
00000050: 7dae 84bd f5d1 ad3d 1db7 8abc 14c2 ccbb
00000060: 4c6b 98bc cdf2 02be 1265 76bd f624 a8bb
00000070: e3b6 96bd b5f7 fc3d 90da a4bb 07db a83d
00000080: ca7a c2bd 4034 3ebd 466b 42bd 2e42 813d
00000090: cb10 eb3d 0470 2f3d 10d6 ecbd 7e9a 8e3d
000000a0: 2ad8 033e 6fef 3fbc 3433 c6bd c2e9 803c
000000b0: 75ef 9abd 4349 dbbd 51f2 2dbd 58a7 a43d
000000c0: 9635 c63d bb0b 263d eeba 6b3c fbf6 c5bc
000000d0: e8f8 9cbd 015e 6cbd a406 d73d 3927 6d3d
000000e0: 2f56 f13c a01f 08bb cadc 00bb 4036 dcbd
000000f0: 5349 8b3d 46fa e03d e9f3 f6bd 2cde afbd
00000100: 3a7d 14bd dabd bcbc 3f35 55bd 946c da3d
00000110: ed84 663c b63d b5bd 172a 22bd e7e4 f63d
00000120: 698d 843d 52c3 cd3c fe39 abbd d01e 293c
00000130: 2829 fb3c f57f acbc 7631 d6bd 2d36 f93d
00000140: 926b d13d 594e 3bbc 9d04 38bd 6a70 ba3d
00000150: 687a ddbd ea8d 463d 861b cd3d 0995 b13d
00000160: fd8f fbbd eb55 e03d 7c49 f93d 70df dd3d
00000170: 49b8 d23c 8be8 0abe f561 633d fbbb e1bd
00000180: 5fd6 01be 9bb2 13bd 7339 da3d b949 d8bd
00000190: 3c6c b5bd b743 9cbd d275 b2bd f51c c6bd
000001a0: 978a 643b 3c5f e6bd 6fd4 a53d 2fe0 c63d
000001b0: 26d1 ffbd 4ac1 613d 629f a73d cd82 70bd
000001c0: cf69 b8bd 0b10 013d 71af af3d b05d c8bc
000001d0: 5065 3cbd bfa7 1dbd 4ab9 1d3d ca3d 613b
000001e0: 9918 8dbd 0ac6 453d 048e e1bd 1b8a 84bd
000001f0: 06c3 51bd 4744 393d fc19 a43d 2bca 6dbc
00000200: 7778 f6bd 0b8b b9bd dff2 593d 12d3 733c
00000210: 55f9 c3bd 2e68 cfbd 5913 ea3d 2423 c1bd
00000220: 5a56 dcbc 1696 003e c1fe 69bc bc5f 943d
00000230: d89c 8e3d 73ce edbd 506c df3d 44c9 dcbd
00000240: a68d 353d 82db 293a 1881 c83c f330 9c3d
00000250: 7e07 50bd daee 1fbd 113f 96bd f190 b53d
00000260: 53ad 283d afce 723d 579a 873d c49b 3bbc
00000270: 5fbf 90bd 246f aabd 5d6d 48bd 5a89 65bd
00000280: 9e51 04bd db43 a33c 12ff f5bd c978 c1bd
00000290: 5377 b53d 6b70 c6bd 789d 0fbb 1a9a 983d
000002a0: 9e39 27bd 7028 fe3c f48f 5d3d 4416 5a3d
000002b0: 8e47 a93c efa9 16bd 4679 4dbd b186 6f3d
000002c0: 74c6 eabd bf1a fb3d b58d ac3d b340 a13c
000002d0: 6949 d53d 22d4 a6bd 11f7 403d 5c54 76bd
000002e0: 48f6 b43d 9037 0cbc cff7 d83d 3686 d1bd
000002f0: 7af3 67bd b9f6 d83d aea6 5bbd 333b 74bb
00000300: 09eb 2e3d f33a 883d a4ae 6b3d eeda 733d
00000310: 8cf9 85bc ea43 bc3c cb62 d03d 7759 0abe
00000320: 78c8 cb3d 4ffc 0b3c e58b fbbd 7a95 36bd
00000330: ee63 cabd f3f2 d43d d611 04be 5988 05bd
00000340: 5136 e83d 94df b53c b97d 01be a8d6 843c
00000350: 2b75 f63d c92f 413d 9846 e73c 3807 98bd
00000360: ccbc 7f3d bbb4 a73d 0f31 0b3e 7cc2 d13d
00000370: d3b9 103e 74fd 0f3d 9f46 6ebd 777c a53d
00000380: 1930 c7bc 12c1 523c 2083 613d 2d4d 103d
00000390: 4317 2fbd 9009 8abd 78b3 86bd d45f 3f3c
000003a0: 8ef2 a5bd c8a9 ebbd ecc0 b2bc 6850 c6bd
000003b0: 1609 153d 5e03 24bd df3d 3c3c eeb5 093d
000003c0: e20b f9bd edf8 62bd 20b7 7c3d 3880 9f3d
000003d0: 6a48 013e 93e1 eb3d 6432 4e3d 28cc 0abc
000003e0: c51f 99bd 1b58 81bc 4291 ea3b 52fd 513d
000003f0: 8b19 18bc 2167 80bd a003 38bc d0bd f23d

lstm.bias_ih_l1 f4 [256]
-0.001986858 0.10663484 0.019984912 0.08282934 -0.09125979 0.06241005 0.05878545 -0.07900554
0.10925394 -0.002905839 0.08168164 0.0042383145 -0.09361115 0.08786765 -0.013104061 -0.08260752
0.082754344 0.036832836 0.059512544 0.074626595 0.038036786 0.11422742 0.020981697 0.0071587963
-0.072020404 0.10369672 0.11153451 -0.08459589 -0.021443848 -0.07170363 0.067992024 -0.024006575
-0.03329861 -0.09749218 0.057736736 -0.08183059 0.10672031 0.009945609 -0.107852496 -0.06930021
0.10709906 0.040651407 0.1435738 -0.0012234398 0.00043458436 0.10403777 -0.056456592 0.1000175
-0.01112514 -0.10573515 0.014278061 0.085985996 0.063947715 0.03213407 0.0011525876 0.0058205076
0.014182856 -0.06893554 -0.10700971 -0.099239916 -0.031127559 0.018270861 -0.02810303 -0.11675061
-0.13159506 0.02630043 -0.03325211 0.04009748 0.09207187 -0.09158078 0.03292534 -0.095527396
0.006836951 0.044738162 0.06894627 -0.06246764 -0.054999843 -0.115785316 -0.06639586 -0.02738297
-0.04766011 -0.08844449 0.039914146 -0.009631238 -0.06475015 0.07076609 -0.04907782 -0.075046465
-0.106758595 0.11396517 0.02657768 -0.13445914 -0.045462918 -0.08206678 0.078403495 0.11608972
-0.051775955 -0.07902516 0.015799982 0.12176366 0.05318784 -0.0043400247 0.03640243 0.018752974
-0.064274766 -0.03514175 0.105793856 0.043349568 0.11441606 -0.066309355 -0.0011445183 -0.12966542
0.0459337 0.006014054 0.05824491 -0.067822546 -0.09990195 -0.04463626 0.015863476 -0.12188964
-0.0034572035 -0.0030521373 0.017740387 0.006309303 -0.10284352 0.04217955 -0.087116025 -0.041177187
0.0030724052 0.086753435 -0.083091035 -0.12482468 -0.09836702 -0.055949576 -0.07959865 0.00013592376
-0.102620095 -0.046562698 0.023490017 -0.029823154 -0.039707493 -0.07139122 0.017865082 -0.07496873
-0.05739198 0.10731476 0.064856246 0.025223985 -0.022161761 0.08286322 -0.10817319 -0.12146088
0.05327782 -0.004888683 -0.112280555 -0.10244908 0.018519036 -0.081311174 -0.05032831 0.027595222
-0.0790653 -0.08674485 -0.025302587 -0.022081302 -0.101856925 -0.045866374 0.056172904 0.10730574
-0.032509238 -0.039486513 -0.12319055 -0.025460793 0.08153506 0.053214274 0.05246712 -0.026918303
-0.036453377 0.033497024 -0.034166675 -0.010705749 -0.06368581 -0.04061308 -0.008681849 -0.06364579
-0.054001182 -0.019591963 0.08553401 -0.034415066 -0.061400943 0.056149017 0.0034465888 0.035199765
-0.07649921 -0.0751498 -0.11942167 -0.100300424 0.025500415 0.08998621 -0.007544121 -0.0034789378
0.05801429 0.07388445 -0.010127873 -0.0010233994 -0.099767014 -0.065048635 0.11179654 -0.084542036
-0.014302398 -0.07019506 -0.13108967 -0.09535941 0.03654394 0.0099529335 0.08703262 0.004627189
0.012870643 -0.09972387 -0.0015553895 0.114485554 0.048273634 0.0061171036 -0.0015742152 -0.06422973
-0.12189031 -0.04025804 0.066326894 -0.12256238 -0.12802441 -0.09475545 -0.04663646 -0.08373709
0.100094676 0.0048724995 -0.08390461 0.100374274 -0.03309447 -0.119003855 0.09930874 -0.08090327
-0.10271206 -0.05521358 0.008450765 0.08445663 -0.119672835 -0.021607796 -0.09070713 0.020526472
0.0598213 0.06338544 0.061002113 -0.011617751 -0.061592344 -0.024323067 0.093375035 0.033494916
00000000: f235 02bb 5e63 da3d 66b7 a33c 6ea2 a93d
00000010: 6ae6 babd aea1 7f3d 03c9 703d a8cd a1bd
00000020: 88c0 df3d e36f 3ebb b448 a73d 8fe1 8a3b
00000030: 34b7 bfbd f4f3 b33d 6ab2 56bc 222e a9bd
00000040: 1c7b a93d 07de 163d 6dc3 733d d4d5 983d
00000050: 76cc 1b3d 11f0 e93d cfe1 ab3c 5694 ea3b
00000060: 6f7f 93bd f25e d43d 356c e43d 9c40 adbd
00000070: 02ab afbc 5ad9 92bd 673f 8b3d 70a9 c4bc
00000080: 2064 08bd fba9 c7bd 5b7d 6c3d cc96 a7bd
00000090: 2e90 da3d e8f2 223c c5e1 dcbd 45ed 8dbd
000000a0: c156 db3d 1782 263d 0305 133e d45b a0ba
000000b0: edd8 e339 c111 d53d 073f 67bd fad5 cc3d
000000c0: 3846 36bc ac8b d8bd 87ee 693c 6d19 b03d
000000d0: 05f7 823d 049f 033d 6c12 973a f5b9 be3b
000000e0: 365f 683c 142e 8dbd e827 dbbd 4c3e cbbd
000000f0: 39ff febc c6ac 953c 5338 e6bc f21a efbd
00000100: dbc0 06be 0074 d73c 5d33 08bd 413d 243d
00000110: 2d90 bc3d b48e bbbd b9dc 063d dea3 c3bd
00000120: 8008 e03b 5d3f 373d b433 8d3d 11de 7fbd
00000130: 8447 61bd da20 edbd 8dfa 87bd 4052 e0bc
00000140: 3f37 43bd 6322 b5bd 047d 233d 57cc 1dbc
00000150: ba9b 84bd d0ed 903d d305 49bd f6b1 99bd
00000160: 40a4 dabd 9266 e93d 6fb9 d93c a8af 09be
00000170: 5337 3abd a112 a8bd 0392 a03d 72c0 ed3d
00000180: 0613 54bd f1d7 a1bd f76e 813c 3a5f f93d
00000190: 7edb 593d c436 8ebb b71a 153d d69f 993c
000001a0: 7da2 83bd ccf0 0fbd 73aa d83d 518f 313d
000001b0: f852 ea3d 33cd 87bd a903 96ba 03c7 04be
000001c0: fa24 3c3d 8b11 c53b 3792 6e3d 8ce6 8abd
000001d0: 6599 ccbd 83d4 36bd 1ff4 813c 47a1 f9bd
000001e0: 4092 62bb 5e06 48bb 4a54 913c 45be ce3b
000001f0: a09f d2bd 77c4 2c3d e369 b2bd 69a9 28bd
00000200: 685a 493b c9ab b13d a22b aabd 15a4 ffbd
00000210: a674 c9bd 622b 65bd 9e04 a3bd c286 0e39
00000220: 7c2a d2bd 87b8 3ebd 236e c03c b04f f4bc
00000230: 53a4 22bd 8f35 92bd cb59 923c 3589 99bd
00000240: da13 6bbd d7c7 db3d 5ad3 843d 88a2 ce3c
00000250: 958c b5bc 31b4 a93d e889 ddbd 7bc0 f8bd
00000260: d839 5a3d 3f31 a0bb 59f3 e5bd d3d0 d1bd
00000270: 3cb5 973c 7986 a6bd 0f25 4ebd 600f e23c
00000280: fdec a1bd 49a7 b1bd 5f47 cfbc d9e3 b4bc
00000290: 5d9a d0bd 61de 3bbd 8f15 663d 1dc3 db3d
000002a0: 6828 05bd 9cbc 21bd 544b fcbd 2793 d0bc
000002b0: dbfb a63d 36f7 593d c3e7 563d c683 dcbc
000002c0: 2350 15bd 2d34 093d 5bf2 0bbd 2a67 2fbc
000002d0: b56d 82bd e759 26bd 503e 0ebc b958 82bd
000002e0: 5830 5dbd 537f a0bc 742c af3d d0f6 0cbd
000002f0: 8e7f 7bbd 83fc 653d 2ae0 613b a12d 103d
00000300: 9eab 9cbd 23e8 99bd 5993 f4bd 4f6a cdbd
00000310: 3fe6 d03c b14a b83d ac34 f7bb e4fe 63bb
00000320: 64a0 6d3d bb50 973d 61ef 25bc 9623 86ba
00000330: a652 ccbd 3838 85bd 96f5 e43d 6024 adbd
00000340: 9b54 6abc 6dc2 8fbd 5f3c 06be cb4b c3bd
00000350: 19af 153d a111 233c 293e b23d ad9f 973b
00000360: 64df 523c 073c ccbd 36de cbba 6777 ea3d
00000370: 93ba 453d fc71 c83b e655 ceba e08a 83bd
00000380: a0a1 f9bd 9de5 24bd 65d6 873d fc01 fbbd
00000390: d518 03be 250f c2bd df05 3fbd 5a7e abbd
000003a0: 70fe cc3d 7da9 9f3b 2ed6 abbd 0791 cd3d
000003b0: 118e 07bd 4bb8 f3bd 6162 cb3d 9db0 a5bd
000003c0: b35a d2bd a327 62bd 1475 0a3c 99f7 ac3d
000003d0: 0817 f5bd d502 b1bc a9c4 b9bd 2227 a83c
000003e0: 2e07 753d 3ad0 813d 5add 793d 6158 3ebc
000003f0: 4148 7cbd 2b41 c7bc 693b bf3d f731 093d
