artifacts/SKU_03/model.pt (torch, 219163 bytes, 12 tensors)

lstm.weight_ih_l0 f4 [256, 10]
0	0xbd068917	-0.032845583
1	0x3c6a25d4	0.0142912455
2	0x3e0009f5	0.12503798
3	0x3d1a41c7	0.037660386
4	0xbdfe1a3e	-0.12407349
5	0x3c3d8b4f	0.011568858
6	0xbdcfd051	-0.10147155
7	0xbdd866ee	-0.10566507
8	0xbd05bdba	-0.03265164
9	0xbd07458d	-0.033025313
10	0x3cacc634	0.021090604
11	0x3dc212e7	0.094762616
12	0x3dc1742a	0.09445985
13	0xbdefa1d0	-0.11700785
14	0xbc75d096	-0.015003344
15	0xbdb541ce	-0.08850442
16	0xbd645014	-0.05574043
17	0xbdfa39d2	-0.122180596
18	0x3c843b3e	0.01614153
19	0x3dbd7bb8	0.09252113
20	0x3dbb1ad5	0.09135977
21	0xbdd15c24	-0.102226526
22	0x3d31662c	0.04331033
23	0x3dc54627	0.09632521
24	0x3d98bc28	0.07457763
25	0xbd8582a4	-0.06519058
26	0x3dc27b0f	0.09496128
27	0xbc711441	-0.014714302
28	0x3dcd5ed2	0.10027851
29	0xbdcbab10	-0.09944737
30	0x3d17814d	0.036988545
31	0x3dd1c627	0.10242873
32	0xbd72ebb5	-0.05930682
33	0x3c90b8cf	0.017666249
34	0x3d866ca4	0.0656369
35	0xbda9d6da	-0.08292933
36	0x3cbe9421	0.023263993
37	0x3dc16c68	0.09444505
38	0x3d3661c3	0.044526827
39	0xbd8b3757	-0.067976646
40	0xbd9250fd	-0.071443535
41	0x3cb53dbe	0.022124168
42	0x3cd6a42a	0.026201326
43	0x3d9361aa	0.07196362
44	0x3c0e3ae5	0.008681034
45	0x3df7f053	0.12106385
46	0x3cb9e871	0.022693845
47	0x3d1da043	0.038482916
48	0xbccd4b9f	-0.025060473
49	0xbd370187	-0.04467919
50	0x3e0c74a6	0.13716373
51	0xbdeeda06	-0.116626784
52	0x3dd8c372	0.10584153
53	0xbdb7d0a6	-0.089753434
54	0xbda69ac7	-0.0813499
55	0x3d448e4f	0.04798728
56	0x3dcd003c	0.1000981
57	0x3d9e386d	0.07725606
58	0xbdcaa476	-0.0989465
59	0x3db41e30	0.0879482
60	0xbccf2185	-0.025284538
61	0xbdbb7828	-0.09153777
62	0xbdd113ad	-0.10208831
63	0x3d0a9a6a	0.033838667
64	0x3cbd4476	0.023103934
65	0xbd3d9987	-0.046288993
66	0x3dadb95c	0.0848262
67	0x3d2d4cd8	0.042309612
68	0xbdb9efd7	-0.09078949
69	0x3cbbed83	0.022940403
70	0x3db07990	0.08616936
71	0x3ca6d4e4	0.020365186
72	0xbc4db705	-0.012555842
73	0xbdd575e1	-0.10422874
74	0xbdd18b9d	-0.10231707
75	0xbd7ef6d3	-0.06224711
76	0xbdfb7927	-0.12278967
77	0x3d80de74	0.062924296
78	0xbdd41426	-0.103554055
79	0x3c6de332	0.0145195
80	0x3d6bcd5d	0.057568897
81	0x3d60cd1d	0.05488311
82	0x3c602b6a	0.013682226
83	0x3dc8f4fd	0.09812353
84	0x3c0eca5a	0.008715237
85	0x3caf29c7	0.021382226
86	0x3d5c1d41	0.053738836
87	0x3c4b44ec	0.012406569
88	0x3caaed50	0.020865113
89	0x3df4b0fc	0.119478196
90	0x3d5cd99f	0.053918477
91	0xbdd91d15	-0.1060125
92	0xbdc81631	-0.09769858
93	0xbd402c38	-0.04691717
94	0xbdda91f6	-0.10672371
95	0xbc0ed90a	-0.008718738
96	0xbdbcc476	-0.092171595
97	0xbe03162a	-0.12801424
98	0x3e0cd7e3	0.13754229
99	0xbd9c623b	-0.076359235
100	0x3bf4978b	0.0074643544
101	0xbdbb05b8	-0.0913195
102	0xbe00f14e	-0.1259205
103	0xbd870df3	-0.065944575
104	0x3dd957c9	0.10612447
105	0x3b1b0979	0.002365677
106	0x3da23c21	0.07921625
107	0xbdfd5e1a	-0.12371464
108	0x3be453e5	0.006968009
109	0xbcf3005f	-0.029663263
110	0xbd36ede8	-0.04466048
111	0xbb6c938c	-0.0036098687
112	0xbc0d6c2a	-0.008631745
113	0xbd60ff85	-0.054931182
114	0x3b8b8395	0.004257629
115	0x3dcf9633	0.1013607
116	0xbded1a7d	-0.11577318
117	0x3d98176b	0.074263416
118	0x3afcc813	0.0019285701
119	0xbd9e9774	-0.07743731
120	0xbdbabac6	-0.091176555
121	0xbd9d3264	-0.07675627
122	0xbd80cef9	-0.06289477
123	0xbd20859c	-0.03918992
124	0xbdc7d628	-0.09757644
125	0x3d86ae25	0.06576184
126	0xbcd2e87f	-0.025745628
127	0xbdb78ed7	-0.089627914
128	0x3d92235a	0.07135649
129	0xbd91dc78	-0.07122129
130	0x3d7d54dc	0.061848506
131	0x3c08f7eb	0.0083598895
132	0xbd459f3e	-0.04824757
133	0xbd9f8509	-0.07789046
134	0x3da54a7d	0.08070848
135	0x3d426ffb	0.047470074
136	0x3be24e0d	0.006906277
137	0x3d8a37d6	0.06748931
138	0xbcb4abfa	-0.022054661
139	0x3da1c99d	0.07899783
140	0x3df46731	0.11933745
141	0xbd652ce6	-0.05595102
142	0x3d982de9	0.07430632
143	0x3d8f9ff7	0.07012933
144	0x3d924bda	0.07143374
145	0x3c10c4d0	0.008835986
146	0x3c985e11	0.018599542
147	0x3d26a852	0.040687867
148	0x3d83af2a	0.06429894
149	0x3db2406d	0.087036945
150	0x3d93515f	0.07193255
151	0xbdee87d5	-0.11647002
152	0x3bfb080a	0.0076608704
153	0xbdedce9e	-0.11611675
154	0xbd60906a	-0.054825224
155	0x3df43ad4	0.11925283
156	0x3bbb3e69	0.005714227
157	0xbd159618	-0.036520094
158	0xbd0535b2	-0.03252191
159	0xbd6a1e00	-0.057157516
160	0xbd0d6676	-0.034521542
161	0x3dd8fc89	0.10595042
162	0x3d8ebeff	0.06970023
163	0xbe050c73	-0.1299303
164	0xbda912a4	-0.082555085
165	0x3dc454c1	0.09586478
166	0xbdbd2a5c	-0.09236595
167	0x3de01a55	0.109425224
168	0xbd53b396	-0.05168494
169	0x3cd036cf	0.02541676
170	0xbd700915	-0.05860241
171	0x3d94c22c	0.07263598
172	0xbd2c8d2b	-0.042126816
173	0x3d058244	0.032594934
174	0xbc77e802	-0.015130999
175	0x3da87f93	0.08227458
176	0x3da78d4f	0.08181249
177	0x3e0a8376	0.13526711
178	0xbd7f13f0	-0.062274873
179	0xbe065f2d	-0.13122244
180	0x3d7f0222	0.062257893
181	0x3dfda5a4	0.12385109
182	0xbd9cf340	-0.07663584
183	0x3d4f5bf0	0.050624788
184	0x3df08608	0.117443144
185	0xba9ba527	-0.0011874781
186	0x3db0725e	0.08615564
187	0x3de0b3b1	0.109717734
188	0x3da2a8e1	0.07942367
189	0x3cdefb42	0.027219418
190	0x3d5d25a9	0.053990994
191	0x3cd0462b	0.025424084
192	0x3d503984	0.0508361
193	0xbd873fab	-0.066039406
194	0x3c3faa0b	0.011698256
195	0xbd603a9a	-0.054743387
196	0x3c73f6a0	0.014890343
197	0x3dbe1bd0	0.092826486
198	0xbcbe7bb9	-0.023252355
199	0x3bf7d268	0.007562924
200	0x3ddf0ef9	0.10891528
201	0xbd1ad5b6	-0.037801467
202	0xbb55bdf0	-0.0032614432
203	0xbc1676a4	-0.00918356
204	0xbcb2c2d3	-0.021821415
205	0xbd41d7dd	-0.047325004
206	0xbd42d581	-0.047566894
207	0x3d993759	0.0748126
208	0x3d582509	0.052769694
209	0x3dc2ace8	0.095056355
210	0x3dd1761f	0.10227608
211	0xbd266c04	-0.040630355
212	0xbd48f093	-0.049057554
213	0x3da8c85d	0.08241341
214	0x3d85545a	0.065102294
215	0x3d2ad66c	0.041708395
216	0x3db3cf8e	0.08779822
217	0xbaf8fe71	-0.0018996728
218	0xbdadf3de	-0.084937796
219	0x3d850af2	0.06496228
220	0xbd2c28c3	-0.04203106
221	0xbd6fe432	-0.058567233
222	0x3d2fe533	0.04294319
223	0x3d2eedac	0.04270713
224	0xbdb84878	-0.08998197
225	0x3d9d2841	0.076736934
226	0x3c6189d4	0.013765771
227	0xbdbaec55	-0.09127108
228	0xbd1aa9a1	-0.037759427
229	0xbb2f4af3	-0.0026747554
230	0x3d5bf55c	0.05370079
231	0x3d575d8d	0.05257945
232	0xbd6c59d4	-0.057702854
233	0x3d29031f	0.041262742
234	0x3d8619b9	0.06547875
235	0x3d81aad6	0.063314125
236	0x3df69511	0.12040151
237	0xbd3b93c0	-0.045795202
238	0x38f09bcc	0.00011473111
239	0x3d73e89e	0.059548013
240	0x3d95795e	0.072985396
241	0xbd8f977e	-0.07011317
242	0x3dad189a	0.08451958
243	0xbd4b7788	-0.04967454
244	0x3d8d3bab	0.068961464
245	0x3d672734	0.05643387
246	0x3dd04b24	0.10170582
247	0x3dfa9682	0.12235738
248	0xbdcad574	-0.09903994
249	0x3d6aa842	0.05728937
250	0x3db95e0e	0.09051143
251	0x3d558940	0.052132845
252	0xbd163d7d	-0.036679734
253	0xbda90038	-0.08251995
254	0x3de18bd8	0.11013001
255	0xbd1821ce	-0.037141614

lstm.weight_hh_l0 f4 [256, 64]
0	0x3ca947af	0.020664064
1	0xbd26876b	-0.04065649
2	0x3cb7d02e	0.022438135
3	0x3d29b241	0.04142976
4	0x3bde3a79	0.006781873
5	0x3c8ffac5	0.01757563
6	0xbd3987ba	-0.045295455
7	0x3d8a69fd	0.06758497
8	0xbd518613	-0.051153254
9	0xbd92db97	-0.0717079
10	0xbdb5ef6e	-0.08883558
11	0xbd9a3adf	-0.0753076
12	0x3c27fbf7	0.010252944
13	0x3ced027b	0.028931847
14	0xbc972cd4	-0.018453993
15	0xbdbaf8b4	-0.091294676
16	0xbde7bade	-0.11314939
17	0x3dfaf707	0.12254148
18	0xbdb351b8	-0.08755821
19	0xbdc08f15	-0.09402291
20	0x3ca957a9	0.020671682
21	0xbd84e86a	-0.06489642
22	0x3df9daff	0.12199973
23	0x3dbfb14f	0.09359991
24	0xbdb9b782	-0.090682045
25	0x3db0d9e8	0.08635312
26	0xbd67c927	-0.05658832
27	0xbd4bee48	-0.04978779
28	0xbd22480d	-0.039619494
29	0x3db77f89	0.08959872
30	0xbd493e52	-0.0491317
31	0xbdc77516	-0.09739129
32	0x3cb49e9f	0.022048293
33	0xbd054a22	-0.0325414
34	0x3da16789	0.07881076
35	0xbdfb0ef4	-0.122587115
36	0x3d94c494	0.07264057
37	0x3de65033	0.112457655
38	0x3dcf18f1	0.10112179
39	0xbdeb1988	-0.11479479
40	0xbd512fd2	-0.051070996
41	0xbdec3cba	-0.1153502
42	0xbd1ef6dd	-0.038809646
43	0xbccb556d	-0.024821008
44	0xbdbd190b	-0.09233292
45	0xbcab0927	-0.020878388
46	0xbdbb27df	-0.09138464
47	0xbd9515a8	-0.07279521
48	0x3ce7d77b	0.028300991
49	0x3d597ba1	0.053096417
50	0xbdb90aba	-0.09035249
51	0x3da5a726	0.08088522
52	0x3d0892b7	0.033343043
53	0xbd93a530	-0.072092414
54	0xbd943235	-0.07236139
55	0x3d246371	0.040133897
56	0xbdd30b1c	-0.10304853
57	0x3af1c334	0.0018445016
58	0xbc8743d4	-0.016511835
59	0xbe077010	-0.13226342
60	0xbcd9d8a7	-0.026592566
61	0xbd9cd5be	-0.076579556
62	0x3c9ce746	0.019153249
63	0xbe10186b	-0.14071815
64	0xbd139153	-0.036027264
65	0xbd43ae4e	-0.04777365
66	0x3d957516	0.07297723
67	0xbc551c01	-0.013007165
68	0x3ddd11b6	0.10794394
69	0xbc44da20	-0.012014896
70	0xbb912034	-0.0044288877
71	0x3db5c6bd	0.08875797
72	0xb833fb80	-4.2911153e-05
73	0x3cb0be5e	0.02157515
74	0x3c4a530b	0.012348901
75	0x3d1770a0	0.036972642
76	0xbd6ada3f	-0.057337042
77	0xbcb83ca7	-0.022489859
78	0xbde7a892	-0.11311449
79	0xbe03f046	-0.12884626
80	0xbe045a94	-0.12925178
81	0xbdf7c519	-0.1209814
82	0x3d547a97	0.051874723
83	0x3dd3270b	0.10310181
84	0xbda89318	-0.08231181
85	0xbb2b7d68	-0.0026167277
86	0x3ba2d0af	0.0049687247
87	0x3d9b4fda	0.0758359
88	0x3b4b4408	0.0031015892
89	0xbdbad1a4	-0.09122017
90	0xbdf08b66	-0.11745338
91	0xbdb3e202	-0.08783342
92	0x3da73040	0.081635
93	0xbcd1da68	-0.02561684
94	0xbb07933f	-0.002068713
95	0x3d42adfd	0.04752921
96	0xbbdd285e	-0.006749197
97	0x3c8106ac	0.015750252
98	0xbde21214	-0.110386044
99	0xbd694020	-0.05694592
100	0x3deb59f7	0.11491769
101	0xbcf267ff	-0.029590605
102	0x3d1ef1b6	0.038804732
103	0xbdf5872f	-0.11988675
104	0xbce3c062	-0.027801696
105	0xbd7777bc	-0.060416922
106	0xbd804c90	-0.06264603
107	0xbcfeafe7	-0.031089736
108	0xbca6d5e2	-0.02036566
109	0xbd8a81cd	-0.06763039
110	0xbc7fb22e	-0.015606446
111	0xbca4023b	-0.020020595
112	0xbdb2ba26	-0.08726911
113	0x3d4cfb9b	0.050044637
114	0xbd7843b6	-0.06061145
115	0xbd8e1c08	-0.0693894
116	0xbda026b6	-0.078198835
117	0xbd434b48	-0.047679216
118	0x3df9012b	0.12158426
119	0xbdd1f3b7	-0.10251563
120	0xbd5f91c8	-0.054582387
121	0x3c03457e	0.008012174
122	0xbde49f27	-0.111631684
123	0xbd63f6ad	-0.05565517
124	0xbd965b04	-0.073415786
125	0x3dc166c7	0.09443431
126	0xbd3c562d	-0.04598062
127	0x3de68bb2	0.112571135
128	0x3db66de3	0.08907678
129	0x3d485459	0.048908565
130	0xbd2b2645	-0.041784544
131	0x3d4c156c	0.049825117
132	0xbd5afcaa	-0.053463615
133	0xbd445797	-0.047935095
134	0xbdafb5e0	-0.08579612
135	0xbc91f787	-0.017818226
136	0xbdfdd083	-0.12393286
137	0xbd1972e4	-0.037463084
138	0x3db161ce	0.08661233
139	0xbdb41957	-0.08793896
140	0x3d7ca8e5	0.061684508
141	0xbb8f55e3	-0.004374252
142	0xbd01a0dc	-0.031647548
143	0x3d8f68ab	0.07002386
144	0x3d4afedc	0.04955946
145	0x3df32152	0.1187159
146	0xbd40dd96	-0.04708632
147	0x3ca3135a	0.019906688
148	0x3d19a858	0.03751406
149	0xbdcb7777	-0.099348955
150	0x3cd69d68	0.026198104
151	0xbdc20415	-0.09473435
152	0x3e0c02c5	0.13672931
153	0xbd80f1b8	-0.06296104
154	0x3ced2caa	0.028951962
155	0xbca2457e	-0.019808527
156	0xbded88b8	-0.11598343
157	0xbd9bdb02	-0.07610132
158	0x3c8a3601	0.016871454
159	0x3d4bf06c	0.04978983
160	0x3d4494ee	0.047993593
161	0xbccfd74c	-0.025371216
162	0xbd75abf1	-0.05997843
163	0xbd40309d	-0.04692136
164	0x3d349454	0.04408677
165	0xbc790733	-0.01519947
166	0x3dd89a1a	0.105762675
167	0x3cc9528a	0.02457549
168	0xbe05c147	-0.1306201
169	0xbd630365	-0.05542316
170	0x3def94fd	0.11698339
171	0x3acacdc0	0.0015472695
172	0xbd60d066	-0.054886244
173	0x3cc18c5d	0.0236265
174	0x3d4e8104	0.050416008
175	0x3dd1eff5	0.10250846
176	0x3cfeee6f	0.031119553
177	0xbdc524ca	-0.096261576
178	0x3d50f52f	0.051015075
179	0x3da9ece0	0.082971334
180	0x3c6e8042	0.014556946
181	0x3d153b05	0.03643324
182	0x3d8ed5ba	0.06974359
183	0x3da3af45	0.079924144
184	0x3e079ad2	0.13242653
185	0x3d93976c	0.07206616
186	0x3e010f8b	0.12603585
187	0xbc388bfd	-0.011263845
188	0xbce73da3	-0.028227633
189	0x3cb58f90	0.022163182
190	0xbd9b6d85	-0.075892486
191	0xbc9a63f2	-0.018846486
192	0xbd7bfa59	-0.061518047
193	0xbdf21b1b	-0.11821576
194	0xbd0d99b6	-0.03457042
195	0x3de7bd70	0.11315429
196	0x3e14028b	0.14454095
197	0x3d9c2ff7	0.07626336
198	0xbdb56536	-0.08857195
199	0x3dbca572	0.09211244
200	0xbdbd6d3c	-0.092493504
201	0x3dc4e9fd	0.09614942
202	0xbd991f4b	-0.07476672
203	0x3ca13c54	0.019682087
204	0x3ce2531e	0.027627524
205	0xbdcab308	-0.09897429
206	0xbe016033	-0.12634353
207	0x3b45698d	0.0030122728
208	0x3dae9b13	0.08525672
209	0xbd75012c	-0.05981557
210	0xbda72d0e	-0.081628904
211	0x3d11c91a	0.035592176
212	0x3c9a211f	0.018814621
213	0xbd74b3f1	-0.059741918
214	0xbd193b54	-0.037410095
215	0x3d54edbe	0.05198454
216	0x3dea8e17	0.11452883
217	0xbccbe181	-0.024887802
218	0x3d2695fd	0.040670384
219	0x3d996fee	0.07492052
220	0x3db73d96	0.089472935
221	0xbd441afa	-0.04787729
222	0x3c0d666b	0.008630375
223	0x3dbf9e30	0.09356344
224	0xbd28fec2	-0.04125858
225	0xbe06af08	-0.13152707
226	0x3dbd3920	0.09239411
227	0xbdc041a8	-0.09387523
228	0xbdaa1786	-0.08305268
229	0xbc9eb8f8	-0.01937531
230	0xbde3c82a	-0.11122163
231	0xbdafa0ec	-0.08575615
232	0xbc084e77	-0.008319489
233	0x3dd7e22c	0.10541186
234	0xbd58a386	-0.052890323
235	0x3ca9418e	0.020661142
236	0xbbb7caf7	-0.005608912
237	0xbd79eff6	-0.06101986
238	0x3c01d47c	0.007924195
239	0xbd367724	-0.044547215
240	0x3c9abf28	0.018889979
241	0x3cdd520a	0.027016658
242	0xbd38071c	-0.044928655
243	0x3d4a2c62	0.049358733
244	0x3d3548f4	0.044259027
245	0xbd48e0a8	-0.049042374
246	0x3d34e444	0.044163004
247	0xbd4dfdda	-0.05029092
248	0x3e0427dd	0.12905832
249	0xbdf7b3cf	-0.12094843
250	0xbcecd18f	-0.02890852
251	0xbd6e3914	-0.058159903
252	0xbd865d3f	-0.06560754
253	0x3dae6a30	0.085163474
254	0x3b9dd550	0.0048166886
255	0xbe039b9c	-0.12852329

lstm.bias_ih_l0 f4 [256]
0	0x3defe5c6	0.11713748
1	0xbd8f6f31	-0.0700363
2	0xbdd5f9ad	-0.104480125
3	0xbd306873	-0.04306836
4	0xbd0860b4	-0.03329535
5	0xbdb70b0e	-0.089376554
6	0x3cfb4c82	0.03067613
7	0x3d2d98f4	0.042382196
8	0x3c2eb547	0.010663337
9	0xbd8a5262	-0.067539945
10	0x3dfdc1e4	0.12390497
11	0xbda78443	-0.08179524
12	0x3bfae67a	0.0076568695
13	0xbdc64f06	-0.09683041
14	0xbba8c2de	-0.005150183
15	0xbd980119	-0.07422084
16	0x3d511d9b	0.051053625
17	0x3d7c6c15	0.061626513
18	0x3d0592ce	0.032610707
19	0xbddea23f	-0.1087079
20	0xbd48197a	-0.04885242
21	0xbd375cb2	-0.044766136
22	0x3dde2d6c	0.10848507
23	0xbdd02997	-0.10164183
24	0x3e0307a0	0.12795877
25	0x3d873dc6	0.06603579
26	0xbdcd6277	-0.10028546
27	0x3d8bd176	0.06827061
28	0xbdb796f3	-0.08964338
29	0xbd089cf9	-0.033352826
30	0x3d3cbd43	0.04607893
31	0x3d8cd31c	0.068762034
32	0x3d41dd9d	0.047330488
33	0xbdc6e13a	-0.09710927
34	0xbd0fb792	-0.035087176
35	0xbd72a61f	-0.059240457
36	0x36e77880	6.8983645e-06
37	0x3d764a3c	0.06012939
38	0x3d277517	0.04088315
39	0x3d15fb46	0.036616586
40	0xbddd9f67	-0.10821419
41	0x3d9cddf4	0.07659522
42	0x3db78a13	0.089618824
43	0xbcae7d6c	-0.02130004
44	0xbde89b3b	-0.11357733
45	0x3db5ddc2	0.088801876
46	0x3d60b9ab	0.054864567
47	0xbc3eed66	-0.01165328
48	0x3de91850	0.1138159
49	0x3de0e65a	0.10981436
50	0x3d8d8fb7	0.06912177
51	0x3dbae25e	0.09125207
52	0x3d15a001	0.036529545
53	0x3daabb9f	0.08336567
54	0xbda80b79	-0.08205313
55	0xbc69a5ce	-0.014260722
56	0x3caa0b53	0.020757353
57	0x3d916a66	0.07100372
58	0x3c304117	0.010757706
59	0x3bae1654	0.0053127203
60	0x3d21f374	0.039538816
61	0x3d709daa	0.05874411
62	0xbd912809	-0.07087714
63	0x3dde56b3	0.1085638
64	0xbd61d934	-0.05513878
65	0xbde56d97	-0.11202543
66	0x3dc56a37	0.096393995
67	0x3d2b6519	0.04184446
68	0x3c186255	0.009300788
69	0x3d62c367	0.05536213
70	0xbddc2d5a	-0.107508376
71	0x3c419eca	0.011817643
72	0xbdf8cd3b	-0.121485196
73	0xbda8ec93	-0.08248248
74	0x3d77eff8	0.060531586
75	0x3dbb7983	0.09154036
76	0xbc7f4308	-0.015579946
77	0x3d4edc88	0.050503284
78	0x3daaf1dd	0.08346913
79	0x3de07da6	0.109614655
80	0x3ba74de7	0.005105722
81	0x3d6480f6	0.05578705
82	0x3d8d3743	0.06895306
83	0xbd2a05f1	-0.041509572
84	0xbc3448ea	-0.011003712
85	0xbd3add25	-0.045621056
86	0x3d984fd5	0.07437102
87	0xbddcacbb	-0.10775133
88	0xbd9a0a61	-0.07521511
89	0xbcb44043	-0.022003299
90	0xbc2c602b	-0.010520975
91	0x3d1ae1c5	0.037812967
92	0x3cb88626	0.022524904
93	0xbcde637b	-0.027147045
94	0xbda6d46f	-0.08145987
95	0xbd35c6a9	-0.04437891
96	0xbd984dfb	-0.074367486
97	0x3d87008c	0.06591901
98	0x3cc865bc	0.024462573
99	0xbdd3d3fc	-0.10343167
100	0xbd98b2e4	-0.07455996
101	0xbd1cfe28	-0.03832832
102	0x3d95eacd	0.07320175
103	0xbd5b6234	-0.05356045
104	0xbdf1799e	-0.11790775
105	0x3c08b601	0.008344174
106	0xbcab2cf1	-0.020895453
107	0x3daf3f43	0.08556988
108	0x3dc58388	0.09644228
109	0xbd59e626	-0.053198002
110	0x3cbc459c	0.022982411
111	0x3d9eeab7	0.07759612
112	0xbda9111f	-0.08255219
113	0xbd9b2ecc	-0.07577285
114	0xbdef1008	-0.116729796
115	0xbd85986a	-0.06523211
116	0xbd2722b9	-0.0408046
117	0xbcbe1983	-0.023205524
118	0xbcd86620	-0.026415884
119	0xbd9e463a	-0.077282384
120	0x3cd3c16b	0.025849065
121	0xbb623022	-0.0034513553
122	0x3e0e75dc	0.13912147
123	0x3d113b60	0.035457015
124	0x3dfb1384	0.12259582
125	0xbd02a66e	-0.031897
126	0xbdc85209	-0.09781272
127	0x3dfc428b	0.123173796
128	0xbd8c5666	-0.06852417
129	0xbbe3f8c5	-0.006957146
130	0x3e02d4e3	0.12776522
131	0xbccc2d12	-0.024923835
132	0xbd9d72a8	-0.076878846
133	0x3ddc77ef	0.10765063
134	0x3c30bd89	0.010787376
135	0xbae0ebef	-0.0017160157
136	0x3c18f9ea	0.009336928
137	0xbd9095ab	-0.07059797
138	0x3d42d63d	0.047567595
139	0xbdfc405b	-0.12316962
140	0xbad9f43b	-0.0016628572
141	0x3d46ed80	0.04856634
142	0x3df5daa1	0.12004591
143	0x3d63b93f	0.055596586
144	0x3cfe917d	0.031075234
145	0x3dafbf67	0.08581429
146	0xbc62a7be	-0.013833938
147	0xbd917a97	-0.0710346
148	0xbde721a9	-0.11285717
149	0x3cfecca3	0.031103438
150	0x3be3f225	0.006956356
151	0x3d96e814	0.07368484
152	0x3def1303	0.11673548
153	0xbd3d8a64	-0.046274558
154	0x3c12f45a	0.008969391
155	0x3d436ece	0.047713093
156	0xbd45121d	-0.048112977
157	0xbcbbe14f	-0.022934584
158	0x3daf4f80	0.08560085
159	0x3d1e9e12	0.038724966
160	0x3d8d259b	0.06891938
161	0xbde7453f	-0.112925045
162	0x3ae2d2b5	0.0017305227
163	0xbd990b53	-0.07472863
164	0xbdb68496	-0.089120075
165	0xbd9422d5	-0.07233206
166	0xbd684a24	-0.05671133
167	0xbb1733ec	-0.002307172
168	0xbca12495	-0.019670764
169	0x3dc617f9	0.09672541
170	0x3dc4160f	0.0957452
171	0xbd6ec5ac	-0.058293983
172	0x3ba85828	0.005137462
173	0xbdc5382b	-0.09629854
174	0xbda8e1da	-0.08246203
175	0xbdd05983	-0.10173323
176	0xbc453ef7	-0.012038938
177	0x3be5ed28	0.0070167966
178	0x3d90702e	0.070526466
179	0xbca69354	-0.020333923
180	0x3dc57894	0.09642139
181	0x3be9746d	0.0071244747
182	0x3d0a5822	0.033775456
183	0xbbe59854	-0.0070066843
184	0x3cf36612	0.029711757
185	0xbd4edcbd	-0.05050348
186	0x3dcd2267	0.10016327
187	0xbdd9feb2	-0.106442824
188	0x3d9b7744	0.075911075
189	0xbdcb5abf	-0.09929418
190	0x3d02f605	0.031972904
191	0xbd20676d	-0.039161135
192	0x3df722c7	0.1206718
193	0x3d3a9d4d	0.04556017
194	0x3e00cce5	0.12578161
195	0xbdf8c4ab	-0.121468864
196	0x3ca31797	0.01990871
197	0x3e079d5a	0.13243619
198	0xbc418d42	-0.011813464
199	0xbcf9ca4c	-0.03049197
200	0x3dab3a51	0.08360732
201	0xbdc41e28	-0.09576064
202	0x3ce95e18	0.02848725
203	0x3a8b7514	0.001063975
204	0xbdf25a9b	-0.11833688
205	0x39815e6b	0.00024675144
206	0x3a17786c	0.0005778137
207	0x3d97eac9	0.074178286
208	0xbcd1118b	-0.02552106
209	0xbdc11c01	-0.094291694
210	0xbd7f1172	-0.062272497
211	0x3dcc4544	0.09974149
212	0xbd0086c8	-0.031378537
213	0x3df40bad	0.119162895
214	0x3dc16dbe	0.0944476
215	0xbd0aaab3	-0.033854198
216	0x3b19e05a	0.0023479671
217	0xbc7429d8	-0.014902554
218	0xbdcc569a	-0.099774554
219	0xbd763f1a	-0.060118772
220	0x3d28178d	0.041038085
221	0x3c52e4d9	0.012871944
222	0x3d6a9deb	0.05727951
223	0xbd9d49b8	-0.07680076
224	0x3d465ace	0.04842644
225	0x3de72424	0.1128619
226	0x3da2c8d3	0.079484604
227	0xbdaf4a59	-0.085591026
228	0x3d8ffd1c	0.07030699
229	0xbdf1569b	-0.11784097
230	0x3d1b45af	0.037908252
231	0x3d40149d	0.04689466
232	0x3d2f94b6	0.04286643
233	0x3e01c5ba	0.12673083
234	0xbc15b9eb	-0.009138565
235	0x3d914ba8	0.070945084
236	0xbba4f7e6	-0.0050344346
237	0xbd84be96	-0.06481664
238	0xbd8ad3ec	-0.06778702
239	0x3dd4c845	0.10389761
240	0x3d3670a1	0.044541005
241	0xbdc372f8	-0.09543413
242	0xbcf15277	-0.029458268
243	0xbde767a1	-0.112990625
244	0x3d686602	0.056737907
245	0x3deeda42	0.11662723
246	0xbd2fb26b	-0.042894762
247	0x3d00cf29	0.031447563
248	0xbd7f6725	-0.062354226
249	0x3c61cbfa	0.013781542
250	0xbcfd9b64	-0.030957885
251	0x3dca1b95	0.09868542
252	0x3d98b53c	0.07456443
253	0xbd2e8efb	-0.042616826
254	0xbdba8715	-0.09107796
255	0x3d2b3d02	0.04180623

lstm.bias_hh_l0 f4 [256]
0	0x3cb14cc0	0.021643043
1	0xbdd9f7fe	-0.10643004
2	0xbca0968e	-0.01960304
3	0xbdb62a1a	-0.08894749
4	0x3bee62a5	0.007274943
5	0xbdef5f8a	-0.116881445
6	0x3cc50665	0.0240509
7	0xbdb27f6d	-0.08715711
8	0xbdc7830b	-0.09741791
9	0xbdca86c8	-0.09888989
10	0x3dfaa6ee	0.122388706
11	0x3dd125e9	0.10212309
12	0xbbae45c6	-0.0053183762
13	0xbb8c0d8b	-0.0042740754
14	0x3bcdbd25	0.0062786513
15	0xbcf11935	-0.029430965
16	0xbcf3db63	-0.029767698
17	0xbd5b155e	-0.053487174
18	0x3da708c1	0.081559666
19	0x3d3dd466	0.046345137
20	0xbc9f295d	-0.019428903
21	0xbd46a2fe	-0.048495285
22	0xbd609736	-0.054831706
23	0xbdd80915	-0.10548607
24	0xbcadac2e	-0.021200266
25	0xbbf0f8f3	-0.007353896
26	0x3cacdaf8	0.021100506
27	0x3dad5097	0.08462637
28	0x3ccfc31c	0.02536159
29	0xbdd0ed37	-0.10201495
30	0xbe06f965	-0.13181074
31	0xbda6d475	-0.08145992
32	0xbaa56e2f	-0.0012621338
33	0x3dbeb386	0.09311585
34	0xbb8adc4a	-0.0042376863
35	0x3dce498c	0.10072622
36	0xbdfb44be	-0.12268971
37	0xbd8ab6c7	-0.06773143
38	0xbddd992f	-0.10820233
39	0xbb73fd5d	-0.0037229874
40	0x3cbed977	0.023297055
41	0xbd640d56	-0.05567678
42	0x3dd58909	0.10426528
43	0x3bf4a065	0.0074654096
44	0xbceb4c6f	-0.02872297
45	0xbde633d0	-0.11240351
46	0xbd37f661	-0.0449127
47	0x3d149909	0.03627876
48	0xbe0593be	-0.1304464
49	0x3c9dc227	0.019257618
50	0xbd9ae3a8	-0.07562953
51	0x3ca251b8	0.019814357
52	0xbdc31afb	-0.095266305
53	0x3d25e34d	0.040499974
54	0x3dd5b59b	0.10435029
55	0xbe04dc83	-0.12974744
56	0x3d6d5a8a	0.057947673
57	0x3cb5d20a	0.022194881
58	0x3c500026	0.012695348
59	0x3d9c941d	0.07645438
60	0x3e00b1a4	0.12567765
61	0xbd929903	-0.07158091
62	0x3d9b8167	0.07593041
63	0x3dde4789	0.10853488
64	0x3d7ebd27	0.06219211
65	0xbdb3b3db	-0.08774539
66	0x3c4a0aaa	0.012331644
67	0xbdb2dfa0	-0.08734059
68	0xbced584f	-0.028972773
69	0x3ce7bcd6	0.028288286
70	0x3e008d2d	0.12553854
71	0xbdd18a30	-0.10231435
72	0xbd9bf201	-0.07614518
73	0xbd5a6fec	-0.053329393
74	0xbc006d8f	-0.007838621
75	0xbe03d8ce	-0.12875673
76	0x3dfb1326	0.12259512
77	0x3af21a03	0.0018470887
78	0x3b644d41	0.0034836086
79	0x3df12350	0.117743134
80	0x3d1acfb3	0.037795734
81	0x3c8db556	0.017298382
82	0xbe0767ca	-0.13223186
83	0x3dfb9d64	0.12285879
84	0x3d5522ae	0.052035026
85	0xbdc89355	-0.09793726
86	0xbdcf1b69	-0.1011265
87	0x3d91dcf9	0.07122225
88	0x3db19abb	0.086720906
89	0x3da2fac0	0.07957983
90	0x3db126c6	0.086499736
91	0x3d9977e0	0.074935675
92	0x3da14a5f	0.07875513
93	0x3bb5d566	0.0055491207
94	0x3b83b222	0.004019038
95	0xbd103ea9	-0.035216007
96	0x3dc2cf87	0.09512239
97	0xbd7e0f30	-0.062026203
98	0x3d62ab99	0.05533943
99	0x3dd49612	0.10380186
100	0x3d0526e2	0.032507785
101	0xbdb650c9	-0.08902127
102	0x3de2b78d	0.11070166
103	0x3d9e70d9	0.07736368
104	0x3d0eff54	0.03491147
105	0xbd94ad55	-0.07259623
106	0x3d1f22e6	0.03885164
107	0x3db8c1c1	0.090213306
108	0xbdadb9c6	-0.08482699
109	0x3db0fc37	0.08641856
110	0x3cf4a502	0.029863838
111	0xbdabf693	-0.0839664
112	0x3daff36f	0.08591353
113	0x3d24c008	0.040222198
114	0x3d2e897f	0.042611595
115	0x3c547c46	0.012969082
116	0xbd9b2feb	-0.07577499
117	0x3def05e8	0.116710484
118	0x3ddbb230	0.10727346
119	0xbd508279	-0.05090568
120	0xbd280322	-0.041018613
121	0x3dcb9853	0.09941163
122	0xbd12faa1	-0.03588355
123	0xbd8e06ec	-0.06934914
124	0xbd13353f	-0.03593945
125	0xbc3f46ec	-0.011674624
126	0x3d3dcae8	0.046336085
127	0xbde698dc	-0.11259624
128	0x3de2e316	0.110784695
129	0x3e03da1b	0.1287617
130	0xbdc02cfa	-0.093835786
131	0xbde85854	-0.11344972
132	0x3d44c265	0.04803695
133	0x3d952b51	0.072836526
134	0x3cd92245	0.026505599
135	0x3d8cdfb5	0.06878606
136	0xbd969c42	-0.073540226
137	0x3ddeb0af	0.108735435
138	0xbd55efcf	-0.052230652
139	0xbc82c88e	-0.015964773
140	0xbc4f8099	-0.012664937
141	0x3d268e10	0.040662825
142	0xbd851c9d	-0.06499598
143	0xbd52176d	-0.05129187
144	0x3ddf824b	0.10913523
145	0xbbce9238	-0.0063040517
146	0xbda68ace	-0.08131944
147	0x3d8950a3	0.06704833
148	0xbd8bf9f9	-0.06834788
149	0xbd8a29a1	-0.06746221
150	0x3de31a09	0.1108895
151	0xbd73b367	-0.059497263
152	0x3d868ab5	0.06569425
153	0xbdb9d9b1	-0.090747245
154	0x3d8b05d6	0.067882225
155	0xbd13a5e6	-0.036046885
156	0xbdf079b8	-0.11741966
157	0xbdb0d35c	-0.086340636
158	0xbdb061c8	-0.086124
159	0xbdb11197	-0.08645933
160	0x3d47051d	0.04858886
161	0xbcc77e14	-0.02435211
162	0x3d0595e5	0.032613654
163	0xbd420942	-0.04737211
164	0xbdc1a382	-0.09455015
165	0x3da80f13	0.08206
166	0xbc8095e8	-0.01569648
167	0xbdd09fe3	-0.10186746
168	0xbde66a3c	-0.11250731
169	0xbce2cdbd	-0.027685994
170	0xbc1ee468	-0.009698011
171	0xbcf01a59	-0.029309439
172	0xbdc70eb3	-0.097196005
173	0xbd267fe3	-0.040649306
174	0x3dc6fe12	0.09716429
175	0x3d7b4ed5	0.061354477
176	0x3dd5931e	0.10428451
177	0xbc808e85	-0.015692959
178	0x3d5189c9	0.051156793
179	0x3e09debb	0.13463871
180	0xba8c3c7a	-0.0010699176
181	0x3cd7e330	0.026353449
182	0xbd89bbfb	-0.067253076
183	0x3dde4e4a	0.10854776
184	0x3d5ac098	0.053406328
185	0xbcba6809	-0.022754686
186	0x3d9b16df	0.07572722
187	0xbdc5bf9e	-0.09655689
188	0x3d8b6053	0.06805482
189	0xbe01ef21	-0.12688877
190	0x3d8ca41f	0.06867241
191	0xbd3c0a69	-0.045908365
192	0x3d82fbce	0.06395684
193	0x3ce27b16	0.027646583
194	0x3de26f45	0.11056379
195	0xbdd57878	-0.10423368
196	0x3db6c9a7	0.08925181
197	0xbd888eb4	-0.066678435
198	0x3dd3251c	0.103098124
199	0x3bf49686	0.007464233
200	0x3d80ce07	0.062892966
201	0x3d0918c4	0.033470884
202	0x3d0c64fd	0.034275997
203	0x3d03234f	0.032016095
204	0x3cb98224	0.022645064
205	0xbe0acc52	-0.13554505
206	0x3d6cfef7	0.05786034
207	0x3d929245	0.07156805
208	0xbdbf20fb	-0.093324624
209	0x3ccdfc9b	0.025144866
210	0x3d8da8e8	0.06916982
211	0xbdbe896e	-0.093035564
212	0x3c68f8a4	0.014219437
213	0xbd7e4bb0	-0.0620839
214	0x3da08f56	0.07839839
215	0x3d3276b0	0.04357022
216	0xbdbf8005	-0.0935059
217	0x3df399fb	0.11894604
218	0xbc98efeb	-0.01866909
219	0xbcaaff6b	-0.020873746
220	0x3c668fe4	0.014072392
221	0x3ce9ad7d	0.028525108
222	0xbdb7d707	-0.0897656
223	0x3dbf798e	0.093493566
224	0x3da93841	0.08262683
225	0x3cf033ae	0.029321518
226	0x3c0761ba	0.008263046
227	0x3d0ae758	0.033912033
228	0xbc1cdbdb	-0.009573902
229	0xbda7d2a7	-0.081944756
230	0xbc55ce7b	-0.013049717
231	0xbcf7a1ad	-0.03022846
232	0xbdea0168	-0.114260495
233	0xbcc98873	-0.024601197
234	0x3b80192a	0.00390925
235	0xbd68c922	-0.05683244
236	0xbcbaf301	-0.022820951
237	0x3daa07f4	0.08302298
238	0xbd5fdc24	-0.0546533
239	0x3ddf2b51	0.10896934
240	0x3c6b2948	0.014353104
241	0x3db8ba98	0.09019965
242	0xbd4dec2c	-0.05027406
243	0xbdd72ee9	-0.10506994
244	0x3dc652a5	0.09683732
245	0x3b060342	0.002044872
246	0x3e011c99	0.12608565
247	0xbda88f3e	-0.08230446
248	0x3db086c8	0.086194575
249	0xbdabd92b	-0.08391031
250	0x3d815e43	0.06316807
251	0xbdf5f43d	-0.120094754
252	0x3c9143bb	0.017732492
253	0xbd843762	-0.06455876
254	0x3da255a1	0.07926489
255	0xbd7854eb	-0.06062786

lstm.weight_ih_l1 f4 [256, 64]
0	0xbda1722b	-0.07883104
1	0xbd8469eb	-0.06465515
2	0xbe0d6d68	-0.13811266
3	0xbdfbbdb2	-0.12292041
4	0xbca59376	-0.020211916
5	0x3d94a8b8	0.07258743
6	0x3c2335ca	0.009961555
7	0x3d6fbe42	0.058531053
8	0x3df7eb88	0.12105471
9	0xbd98b1ff	-0.07455825
10	0xbd8df18e	-0.069308385
11	0xbd394f3f	-0.04524159
12	0xbdbb5279	-0.0914659
13	0xbd309ac0	-0.04311633
14	0x3dcd4ffe	0.10025023
15	0xbdbb6159	-0.09149427
16	0xbdba9102	-0.09109689
17	0xbdf50dc0	-0.11965513
18	0x3d9bcb28	0.07607108
19	0x3db64603	0.089000724
20	0x3dfed00d	0.12442026
21	0x3dd743eb	0.10511001
22	0xbca64499	-0.020296382
23	0xbdec7c88	-0.1154719
24	0xbd027f41	-0.03185964
25	0xbcb730da	-0.022362161
26	0xbd32b575	-0.043630082
27	0x3d96cf3c	0.073637456
28	0x3d441fc8	0.04788187
29	0x3d700e78	0.05860755
30	0xbc9ced78	-0.019156203
31	0x3dffd513	0.124918126
32	0xbd25f611	-0.04051787
33	0x3dc9d37f	0.09854793
34	0xbd2723e6	-0.04080572
35	0xbd75b86f	-0.059990343
36	0xbdbb3803	-0.09141543
37	0x3d9419be	0.072314724
38	0xbdfdec31	-0.123985656
39	0xba369a14	-0.00069657085
40	0x3d50c980	0.050973415
41	0xbbb7e445	-0.0056119286
42	0xbd357b9c	-0.044307336
43	0x3d93675e	0.0719745
44	0x3d98558f	0.07438194
45	0xbdcd8a37	-0.10036128
46	0x3d16de80	0.036833286
47	0xbcf769d7	-0.030201836
48	0xbca77739	-0.020442592
49	0xbd028d67	-0.031873133
50	0xbdd60b34	-0.104513556
51	0x3e0c916f	0.13727354
52	0x3d99f047	0.075165324
53	0x3d9de246	0.07709174
54	0x3dbd52ac	0.09244284
55	0xbda89b50	-0.082327485
56	0xbd7d1f7f	-0.061797615
57	0x3e1044ca	0.14088741
58	0xbdc6ab32	-0.09700622
59	0x3ce88df1	0.028387995
60	0xbdb3c420	-0.08777642
61	0xbd7f6acf	-0.06235772
62	0x3d90387c	0.070420235
63	0xbd2f5c8a	-0.04281286
64	0x3dcc6baa	0.09981473
65	0xbdcfaab3	-0.1013998
66	0xbdc1f78f	-0.09471046
67	0xbd94aa47	-0.0725904
68	0x3e0a0b58	0.1348089
69	0xbd999b91	-0.07500375
70	0x3db3c9f0	0.08778751
71	0xbdd47259	-0.103733726
72	0xbe08c38f	-0.1335585
73	0x3d612977	0.054971185
74	0x3c061414	0.008183498
75	0xbb7844f3	-0.0037882894
76	0xbd65226e	-0.055941038
77	0x3d5f7e09	0.054563556
78	0x3dd41892	0.10356249
79	0x3d8df11f	0.06930756
80	0xbd105b49	-0.035243306
81	0x3b8ff335	0.004393006
82	0x3c0af8d4	0.008482177
83	0x3cb9a933	0.022663688
84	0xbd921832	-0.07133521
85	0x3e046bca	0.12931743
86	0xbd6f91c0	-0.058488607
87	0x3d26a9a8	0.04068914
88	0xbda3de15	-0.08001343
89	0x3cc8404d	0.024444724
90	0x3d4b5f7f	0.04965162
91	0xbda9f251	-0.08298171
92	0xbda7e90c	-0.08198747
93	0x3db73bc9	0.0894695
94	0xbd4cb222	-0.04997457
95	0xbdb1387e	-0.08653353
96	0x3da1d76e	0.07902418
97	0xbdd07a09	-0.10179526
98	0xbc90de98	-0.017684266
99	0xbd97a902	-0.074052826
100	0xbccfdcb5	-0.025373796
101	0xbd00f4d5	-0.03148349
102	0x3d3aefd4	0.045638874
103	0x3d8a6942	0.067583576
104	0xbca7dee5	-0.020492027
105	0xbd5a781c	-0.0533372
106	0xbde7396f	-0.112902515
107	0x3cf7fb94	0.030271329
108	0xbe13aba4	-0.14420944
109	0x3da47454	0.0803
110	0xbd0bd621	-0.034139756
111	0xbd8ea729	-0.06965477
112	0x3d2a02e4	0.041506663
113	0xbd69ed4f	-0.05711108
114	0xbd702ea6	-0.058638237
115	0xbe15e0d6	-0.1463655
116	0x3da199ab	0.07890638
117	0x3d9b7d15	0.07592217
118	0xbd0103fe	-0.031497948
119	0xbd8d8de8	-0.06911832
120	0x3dc7a012	0.09747328
121	0xbde11567	-0.1099041
122	0x3d87234f	0.065985315
123	0xbdc04e52	-0.093899384
124	0x3d82de06	0.06390004
125	0x3baf92d8	0.0053580813
126	0x3c049837	0.0080929315
127	0xbd1318a8	-0.035912186
128	0xbdbd8683	-0.09254172
129	0x3d29d947	0.041466977
130	0xbd4a544a	-0.04939679
131	0xbd308ce8	-0.04310313
132	0xbc9746eb	-0.018466434
133	0x3d933806	0.0718842
134	0x3d05d63c	0.032675013
135	0xbd2fe74e	-0.0429452
136	0xbdf54b7e	-0.119772896
137	0xbd955264	-0.072911054
138	0x3de12d7e	0.10995005
139	0xbc899466	-0.016794395
140	0x3d327c49	0.04357556
141	0xbd3a86bd	-0.045538653
142	0x3dd99222	0.10623576
143	0xbd7c3f2f	-0.061583694
144	0xbdcdff01	-0.10058404
145	0xbd5a1cba	-0.053250052
146	0xbd7441b5	-0.059632976
147	0xbd34132f	-0.043963607
148	0x3dd0ce39	0.10195584
149	0x3c87de54	0.016585506
150	0xbd0ad17e	-0.033891194
151	0x3b4cedcd	0.003126967
152	0xbe00e3d7	-0.12586914
153	0xbdad3fb1	-0.08459414
154	0xbc40cb78	-0.011767261
155	0xbde37e24	-0.11108044
156	0x3e00b54b	0.12569158
157	0x3e0822aa	0.13294473
158	0x3df838ce	0.1212021
159	0xbdd7d126	-0.10537939
160	0x3db44c4d	0.08803616
161	0x3dcb004c	0.09912166
162	0xbcf0e562	-0.029406253
163	0xbb8b87b9	-0.0042581228
164	0xbde0d769	-0.10978586
165	0x3d697aaa	0.057001747
166	0x3dfb97bb	0.122848
167	0x3c00f85b	0.007871713
168	0x3ddc64cc	0.10761413
169	0x3b5f1e5a	0.003404519
170	0x3daaf2cc	0.08347091
171	0x3d831018	0.06399554
172	0xbc152cc0	-0.0091049075
173	0xbddbe4c6	-0.107369944
174	0xbc14b9a6	-0.009077465
175	0x3d5b34d3	0.053517174
176	0x3d310097	0.043213453
177	0xbd5c8db1	-0.053846065
178	0x3dae113f	0.08499383
179	0x3b89ff4a	0.004211341
180	0xbd9b0293	-0.0756885
181	0xbc6e4ef7	-0.014545194
182	0xbdb6c708	-0.08924681
183	0xbc1db448	-0.009625502
184	0x3db9b282	0.09067251
185	0x3d2deb11	0.042460505
186	0xbbdf5453	-0.006815472
187	0xbd80df8e	-0.0629264
188	0xbdec2ff4	-0.11532584
189	0x3dd68512	0.104746
190	0xbe0122b3	-0.12610893
191	0x3da8d7ef	0.08244311
192	0xbd826f14	-0.06368843
193	0xbda3fac6	-0.080068156
194	0x3e054eb6	0.13018307
195	0x3d6b7515	0.057484705
196	0xbda71c57	-0.08159702
197	0xbd04c21a	-0.032411672
198	0x3cd79568	0.02631636
199	0x3b5b5326	0.0033466308
200	0xbdffaaef	-0.12483775
201	0x3db3774e	0.0876299
202	0xbdf0ae71	-0.11752022
203	0x3d162455	0.036655743
204	0x3a44e2a9	0.00075105816
205	0x3ccd0d3d	0.025030727
206	0xbdbc4de8	-0.09194547
207	0x3d4d4de2	0.050123103
208	0xbc598452	-0.0132761765
209	0x3e049486	0.12947282
210	0xbd635667	-0.05550232
211	0xbe004d5b	-0.12529509
212	0x3cfbbdb2	0.030730102
213	0x3ce773c8	0.028253451
214	0x3b9e787f	0.0048361416
215	0xbd0997d9	-0.03359208
216	0x3dc0a268	0.094059765
217	0xbdb0b62b	-0.08628496
218	0x3d4c9598	0.04994735
219	0x3d6663f3	0.056247663
220	0x3db9116c	0.09036526
221	0x3d7c8377	0.061648812
222	0xbd89d746	-0.06730513
223	0xbd4a42af	-0.04938
224	0x3d65295d	0.05594765
225	0x3e024574	0.12721807
226	0x3d6e10b9	0.058121417
227	0xbd1ec336	-0.038760386
228	0x3dd97c6a	0.10619433
229	0xbdcb6cd9	-0.099328704
230	0xbda0d6b1	-0.07853449
231	0xbd1befcc	-0.038070485
232	0x3d03e3a9	0.032199536
233	0xbdaaccf2	-0.083398715
234	0xbdab7d23	-0.08373477
235	0xbd8e062c	-0.06934771
236	0xbda5ff7d	-0.08105371
237	0xbdbdd9e7	-0.09270077
238	0xbd7973ba	-0.06090138
239	0xbc28a4ad	-0.010293168
240	0xbca4bfdc	-0.020111017
241	0x3d3bbc27	0.045833733
242	0x3db06f52	0.08614983
243	0xbc8ace28	-0.016944006
244	0xbdb5f6d2	-0.08884968
245	0xbd0b23a8	-0.03396955
246	0x3da4cfb6	0.0804743
247	0x3dbaf5c6	0.09128909
248	0x3d3af891	0.045647208
249	0xbe0a5d65	-0.1351219
250	0x3cc1a34a	0.023637433
251	0x3c587275	0.013210882
252	0x3c854211	0.016266854
253	0xbd7c186f	-0.06154674
254	0xbd079d40	-0.03310895
255	0xbd61ac49	-0.055095945

lstm.weight_hh_l1 f4 [256, 64]
0	0xbda2a8f0	-0.079423785
1	0xbdcd2ee0	-0.10018706
2	0xbde362d3	-0.111028336
3	0xbdcdc6d5	-0.1004769
4	0xbdef1188	-0.11673266
5	0x3d8aaa1e	0.067707285
6	0x3d637bd2	0.055538006
7	0xbc9bb223	-0.01900584
8	0xbd2f61c2	-0.04281784
9	0xbd0a35a0	-0.033742547
10	0xbc69a78e	-0.01426114
11	0x3dc8b60f	0.0980035
12	0xbd9b8f8e	-0.0759574
13	0xbd925730	-0.07145536
14	0x3ce985bf	0.028506158
15	0xbc5bac1e	-0.013407735
16	0xbceaac01	-0.028646471
17	0xbd273c7a	-0.04082916
18	0xbc5999a4	-0.01328126
19	0x3d903884	0.070420295
20	0x3c2ef27b	0.010677929
21	0x3de265f8	0.11054605
22	0xbdd4fe2a	-0.104000404
23	0xbe05325a	-0.13007489
24	0xbdb84865	-0.08998183
25	0xbe057c2c	-0.13035649
26	0x3d50c1fd	0.05096625
27	0x3deb8d58	0.115015686
28	0xbda85432	-0.08219184
29	0xbd42b091	-0.047531668
30	0xbd07057a	-0.032964207
31	0x3d9242bc	0.07141635
32	0xbd390a10	-0.045175612
33	0x3c96b69d	0.018397624
34	0x3c127e3a	0.008941228
35	0xbdd78463	-0.10523298
36	0xbd3edd5d	-0.046597827
37	0x3c267a93	0.01016106
38	0xbdc072e6	-0.09396915
39	0xbd643ad8	-0.05572018
40	0x3dae5268	0.085118115
41	0xbe01b22d	-0.12665625
42	0xbc3cc49a	-0.011521483
43	0x3d8792d2	0.066198006
44	0x3d5b4384	0.053531185
45	0xbddb8024	-0.107178
46	0x3cd2e5b5	0.025744298
47	0xbdb20cd5	-0.08693854
48	0x3d185a97	0.03719577
49	0x3cb6a16b	0.022293767
50	0x3dc4e04f	0.09613096
51	0xbcc7fbcc	-0.024412058
52	0x3cbfc9ec	0.023411714
53	0x3dc25964	0.09489706
54	0xbde1c005	-0.11022953
55	0x3dfe50cb	0.12417754
56	0xbdc382cd	-0.09546433
57	0x3c879fd4	0.016555704
58	0xbde6b9ca	-0.11265905
59	0x3df8a45d	0.12140725
60	0xbde9729e	-0.113988146
61	0x3d7bc3af	0.061465915
62	0xbd2abc6b	-0.041683596
63	0xbcd50f66	-0.02600832
64	0x3c301371	0.010746823
65	0x3db94fd6	0.090484306
66	0x3b80dfbb	0.0039329208
67	0xbd20abc1	-0.039226297
68	0xbe0ab541	-0.13545705
69	0xbd710049	-0.058838163
70	0x3c80f662	0.015742484
71	0x3d8ba0b1	0.06817759
72	0x3c8bd02b	0.017067036
73	0x3c54968d	0.012975347
74	0xbdaaaaea	-0.083333805
75	0xbd2c438a	-0.042056598
76	0xbdead2e2	-0.11466004
77	0xbd9b25b8	-0.07575554
78	0x3dd24f5f	0.10269045
79	0xbd7ec12d	-0.062195946
80	0xbd918b88	-0.071066916
81	0x3d9a060a	0.07520683
82	0x3d31f0d3	0.04344256
83	0xbdbf8ec2	-0.09353401
84	0x3d3ea213	0.046541285
85	0xbd89fbac	-0.06737456
86	0x3de4c678	0.111706674
87	0x3d7e4a60	0.06208265
88	0x3dd67874	0.10472193
89	0xbd8d06e7	-0.06886082
90	0xbd9cac62	-0.07650067
91	0xbcdadcc6	-0.026716601
92	0x3d5f2739	0.054480765
93	0xbd48ff32	-0.0490715
94	0x3d227cae	0.039669685
95	0xbdb1be6e	-0.086789
96	0xbde09940	-0.1096673
97	0xbdbaa820	-0.091140985
98	0x3d19acd0	0.037518322
99	0xbb99e098	-0.004695963
100	0xbb4561f1	-0.0030118192
101	0x3d8e2051	0.069397576
102	0x3a922a20	0.001115147
103	0x3dac6013	0.08416762
104	0xbd5930f8	-0.053025216
105	0xbdf41482	-0.11917974
106	0x3d694814	0.056953505
107	0x3d90c3ef	0.07068621
108	0x3dddb0c4	0.10824731
109	0xbd3b1c4f	-0.045681294
110	0xbd3c1064	-0.04591407
111	0xbdf0130d	-0.11722384
112	0x3da69913	0.08134665
113	0x3d0a3ff2	0.03375239
114	0x3dc50ae1	0.096212156
115	0x3dc2218c	0.09479055
116	0xbdf0284d	-0.11726437
117	0x3d2b2ef1	0.041792814
118	0x3d7e539c	0.062091455
119	0x3c322bd3	0.010874706
120	0xbcecb6ef	-0.028895823
121	0x3d89877b	0.06715294
122	0x3c39d084	0.011341218
123	0xbbffc401	-0.007805348
124	0xbca2383e	-0.019802209
125	0x3dd17956	0.10228221
126	0x3d97905c	0.07400581
127	0xbd7685fa	-0.060186364
128	0xbbaa0888	-0.0051890053
129	0x3c8e6a88	0.017384782
130	0xbdd37b96	-0.103263065
131	0x3dbeb64d	0.09312115
132	0xbd9874f9	-0.07444186
133	0xbd0ee7a7	-0.03488889
134	0xbd428d99	-0.04749832
135	0xbbad33ec	-0.0052857306
136	0xbdbf6b79	-0.09346671
137	0x3d8d2fa1	0.0689385
138	0x3d8eb3f5	0.06967918
139	0x3d016ef5	0.031599957
140	0xbaafaab9	-0.001340232
141	0x3d7fed57	0.062482204
142	0x3ca9bffb	0.020721426
143	0x3dddb8df	0.10826277
144	0x3d1e843c	0.038700327
145	0xbd58dea0	-0.052946687
146	0xbc5a27f1	-0.013315187
147	0xbdbb65f2	-0.09150304
148	0x3ce303bc	0.027711742
149	0xbdade64a	-0.0849119
150	0xbdcac0a6	-0.09900026
151	0xbca3fa3d	-0.020016784
152	0x3c94cea0	0.018164933
153	0x3d3db92d	0.046319176
154	0x3de99772	0.11405839
155	0xbd200562	-0.039067633
156	0xbdabf89c	-0.08397028
157	0xbde4ad69	-0.11165888
158	0xbbc16c30	-0.0059027895
159	0x3d922b51	0.07137168
160	0x3c8daa84	0.017293222
161	0x3d7b005f	0.06127965
162	0x3d4f29bd	0.050576914
163	0xbdb708df	-0.08937239
164	0xbdc23d41	-0.094843395
165	0xbd8e8056	-0.06958072
166	0x3b0a185e	0.0021071653
167	0x3d9ec26f	0.07751929
168	0xbd4454d4	-0.04793246
169	0xbddbbd07	-0.107294135
170	0xbdfc60cf	-0.12323152
171	0xbda27c59	-0.07933874
172	0xbdc1f7d9	-0.09471101
173	0xbcd52165	-0.0260169
174	0x3dfc560a	0.12321098
175	0xbd68baff	-0.05681896
176	0x3d914957	0.070940666
177	0xbc9e2d47	-0.0193087
178	0xbda131fd	-0.07870863
179	0xbdaccdc5	-0.08437685
180	0xbddb05d1	-0.10694469
181	0xbdafd475	-0.08585445
182	0x3cf502ab	0.029908499
183	0xbda97bd6	-0.08275573
184	0xbd16fd64	-0.036862746
185	0xbd894b8d	-0.06703863
186	0x3bfc7085	0.007703843
187	0x3d6ebb5f	0.05828416
188	0x3dbe425b	0.0929
189	0x3ac5e7ff	0.0015099047
190	0x3de611f6	0.112338945
191	0xbd3ee79e	-0.046607606
192	0xbd7bfb13	-0.06151874
193	0xbdc3ca8b	-0.095601164
194	0xbcd88666	-0.026431274
195	0x3d8750e9	0.06607229
196	0x3daa74e0	0.083230734
197	0xbb68c929	-0.0035520291
198	0xbdb238c4	-0.087022334
199	0xbd96ef82	-0.07369901
200	0xbc902151	-0.017594012
201	0x3d8e51e2	0.06949212
202	0xbde2d973	-0.110766314
203	0x3da82fcf	0.08212244
204	0x3dbb5936	0.09147875
205	0x3d615663	0.055014025
206	0xbd8d041a	-0.06885548
207	0xbd9baf70	-0.076018214
208	0xbd35860e	-0.044317298
209	0x3dc964ee	0.09833704
210	0xbdd2fe81	-0.10302449
211	0x3c24ae66	0.010051345
212	0xbdffb34b	-0.12485369
213	0x3dd0dc11	0.10198224
214	0xbd447950	-0.047967255
215	0x3bcb53f4	0.0062050764
216	0x3b4ed30a	0.0031558895
217	0xbcbc791e	-0.023006972
218	0x3d634e84	0.0554948
219	0x3d75a677	0.059973206
220	0xbddd436d	-0.10803876
221	0xbd2ab8b5	-0.041680057
222	0xbd31c0f1	-0.043396894
223	0xbc275315	-0.010212679
224	0x3db39cb4	0.08770123
225	0xbdb75ae7	-0.08952885
226	0xbadc61cd	-0.0016813815
227	0x39f61b26	0.00046941004
228	0xbdac7c13	-0.08422103
229	0xbd244aa4	-0.040110245
230	0x3dc0f8d6	0.09422462
231	0xbd4365ae	-0.04770439
232	0xbd5e1f6c	-0.054229185
233	0xbd5096c0	-0.050925016
234	0x3d83544b	0.06412562
235	0x3d7a62bd	0.06112932
236	0xbcfe7ed3	-0.031066334
237	0xbd998ee9	-0.07497961
238	0x3c9126ee	0.017718758
239	0xbdc8b874	-0.09800807
240	0xbda27ed3	-0.07934346
241	0xbcf27daf	-0.029600946
242	0xbd864391	-0.06555856
243	0xbc5e4410	-0.013566032
244	0x3d29ab66	0.041423224
245	0x3ceac4d5	0.02865831
246	0xbb0a0cbf	-0.0021064726
247	0xbd507001	-0.050888065
248	0x3ca86605	0.02055646
249	0xbd9553dd	-0.07291386
250	0x3d821b6e	0.06352888
251	0x3d3fbac5	0.046808977
252	0x3d8f8f07	0.07009702
253	0x3d9aad22	0.07552554
254	0xbd82474b	-0.06361254
255	0x3d5b8f90	0.05360371

lstm.bias_ih_l1 f4 [256]
0	0xbdbeff28	-0.09326011
1	0x3d1072af	0.03526562
2	0xbe0761f5	-0.13220961
3	0xbd3ae642	-0.045629747
4	0xbc8d1c7f	-0.017225502
5	0xbd7ea8ca	-0.06217269
6	0xbc881d21	-0.016615452
7	0xbcb06ac3	-0.021535283
8	0x3dbe453e	0.09290551
9	0xbd3edb10	-0.046595633
10	0xbc826afa	-0.015920151
11	0xbdca50ff	-0.0987873
12	0xbe03d2b0	-0.1287334
13	0x3dcc4d72	0.09975709
14	0xbd8ee474	-0.06977168
15	0xbb9c3527	-0.0047670784
16	0x3caa3010	0.020774871
17	0xbd82c29a	-0.063847736
18	0xbdd36359	-0.103216834
19	0xbd938bbe	-0.07204388
20	0xbcf6e4a4	-0.030138321
21	0x3ccb406b	0.02481099
22	0x3de1c183	0.110232376
23	0xbcd31f5c	-0.02577179
24	0xbe0f9a28	-0.1402365
25	0xbdf725b4	-0.12067738
26	0xbb971d8f	-0.004611678
27	0xbd39d377	-0.045367684
28	0x3d5ba74c	0.053626344
29	0xbe00029c	-0.12500995
30	0xbce4c41b	-0.027925542
31	0x3d9282ea	0.07153876
32	0x3d877947	0.06614929
33	0xbb1d28c4	-0.0023980597
34	0x3d71852b	0.05896489
35	0xbd26fcfe	-0.040768616
36	0xbc5d3a69	-0.013502696
37	0x3d7df78a	0.06200365
38	0xbd56e212	-0.05246169
39	0xbcd8574e	-0.026408818
40	0x3dc97d53	0.09838357
41	0xbb3416a2	-0.002747931
42	0x3d340f45	0.043959875
43	0xbce9e347	-0.028550757
44	0xbba6defa	-0.005092499
45	0x3d3780d3	0.04480059
46	0xbc46d0ec	-0.012134772
47	0x3dcfeec7	0.10152965
48	0x3c24117c	0.010013934
49	0x3dc4778f	0.095931165
50	0x3bf46629	0.0074584675
51	0xbde41fc1	-0.11138869
52	0xbdafff64	-0.08593634
53	0x3d61beaf	0.05511349
54	0x3cd55843	0.026043063
55	0x3db4df96	0.08831708
56	0x3cc502ec	0.024049245
57	0x3d341547	0.043965604
58	0xbd847432	-0.06467475
59	0x3da779f1	0.08177555
60	0x3dbd3357	0.09238308
61	0x3db55d11	0.08855642
62	0xbd4e9c19	-0.050441835
63	0x3cdbc0ca	0.026825327
64	0xbb1dea39	-0.0024095906
65	0xbd82161b	-0.063518725
66	0x3d3bac2a	0.045818485
67	0xbdc5abd6	-0.09651916
68	0xbd9f936a	-0.07791789
69	0xbc8db694	-0.017298974
70	0x3ddadb3c	0.10686347
71	0x3ceeb2ba	0.029137958
72	0x3d4682eb	0.048464697
73	0x3ca390a9	0.01996644
74	0xbdd9b414	-0.1063005
75	0xbd7e95a9	-0.062154446
76	0xbdc4a594	-0.09601894
77	0xbd69def8	-0.057097405
78	0xbc80c8db	-0.015720775
79	0xbc277d78	-0.010222785
80	0x3dc9b0d0	0.098481774
81	0x3d4cd831	0.050010864
82	0xbd868711	-0.065687306
83	0x3d4a5102	0.04939366
84	0xbb1ffe7d	-0.0024413161
85	0xbe001ecc	-0.12511748
86	0xbc9b7958	-0.01897876
87	0xbd150509	-0.036381755
88	0x3d42f113	0.047593188
89	0xbe0ceb28	-0.1376158
90	0x3d024373	0.031802606
91	0xbd155b31	-0.03646392
92	0x3df556c6	0.11979441
93	0xbd295dc4	-0.041349187
94	0xbdc64a16	-0.096820995
95	0xbdf397dc	-0.11894199
96	0xbd0a6b69	-0.03379384
97	0x3dd8132d	0.105505325
98	0xbe072aaa	-0.13199869
99	0xbd00e80d	-0.0314713
100	0x3dd19b95	0.10234753
101	0xbc943849	-0.018093245
102	0xbc406111	-0.011741892
103	0x3d2814df	0.04103553
104	0xbd9f8bc9	-0.07790334
105	0x3cebe5e6	0.028796148
106	0xbcabfbef	-0.020994155
107	0x3e059d35	0.13048251
108	0xbcb22295	-0.021745006
109	0xbd15c1fa	-0.036561944
110	0xbd9341f0	-0.07190311
111	0xbd4f335a	-0.050586082
112	0xbcb94279	-0.022614704
113	0x3c73d44b	0.014882158
114	0x3ddec1ac	0.10876784
115	0xbd0a83b9	-0.033817027
116	0xbce05cef	-0.027388064
117	0xbcc03f42	-0.023467664
118	0xbd33bd09	-0.04388145
119	0xbd25a8af	-0.040444072
120	0x3d507b09	0.050898585
121	0x3d646a73	0.05576558
122	0xbd5b0e48	-0.053480417
123	0x3d738b30	0.05945891
124	0xbd976623	-0.07392528
125	0xbd9d33c7	-0.07675891
126	0xbc5647ac	-0.013078611
127	0xbd2f368d	-0.042776633
128	0xbd3a65fe	-0.045507424
129	0xbb969765	-0.0045956844
130	0xbcaf72bd	-0.021417016
131	0xbcb285f3	-0.021792388
132	0x3addc579	0.0016919813
133	0x3d20eafa	0.03928659
134	0x3ca345c0	0.01993072
135	0x3da440d9	0.08020181
136	0x3ca0f8cd	0.019649887
137	0xbdfb4d78	-0.12270635
138	0x3d830e34	0.063991934
139	0x3c05b4c7	0.008160776
140	0xbdd77324	-0.10520008
141	0xbbe9c374	-0.0071338955
142	0xbd828346	-0.06372695
143	0xbdf00cb1	-0.11721171
144	0x3dfda5bb	0.12385126
145	0xba5344eb	-0.0008059281
146	0xbdf48006	-0.11938481
147	0xbdae6839	-0.08515973
148	0x3ca9fb97	0.02074985
149	0xbde88b20	-0.11354661
150	0xbc582cc8	-0.01319427
151	0x3d48f0cc	0.049057767
152	0xbd6b3857	-0.057426777
153	0x3d882dbf	0.066493504
154	0x3b5cd84e	0.0033698264
155	0x3d1e3c8e	0.03863197
156	0xbd8913b2	-0.0669321
157	0xbdcd00d6	-0.10009925
158	0x3ca7268f	0.020404128
159	0x3c9c543c	0.019083135
160	0xbdc36b29	-0.095419236
161	0xbdcf781e	-0.101303324
162	0xbd856065	-0.065125264
163	0x3dc2189c	0.0947735
164	0xbd72556b	-0.059163492
165	0xbdf4df16	-0.11956613
166	0xbdc461fe	-0.09589003
167	0x3d3ae942	0.04563261
168	0xbd5664b1	-0.05234212
169	0x3dfe5a77	0.124195985
170	0x3bc964a8	0.0061460324
171	0xbd94e0b5	-0.07269422
172	0xbd485768	-0.048911482
173	0x3d76da53	0.060266804
174	0x3d565b95	0.052333433
175	0xbd447b83	-0.047969352
176	0xbd601101	-0.054703716
177	0xbc7274cf	-0.014798357
178	0x3d7e0218	0.062013716
179	0xbded4787	-0.115859084
180	0x3e010f4e	0.12603495
181	0x3d88aa0f	0.06673061
182	0x3d96fab0	0.073720336
183	0xbc26522f	-0.01015143
184	0xbcae2aa1	-0.021260561
185	0xbca1232b	-0.01967009
186	0x3d850481	0.06495
187	0xbd757b6f	-0.05993217
188	0x3dc0467d	0.093884446
189	0xbd691276	-0.05690237
190	0x3de29cff	0.11065101
191	0x3c8d6312	0.017259154
192	0x3dc24376	0.094855234
193	0x3d0620be	0.03274607
194	0xbc9f50af	-0.019447653
195	0xbdd5efdc	-0.1044614
196	0x3ce4ebc0	0.027944446
197	0x3d64a224	0.05581869
198	0xbbf4b7ce	-0.0074682003
199	0x3db4db4a	0.088308886
200	0x3db699f8	0.08916086
201	0xbc9f2e03	-0.01943112
202	0xbdfd58e5	-0.12370471
203	0xbdfb2f18	-0.12264842
204	0x3ba84e9a	0.005136323
205	0x3cb6526c	0.022256099
206	0x3e1019b2	0.14072302
207	0xbdeb5dc6	-0.11492495
208	0xbc3d0d7b	-0.0115388585
209	0x3c58c0a8	0.013229527
210	0x3d66f1c6	0.056382917
211	0x3dbb839f	0.09155964
212	0x3db0ca3a	0.08632322
213	0xbdeb4730	-0.11488187
214	0xbd49d6fd	-0.049277294
215	0x3c8d9c7c	0.017286532
216	0x3dd70ab8	0.10500091
217	0x3d139e04	0.036039367
218	0xbd9400e5	-0.07226733
219	0x3c2ac9f5	0.010424127
220	0x3da772ae	0.0817617
221	0xbdb0d1d8	-0.086337745
222	0xbc5c83d4	-0.013459165
223	0xbd358891	-0.044319693
224	0xbda9ab30	-0.082846045
225	0x3ca0e567	0.019640638
226	0xbd93035f	-0.07178377
227	0x3d447f7a	0.047973134
228	0x3dc8aabf	0.09798192
229	0xbdf6c464	-0.12049177
230	0xbc278126	-0.0102236625
231	0xbdf2f9c6	-0.11864047
232	0x3cac2b41	0.021016719
233	0xbdd92883	-0.1060343
234	0x3d8f1733	0.06986847
235	0x3de65cbc	0.112481564
236	0x3db1e6ca	0.08686598
237	0xbdf08c52	-0.11745514
238	0x3d3fa7c5	0.046790857
239	0xbdcb3578	-0.09922308
240	0x3d61c5ac	0.055120155
241	0x3cfd945b	0.03095453
242	0x3d86abb0	0.065757155
243	0x3ce5fc12	0.028074298
244	0x3d0a9db3	0.0338418
245	0x3d663822	0.056205876
246	0xbc8824de	-0.016619142
247	0xbd67f6e6	-0.056631945
248	0xbdbb9075	-0.09158412
249	0x3dfab3c2	0.12241317
250	0xbd12f734	-0.035880283
251	0xbd8cbb75	-0.06871692
252	0xbde6dccb	-0.11272582
253	0x3c8799f9	0.016552912
254	0x3d3d6038	0.04623434
255	0x3b70911e	0.003670759
