artifacts/SKU_03/model.pt (torch, 219227 bytes, 12 tensors)

lstm.weight_ih_l0 f4 [256, 10]
0	0xbdff6cbe	-0.12471913
1	0x3c8b0e1f	0.016974507
2	0xbbff684b	-0.007794415
3	0x3d93f651	0.072247155
4	0x3deaa9a7	0.1145814
5	0xbc482c69	-0.012217619
6	0xbde06d0e	-0.109583005
7	0x3da0586d	0.07829366
8	0xbe07dd39	-0.13267983
9	0xbda9c7d3	-0.082900666
10	0xbdb1bfd2	-0.08679165
11	0xbd1f6f12	-0.038924284
12	0xbcc01677	-0.023448212
13	0x3dec3796	0.1153404
14	0x3ca853d2	0.020547781
15	0xbdef1a1c	-0.11674902
16	0xbd8228dc	-0.063554496
17	0xb93d9e5c	-0.00018083438
18	0xbc1e1669	-0.009648898
19	0x3df0ae91	0.11752046
20	0xbe0e3f4f	-0.13891338
21	0xbd97b46d	-0.0740746
22	0x3c7ec660	0.015550226
23	0x3d4c20a9	0.049835835
24	0xbd66c360	-0.056338668
25	0x3d2a3320	0.041552663
26	0x3dc76ace	0.09737168
27	0xbd2f3384	-0.04277374
28	0xbdb4c9eb	-0.08827575
29	0xbdd3e5e9	-0.10346586
30	0x3e05bf46	0.13061246
31	0xbce2bb16	-0.0276771
32	0xbde73a7e	-0.112904534
33	0xbd1a4d43	-0.03767134
34	0xbe06153c	-0.13094038
35	0xbd3b831d	-0.045779336
36	0x3da7f128	0.08200294
37	0x3c6caf7a	0.014446134
38	0xbcd75fb2	-0.026290748
39	0xbde714a5	-0.112832345
40	0xbdcf4cb3	-0.10122051
41	0x3df2ab40	0.118490696
42	0x3e0c8b6f	0.13725065
43	0x3c9a1f23	0.018813675
44	0xbdba636f	-0.09100997
45	0xbc901acf	-0.017590908
46	0xbc27473c	-0.010209855
47	0xbc709f31	-0.014686392
48	0xbcceeeb6	-0.02526031
49	0x3dc74c0a	0.097313
50	0xbd301a6b	-0.042993944
51	0xbd5715b2	-0.052510925
52	0xbdee9262	-0.11649014
53	0x3d1b338c	0.037890956
54	0xbdd0e21f	-0.10199379
55	0xbda352be	-0.07974766
56	0xbdd48b69	-0.10378153
57	0x3d20d084	0.039261356
58	0x3c7ee82f	0.015558287
59	0xbdd01094	-0.10159412
60	0xbcda02f3	-0.026612734
61	0x3cf74ff6	0.030189496
62	0xbe040456	-0.12892279
63	0x3d1289f8	0.03577611
64	0x3c9a3e1e	0.018828448
65	0x3d62a68c	0.055334613
66	0x3d10d66d	0.035360742
67	0xbc3be8bc	-0.011469062
68	0xbda9fe5c	-0.08300468
69	0xbd2895d0	-0.041158497
70	0xbde31f0f	-0.11089908
71	0x3d7a1011	0.06105048
72	0x3dcca740	0.09992838
73	0x3d27cce7	0.040966894
74	0x3de4f744	0.11179975
75	0x3d7c2cce	0.061566167
76	0x3cf64ecc	0.03006687
77	0xbdec7ba1	-0.11547018
78	0xbdc44964	-0.09584311
79	0xbd974e07	-0.073879294
80	0xbdcf7e90	-0.10131562
81	0x3d0b1ce5	0.033963103
82	0x3ddb4e53	0.107082985
83	0x3e0eec00	0.13957214
84	0x3dcd006e	0.100098476
85	0x3d534563	0.051579844
86	0x3d753423	0.059864175
87	0x3d1c862c	0.038213894
88	0x3d9e145f	0.07718729
89	0xbdd3f869	-0.10350115
90	0x3c0d2d1f	0.008616715
91	0x3cbb5a47	0.022870196
92	0x3d8012a1	0.06253553
93	0xbd8413e8	-0.06449109
94	0xbd526f3f	-0.051375624
95	0xbdce2e2c	-0.100674
96	0xbdec27b2	-0.11531009
97	0xbdbd96ea	-0.092573
98	0x3d52fdec	0.05151169
99	0xbce15338	-0.027505502
100	0x3dc48694	0.09595981
101	0x3cf7b76b	0.030238828
102	0xbd2d5847	-0.042320516
103	0xbdbc0dfd	-0.091823556
104	0x3d19d0d7	0.03755268
105	0x3de3a6e2	0.11115815
106	0x3d6d3bd1	0.057918373
107	0xbdb63083	-0.088959716
108	0x3d9dfbfe	0.07714079
109	0xbd74cbc9	-0.059764657
110	0xbd024d98	-0.03181228
111	0xbd0d62c2	-0.03451801
112	0x3cdf7c58	0.027280971
113	0xbdfc18ec	-0.12309441
114	0x3b4bff1a	0.0031127394
115	0xbdccf239	-0.10007138
116	0x3d93282c	0.071853966
117	0xbd0b9f2b	-0.03408734
118	0x3d7c7eee	0.061644487
119	0x3d98f734	0.07469025
120	0x3d867710	0.06565678
121	0x3e0806b1	0.13283803
122	0x3d41909e	0.04725706
123	0x3ddbf025	0.10739163
124	0xbdec0509	-0.11524398
125	0xbd145109	-0.036210094
126	0xbd64181c	-0.055687055
127	0x3d0bb422	0.034107335
128	0xbb4dfaf4	-0.0031430097
129	0xbddb7a0e	-0.107166395
130	0x3c601358	0.013676487
131	0xbdc7708f	-0.09738266
132	0x3b77c536	0.0037806756
133	0x3d9d437c	0.07678887
134	0xbbd5c913	-0.006524214
135	0x3bea8be5	0.00715779
136	0x3d8a19a3	0.06743171
137	0x3d3f9f80	0.04678297
138	0x3d9da18e	0.0769683
139	0x3d627714	0.055289343
140	0xbe0a9f13	-0.13537244
141	0xbcaa37e1	-0.020778598
142	0xbb80f9d8	-0.0039360337
143	0x3c1807c3	0.009279194
144	0xbcc0f2de	-0.023553308
145	0xbd4dfd89	-0.050290618
146	0x3d19cf63	0.037551295
147	0xbcfa8cbf	-0.030584691
148	0xbd50d809	-0.050987277
149	0xbd301ae3	-0.04299439
150	0xbd4440a6	-0.047913216
151	0xbcae4e46	-0.021277558
152	0xbd43ef52	-0.047835656
153	0xbb27c461	-0.0025599229
154	0xbd51d0c3	-0.05122448
155	0x3d77c29d	0.060488332
156	0x3da819de	0.08208059
157	0xbc4ec937	-0.012621216
158	0xbcd2e6c9	-0.025744813
159	0x3bea98d4	0.007159332
160	0xbc3201dc	-0.010864701
161	0xbd01eff2	-0.03172297
162	0xbcea84e6	-0.028627824
163	0x3d3f91d7	0.046769943
164	0x3d1a4cd1	0.037670914
165	0x3dc78b84	0.09743407
166	0xbd396206	-0.045259498
167	0xbdc27e8d	-0.09496794
168	0x3da98307	0.082769446
169	0xbe005dfb	-0.1253585
170	0x3dcd0561	0.100107916
171	0x3c78022d	0.0151372375
172	0x3d0c08ea	0.03418819
173	0xbdac0e2d	-0.08401141
174	0xba1231c4	-0.00055768737
175	0x3cc41a26	0.02393825
176	0xbdfa1e47	-0.12212806
177	0xbd4c233f	-0.0498383
178	0xbda15418	-0.07877368
179	0x3cedb61e	0.029017504
180	0xbb287e9f	-0.0025710238
181	0xbc2e6665	-0.01064453
182	0xbdb75f6d	-0.08953748
183	0x3bfc0829	0.0076914025
184	0x3de2f7c6	0.11082415
185	0x3dcdd071	0.10049523
186	0x3d8e07dc	0.06935093
187	0x3c4f6f0d	0.012660754
188	0xbe107570	-0.14107299
189	0xbc977973	-0.018490529
190	0xbcc2d4fa	-0.023783196
191	0x3cfb4b9c	0.030675702
192	0x3c3cb027	0.011516607
193	0xbde97e67	-0.114010625
194	0x3d35a67b	0.04434822
195	0x3d8a4081	0.067505844
196	0xbd95d2ee	-0.07315622
197	0x3bdc06ee	0.0067146933
198	0x3dd4862f	0.10377156
199	0x3d95f4bf	0.07322072
200	0xbdc87b5d	-0.09789155
201	0x3a83c32b	0.0010052671
202	0xbd92efbd	-0.07174633
203	0xbded38d9	-0.115831085
204	0xbdffc49b	-0.124886714
205	0x3cfa3f59	0.030547785
206	0x3d99d099	0.0751049
207	0x3d38614c	0.045014665
208	0xbdb2b035	-0.08725015
209	0x3da99f31	0.082823165
210	0x3cf6e66f	0.030139176
211	0x3d31034d	0.04321604
212	0x3d5a7292	0.05333192
213	0xbdc30e41	-0.09524203
214	0x3e0f93c4	0.14021212
215	0x3dd2fb21	0.10301805
216	0x3d0f8823	0.03504194
217	0x3dccc9f3	0.09999456
218	0x3da869a5	0.08223275
219	0xbe050b7a	-0.12992659
220	0x3d8fa55c	0.07013962
221	0x3d62e04b	0.055389684
222	0xbd6a1b82	-0.05715514
223	0xbd542324	-0.051791325
224	0xbdf0982c	-0.117477745
225	0x3ca692cc	0.02033367
226	0xbd22fac7	-0.03978994
227	0x3da8e110	0.08246052
228	0xbe0e3b85	-0.13889892
229	0x3b3e9c94	0.0029085027
230	0x3a22946f	0.0006201928
231	0x3d0a98a4	0.033836976
232	0xbdbc64f6	-0.09198944
233	0x3de3ede2	0.11129357
234	0xbd1706f2	-0.036871858
235	0xbcc6c097	-0.024261756
236	0x3d6dbcad	0.058041263
237	0x3db44365	0.08801917
238	0xbd6ef3bb	-0.05833791
239	0x3daad945	0.08342222
240	0xbe0f4c8d	-0.13994046
241	0xbd9c7968	-0.07640344
242	0xbdd72f2a	-0.10507043
243	0xbd480cf2	-0.04884047
244	0xbd57fff7	-0.05273434
245	0xbd9cde43	-0.076595806
246	0x3e04d832	0.12973097
247	0xbd45ca28	-0.048288494
248	0x3ddb8e20	0.107204676
249	0xbe0d21f9	-0.13782491
250	0x3dc484d3	0.09595647
251	0xbc4f77c0	-0.012662828
252	0xbd770d26	-0.060315274
253	0x3d8ee1e2	0.069766775
254	0x3cf8e74b	0.030383727
255	0x3c6df511	0.01452376

lstm.weight_hh_l0 f4 [256, 64]
0	0xbd07d54c	-0.0331624
1	0x3d286d1a	0.041119672
2	0x3ca48b5c	0.020085983
3	0x3cba6a57	0.022755785
4	0x3e18183f	0.14852999
5	0x3df94cfb	0.12172886
6	0xbc79b628	-0.015241183
7	0x3ba8193c	0.0051299613
8	0x3d9344d8	0.07190865
9	0xbcc3c522	-0.023897711
10	0x3d59cc4e	0.053173356
11	0xbdafde47	-0.08587318
12	0x3dd7d1b8	0.105380476
13	0x3d520051	0.051269833
14	0x3e123235	0.14276965
15	0x3dabaee5	0.08382968
16	0x3db6e3ac	0.08930144
17	0xbd234eac	-0.03986995
18	0xbd69a350	-0.057040513
19	0x3c97a3ea	0.018510778
20	0x3d94f22d	0.07272754
21	0xbd00cbde	-0.031444423
22	0x3d859cb3	0.06524029
23	0xbd889ec0	-0.06670904
24	0xbdebc22a	-0.11511643
25	0xbd06fce3	-0.032956015
26	0xbde54d57	-0.11196392
27	0xbde0eed6	-0.10983054
28	0x3da344f4	0.07972136
29	0x3d112d0a	0.035443343
30	0x3db874c6	0.09006648
31	0x3d7225ee	0.059118204
32	0xbdd18d25	-0.10231999
33	0xbd1651bc	-0.03669904
34	0x3d6be0f5	0.057587583
35	0xbdb49d3c	-0.088190526
36	0x3e0b69ed	0.13614626
37	0xbd932066	-0.07183914
38	0xbc42df2d	-0.01189403
39	0x3da5eb78	0.08101553
40	0xbd540b87	-0.051768806
41	0xbd640d89	-0.05567697
42	0x3de68992	0.11256708
43	0xbd97d092	-0.074128285
44	0xbd857ccd	-0.065179445
45	0xbc2c44dc	-0.010514464
46	0x3daf3621	0.08555246
47	0x3c856fed	0.016288722
48	0xbdfe40b4	-0.12414685
49	0xbd8c7e2c	-0.06860003
50	0xbd601e4d	-0.054716397
51	0xbd11e413	-0.0356179
52	0x3d9f984a	0.07792719
53	0x3b5357af	0.0032248308
54	0xbd8c3727	-0.06846457
55	0xba78c0c6	-0.00094891747
56	0xbda215a0	-0.07914281
57	0x3a540e53	0.00080892927
58	0x3d922816	0.07136552
59	0xbdc98e36	-0.09841578
60	0x3dd32263	0.10309293
61	0xbcb54c82	-0.022131208
62	0x3dacf2da	0.08444758
63	0x3d21c473	0.03949399
64	0xbda0fe3e	-0.07860993
65	0xbd9cbe87	-0.07653528
66	0x3d3ea252	0.04654152
67	0xbd6c0cb5	-0.057629306
68	0x3cfe2bb2	0.031026695
69	0xbdf1d470	-0.11808097
70	0x3dba7d1d	0.09105895
71	0x3d080a47	0.033212926
72	0xbdc9ffc8	-0.098632395
73	0x3bbd88e4	0.005784141
74	0xbd908b9e	-0.0705788
75	0x3d7c911a	0.061661817
76	0xbddae8fa	-0.10688968
77	0xbc21a4b8	-0.009865932
78	0xbdec1e5f	-0.1152923
79	0x3d73baec	0.059504434
80	0xbc71a310	-0.01474835
81	0x3d8bac0e	0.06819926
82	0xbc868dbc	-0.016425006
83	0xbdcf063c	-0.10108611
84	0xbdcd6bbc	-0.10030314
85	0xbddcc8ff	-0.107805245
86	0x3c4c0758	0.012452923
87	0xbddc2832	-0.10749854
88	0xbd9207a2	-0.07130362
89	0xbd817b8b	-0.06322392
90	0x3d26533b	0.04060672
91	0x3ca058e6	0.01957364
92	0xbbe6f483	-0.007048191
93	0xbd973855	-0.07383791
94	0xbd5705b1	-0.052495662
95	0x3986e463	0.00025728633
96	0xbaf30c97	-0.0018543181
97	0xbc17d20d	-0.009266389
98	0xbdaecd7f	-0.08535289
99	0xbdf1f8d7	-0.118150406
100	0xbdc0fef0	-0.094236255
101	0x3c71edc3	0.0147661595
102	0xbd8e6361	-0.06952549
103	0x3ca81d2c	0.020521723
104	0xbdbf9822	-0.09355189
105	0xbd7f6d56	-0.06236013
106	0xbd954b74	-0.07289782
107	0x3a3f545e	0.00072986435
108	0x3dfb3fa9	0.122680016
109	0xbdd000cc	-0.10156402
110	0xbd27c801	-0.040962223
111	0x3da7378c	0.081648916
112	0x3daad22d	0.08340869
113	0xbc8b2484	-0.016985185
114	0x3d81458e	0.06312095
115	0x3d591061	0.052994136
116	0x3d86474e	0.06556569
117	0x3dc5b586	0.096537635
118	0x3ca8e54c	0.02061715
119	0x3db58a57	0.08864277
120	0x3ddecfc1	0.1087947
121	0x3db490cc	0.0881668
122	0xbe004696	-0.12526926
123	0xbdd57a22	-0.104236856
124	0xbc685e79	-0.01418268
125	0x3deacd94	0.11464992
126	0x3d9b79c1	0.07591582
127	0xbe05f4aa	-0.13081613
128	0xbdcf27a1	-0.101149805
129	0x3d1fe1c9	0.039033685
130	0xbdd03811	-0.10166944
131	0x3d55251b	0.05203734
132	0xbdc4c7b2	-0.09608401
133	0xbd1978f2	-0.037468858
134	0xbc04c437	-0.008103422
135	0x3c921fce	0.017837431
136	0x3dbed4a8	0.09317905
137	0xbdae2a96	-0.085042164
138	0xbdcdefe1	-0.10055519
139	0xbd1a9c5e	-0.03774678
140	0xbd1822d4	-0.03714259
141	0x3d2d5e1b	0.042326074
142	0x3d165718	0.036704153
143	0x3b09aac4	0.0021006325
144	0xbda8f746	-0.08250289
145	0xbd22840a	-0.039676704
146	0x3d57d067	0.052688982
147	0xbcb2f9cd	-0.02184763
148	0x3dcb4544	0.09925321
149	0xbd6b7c27	-0.057491448
150	0xbdc28302	-0.09497644
151	0xbccd2685	-0.025042782
152	0x3dc3327a	0.09531112
153	0xbdf23002	-0.11825563
154	0x3de43d96	0.11144559
155	0x3d8e925f	0.06961512
156	0x3db083c0	0.08618879
157	0xbcfff011	-0.031242402
158	0xbc67093c	-0.014101323
159	0xbceaf927	-0.028683258
160	0xbd5a5db7	-0.05331203
161	0x3dd530b9	0.10409684
162	0x3d8fbffd	0.07019041
163	0xbd67641d	-0.05649196
164	0x3d72e6f2	0.059302278
165	0x3c65ad1b	0.014018322
166	0x3cce03d7	0.025148315
167	0xbca1d5c7	-0.019755257
168	0x3b4f5feb	0.0031642865
169	0x3d34c922	0.044137128
170	0x3b4798b6	0.0030456013
171	0x3dc2e7b8	0.09516853
172	0x3c55af37	0.013042263
173	0x3c39487b	0.011308785
174	0xbe0a0e71	-0.13482071
175	0x3d8fa828	0.07014495
176	0x3c91a0bb	0.017776838
177	0xbdd2784a	-0.102768496
178	0xbd7480e4	-0.059693232
179	0x3c9ea38a	0.01936509
180	0x3de00522	0.10938479
181	0x3d5de6de	0.05417525
182	0xbdaf5c72	-0.085625544
183	0x3db3f17b	0.08786293
184	0x3c4acea3	0.012378368
185	0x3d7c6066	0.06161537
186	0x3c9520c9	0.01820411
187	0xbb462db5	-0.0030239646
188	0x3d59bcd5	0.0531586
189	0x3aeaa53e	0.0017902029
190	0xbdcdefbf	-0.100554936
191	0xbd92731d	-0.07150862
192	0x3d7ab1fa	0.061204888
193	0x3dc255d1	0.094890244
194	0xbd0ee3f6	-0.03488537
195	0xbd505173	-0.050858926
196	0xbbc66b2f	-0.0060552577
197	0x3c85bc17	0.01632504
198	0xbe037ea2	-0.12841275
199	0x3d5313d4	0.05153258
200	0x3d1844db	0.03717504
201	0x3c7abbfa	0.015303606
202	0x3c2ce74b	0.010553191
203	0x3db8645b	0.09003516
204	0xbdc52117	-0.09625452
205	0xbd6519a7	-0.055932667
206	0x3d92a6df	0.071607344
207	0xbe0d1757	-0.13778435
208	0x3d161f75	0.036651094
209	0x3dc4ed6b	0.096155964
210	0xbcb47761	-0.02202958
211	0xbcca35b2	-0.024683807
212	0x3c50fdc5	0.012755816
213	0x3dfdca12	0.123920575
214	0xbd9a1432	-0.07523383
215	0x3c1fe96f	0.009760245
216	0xbd6580fc	-0.056031212
217	0x3da19e40	0.07891512
218	0x3c5f4ed6	0.013629636
219	0x3d39cd7c	0.04536198
220	0x3d4c86ce	0.049933247
221	0x3dc51591	0.09623254
222	0xbe1059cb	-0.14096753
223	0xbd118c13	-0.035533976
224	0x3d9623ec	0.0733107
225	0xbd3a90ce	-0.045548253
226	0x3db7da01	0.08977128
227	0x3ccb897b	0.02484583
228	0x3dbc6ba1	0.09200216
229	0xbcc77ce2	-0.024351541
230	0xbcd074c0	-0.025446296
231	0x3dc4862c	0.09595904
232	0xbdb454ba	-0.08805223
233	0x3dc5ef1f	0.09664749
234	0x3cacdb18	0.021100566
235	0x3db3bdfa	0.087764695
236	0xbdb1fb33	-0.086904906
237	0x3c43c626	0.011949098
238	0x3d100e42	0.035169847
239	0xbdc90f76	-0.09817402
240	0xbde1e6c2	-0.11030342
241	0x3d64540f	0.055744227
242	0x3d85613e	0.06512688
243	0xbde485a1	-0.111583
244	0x3c565be4	0.013083432
245	0xbca85b8d	-0.020551467
246	0x3d9b5f5a	0.07586546
247	0x3d491e66	0.049101256
248	0x3dc60197	0.09668272
249	0x3dfd7e04	0.12377551
250	0xbdbda162	-0.09259297
251	0xbd9ab239	-0.075535245
252	0xbdbf6665	-0.09345702
253	0xbd412b46	-0.04716041
254	0x3d0163f0	0.03158945
255	0xbdad04e1	-0.08448196

lstm.bias_ih_l0 f4 [256]
0	0x3d174eee	0.036940508
1	0xbc924c48	-0.01785864
2	0xbd96aded	-0.073573925
3	0x3df2038b	0.11817082
4	0xbcfdfcce	-0.031004336
5	0x3dea40da	0.11438151
6	0xbcfc070e	-0.030765083
7	0x3b9a7366	0.0047134636
8	0xbdec100c	-0.11526498
9	0xbd04d0b9	-0.032425616
10	0x3d8df955	0.06932322
11	0xbd986f1c	-0.074430674
12	0x3bd73267	0.0065672877
13	0x3e0f89de	0.14017436
14	0xbdaedd1d	-0.08538268
15	0x3d46b6e2	0.048514254
16	0x3d714f29	0.058913384
17	0x3d9bb9c2	0.0760379
18	0xbd097e37	-0.033567633
19	0x3c9a234b	0.018815657
20	0x3d6ff215	0.058580477
21	0x3d1bb7c6	0.038017057
22	0x3d9974e1	0.07492996
23	0x3c61d43b	0.01378351
24	0xbdad88db	-0.08473369
25	0xbdd63b99	-0.10460586
26	0xbda52173	-0.080630206
27	0xbda3db0f	-0.080007665
28	0x3dbd6daf	0.09249436
29	0xbb9159a4	-0.004435735
30	0xbd831f03	-0.064023994
31	0xbddadf6f	-0.10687148
32	0xbd434e09	-0.047681842
33	0x3df21a4f	0.11821424
34	0x3daf00dc	0.08545086
35	0x3d8a40d7	0.067506485
36	0xbd8d35dd	-0.06895039
37	0xbdc817e7	-0.09770184
38	0xbd7f472c	-0.062323734
39	0xbc828831	-0.015934082
40	0x3dbcc82f	0.092178695
41	0x3d8442f6	0.06458084
42	0x3d34a998	0.04410705
43	0xbd92ba94	-0.07164493
44	0x3e1101b5	0.14160807
45	0x3d57bee0	0.052672267
46	0x3d32e29f	0.043673154
47	0xbc23f5c5	-0.0100073265
48	0xbdb7cf35	-0.089750685
49	0xbc9e1b0c	-0.019300006
50	0x3da6c740	0.08143473
51	0xbbb0829c	-0.0053866636
52	0xbcc32f3f	-0.02382624
53	0x3e118e7a	0.14214507
54	0x3ce6ef10	0.028190166
55	0xbdad2dea	-0.08456023
56	0x3e15ff84	0.14648253
57	0x3db0ac2f	0.086265914
58	0x3d0424fc	0.032261834
59	0xbaac4642	-0.0013143497
60	0x3dbaae3d	0.091152646
61	0x3d23f03f	0.04002404
62	0x3d8c1c81	0.06841374
63	0xbdb2724c	-0.08713207
64	0x3de12194	0.10992733
65	0x3bcd7bc9	0.00627086
66	0x3da92774	0.08259478
67	0xbdb6e1c7	-0.08929782
68	0xbca377cf	-0.01995459
69	0xbd276b11	-0.04087359
70	0xbbb06e39	-0.0053842333
71	0xbdf5c4a8	-0.120004
72	0x3d9c67e6	0.076370046
73	0x3c48cd3a	0.012255961
74	0x3ba8f8df	0.005156621
75	0x3da46d89	0.08028705
76	0xbd9215f7	-0.07133096
77	0xbd882c61	-0.066490896
78	0x3a5f2387	0.0008512069
79	0xbdc9d21a	-0.09854527
80	0x3dd8123b	0.10550352
81	0xbd9393f5	-0.07205955
82	0x3dc8cb1d	0.09804366
83	0x3db87a22	0.0900767
84	0xbdccb2a4	-0.099950105
85	0xbdafa16c	-0.08575711
86	0xbd4c32fc	-0.04985331
87	0x3ddbe7f6	0.107376024
88	0x3d254915	0.0403529
89	0xbd79496a	-0.06086103
90	0x3dd38986	0.10328965
91	0xbde87f2b	-0.1135238
92	0x3da2b336	0.07944338
93	0xbd1c2700	-0.03812313
94	0xbe11ab62	-0.14225534
95	0xbaacc2b0	-0.001318058
96	0xbd658d33	-0.05604286
97	0x3ce48952	0.02789751
98	0x3d98643b	0.074409924
99	0xbd945005	-0.07241825
100	0xbd54e6ec	-0.051978037
101	0xbd495162	-0.04914988
102	0xbdccefed	-0.100067
103	0x3cc36deb	0.023856124
104	0x3de1dd6c	0.11028561
105	0xbdae4fb1	-0.08511294
106	0xbcc335e0	-0.0238294
107	0xbcd69287	-0.026192917
108	0xbdad847f	-0.08472537
109	0xbd97d8de	-0.07414411
110	0x3d83fc27	0.064445786
111	0xbd5b6cd0	-0.05357057
112	0x3daa904f	0.08328306
113	0xbcf16548	-0.02946724
114	0xb9dc21fb	-0.00041986987
115	0xbc921b28	-0.017835215
116	0x3db9a4a2	0.09064604
117	0x3c40771e	0.01174715
118	0x3d834e2e	0.06411396
119	0x3d8ecd6e	0.06972776
120	0x3d03c4c1	0.03217006
121	0xbc3c5699	-0.011495256
122	0x3c3d71fd	0.011562821
123	0xbb048b64	-0.0020224685
124	0x3d7e53fc	0.062091812
125	0x3dcfc515	0.10145012
126	0x3d8a2d7a	0.06746955
127	0xbd618a4c	-0.05506353
128	0xbcb9f3b3	-0.022699213
129	0x3b74f588	0.0037377793
130	0xbc7b03d5	-0.015320738
131	0x3df3d2ea	0.11905463
132	0x3c3f6c51	0.0116835395
133	0x3dedab14	0.11604896
134	0x3db85bb5	0.09001867
135	0x3c350485	0.011048441
136	0x3b3545f4	0.0027660104
137	0xbcf79ca9	-0.030226069
138	0x3c7dfa73	0.015501606
139	0x3c49b8a0	0.012312084
140	0xbca77a3c	-0.020444028
141	0xbde6ddec	-0.11272797
142	0x3d0c90dc	0.034317836
143	0x3dc14ff4	0.09439078
144	0xbdec9072	-0.11550988
145	0xbdd47704	-0.10374263
146	0x3dc2309e	0.09481929
147	0xbd09cac7	-0.03364065
148	0xbc739630	-0.01486735
149	0x3dbb6877	0.091507845
150	0x3d836a9c	0.064168185
151	0x3cf269d5	0.02959148
152	0x3ce1e202	0.02757359
153	0xbde62be2	-0.11238839
154	0xbde8fbe6	-0.11376171
155	0xbdb9bf5c	-0.09069702
156	0xbd29ab04	-0.04142286
157	0x3ae48be2	0.0017436708
158	0x3d847c03	0.06468966
159	0xbcc4ee99	-0.024039553
160	0x3d69353c	0.056935534
161	0x3d95251e	0.0728247
162	0x3d83fb20	0.06444383
163	0x3dd6a1b8	0.10480064
164	0x3d604c5f	0.054760333
165	0xbd86d253	-0.06583085
166	0xbc3680c1	-0.011139096
167	0x3db698a4	0.08915833
168	0x3ddf3f7b	0.1090078
169	0xbdfb2de2	-0.12264611
170	0xbd75512b	-0.05989186
171	0x3ddd7f83	0.108153366
172	0x3d2e1060	0.042496085
173	0x3d23c19e	0.03997957
174	0xbdf94309	-0.12170989
175	0xbd248785	-0.040168304
176	0xbcfcf087	-0.030876411
177	0xbc4bf274	-0.012447942
178	0x3c8e848d	0.01739719
179	0x3da1703c	0.07882735
180	0xbde93100	-0.11386299
181	0x3c28c59f	0.010301023
182	0xbd4ba30d	-0.049716044
183	0x3b592255	0.0033132036
184	0xbd815d37	-0.063166074
185	0xbc287878	-0.010282628
186	0x3defc2a7	0.11707049
187	0xbd7f8946	-0.062386774
188	0xbdc76e0f	-0.09737789
189	0x3b3c8593	0.002876614
190	0xbd554eb4	-0.05207701
191	0xbd89aefe	-0.0672283
192	0xbd6d5166	-0.057938956
193	0x3d7064e2	0.05868996
194	0xbc2f09b6	-0.010683468
195	0xbdb3866e	-0.08765875
196	0xbd9e037e	-0.0771551
197	0xbd89c914	-0.06727806
198	0xbcba044e	-0.02270713
199	0x3dcaf8ed	0.0991076
200	0xbe04814c	-0.12939948
201	0xbd2ae557	-0.04172262
202	0xbdc466da	-0.0958993
203	0xbd1f79ef	-0.038934644
204	0xbdaadfcb	-0.08343466
205	0x3d3fb888	0.046806842
206	0xbd717e76	-0.058958493
207	0x3d9f615b	0.07782241
208	0xbd9f18b2	-0.07768382
209	0x3b4bca42	0.0031095897
210	0x3def277a	0.116774514
211	0xbd8055d0	-0.062663674
212	0xbd6379a0	-0.055535913
213	0x3e057ba5	0.13035448
214	0x3dd49d3a	0.10381551
215	0x3d02d14d	0.031937886
216	0x3e006240	0.1253748
217	0xbdcf39ea	-0.10118468
218	0xbdd4269b	-0.10358926
219	0xbda657ae	-0.08122192
220	0x3da31ebe	0.07964848
221	0xbd3a5c13	-0.045497965
222	0x3c37b6ee	0.011213047
223	0x3dc5bbf9	0.096549936
224	0xbd0ba7b5	-0.034095485
225	0x3c760c85	0.015017633
226	0x3deb8c80	0.115014076
227	0x3c8e85a9	0.017397719
228	0x3de8fd70	0.11376464
229	0x3de91387	0.11380678
230	0xbd4b8007	-0.049682643
231	0x3db78831	0.08961523
232	0xbce706a7	-0.028201414
233	0x3dd2e30e	0.102972135
234	0xbc4afce9	-0.0123894
235	0x3dcbf3a9	0.09958584
236	0xbdc9a84e	-0.09846555
237	0xbd1e128e	-0.038591914
238	0xbdf0d1b8	-0.11758751
239	0x3dcf1d57	0.10113018
240	0x3e05a5e8	0.1305157
241	0x3d3651ec	0.04451172
242	0xbc505896	-0.012716433
243	0x3d480ab2	0.048838325
244	0x3a9275da	0.0011174039
245	0x3cec4109	0.028839605
246	0xbd652b11	-0.055949274
247	0x3e00f197	0.12592159
248	0x3d60afdc	0.054855213
249	0x3da50ebf	0.08059453
250	0x3e00aef8	0.12566745
251	0xbd2f3ee4	-0.042784587
252	0xbdc6a0c3	-0.096986316
253	0xbdd4aa12	-0.10384001
254	0xbdc9856f	-0.098399036
255	0xbc2b6ab8	-0.010462455

lstm.bias_hh_l0 f4 [256]
0	0x3da84cff	0.08217811
1	0x3d237c53	0.039913487
2	0x3d1f216b	0.03885023
3	0x3deed297	0.116612606
4	0xbcb7ce97	-0.022437377
5	0x3d6b095d	0.057381976
6	0x3d516705	0.051123638
7	0x3b240a8a	0.0025030696
8	0x3dd3346e	0.103127345
9	0x3de6c169	0.11267359
10	0xbd955973	-0.07292452
11	0x3df7b92e	0.12095867
12	0x3d9e6abe	0.07735203
13	0x3d32b11f	0.043625947
14	0x3d8bf2c7	0.068334155
15	0x3d96575e	0.07340883
16	0x3e01a7b9	0.12661637
17	0xbd9108ca	-0.070817545
18	0xbd040149	-0.032227788
19	0xbce07de4	-0.02740378
20	0x3dad72ec	0.08469185
21	0xbddacdb9	-0.1068377
22	0x3e0a5cd0	0.13511968
23	0x3d28afb7	0.0411832
24	0x3ddd2677	0.10798352
25	0xbdabea43	-0.08394291
26	0x3da63809	0.081161566
27	0xbdd99e25	-0.10625867
28	0xbcd23bc1	-0.025663259
29	0xbd8ba660	-0.06818843
30	0xbd889fb2	-0.066710845
31	0x3d9569ed	0.07295594
32	0xbda1e05f	-0.079041235
33	0x3b93c677	0.004509743
34	0xbcac1db5	-0.02101026
35	0xbc316eaf	-0.010829612
36	0x3d6dbd33	0.058041763
37	0x3dc36b63	0.09541967
38	0x3dbe7e94	0.093014866
39	0xbdd62101	-0.10455514
40	0xbd16c03c	-0.036804423
41	0xbd8a1a3e	-0.067432866
42	0x3dbec616	0.09315126
43	0x3d2dcb91	0.042430464
44	0x3d9b51e5	0.075839795
45	0x3e067a86	0.13132676
46	0xbd0d1c88	-0.034451038
47	0x3d1193a4	0.03554119
48	0xbd951a15	-0.072803654
49	0x3db4033c	0.087896794
50	0x3db5a22c	0.088688225
51	0xbd8e6303	-0.06952479
52	0x3d9e04ac	0.07715735
53	0xbdc87822	-0.097885385
54	0x3df0849f	0.117440455
55	0xba18b14a	-0.0005824758
56	0xbd92c6e1	-0.071668394
57	0x3dc52527	0.09626227
58	0xbdc0b010	-0.09408581
59	0xbc0fa5fa	-0.008767599
60	0x3ce4bcb0	0.027922004
61	0x3caaacab	0.020834288
62	0x3e09e037	0.13464437
63	0xbc836d30	-0.016043276
64	0x3dd72aa6	0.105061814
65	0x3da3b700	0.07993889
66	0xbc653130	-0.013988778
67	0xbd353485	-0.04423954
68	0x3cf7dbf3	0.030256247
69	0xba20ac97	-0.00061292335
70	0x3ddee80f	0.108841054
71	0xbd939c92	-0.07207598
72	0x3df083a4	0.117438585
73	0x3e0398fd	0.12851329
74	0x3d3596f0	0.0443334
75	0xbda93479	-0.082619615
76	0xbdcd262d	-0.10017047
77	0x3c4f6dc5	0.012660448
78	0xbdb46e99	-0.08810157
79	0xbd6cd781	-0.057822708
80	0xbd3d723c	-0.04625152
81	0xbd83f86f	-0.06443869
82	0xb93cbf38	-0.00018000312
83	0x3d1338e6	0.035942934
84	0xbdda037e	-0.10645197
85	0x3d0373ca	0.032092847
86	0x3cf2e3b5	0.029649595
87	0xbd5bfa55	-0.053705532
88	0x3db0a19b	0.08624574
89	0x3c667fe4	0.014068577
90	0xbd155bdc	-0.036464557
91	0xbc26417a	-0.010147447
92	0x3dc7a6aa	0.097485855
93	0x3d499508	0.049214393
94	0x3d43eb87	0.04783204
95	0x3bc1e013	0.0059166043
96	0x3ddd58eb	0.108079754
97	0x3cacc1aa	0.02108844
98	0xbd31db46	-0.043422006
99	0xbdc1508f	-0.094391935
100	0xbda70245	-0.0815473
101	0x3e0d6bd6	0.13810667
102	0x3d9abd3f	0.07555627
103	0x3df836d9	0.12119836
104	0xbdc47154	-0.09591928
105	0xbdc215cf	-0.09476816
106	0x3d187986	0.03722527
107	0xbbc17b3c	-0.0059045833
108	0x3d9a9a24	0.07548931
109	0xbd8dee5c	-0.06930229
110	0xbdd6cd4b	-0.10488375
111	0x3d8afcb6	0.06786482
112	0xbcf5c5ee	-0.030001607
113	0xbd3e8af4	-0.046519235
114	0x3d889985	0.066699065
115	0x3d07a57a	0.033116795
116	0x3cfc4ede	0.030799326
117	0xbd5e77b7	-0.054313388
118	0x3dd611fd	0.1045265
119	0xbc8b8a2e	-0.017033663
120	0x3e15f131	0.14642788
121	0xbd08342f	-0.03325289
122	0x3dc14bc7	0.094382815
123	0xbbb108f3	-0.005402678
124	0x3c1cc198	0.009567641
125	0xbd9316f7	-0.071821146
126	0xbdb657bd	-0.089034535
127	0xbdab8e26	-0.08376722
128	0xbd6c6c57	-0.05772051
129	0xbc96be27	-0.018401219
130	0xbd661c90	-0.056179583
131	0x3d5965f2	0.05307574
132	0xbd404d36	-0.046948634
133	0xbd55e7f7	-0.052223172
134	0xbd899641	-0.06718112
135	0x3c89b631	0.016810508
136	0x3d696238	0.056978434
137	0x3d320310	0.043459952
138	0xbc0dfc61	-0.008666129
139	0x3cea2c80	0.028585672
140	0xbda3eb7b	-0.08003899
141	0x3d802d28	0.06258613
142	0x3d53918c	0.051652476
143	0x3deeb9f8	0.116565645
144	0x3b34800d	0.0027542145
145	0xbbd53c3e	-0.0065074256
146	0x3dc3e532	0.095652
147	0xbd43328b	-0.047655623
148	0x3d3f07d7	0.046638336
149	0x3c311ae5	0.010809635
150	0x3b932e77	0.004491623
151	0xbc75de20	-0.015006572
152	0xbd77a822	-0.06046308
153	0x3d91af20	0.071134806
154	0x3d94d9ea	0.07268126
155	0x3d2fcdba	0.042920806
156	0x3d9487e5	0.07252482
157	0xbda25979	-0.07927222
158	0x3d121565	0.035664935
159	0x3da3aa4f	0.07991468
160	0xbd0fadac	-0.035077736
161	0xbdcdf6d6	-0.10056846
162	0x3b29de82	0.0025919979
163	0x3ca371e7	0.019951774
164	0xbc89ca53	-0.016820109
165	0x3c9ad414	0.018899955
166	0x3de61436	0.11234324
167	0x3e04def4	0.12975675
168	0xbd3381df	-0.043825027
169	0xbde2938a	-0.11063297
170	0x3d481519	0.048848245
171	0xbc477f99	-0.012176418
172	0x3bee9db9	0.0072819856
173	0x3dac0a1c	0.08400366
174	0xbdad9fe1	-0.0847776
175	0x3dd704a2	0.104989305
176	0xbda37e00	-0.07983017
177	0x3de49ca4	0.11162689
178	0x3d3fe4c3	0.046849024
179	0xbd957322	-0.072973505
180	0xbd8d0cc0	-0.068871975
181	0xbdd54c55	-0.1041495
182	0xbd74d249	-0.059770856
183	0xbd8ae05b	-0.06781074
184	0x3db74b53	0.08949914
185	0xbdcf558e	-0.1012374
186	0xbd847036	-0.06466715
187	0x3d97789b	0.073960505
188	0x3de5360f	0.111919515
189	0xbda9ebfd	-0.08296964
190	0xbdbf4c00	-0.09340668
191	0x3b065868	0.0020499472
192	0x3e0eb654	0.1393674
193	0x3d666b4d	0.056254674
194	0x3dd45846	0.10368399
195	0x3c4ed1ac	0.012623232
196	0xbd8ba3f0	-0.06818378
197	0x3dbea7de	0.09309362
198	0x3dfc45cd	0.12318001
199	0x3dcb3bb7	0.09923499
200	0xbdd11827	-0.10209685
201	0xbdbf215c	-0.09332535
202	0xbcd90a62	-0.026494209
203	0xbd30404c	-0.04303007
204	0x3e023f3a	0.12719432
205	0x3d2523e6	0.04031744
206	0x3dd34455	0.10315768
207	0x3b092c9b	0.0020931128
208	0x3d3ff9d9	0.046869133
209	0x3d5dec54	0.05418046
210	0xbcdb7d90	-0.026793271
211	0x3d2e2a78	0.04252097
212	0xbd170a3b	-0.03687499
213	0x3d11b6fb	0.035574894
214	0x3d54c773	0.051948022
215	0xbce6515a	-0.028114963
216	0xba8e850f	-0.0010873395
217	0x3c1ed2a4	0.009693775
218	0xbd9defa7	-0.07711726
219	0x3d74f3f8	0.05980298
220	0x3d7537ba	0.059867598
221	0x3d7111bd	0.058854807
222	0xbdcda94b	-0.10042056
223	0xbce5687e	-0.028003927
224	0x3d06793e	0.03283047
225	0xbae9bd61	-0.0017832929
226	0xbd9f299c	-0.07771608
227	0x3d0f7225	0.035020966
228	0xbddb8fe8	-0.10720807
229	0x3d26c4b1	0.040714923
230	0xbd5b7f83	-0.0535884
231	0xbc0fa1d8	-0.008766614
232	0x3de81c2c	0.11333498
233	0xbd8b6dae	-0.06808029
234	0x3d8fa178	0.070132196
235	0xbc63a31a	-0.013893867
236	0x3d4ce724	0.05002512
237	0xbd431326	-0.047625683
238	0x3ce435dd	0.027857715
239	0x3daa2cf1	0.08309353
240	0x3dc5db96	0.09661023
241	0x3c6269cc	0.013819169
242	0xbdaea2a5	-0.08527116
243	0x3ba44f05	0.0050143027
244	0x3c88d994	0.016705312
245	0x3d9dec1b	0.07711049
246	0xbdc0198e	-0.09379874
247	0xbd999905	-0.07499889
248	0x3dfa5319	0.12222881
249	0x3d264dba	0.04060147
250	0xbcba84e6	-0.022768449
251	0x3d20949c	0.039204225
252	0x3dec0335	0.11524049
253	0x3d990b5e	0.07472871
254	0xbdad8c4f	-0.08474027
255	0x3da85b06	0.08220486

lstm.weight_ih_l1 f4 [256, 64]
0	0xbdc585c5	-0.09644655
1	0x3dc5e7be	0.09663342
2	0xbdcd14b2	-0.10013713
3	0xbd3a0b72	-0.04542107
4	0x3ddffad2	0.10936512
5	0xbd5d40e8	-0.054016978
6	0x3e04a46b	0.12953345
7	0x3da1a155	0.078921
8	0xbd40e8ca	-0.047097005
9	0x3ddb9ac6	0.1072288
10	0xbe0061e6	-0.12537345
11	0x3c92b333	0.017907714
12	0x3cbcf5e3	0.023066467
13	0xbd20181c	-0.039085492
14	0x3dafc627	0.085827164
15	0xbd9209ef	-0.07130801
16	0xbd91eeac	-0.07125601
17	0x3db097d5	0.0862271
18	0x3d2056af	0.039145168
19	0x3d3bf326	0.04588618
20	0x3daae345	0.083441295
21	0xbd1f6c1b	-0.038921457
22	0xbb0f7325	-0.00218887
23	0x3dcf36f4	0.10117903
24	0xbdf735bd	-0.12070797
25	0xbda6da01	-0.0814705
26	0xbdcc0231	-0.099613555
27	0xbd28db6c	-0.041224882
28	0x3d29d8fc	0.041466698
29	0x3cf0bee7	0.029387904
30	0xbb7b7cbd	-0.003837391
31	0x3defb572	0.1170453
32	0x3dd1d9a8	0.10246593
33	0xbdd4d2b4	-0.10391751
34	0xbdd7b252	-0.10532059
35	0x3c19a226	0.009377038
36	0x3da7a732	0.08186187
37	0xbdab08df	-0.083513014
38	0xbd210bc1	-0.03931785
39	0xbd861aa7	-0.06548052
40	0xbda1734e	-0.07883321
41	0x3d25a2ee	0.040438585
42	0x3c7a36dc	0.015271869
43	0x3db5057f	0.08838939
44	0xbdcca8f3	-0.09993162
45	0xbc224477	-0.009904019
46	0x3dbe629e	0.092961535
47	0x3df147f6	0.117813036
48	0xbd9247f5	-0.07142631
49	0x3c823c92	0.015898023
50	0xbdaaa7fd	-0.083328225
51	0xbb2cfe32	-0.002639663
52	0x3c23b104	0.009990934
53	0x3dccce2c	0.10000262
54	0xbcf0715b	-0.029350927
55	0xbd05fbf2	-0.032710977
56	0xbd0cf8c4	-0.03441693
57	0x3dadb23b	0.084812604
58	0x3dbdc2a3	0.0926564
59	0x3d8f3049	0.069916315
60	0x3d94431b	0.07239362
61	0xbda2fcb4	-0.079583555
62	0x3d8a3f97	0.0675041
63	0x3cec88db	0.028873852
64	0xbc810bd8	-0.015752718
65	0xbcc6e5db	-0.024279526
66	0x3d0be70e	0.034155898
67	0x3bfed48d	0.007776803
68	0xbd21e273	-0.0395226
69	0xbcd8aacd	-0.026448632
70	0xbd8eedc4	-0.06978944
71	0x3d78c038	0.06073019
72	0x3dfd090d	0.12355242
73	0xbd55cc84	-0.052196994
74	0x3d875890	0.06608689
75	0x3d46ae01	0.048505787
76	0xbdd27278	-0.102757394
77	0x3dd73483	0.10508063
78	0xbd32586e	-0.043541364
79	0xbda25a08	-0.07927328
80	0xbd9ab7c4	-0.07554582
81	0x3e01d5a7	0.12679158
82	0x3d3494de	0.044087283
83	0x3e085874	0.13314992
84	0x3dc370e5	0.09543017
85	0xbc13c9ee	-0.009020312
86	0xbcb24441	-0.021761062
87	0x3ccabe46	0.024748933
88	0xbd02a9c5	-0.031900186
89	0xbdf9d30d	-0.12198458
90	0xbd8f0423	-0.06983211
91	0x3d19eadf	0.037577506
92	0x3cbe685f	0.023243127
93	0x3dc95c68	0.09832078
94	0x3dad53a3	0.08463218
95	0xbd27536b	-0.040851038
96	0xbd4cb3ac	-0.049976036
97	0xbd10b42d	-0.03532808
98	0xbc9b0c2b	-0.0189267
99	0xbd986eff	-0.07443046
100	0xbdc7df06	-0.09759335
101	0x3d86ba40	0.06578493
102	0xbd83d173	-0.06436434
103	0xbd2d97d7	-0.042381134
104	0x3dfd4ffb	0.12368771
105	0x3d9302f9	0.07178301
106	0x3ca495e9	0.020091014
107	0x3c03485f	0.00801286
108	0x3d903448	0.07041222
109	0x3c10a0ae	0.0088273715
110	0x3bfc1b90	0.0076937154
111	0x3d7ff1d8	0.0624865
112	0xbded39c6	-0.11583285
113	0x3bd5fc13	0.0065302937
114	0xbd05be36	-0.032652102
115	0x3dd9c38a	0.10632999
116	0xbcae3fc5	-0.021270642
117	0xbd6f1c95	-0.058376867
118	0x3db4e63a	0.08832975
119	0x3da7b59b	0.08188935
120	0xbb073e6a	-0.0020636567
121	0xbd7cacb2	-0.061688133
122	0xbdd06864	-0.10176161
123	0xbd806b25	-0.06270436
124	0xbd180477	-0.037113633
125	0x3c537038	0.012905173
126	0x3d1704dc	0.03686987
127	0xbd346d79	-0.044049714
128	0x3ddd2793	0.10798564
129	0xbdb9d115	-0.09073082
130	0xbce8bc55	-0.028410116
131	0x3c3cf02f	0.011531874
132	0x3d9878fc	0.07444951
133	0xbbe20f2c	-0.0068987813
134	0xbcdbbb29	-0.026822643
135	0x3dcfdb78	0.10149282
136	0xbd75acb7	-0.059979167
137	0xbde598d0	-0.11210787
138	0x3dbadffc	0.09124753
139	0xbd8ce22d	-0.06879077
140	0xbbd92d61	-0.006627724
141	0xbc16070a	-0.009156952
142	0x3d8c0b56	0.068381
143	0xbd4e67ea	-0.05039207
144	0x3c8b1e41	0.0169822
145	0xbcf3d94b	-0.0297667
146	0xbdbf39b3	-0.09337177
147	0xbe011b67	-0.1260811
148	0xbc06fc63	-0.008238885
149	0x3dbd58ea	0.09245475
150	0x3dd69ef1	0.104795344
151	0xbd883fb3	-0.06652775
152	0x3dcf5833	0.101242445
153	0x3da46a5a	0.080280975
154	0x39d24e10	0.00040112482
155	0xbdcbffe7	-0.09960919
156	0xbcb97922	-0.022640768
157	0xbd8fc864	-0.07020643
158	0xbd80286d	-0.062577106
159	0xbc935547	-0.017985
160	0x3c3671df	0.011135547
161	0xbd40e4fb	-0.047093373
162	0xbb8db003	-0.0043239607
163	0x3caa1350	0.020761162
164	0x3d9699ab	0.073535286
165	0xbdccae64	-0.099942
166	0xbdc96d08	-0.09835249
167	0x3c07e649	0.00829465
168	0x3d6e12f1	0.058123533
169	0xbe0f1001	-0.13970949
170	0x3d4a5fc2	0.049407728
171	0xbdff6a5b	-0.124714576
172	0x3d83e09f	0.064393274
173	0x3e0f4842	0.13992408
174	0xbe0102ee	-0.12598774
175	0xbdb2daa0	-0.08733106
176	0x3dc3984f	0.09550535
177	0xbe006b68	-0.12540972
178	0xbbc87cd5	-0.0061183968
179	0x3e083a95	0.13303597
180	0x3d06527d	0.03279351
181	0xbc7fcc28	-0.0156126395
182	0xbce47de6	-0.027892064
183	0xbdf5c44e	-0.12000333
184	0xbd2cc0c5	-0.042176027
185	0xbe078830	-0.13235545
186	0xbdb2c69d	-0.08729289
187	0xbde48b5e	-0.11159395
188	0xbb8b1165	-0.004244017
189	0xbd6270eb	-0.05528347
190	0xbdf2c69b	-0.11854287
191	0x3d27cac6	0.040964864
192	0xbd5bc6be	-0.053656332
193	0x3db0d511	0.08634389
194	0x3dd37f16	0.10326974
195	0x3d73a836	0.05948659
196	0x3ca9941b	0.020700505
197	0xbd124704	-0.035712257
198	0x3c7ed17e	0.0155528765
199	0xbd6c40cb	-0.05767898
200	0x3d026484	0.03183414
201	0x3da4ac7d	0.08040712
202	0xbd04d01e	-0.03242504
203	0xbd1d1512	-0.038350172
204	0xbd911845	-0.07084707
205	0xbdcaf147	-0.09909301
206	0xbcf7af76	-0.030235033
207	0x3dfd4722	0.12367083
208	0x3d936dc8	0.071986735
209	0xbdd630b1	-0.10458506
210	0x3cb9366c	0.022608958
211	0x3dcffa3b	0.101551495
212	0xbd3f9008	-0.04676822
213	0x3d90ce63	0.07070615
214	0x3dbfd7d1	0.093673356
215	0x3d17e303	0.03708173
216	0x3d242504	0.040074363
217	0x3d85cdfc	0.06533429
218	0xbd81c595	-0.06336514
219	0x3df42281	0.119206436
220	0x3dfcfa69	0.123524494
221	0xbb9e2ae7	-0.0048268917
222	0xbd70696f	-0.0586943
223	0xbd021d40	-0.031766176
224	0xbdeb68a7	-0.1149457
225	0xbd5dbf62	-0.054137595
226	0x3dbd5552	0.09244789
227	0xbc849dc1	-0.016188504
228	0x3ddbc19b	0.10730287
229	0xbd1bd968	-0.03804913
230	0x3cde000d	0.027099634
231	0xbdb802c8	-0.089849055
232	0x3dba5a03	0.090991996
233	0xbcf162c8	-0.029466048
234	0xbd262f1c	-0.04057227
235	0x3d31b5a7	0.043386128
236	0xbc523bb3	-0.012831616
237	0xbdeaa8c2	-0.11457969
238	0x3dff808b	0.124756895
239	0x3c91b98e	0.017788675
240	0x3c9e8e3b	0.01935493
241	0xbd8fd763	-0.07023504
242	0x3dabc624	0.08387402
243	0xbc8c0057	-0.017090006
244	0x3de9171d	0.11381362
245	0x3d73ad18	0.059491247
246	0x3da8935f	0.08231234
247	0x3c5b03f0	0.013367638
248	0x3d9400ea	0.07226737
249	0x3d000b02	0.031260498
250	0xbde8b879	-0.1136331
251	0xbd8a149c	-0.06742212
252	0x3d7a2433	0.06106968
253	0xbc6c6bc8	-0.014429994
254	0x3bad4bcc	0.0052885767
255	0xbdfa189b	-0.12211724

lstm.weight_hh_l1 f4 [256, 64]
0	0x3cfa8216	0.030579608
1	0xbde672c5	-0.11252359
2	0x3cd5b8a9	0.02608903
3	0xbcacc91a	-0.021091986
4	0x3d11afbc	0.035567984
5	0xbcdf9000	-0.027290344
6	0x3c14e009	0.009086617
7	0xbda8cb61	-0.082419164
8	0xbdf5a820	-0.11994958
9	0xbc9fbd54	-0.019499458
10	0xbdbc782a	-0.09202607
11	0xbcadc78a	-0.021213312
12	0xbcffbdd2	-0.031218443
13	0x3cec12cc	0.028817557
14	0xbc8a7c57	-0.016904993
15	0xbd6fa9c5	-0.058511514
16	0xbdc105c0	-0.09424925
17	0xbcdfcc96	-0.027319234
18	0xbcd18b41	-0.025579097
19	0xbd0ab720	-0.033866048
20	0xbd4180b6	-0.04724189
21	0x3c68c459	0.014206969
22	0x3c53bd48	0.012923546
23	0xbe07b14b	-0.13251226
24	0xbca86881	-0.020557644
25	0xbcf54987	-0.029942287
26	0xbde09a15	-0.10966889
27	0xbdc15b7f	-0.094412796
28	0x3d148184	0.03625633
29	0x3d844d1d	0.06460021
30	0xbc36a8d2	-0.011148648
31	0x3caee76c	0.021350585
32	0xbdb58e01	-0.08864976
33	0xbdd98e49	-0.10622842
34	0x3c75d39a	0.015004063
35	0x3d42d886	0.047569774
36	0x3d15cc75	0.03657194
37	0xbdec7b29	-0.115469284
38	0xbe06f9fe	-0.13181302
39	0xbd984c62	-0.07436444
40	0x3df93657	0.12168568
41	0xbd9f337c	-0.07773492
42	0x3d75aa0d	0.059976626
43	0xbda0dda7	-0.07854777
44	0x3c15e3e1	0.009148569
45	0x3c5b2ad7	0.013376913
46	0xbdc17421	-0.09445978
47	0x3dec871f	0.1154921
48	0xbddedb89	-0.10881717
49	0xbc5056af	-0.0127159795
50	0xbdea5ffe	-0.1144409
51	0xbda097d3	-0.07841458
52	0xbd0e4ed6	-0.034743153
53	0x3d2bad7f	0.041913506
54	0x3ddc2749	0.107496805
55	0xbd582e7d	-0.05277871
56	0xbdaff60c	-0.085918516
57	0x3ca796f0	0.020457715
58	0x3c7a3c01	0.015273095
59	0xbe01899b	-0.12650149
60	0xbdbc9e9a	-0.09209938
61	0xbd5ad86c	-0.053429052
62	0x3d051a6f	0.032495912
63	0xbdf07503	-0.11741068
64	0xbd93bddf	-0.072139494
65	0x3dce4078	0.1007089
66	0x3d7610fa	0.060074784
67	0x3d3291cc	0.043596074
68	0xbe066dd6	-0.13127837
69	0xbd443708	-0.047904044
70	0x3d6687ec	0.05628197
71	0x3d93de51	0.07220138
72	0x3d0727e4	0.032997027
73	0xb98b1b46	-0.00026532466
74	0x3ddfc835	0.10926858
75	0x3d53ec10	0.0517388
76	0x3df31dbe	0.11870907
77	0xbdfbbcab	-0.12291845
78	0xbb398946	-0.002831058
79	0xbdf971ce	-0.1217991
80	0xbc99ba6b	-0.018765649
81	0xbdc2879e	-0.09498523
82	0xbb9a05a8	-0.0047003813
83	0xbd95b029	-0.073089905
84	0xbd8e4c10	-0.069481015
85	0x3cf90da9	0.030402021
86	0xbcdcd357	-0.026956243
87	0x3db37349	0.08762223
88	0xbc2b8bc5	-0.010470335
89	0x3cea8506	0.028627884
90	0xbc657791	-0.014005558
91	0xbd49fce7	-0.049313452
92	0x3e0cec98	0.13762128
93	0x3dd6fb63	0.10497167
94	0xbdb14198	-0.08655089
95	0xbd855c92	-0.06511797
96	0xbd5762b8	-0.05258438
97	0x3dd25d3e	0.10271691
98	0xbcfc84b8	-0.030825004
99	0xbd7ffeb2	-0.062498756
100	0xb98c3e80	-0.00026749447
101	0x3da91a14	0.08256927
102	0xbc8b4b55	-0.017003695
103	0x3dce7f51	0.100828774
104	0xbb8147ee	-0.0039453423
105	0x3de1e4b4	0.1102995
106	0xbd7e99e0	-0.062158465
107	0xbce16078	-0.02751182
108	0xbda138e9	-0.07872183
109	0xbd9aacaa	-0.07552464
110	0xbd1cabe3	-0.03824986
111	0xbe00b723	-0.12569861
112	0xbd9d6843	-0.07685902
113	0xbdd999ee	-0.10625063
114	0xbb866b92	-0.004102179
115	0xbd98326c	-0.07431492
116	0x3db2b74d	0.08726368
117	0x3de14d68	0.11001092
118	0x3dd6c2bf	0.104863636
119	0xbd2dfd00	-0.042477608
120	0xbd488dae	-0.04896324
121	0xbd22f37c	-0.039782986
122	0x3ccf615f	0.025314985
123	0x3d707b61	0.058711413
124	0x3d631cf5	0.055447537
125	0xbd547652	-0.05187065
126	0xbc506f6c	-0.012721878
127	0xbd0189dd	-0.031625617
128	0xbd0bad58	-0.03410086
129	0x3e03550b	0.1282541
130	0xbe0369c5	-0.12833317
131	0xba530b6e	-0.00080507144
132	0xbdc9a9f9	-0.09846873
133	0xbd784410	-0.060611784
134	0xbd95975d	-0.07304261
135	0x3c1ed0f1	0.00969337
136	0x3de1195a	0.109911636
137	0xbd937566	-0.07200126
138	0xbd656148	-0.056000978
139	0xbb9f6a0f	-0.004864938
140	0xbc756bbb	-0.014979298
141	0xbbf3fd90	-0.0074459985
142	0xbd536896	-0.051613413
143	0x3db18fed	0.0867003
144	0xbe18c30c	-0.14918154
145	0x3df45e90	0.11932099
146	0xbdbf0720	-0.09327531
147	0x3df3e90b	0.11909684
148	0x3dbce112	0.09222616
149	0xbd823edb	-0.06359645
150	0xbd5a3c65	-0.053280253
151	0x3d8f499b	0.06996461
152	0xbd2b0961	-0.04175699
153	0x3d0b0282	0.03393794
154	0x3db2d7c0	0.08732557
155	0xbdc09a76	-0.09404461
156	0x3c9e6b1e	0.019338187
157	0x3c16c3c8	0.009201951
158	0xbd2b5689	-0.041830573
159	0x3d2deac8	0.042460233
160	0xbddab3c1	-0.106788166
161	0xbe177cd8	-0.14793718
162	0xbb5500e2	-0.0032501747
163	0x3d561ae4	0.05227174
164	0xbc96f56a	-0.01842757
165	0xbb788110	-0.0037918724
166	0xba5c656c	-0.0008407447
167	0xbb7a9587	-0.0038236098
168	0xbdaf84b5	-0.08570234
169	0x3dd7d639	0.105389066
170	0xbcd95f17	-0.0265346
171	0x3da14dda	0.07876177
172	0xbba31ae2	-0.00497757
173	0xbda33a42	-0.07970096
174	0xbd7e0f06	-0.062026046
175	0x3e0e9c8d	0.13926907
176	0xbbec91e3	-0.0072195395
177	0x3d671460	0.056415915
178	0xbda72ff2	-0.08163442
179	0x3e1b410d	0.15161534
180	0xbbd34e3e	-0.006448536
181	0xbdac4489	-0.084115095
182	0xbd039a82	-0.032129772
183	0x3df3d85f	0.11906504
184	0xbd646500	-0.055760384
185	0xbdef47bb	-0.116836034
186	0xbbf5e574	-0.0075041596
187	0x3d55f1a4	0.0522324
188	0x3cc591cd	0.024117375
189	0xbdebd9d0	-0.11516154
190	0x3c9d2856	0.019184273
191	0x3c434a37	0.01191955
192	0xbddd2aec	-0.10799202
193	0x3de686cd	0.1125618
194	0x3d8737c5	0.06602434
195	0x3d1f13c2	0.038837202
196	0xbcad876a	-0.021182735
197	0xbc86a40c	-0.016435646
198	0xbd63e032	-0.05563373
199	0x3bda2a9b	0.006657911
200	0x3d999b13	0.07500281
201	0x3d3c523f	0.045976873
202	0x3d68b6a6	0.056814812
203	0x3c76b807	0.015058524
204	0xbcd77cce	-0.026304629
205	0x3dc69522	0.096964136
206	0xbda01db2	-0.07818164
207	0x3dd9aa0e	0.106281385
208	0x3d4509fa	0.048105218
209	0xbd35201d	-0.04422008
210	0x3d75b23f	0.05998444
211	0xbdb20817	-0.08692949
212	0x3d4d3ec0	0.05010867
213	0x3d323615	0.043508608
214	0x3d28f726	0.041251324
215	0x3c7d5f91	0.015464679
216	0x3d121fad	0.03567474
217	0x3df53e73	0.11974802
218	0xbdacc482	-0.084359184
219	0xbdb98485	-0.09058479
220	0x3c9d3714	0.019191302
221	0xbd38ab08	-0.045084983
222	0xbd72e883	-0.05930377
223	0xbdb0d7de	-0.086349234
224	0xbce7e7e2	-0.028308813
225	0x3d8cbc8e	0.068719015
226	0x3dea4dcc	0.1144062
227	0x3dc8209a	0.09771843
228	0x3d01e9f2	0.03171725
229	0xbde748b6	-0.112931654
230	0x3da0f9d6	0.078601524
231	0x3c24e90b	0.010065327
232	0xbda1c4c6	-0.0789886
233	0x3d61a870	0.055092275
234	0xbb84f5bf	-0.0040576155
235	0xbc7f9d5d	-0.015601483
236	0x3d45d123	0.04829515
237	0x3dd1ef3f	0.10250711
238	0xbc658cdc	-0.014010634
239	0xbd2efe56	-0.042723022
240	0x3c7c44ca	0.01539726
241	0xbd2d93f4	-0.042377427
242	0xbde30f62	-0.110869184
243	0xbd013987	-0.031549003
244	0x3d700afb	0.05860422
245	0xbb36f965	-0.0027919647
246	0x3d18727a	0.03721855
247	0xbde92235	-0.113834776
248	0xbd880feb	-0.06643661
249	0x3dabc291	0.0838672
250	0x3d5083e6	0.05090704
251	0x3df63e27	0.12023573
252	0x3c5f496d	0.013628346
253	0xbdb5c3fc	-0.08875272
254	0x3db7b69a	0.08970375
255	0x3e00c70d	0.12575932

lstm.bias_ih_l1 f4 [256]
0	0x3dc0b435	0.09409372
1	0xbe071488	-0.13191426
2	0xbd82c304	-0.063848525
3	0xbc9dd0b2	-0.019264553
4	0xbd7fce8b	-0.062452834
5	0x3c813d97	0.015776439
6	0x3d8a07d0	0.06739771
7	0x3de52c5b	0.11190101
8	0x3c9aae0d	0.018881822
9	0x3da33533	0.07969131
10	0x3dcea5b2	0.100901976
11	0x3d18be13	0.037290644
12	0x3ceff887	0.029293312
13	0x3d94fcac	0.07274756
14	0x3de515c4	0.11185792
15	0x3c904fb4	0.01761613
16	0x3d241997	0.040063467
17	0xbd2ce23e	-0.04220795
18	0x3d3a3ccd	0.04546814
19	0x3c679f35	0.014137079
20	0x3d431caf	0.047634777
21	0x3dc6414c	0.09680423
22	0x3c4cca14	0.012499351
23	0x3d8739f3	0.0660285
24	0xbdf151f3	-0.11783209
25	0xbd9e3d7e	-0.077265725
26	0x3c9e5049	0.019325392
27	0x3d94b5bb	0.07261225
28	0xbdbb938e	-0.09159003
29	0xbdcec821	-0.10096765
30	0xbd887e6e	-0.066647395
31	0xbd913b9e	-0.07091449
32	0x3ded4c49	0.11586816
33	0xbddff415	-0.10935227
34	0xbd34372b	-0.043997925
35	0x3db14cf2	0.08657254
36	0xbdebe424	-0.11518124
37	0xbdafc622	-0.08582713
38	0x3cc5c5fd	0.02414226
39	0x39fe13e7	0.00048461484
40	0x3d7c7cc3	0.06164242
41	0xbd1393a4	-0.036029473
42	0xbd73fcf0	-0.059567392
43	0x3cf8dfc6	0.030380141
44	0xbd5c3554	-0.053761795
45	0x3d7f2462	0.062290557
46	0x3dae627f	0.085148804
47	0x3cde68f8	0.027149662
48	0xbd43d713	-0.047812533
49	0x3d8577d1	0.06516994
50	0x3dd25069	0.10269243
51	0x3d51860a	0.05115322
52	0xbc6ca168	-0.014442779
53	0xbdc3084a	-0.095230654
54	0xbd89755b	-0.06711837
55	0xbcf808c9	-0.030277627
56	0xbd07aa52	-0.033121414
57	0xbda89ec9	-0.08233411
58	0x3d9bd47b	0.07608887
59	0xbd191268	-0.03737107
60	0xbd7623b1	-0.06009263
61	0x3db47f2b	0.08813318
62	0x3d493b5a	0.049128868
63	0xbd6dee8a	-0.058088817
64	0x3d87b5f7	0.06626504
65	0x3cd398a0	0.025829613
66	0xbdbcd21d	-0.092197634
67	0x3dd404ed	0.10352502
68	0x3d3afe4b	0.04565267
69	0xbd44929d	-0.047991384
70	0x3d5d05e2	0.05396069
71	0x3cdcef0b	0.026969453
72	0xbd5184fe	-0.05115222
73	0x3ca5eb09	0.020253675
74	0x3cddc8dd	0.027073318
75	0xbdc8bdcb	-0.09801825
76	0x3d8bba21	0.06822611
77	0xbd1aebfa	-0.0378227
78	0xbc86da49	-0.016461508
79	0x3d75b86b	0.059990328
80	0xbd3cf15e	-0.046128623
81	0xbd817f0a	-0.06323059
82	0x3d03f940	0.032220125
83	0xbdbe6bfd	-0.09297941
84	0x3b039d9f	0.0020082963
85	0xbc5852d6	-0.013203343
86	0xbd5d374f	-0.054007825
87	0x3d651a57	0.055933323
88	0x3c6d6e8b	0.0144916875
89	0xbdd43b9f	-0.10362934
90	0xbd92d07f	-0.07168674
91	0xbd238553	-0.03992207
92	0xbd481f36	-0.04885789
93	0x3dcc1490	0.099648595
94	0xbd36eb74	-0.04465814
95	0x3dc95cb0	0.09832132
96	0x3e025e98	0.12731397
97	0xbcc0796d	-0.0234954
98	0x3d926cce	0.07149659
99	0xbdeeb89e	-0.11656307
100	0xbe05a78d	-0.13052197
101	0x3d99989c	0.07499811
102	0xbd87d6f2	-0.066327944
103	0x3d90dbe4	0.07073191
104	0x3dbe98fc	0.09306523
105	0xbd9f89fc	-0.0778999
106	0x3c982a3c	0.018574826
107	0xbd84c0a2	-0.06482054
108	0x3d986c64	0.07442549
109	0xbd6cc2d0	-0.057802975
110	0xbd9bbd72	-0.07604493
111	0x3c9a1a76	0.018811446
112	0xbd75a5e4	-0.05997266
113	0x3be2afb2	0.006917917
114	0x3d1dadf6	0.03849598
115	0xbcfc6fba	-0.030814994
116	0x3dd3627c	0.10321519
117	0x3dff247a	0.12458129
118	0xbdcb45be	-0.09925412
119	0xbd2592ce	-0.040423207
120	0xbdcd6833	-0.1002964
121	0x3cca4990	0.02469328
122	0xbd3b8202	-0.045778282
123	0xbcc06581	-0.0234859
124	0xbdfd4e12	-0.12368406
125	0x3dd44deb	0.10366424
126	0x3dc86ee0	0.09786773
127	0x3d57afb7	0.05265781
128	0x3d80ed01	0.06295205
129	0x3cd9beb6	0.026580196
130	0xbdd6a344	-0.10480359
131	0x3d95adf8	0.073085725
132	0x3de69638	0.11259121
133	0xbbc04063	-0.0058670505
134	0xbd9d70bc	-0.07687518
135	0xbdc14afd	-0.09438131
136	0x3d8afaf8	0.0678615
137	0x3db22aa2	0.08699538
138	0xbd1be9fc	-0.03806494
139	0x3da16f54	0.07882562
140	0xbdd180a3	-0.10229614
141	0x3c9ae691	0.01890877
142	0xbd7c0b9f	-0.06153452
143	0xbda9358e	-0.08262168
144	0xbde51078	-0.11184782
145	0xbd84ea63	-0.06490018
146	0xbce185cf	-0.027529625
147	0x3d62bfdd	0.055358756
148	0xbd973003	-0.073822044
149	0xbd12c1d7	-0.03582939
150	0x3d7fc093	0.062439512
151	0xbcdaa146	-0.02668823
152	0x3d30e856	0.043190323
153	0xbdf4f06d	-0.1195992
154	0x3dff7db7	0.1247515
155	0x3c61022e	0.01373343
156	0x3d2d9ebb	0.042387705
157	0xbd7407aa	-0.05957762
158	0x3d83b3b2	0.064307585
159	0x3d96cf5e	0.07363771
160	0xbb4fc182	-0.0031701033
161	0xbd25957c	-0.040425763
162	0x3d471845	0.04860713
163	0xbdba5e82	-0.09100057
164	0x3d64441a	0.05572901
165	0xbd37d08c	-0.04487662
166	0x3c86d573	0.016459202
167	0x3d00afd2	0.031417675
168	0x3daadeb5	0.08343259
169	0x3d173cf0	0.03692335
170	0x3dec3838	0.115341604
171	0xbd56cf75	-0.05244394
172	0xbdc6b87f	-0.097031586
173	0xbd7046a2	-0.05866111
174	0x3e00c959	0.12576808
175	0xbd2496a7	-0.040182736
176	0xbaa06e7d	-0.0012239959
177	0x3ace775f	0.0015752128
178	0x3df53c8d	0.1197444
179	0x3d813b96	0.06310193
180	0x3c92e878	0.017933115
181	0xbd9a275d	-0.07527039
182	0x3d806d84	0.062708884
183	0x3b97c33c	0.004631428
184	0x3d84335c	0.064551085
185	0x3c2e5860	0.010641187
186	0xbdc591bc	-0.09646937
187	0x3d2a7aff	0.041621204
188	0x3d706088	0.05868581
189	0xbd4c83f6	-0.049930535
190	0x3c899f19	0.016799496
191	0x3d8ee205	0.069767036
192	0xbd762830	-0.06009692
193	0xbd62cbe7	-0.055370238
194	0x3df1fa97	0.11815374
195	0x3cc2bae2	0.023770753
196	0x3ac066d8	0.0014679087
197	0xbd3a24d3	-0.045445275
198	0xbdcd8b79	-0.10036368
199	0xbd204656	-0.039129578
200	0xbbcefcf6	-0.0063167764
201	0x3c76a1e2	0.015053244
202	0x3d1ca23d	0.03824066
203	0xbc54dfdc	-0.012992825
204	0x3d9d14de	0.07669996
205	0x3d5a51be	0.05330061
206	0x3e0ee485	0.13954361
207	0xbd13cf8b	-0.0360866
208	0x3babf61b	0.005247844
209	0x3cfa6fbe	0.030570861
210	0x3c2d6870	0.010583982
211	0x3c98a164	0.018631645
212	0xbc68ff14	-0.014220972
213	0x3c5f57a5	0.013631736
214	0x3c520d88	0.012820609
215	0x3d05a941	0.032632116
216	0xbd957ad5	-0.07298819
217	0x3d29bdf0	0.041440904
218	0x3de0f5fd	0.109844185
219	0x3c972018	0.01844792
220	0xbcc17321	-0.023614468
221	0x3dac021c	0.0839884
222	0xbd5dff78	-0.054198712
223	0x3d33c8fa	0.043892838
224	0xbb91172e	-0.004427812
225	0x3db541e2	0.08850457
226	0x3daeb37f	0.0853033
227	0x3dcfc194	0.10144344
228	0xbd3d884a	-0.046272554
229	0x3d2e9ca4	0.042629853
230	0xbd435e61	-0.04769743
231	0xbdba6be3	-0.09102609
232	0xbc631e3a	-0.013862187
233	0x3c9c309b	0.019066146
234	0xbbff1ce0	-0.0077854246
235	0x3cd0477e	0.025424715
236	0x3e0641a8	0.13110983
237	0x3d7624cc	0.060093686
238	0xbcd40fd4	-0.025886454
239	0xbca4e6cb	-0.020129582
240	0xbd5e26de	-0.054236285
241	0xbd7fce7b	-0.062452774
242	0xbded7684	-0.11594871
243	0x3d02d8b8	0.03194496
244	0xbdf400ff	-0.119142525
245	0x3d7379e4	0.059442416
246	0xbd6c68ca	-0.057717122
247	0xbe045f6e	-0.12927029
248	0x3daeafef	0.085296504
249	0xbd669ab6	-0.056299888
250	0x3d5fbda3	0.05462421
251	0xbd6e4076	-0.058166943
252	0xbdd26a31	-0.10274161
253	0xbdcc68da	-0.09980936
254	0xbd7eef2f	-0.062239822
255	0x3dc6ad5d	0.09701035
