artifacts/SKU_03/model.pt (torch, 219227 bytes, 12 tensors)

lstm.weight_ih_l0 f4 [256, 10]
-0.08001555 0.05200779 0.059901174 0.0049840617 0.0147747 0.02513769 0.08923988 0.018928513
-0.019329177 -0.030483486 -0.09012031 -0.0090839965 0.06528682 -0.0942544 -0.0009126083 -0.1147408
-0.024437996 0.014692636 -0.011008365 0.08897248 0.03112198 0.07422185 0.06225053 0.09654325
-0.041637883 0.030744052 0.048965227 0.0048634354 -0.062043555 -0.094138674 -0.08233359 0.072420985
0.006516381 0.02583694 0.0139337955 0.092151545 -0.062311754 -0.051152516 -0.07082512 -0.10072785
-0.05870731 -0.044540975 -0.062158033 -0.04741653 -0.07099424 -0.116028026 0.008979643 -0.11404543
-0.10768501 -0.03496062 -0.023183467 -0.13529931 0.02083397 0.03434413 -0.10661296 -0.02063065
-0.07574181 0.04141201 0.06930357 -0.10330857 -0.05015365 -0.109809026 -0.020882975 0.05789216
-0.022083173 -0.016573472 -0.08959514 -0.024359157 0.12880531 0.042281363 -0.0966228 -0.086587526
-0.0064125205 0.042302277 0.044070594 -0.017521678 -0.008411603 0.039572828 -0.099425316 -0.088065535
0.090309404 0.10447297 -0.0035115117 -0.014412766 0.11146817 0.10673127 -0.09138507 -0.04478336
-0.110352665 0.10072177 0.09639241 0.07043573 0.11243667 0.05296651 0.073157124 0.12488216
0.013748896 -0.02629064 -0.08926724 -0.13982004 -0.12860313 0.09743867 -0.005598825 -0.017780943
0.037881345 -0.07166773 -0.07426628 0.0931592 0.04100758 -0.015641803 0.07284175 0.020161223
-0.0718506 -0.13111022 -0.009310111 0.051990315 -0.08959505 -0.07353616 -0.045639016 -0.027845718
-0.14135632 0.05888712 0.047088146 -0.05107274 0.08481196 -0.04704695 0.05912625 -0.09803418
-0.09753927 -0.012781158 -0.042059205 0.08765271 0.078830354 -0.04287935 0.021968624 -0.0367089
0.027224004 -0.09382363 -0.03595927 0.097064294 0.02808704 0.044745788 0.046057127 0.05988343
-0.050439257 0.032695413 0.0320555 -0.09015642 0.0886876 -0.08319437 -0.01056639 -0.009432115
0.11024497 -0.09575734 -0.0519041 0.045804385 -0.09293739 0.13414854 -0.092213534 0.038442127
-0.023076525 0.004053117 0.07413677 -0.07335596 0.051566597 -0.13277137 -0.051776655 0.06135476
-0.017848644 -0.079428434 -0.09905478 0.058069587 -0.005528066 0.07180377 0.03909318 0.09923859
0.04866518 0.03379241 0.05897588 0.0061903 -0.012938381 0.07393505 -0.08081991 -0.024177311
-0.13568029 0.022664726 0.07761764 -0.06748014 0.07537198 -0.085513495 0.08799895 -0.038705844
0.011422262 -0.110094264 0.10345423 0.009899605 0.07586772 0.06470388 0.1358423 0.024943847
0.08774063 -0.045387235 -0.031485308 0.04802747 -0.011367094 0.012879158 -0.032907348 0.009956935
-0.052153002 -0.123968616 -0.009397946 0.11746735 -0.071866855 0.020216186 0.12606305 -0.078169174
-0.061805665 -0.06462186 0.063412555 -0.021525282 0.055208296 0.03987742 0.040094096 -0.06938735
-0.094426654 0.09584587 0.081802085 -0.06498341 -0.059270535 0.019517004 -0.0011078209 -0.058541283
-0.0031915926 -0.048128992 -0.07675013 0.1191999 0.08713271 0.033755958 0.014911446 -0.03105835
-0.108846925 -0.075902335 0.06344851 0.01965459 0.04746864 -0.09960326 -0.06959717 -0.10360054
0.07908796 -0.08439622 -0.07795478 -0.13894981 -0.04715424 0.06924066 0.01804506 0.11938806
00000000: 31df a3bd 1f06 553d ef5a 753d 5751 a33b
00000010: 9511 723c 8fed cd3c 66c3 b63d f80f 9b3c
00000020: 3958 9ebc 81b8 f9bc ff90 b8bd 0bd5 14bc
00000030: 19b5 853d 7308 c1bd 1b3c 6fba 39fd eabd
00000040: 3132 c8bc 62b9 703c 6e5c 34bc 3437 b63d
00000050: 86f3 fe3c a001 983d 69fa 7e3d 78b8 c53d
00000060: 7c8c 2abd f3da fb3c c38f 483d 745d 9f3b
00000070: 6221 7ebd c7cb c0bd 839e a8bd 7451 943d
00000080: 5e87 d53b fea7 d33c 934a 643c f3b9 bc3d
00000090: 9c3a 7fbd 4d85 51bd c30c 91bd 674a cebd
000000a0: 1477 70bd 9970 36bd 6c99 7ebd d637 42bd
000000b0: 6e65 91bd 1aa0 edbd 5a1f 133c a790 e9bd
000000c0: f589 dcbd de32 0fbd 41eb bdbc e78b 0abe
000000d0: 00ac aa3c 6eac 0c3d e557 dabd 9c01 a9bc
000000e0: 861e 9bbd a49f 293d 08ef 8d3d 7293 d3bd
000000f0: ea6d 4dbd 8ee3 e0bd c612 abbc 5420 6d3d
00000100: c5e7 b4bc 17c5 87bc a87d b7bd db8c c7bc
00000110: 8ae5 033e 392f 2d3d 2de2 c5bd cd54 b1bd
00000120: 1f20 d2bb 2745 2d3d 5e83 343d 9f89 8fbc
00000130: d2d0 09bc 1e17 223d 809f cbbd b45b b4bd
00000140: 23f4 b83d edf5 d53d 6421 66bb 8623 6cbc
00000150: 6d49 e43d ed95 da3d 1828 bbbd c26e 37bd
00000160: 9400 e2bd 3747 ce3d 6269 c53d 9c40 903d
00000170: 3245 e63d 69f3 583d 67d3 953d 38c2 ff3d
00000180: 0d43 613c 785f d7bc bed1 b6bd fc2c 0fbe
00000190: 8ab0 03be ed8d c73d 5976 b7bb 57a9 91bc
000001a0: 7829 1b3d 88c6 92bd eb18 98bd 40ca be3d
000001b0: 90f7 273d 3d23 80bc 0e2e 953d 2629 a53c
000001c0: 6826 93bd c241 06be 7089 18bc ccf3 543d
000001d0: 9c7d b7bd 209a 96bd faef 3abd b41c e4bc
000001e0: b6bf 10be 9f33 713d 80df 403d a631 51bd
000001f0: e5b1 ad3d 4db4 40bd 5e2e 723d 25c6 c8bd
00000200: abc2 c7bd 1068 51bc 4646 2cbd 4483 b33d
00000210: cf71 a13d 42a2 2fbd 8bf7 b33c 125c 16bd
00000220: e004 df3c 9a26 c0bd 074a 13bd a5c9 c63d
00000230: cb16 e63c 5c47 373d 66a6 3c3d 5448 753d
00000240: 6599 4ebd a0eb 053d a14c 033d eea3 b8bd
00000250: d8a1 b53d cf61 aabd a71e 2dbc 2889 1abc
00000260: 1dc8 e13d 6d1c c4bd 6599 54bd 619d 3b3d
00000270: f555 bebd 3c5e 093e 73da bcbd 7e75 1d3d
00000280: fb0a bdbc 02d0 843b 05d5 973d a63b 96bd
00000290: 7f37 533d 38f5 07be c213 54bd 214f 7b3d
000002a0: 5237 92bc 60ab a2bd 3cdd cabd 60da 6d3d
000002b0: c724 b5bb db0d 933d 2c20 203d 9a3d cb3d
000002c0: 2455 473d e969 0a3d b190 713d 00d8 ca3b
000002d0: 81fb 53bc 426b 973d e984 a5bd 7f0f c6bc
000002e0: c6ef 0abe 60ab b93c fff5 9e3d 0733 8abd
000002f0: a05c 9a3d b321 afbd cb38 b43d 058a 1ebd
00000300: 7024 3b3c 1a79 e1bd d0df d33d f431 223c
00000310: 8960 9b3d 7883 843d 3e1a 0b3e 0a57 cc3c
00000320: 5cb1 b33d f7e7 39bd bdf6 00bd 74b8 443d
00000330: 0c3d 3abc 1b03 533c dbc9 06bd 6a22 233c
00000340: 639e 55bd 42e3 fdbd d8f9 19bc b992 f03d
00000350: ee2e 93bd 6a9c a53c ac16 013e 2917 a0bd
00000360: f027 7dbd 7758 84bd 71de 813d ca55 b0bc
00000370: 1822 623d 8156 233d b539 243d f41a 8ebd
00000380: c362 c1bd d74a c43d da87 a73d 0616 85bd
00000390: a9c5 72bd 20e2 9f3c 4d34 91ba fcc8 6fbd
000003a0: 0a2a 51bb e822 45bd 2c2f 9dbd 141f f43d
000003b0: a272 b23d b043 0a3d 234f 743c 156e febc
000003c0: 23eb debd af72 9bbd 4bf1 813d aa02 a13c
000003d0: 7a6e 423d cbfc cbbd f688 8ebd 852c d4bd
000003e0: def8 a13d edd7 acbd c1a6 9fbd dc48 0ebe
000003f0: ce24 41bd 0cce 8d3d 3cd3 933c ba81 f43d

lstm.weight_hh_l0 f4 [256, 64]
0.0895914 0.14386652 0.03472239 -0.13944921 0.098522805 -0.083505005 0.1222735 0.032524344
0.018911522 -0.0979995 0.12794478 -0.09322434 -0.087979175 0.101709075 -0.027067939 0.031932354
0.046636503 -0.005084335 -0.08864391 0.10767033 0.012257901 -0.097248375 -0.023894727 0.02829956
0.028335948 0.053533226 0.00509483 0.046708483 -0.11019854 -0.13058293 0.03945269 -0.06973832
0.06329587 0.14079338 0.06723861 0.08844398 0.057869706 -0.10918749 0.08518916 0.05550002
0.07390372 -0.10802605 0.070242114 0.05370511 -0.019058086 0.055271458 -0.014666249 0.0756714
0.09680969 0.056775466 0.10575758 -0.016571544 -0.0379069 -0.037079986 -0.13832833 -0.114297695
-0.005673365 0.082382016 0.11408177 0.08456398 0.022619762 0.071775004 -0.021456322 -0.13344333
0.013332679 0.018548045 0.04966825 0.024730511 -0.10968152 -0.0762842 -0.10465506 0.086397946
-0.041559927 0.066998184 0.09562813 0.030597426 -0.07376869 0.027249787 -0.0070629767 0.08865282
0.029026814 -0.0077399807 -0.04871435 0.061462 -0.04459381 -0.05883871 -0.016749777 0.0023977417
0.05797077 -0.03796649 0.11181666 0.022442335 -0.030380664 0.04049306 -0.09821837 -0.028434003
0.087323844 -0.10289567 -0.13013151 -0.11587744 0.062822625 0.10137125 0.008583569 0.041891538
0.03171976 -0.093125105 -0.07145079 -0.042100545 -0.10402466 0.03322233 -0.06057366 -0.06092783
0.11285031 0.099501505 0.025223812 0.058893908 0.09423532 -0.0015789331 0.037334397 0.053444177
-0.11084898 0.102330506 0.033834487 0.07026511 -0.0051827347 -0.11335526 -0.03187507 -0.054015152
-0.01532072 0.04713686 0.06598851 -0.12548313 0.061114613 -0.050626542 -0.055667114 0.10291593
0.08370116 -0.122695014 0.011511418 0.0391784 -0.0041678296 -0.040368125 -0.03697029 -0.11245265
0.049717214 -0.09479922 0.04250585 0.010347195 -0.056157514 -0.07106164 0.08882395 -0.13264656
0.0685412 0.04500409 -0.109703034 -0.11505045 0.023671623 -0.07978277 -0.09613468 0.06220855
0.06354911 0.078198805 -0.0029463146 0.06935592 0.069924004 0.059143856 -0.006762676 -0.10600331
0.018766053 -0.13167474 0.054822017 0.108865924 -0.12679875 -0.0030863378 0.07837904 0.098467976
0.094928905 -0.025449635 -0.11627818 0.115469016 0.06467964 -0.04537228 0.020891577 -0.120730385
-0.0036841352 -0.11462339 -0.05970919 0.07230222 0.01943721 -0.11613577 -0.05368998 -0.0489139
0.095884904 0.043346155 0.06527837 -0.043710753 -0.04208072 -0.078699484 0.006948393 0.06982136
0.030752562 -0.10000723 0.0033060184 -0.11755533 0.06904833 -0.04171275 0.08834603 -0.11292505
-0.038190074 -0.0055109323 -0.08619801 0.059082408 -0.09263333 0.02334265 0.055762637 -0.050695628
0.058928926 -0.14077094 -0.06341963 0.0841513 0.08201766 -0.07994904 0.124552846 -0.015476051
-0.032107953 0.059562393 0.04330542 0.005260373 -0.121861964 0.051247526 -0.07883111 0.13799205
-0.12807328 -0.008716377 0.10669592 -0.10721103 0.017440785 0.09648911 0.052173235 0.05270988
0.015905008 0.06184944 0.023308428 -0.04417135 -0.056101717 0.05066312 -0.013433353 0.011427511
0.034425896 -0.051530756 -0.115873985 -0.14133298 0.09334562 0.11969058 -0.046882868 0.057448786
00000000: b27b b73d bf51 133e 1139 0e3d c6cb 0ebe
00000010: 53c6 c93d ac04 abbd 876a fa3d 3f38 053d
00000020: 56ec 9a3c f6b3 c8bd f503 033e 67ec bebd
00000030: 6d2e b4bd d94c d03d 95bd ddbc 80cb 023d
00000040: eb05 3f3d 7e9a a6bb f08a b5bd 4382 dc3d
00000050: 5dd5 483c 282a c7bd e0be c3bc 7bd4 e73c
00000060: ca20 e83c a845 5b3d 88f2 a63b 6551 3f3d
00000070: c6af e1bd 88b7 05be 2599 213d f7d2 8ebd
00000080: 44a1 813d 242c 103e 65b4 893d 1e22 b53d
00000090: c908 6d3d b19d dfbd a877 ae3d fd53 633d
000000a0: d55a 973d c33c ddbd 19db 8f3d e4f9 5b3d
000000b0: b41f 9cbc 5364 623d b54a 70bc 9bf9 9a3d
000000c0: 2944 c63d 648d 683d 6e97 d83d 0cc1 87bc
000000d0: 4444 1bbd 2fe1 17bd f1a5 0dbe e914 eabd
000000e0: a3e7 b9bb e7b7 a83d b4a3 e93d e12f ad3d
000000f0: 144d b93c c6fe 923d 2bc5 afbc 5ea5 08be
00000100: 4f71 5a3c 12f2 973c ef70 4b3d a497 ca3c
00000110: b4a0 e0bd e43a 9cbd 6455 d6bd 68f1 b03d
00000120: be3a 2abd 5836 893d aed8 c33d 74a7 fa3c
00000130: 0a14 97bd f23a df3c 8b70 e7bb 9c8f b53d
00000140: a4c9 ed3c aa9f fdbb b388 47bd 94bf 7b3d
00000150: 00a8 36bd dc00 71bd d436 89bc 6e23 1d3b
00000160: c272 6d3d c082 1bbd 2200 e53d fdd8 b73c
00000170: dfe0 f8bc 0ddc 253d b626 c9bd 6dee e8bc
00000180: d8d6 b23d f7ba d2bd 3241 05be 2751 edbd
00000190: 26a9 803d bb9b cf3d 19a2 0c3c 7696 2b3d
000001a0: 94ec 013d 60b8 bebd cb54 92bd 9f71 2cbd
000001b0: e20a d5bd 2314 083d 161c 78bd 768f 79bd
000001c0: 101e e73d 72c7 cb3d 2ba2 ce3c bd3a 713d
000001d0: 73fe c03d 34f4 ceba f4eb 183d 48e8 5a3d
000001e0: ca04 e3bd a892 d13d 0896 0a3d 27e7 8f3d
000001f0: eed3 a9bb cd26 e8bd 6f8f 02bd fe3e 5dbd
00000200: c203 7bbc 9512 413d fc24 873d a67e 00be
00000210: 5153 7a3d c75d 4fbd 3303 64bd 96c5 d23d
00000220: 846b ab3d 8647 fbbd 639a 3c3c 8879 203d
00000230: 4a92 88bb 0c59 25bd 296e 17bd 934d e6bd
00000240: 47a4 4b3d 1826 c2bd 9d1a 2e3d 4887 293c
00000250: 6c05 66bd c488 91bd 55e9 b53d 80d4 07be
00000260: 545f 8c3d 3556 383d fcab e0bd 929f ebbd
00000270: feea c13c 2665 a3bd 42e2 c4bd 64ce 7e3d
00000280: 0926 823d b226 a03d f516 41bb 7a0a 8e3d
00000290: 5134 8f3d d440 723d 7099 ddbb 4318 d9bd
000002a0: 44bb 993c bed5 06be 0d8d 603d 19f5 de3d
000002b0: 88d7 01be 2844 4abb 3185 a03d 94a9 c93d
000002c0: 166a c23d c17b d0bc 4123 eebd 057b ec3d
000002d0: c276 843d 49d8 39bd d024 ab3c 7e41 f7bd
000002e0: 8871 71bb abbf eabd a091 74bd 3013 943d
000002f0: c93a 9f3c 97d8 edbd 06ea 5bbd f159 48bd
00000300: 4e5f c43d bd8b 313d abb0 853d 0c0a 33bd
00000310: d55c 2cbd 322d a1bd 58af e33b 80fe 8e3d
00000320: ccec fb3c 97d0 ccbd c9a9 583b d9c0 f0bd
00000330: 3669 8d3d fdda 2abd c3ee b43d 4045 e7bd
00000340: 326d 1cbd 0d95 b4bb 9588 b0bd 6500 723d
00000350: 8bb6 bdbd 1639 bf3c 5d67 643d 38a6 4fbd
00000360: 755f 713d 4226 10be 27e2 81bd 8457 ac3d
00000370: e0f8 a73d 53bc a3bd 9015 ff3d 438f 7dbc
00000380: a183 03bd b2f7 733d 0661 313d 355f ac3b
00000390: c492 f9bd ede8 513d 3472 a1bd ca4d 0d3e
000003a0: a425 03be 23cf 0ebc 6483 da3d 7591 dbbd
000003b0: fadf 8e3c 159c c53d 9ab3 553d 51e6 573d
000003c0: 384b 823c d755 7d3d 51f1 be3c 04ed 34bd
000003d0: eaca 65bd 2284 4f3d 9117 5cbc 753a 3b3c
000003e0: 2b02 0d3d ea11 53bd 574f edbd 98b9 10be
000003f0: fd2b bf3d 5620 f53d 4008 40bd 6b4f 6b3d

lstm.bias_ih_l0 f4 [256]
0.027691795 0.13129719 -0.08913812 -0.065773085 0.027817905 0.033757064 -0.07081905 0.06950228
0.057195812 0.007821515 -0.06760501 0.024501543 0.04978454 -0.12789546 -0.09138101 -0.08418528
-0.06849623 0.10975026 0.034617044 -0.029284533 0.10373287 -0.089669585 0.036079545 0.06814089
0.0709011 -0.007895613 -0.114792116 -0.099316865 0.055588897 -0.046658486 -0.002711904 0.104892276
0.0037491133 -0.09857285 0.09270042 0.07664241 -0.0786534 -0.12826765 0.052669268 -0.10763727
0.0036582574 -0.08664501 0.066879295 0.008576227 -0.07125066 0.124511175 -0.018994886 -0.042884786
-0.03847189 -0.042312983 0.0784752 -0.010567062 0.035022013 -0.064059705 -0.10717166 0.041132778
0.060817543 0.026246618 0.05261228 0.018636743 0.005326932 -0.0167081 -0.02207942 -0.056606688
0.11580044 0.12671676 0.06630831 0.089788444 -0.0027276254 0.13549456 -0.0690039 -0.007437377
-0.057649955 -0.0754472 -0.019315828 -0.048363585 0.050505858 -0.13060515 -0.052638866 0.13860774
-0.0916805 -0.117883645 0.08547209 0.058273945 -0.016751993 -0.026479231 0.019417668 -0.10571061
0.010507852 0.08111361 -0.10214726 0.1258081 -0.026161462 -0.07505417 6.964529e-05 -0.08292142
0.044860024 -0.068210535 -0.04495294 -0.09491892 0.030124549 0.1127051 0.031520322 0.122471906
0.075443424 0.037650347 0.07932519 0.06300349 -0.073064424 0.07736351 -0.047521222 0.05330047
0.04158963 -0.04350602 -0.03962014 -0.090420745 0.12473813 0.10871019 0.045964412 0.030959466
-0.07996935 -0.051523697 -0.032395996 -0.10931111 -0.11258357 -0.110788874 0.15217228 0.06841479
0.082858786 0.0758888 0.047570277 0.10399797 0.03766177 0.06526532 -0.103880465 0.08273445
-0.007436684 0.017559277 -0.023032239 -0.013666779 0.068852596 0.10060534 0.10823664 -0.0004347495
-0.013372649 -0.0702978 -0.00044628754 -0.12076779 0.06601701 0.03126422 0.0705384 0.058422644
-0.03588679 0.09850003 0.046058133 -0.08223548 0.07643015 0.07690235 -0.03898278 0.13934238
-0.121199206 -0.11238496 -0.06882037 -0.048696894 0.08024056 -0.113981955 0.038866572 -0.013139102
-0.037815377 -0.038521744 -0.11314573 0.08558584 -0.10780153 0.13104479 0.08908296 -0.070236884
0.07786983 -0.10134153 0.06854005 -0.058923062 -0.05095129 0.098946355 -0.06326731 -0.026792983
-0.0036604537 -0.049610406 0.013838029 -0.05744981 0.08519636 -0.004849762 -0.10189064 -0.08976625
0.024948392 -0.06913764 0.07225374 0.14599922 0.084529944 0.037812825 -0.08416326 -0.049053926
-0.056893434 -0.11650792 -0.0026282081 -0.06083169 -0.0019144977 -0.07502533 0.031701818 -0.08354594
0.057178356 -0.013391583 0.060913254 0.05501119 0.076618195 -0.10891398 -0.012073375 -0.08905253
-0.06879544 -0.046274595 -0.121667065 0.05150756 0.1361344 -0.0038774284 0.072881855 -0.05309244
-0.0765757 -0.09132871 0.08182097 0.047832303 -0.05539612 -0.046282914 0.058322914 -0.06271076
-0.063284926 0.053720012 0.07495178 0.12763773 0.04563905 0.0752712 -0.07650242 -0.00821293
0.08326555 -0.04435809 -0.04374241 0.10526539 0.09253408 -0.086584754 -0.006385125 -0.1068996
0.018898401 0.01680169 -0.0700665 0.1323426 -0.105257586 -0.07278225 0.008242807 -0.10354369
00000000: e7d9 e23c c572 063e 0c8e b6bd 0ab4 86bd
00000010: 60e2 e33c d944 0a3d 9409 91bd 3657 8e3d
00000020: 2846 6a3d d025 003c 7f74 8abd 76b7 c83c
00000030: e0ea 4b3d 07f7 02be f825 bbbd 5569 acbd
00000040: c047 8cbd bfc4 e03d 9aca 0d3d 1ee6 efbc
00000050: e671 d43d b0a4 b7bd 25c8 133d 738d 8b3d
00000060: 9934 913d 9a5c 01bc 2118 ebbd a466 cbbd
00000070: 2fb1 633d f81c 3fbd 33ba 31bb c3d1 d63d
00000080: afb3 753b 90e0 c9bd b8d9 bd3d b2f6 9c3d
00000090: 0915 a1bd 9858 03be bbbb 573d ee70 dcbd
000000a0: 60bf 6f3b f072 b1bd 03f8 883d 4e83 0c3c
000000b0: deeb 91bd b7ff fe3d 2a9b 9bbc f5a7 2fbd
000000c0: b394 1dbd 6150 2dbd 9bb7 a03d 7821 2dbc
000000d0: 3e73 0f3d bc31 83bd d17c dbbd d87a 283d
000000e0: d11b 793d 2603 d73c f97f 573d 15ac 983c
000000f0: 8b8d ae3b 6ddf 88bc e6df b4bc 6adc 67bd
00000100: c828 ed3d 0ac2 013e a7cc 873d 01e3 b73d
00000110: f6c1 32bb 16bf 0a3e eb51 8dbd 3db5 f3bb
00000120: 5c22 6cbd 1084 9abd 3a3c 9ebc e518 46bd
00000130: 3bdf 4e3d 5bbd 05be da9b 57bd 30ef 0d3e
00000140: fcc2 bbbd fb6c f1bd fe0b af3d a9b0 6e3d
00000150: 7a3b 89bc f9ea d8bc cd11 9f3c ce7e d8bd
00000160: 2029 2c3c e41e a63d 9532 d1bd d7d3 003e
00000170: 9050 d6bc 00b6 99bd 880e 9238 b5d2 a9bd
00000180: 25bf 373d f7b1 8bbd 9320 38bd da64 c2bd
00000190: c2c7 f63c eed1 e63d 741b 013d 8dd2 fa3d
000001a0: 1582 9a3d 4037 1a3d 3f75 a23d f907 813d
000001b0: cda2 95bd c370 9e3d 9da5 42bd 9851 5a3d
000001c0: e359 2a3d 5e33 32bd ba48 22bd 832e b9bd
000001d0: b476 ff3d 73a3 de3d 2e45 3c3d b59e fd3c
000001e0: f8c6 a3bd 830a 53bd aab1 04bd 81de dfbd
000001f0: 3792 e6bd 47e5 e2bd 0dd3 1b3e 0e1d 8c3d
00000200: deb1 a93d 966b 9b3d 0dd9 423d e3fc d43d
00000210: 3a43 1a3d d3a9 853d 48bf d4bd ae70 a93d
00000220: 6daf f3bb 79d8 8f3c 1bae bcbc a0ea 5fbc
00000230: 9702 8d3d 2c0a ce3d 2cab dd3d 17ef e3b9
00000240: f518 5bbc 4bf8 8fbd b3fb e9b9 1a55 f7bd
00000250: ed33 873d e90e 003d 7076 903d 954c 6f3d
00000260: 07fe 12bd 62ba c93d 74a7 3c3d 136b a8bd
00000270: 6987 9c3d fb7e 9d3d 68ac 1fbd c5af 0e3e
00000280: 4a37 f8bd 162a e6bd b2f1 8cbd 6576 47bd
00000290: 2a55 a43d 5f6f e9bd 8e32 1f3d 6345 57bc
000002a0: 4ce4 1abd fac8 1dbd f3b8 e7bd a147 af3d
000002b0: 0cc7 dcbd 9b30 063e 2071 b63d 5bd8 8fbd
000002c0: 387a 9f3d 268c cfbd ba5e 8c3d 4f59 71bd
000002d0: 4db2 50bd 63a4 ca3d 4b92 81bd f57c dbbc
000002e0: 39e4 6fbb 4834 4bbd e6b8 623c 7e50 6bbd
000002f0: 6e7b ae3d c1ea 9ebb 0aac d0bd 5ed7 b7bd
00000300: 9260 cc3c 0998 8dbd c5f9 933d d280 153e
00000310: 091e ad3d 9fe1 1a3d ca5d acbd c5ec 48bd
00000320: 1709 69bd b49b eebd 043e 2cbb a62a 79bd
00000330: e2ef faba e1a6 99bd c4d9 013d 221a abbd
00000340: da33 6a3d 5f68 5bbc 2d80 793d 6a53 613d
00000350: 00ea 9c3d 4b0e dfbd 68cf 45bc 2c61 b6bd
00000360: a0e4 8cbd 6e8a 3dbd 952c f9bd 97f9 523d
00000370: d166 0b3e 741c 7ebb 1543 953d 7577 59bd
00000380: b8d3 9cbd 8c0a bbbd c191 a73d ceeb 433d
00000390: 0be7 62bd 2793 3dbd 02e4 6e3d 806e 80bd
000003a0: 879b 81bd 8409 5c3d 5280 993d 77b3 023e
000003b0: 03f0 3a3d c927 9a3d 4dad 9cbd 868f 06bc
000003c0: 2187 aa3d d4b0 35bd 3e2b 33bd 6195 d73d
000003d0: 8282 bd3d 5953 b1bd 503a d1bb 2dee dabd
000003e0: d2d0 9a3c b3a3 893c 067f 8fbd d284 073e
000003f0: 4a91 d7bd dc0e 95bd d70c 073c b70e d4bd

lstm.bias_hh_l0 f4 [256]
-0.011317512 0.12098152 -0.06778327 -0.0009623721 0.03404707 0.02369587 0.10639563 0.025129844
-0.077592604 0.051170297 0.140786 -0.05261617 -0.03826666 -0.09132547 -0.0051765162 0.0833989
-0.055530265 0.06852887 0.11243204 0.10146588 0.032992925 -0.06720718 -0.060537867 0.003436143
0.0353856 0.102657564 0.1207379 -0.027096415 -0.01698102 0.108924136 0.009861919 -0.024823232
0.097608596 0.029807972 0.04834677 0.049690902 -0.118228935 0.09169659 -0.11544956 0.04652109
0.022255385 -0.03306052 0.041658867 -0.091305375 0.1251898 0.06125781 -0.004503984 0.11890792
-0.018156651 0.10321443 0.065587156 -0.08632904 -0.016545514 -0.06148396 0.061298765 0.10085587
0.0056297784 0.09287922 0.10122754 -0.04084329 0.11196294 -0.049523983 0.11539421 -0.018302195
0.006452405 0.13764 0.06077658 0.07525595 0.028024737 -0.01150255 -0.071473576 -0.042054173
0.008468329 0.090133265 -0.025867261 0.06794946 0.041279674 0.06898907 0.06910943 0.023602549
0.096851155 0.06272524 0.12662794 0.055073034 -0.0060804524 -0.023752855 -0.06370643 -0.14319338
-0.04162934 -0.0099113695 0.10728728 0.0026306605 0.05907152 0.14422175 0.068965465 -0.09278574
0.08579372 0.007912695 0.019194188 -0.0008189648 -0.06370565 -0.020716907 0.086498305 0.030802052
0.060502704 0.106600285 -0.024899429 -0.025857124 0.056167334 -0.08658477 -0.06348717 -0.11764299
0.019820653 -0.03364245 -0.09079842 -0.09788888 0.14944272 -0.06295807 0.0087465085 -0.12078905
-0.096104756 0.04090253 0.025253132 -0.1009342 0.08345663 -0.02877764 0.13165678 -0.023667494
-0.018241284 -0.0848466 -0.10263228 0.09031587 -0.082510985 -0.06030126 -0.07568857 0.086716175
0.11691193 -0.036764797 -0.034827285 -0.036401283 -0.03409966 -0.09081109 -0.07901412 -0.071524076
0.02746631 -0.12065258 0.08427249 -0.08166759 -0.061225988 -0.032381397 0.06780219 -0.058779433
-0.09804671 0.03505935 0.03468454 -0.0012990683 0.11159622 0.005608697 0.042752296 -0.043299373
-0.13827369 0.01106891 -0.046257064 0.055131376 0.06389728 -0.018776648 -0.06556617 -0.036638368
0.025733365 0.04959535 -0.019250153 -0.010458657 0.046047293 -0.007006092 -0.015468241 0.019265534
0.10209538 0.061583694 0.097478956 -0.107697904 -0.009181281 0.09080864 0.012046457 -0.0037238991
-0.028695192 -0.0055369013 0.093805246 -0.09258846 0.030394813 -0.02241705 -0.10575268 0.1090775
-0.008911414 0.0035484098 -0.08108584 -0.06583783 0.079886176 0.09063647 0.0045765624 0.1029208
-0.1269957 -0.11435818 -0.088712685 -0.07445005 -0.07201985 -0.09199991 -0.0718367 0.034488443
-0.05028358 0.08027509 0.074516684 -0.08146801 -0.028161231 -0.13303767 0.069245 0.074713424
0.1277253 0.020106992 -0.09671985 0.07540856 0.011585498 -0.0831649 0.08094612 -0.024509855
-0.01953337 0.082224704 -0.11791106 0.074130766 0.007262216 0.07797925 -0.06799503 0.0449158
-0.011269652 -0.00097090757 0.02857226 0.069167025 0.05342756 -0.035063352 -0.04993005 -0.007780528
-0.009153761 0.12278878 0.062877044 -0.12420679 0.12558965 0.09798805 0.102074295 0.083542906
0.04177788 -0.113279246 0.03872526 -0.034359038 0.004142048 -0.07165983 -0.08552993 0.051187824
00000000: 166d 39bc 29c5 f73d f4d1 8abd b347 7cba
00000010: f174 0b3d d71d c23c f4e5 d93d 1add cd3c
00000020: dfe8 9ebd f297 513d 352a 103e 0e84 57bd
00000030: 80bd 1cbd d908 bbbd c49f a9bb 0bcd aa3d
00000040: b473 63bd dd58 8c3d c542 e63d 58cd cf3d
00000050: 9723 073d eba3 89bd 8ef6 77bd ea30 613b
00000060: 7ef0 103d 213e d23d 6f45 f73d 4df9 ddbc
00000070: c81b 8bbc 9e13 df3d e393 213c 175a cbbc
00000080: 04e7 c73d d92f f43c 4307 463d b088 4b3d
00000090: 0322 f2bd 6ccb bb3d d270 ecbd e68c 3e3d
000000a0: ed50 b63c 786a 07bd 7da2 2a3d 50fe babd
000000b0: c131 003e 78e9 7a3d 2896 93bb ff85 f33d
000000c0: 42bd 94bc 1662 d33d 8f52 863d 48cd b0bd
000000d0: 758a 87bc 9bd6 7bbd 6a14 7b3d 868d ce3d
000000e0: 017a b83b 7637 be3d 6250 cf3d 4b4b 27bd
000000f0: d34c e53d a9d9 4abd cd53 ec3d 7cee 95bc
00000100: b26e d33b 80f1 0c3e ddf0 783d cb1f 9a3d
00000110: 2294 e53c 3175 3cbc bd60 92bd ff40 2cbd
00000120: bfbe 0a3c ca97 b83d 94e7 d3bc 1629 8b3d
00000130: e014 293d 244a 8d3d 3f89 8d3d 225a c13c
00000140: e659 c63d 1776 803d c1aa 013e 4394 613d
00000150: 883e c7bb 5995 c2bc 8478 82bd 49a1 12be
00000160: 8783 2abd 4c63 22bc 6fb9 db3d 2967 2c3b
00000170: faf4 713d deae 133e c43d 8d3d 7306 bebd
00000180: 9eb4 af3d 40a4 013c 213d 9d3c ccaf 56ba
00000190: 1c78 82bd 81b6 a9bc 0626 b13d 9654 fc3c
000001a0: afd1 773d 4051 da3d e3f9 cbbc 52d2 d3bc
000001b0: b80f 663d 5b53 b1bd 9005 82bd cfee f0bd
000001c0: ec5e a23c aacc 09bd 86f4 b9bd f779 c8bd
000001d0: 8307 193e 29f0 80bd 844d 0f3c 4060 f7bd
000001e0: 92d2 c4bd 6989 273d a8df ce3c 97b6 cebd
000001f0: 4feb aa3d 16bf ebbc 09d1 063e 55e2 c1bc
00000200: bf6e 95bc 0ec4 adbd df30 d2bd 87f7 b83d
00000210: 85fb a8bd 74fe 76bd 9c02 9bbd 4098 b13d
00000220: 866f ef3d af96 16bd 0ea7 0ebd 8319 15bd
00000230: 16ac 0bbd 2afb b9bd 28d2 a1bd 377b 92bd
00000240: 0701 e13c b318 f7bd 0e97 ac3d 5641 a7bd
00000250: 1ac8 7abd 5ba2 04bd e0db 8a3d b4c2 70bd
00000260: b7cc c8bd 659a 0f3d 6011 0e3d 8045 aaba
00000270: 8f8c e43d 29c9 b73b 081d 2f3d af5a 31bd
00000280: 9e97 0dbe 605a 353c 0c78 3dbd 70d1 613d
00000290: 94dc 823d 7cd1 99bc 8e47 86bd 1d12 16bd
000002a0: c7ce d23c 7e24 4b3d 7fb2 9dbc c95a 2bbc
000002b0: 169c 3c3d 5c93 e5bb 816e 7dbc c1d2 9d3c
000002c0: 6217 d13d 2f3f 7c3d 0ca3 c73d b890 dcbd
000002d0: 156d 16bc e1f9 b93d 815e 453c a90c 74bb
000002e0: 2e12 ebbc e56e b5bb f71c c03d 059f bdbd
000002f0: 8bfe f83c f6a3 b7bc dc94 d8bd 0664 df3d
00000300: 2e01 12bc 708c 683b 5510 a6bd fcd5 86bd
00000310: 5d9b a33d 9d9f b93d fdf6 953b 24c8 d23d
00000320: 290b 02be 9f34 eabd ffae b5bd 4579 98bd
00000330: 257f 93bd 736a bcbd 1f1f 93bd c143 0d3d
00000340: 28f6 4dbd 4467 a43d 349c 983d b3d8 a6bd
00000350: 62b2 e6bc 073b 08be 53d0 8d3d 5a03 993d
00000360: 6cca 023e 6bb7 a43c 0f15 c6bd ce6f 9a3d
00000370: 1ad1 3d3c 5c52 aabd 14c7 a53d e4c8 c8bc
00000380: 7204 a0bc 6d65 a83d 5b7b f1bd dfd1 973d
00000390: e2f7 ed3b 96b3 9f3d fa40 8bbd a1f9 373d
000003a0: 59a4 38bc 8184 7eba 5f10 ea3c 71a7 8d3d
000003b0: dbd6 5a3d 979e 0fbd 7483 4cbd cdf3 febb
000003c0: a8f9 15bc af78 fb3d aec5 803d 2160 febd
000003d0: 939a 003e f5ad c83d 540c d13d 8b18 ab3d
000003e0: 481f 2b3d f3fe e7bd 619e 1e3d 10bc 0cbd
000003f0: 04ba 873b 64c2 92bd 512a afbd 53aa 513d

lstm.weight_ih_l1 f4 [256, 64]
-0.083503544 0.017983483 0.042098787 0.09634091 0.027328307 -0.023918489 0.088193364 0.09164641
0.027819509 0.11258378 -0.047049694 0.08174376 0.051378373 -0.0077449116 0.104381315 -0.03642583
0.059657555 0.021739172 0.09917497 0.11679012 0.036074053 0.088583 0.12539469 -0.0073550143
-0.0018134413 -0.03347337 -0.013796943 0.05321666 -0.043274324 0.0992683 -0.036311403 0.07093801
0.0611736 -0.080200106 0.08498768 0.095033005 0.034890514 -0.10466186 0.119539544 0.037618287
0.110396154 0.004123599 0.03247703 0.051627222 0.11548383 0.088761896 0.113371976 0.009235817
0.13101915 -0.01786528 0.0579065 0.019563828 0.09978905 -0.11103038 -0.012201666 -0.010586739
0.09876013 -0.029329585 -0.002848472 -0.03959215 0.013096652 -0.10395101 -0.009665868 -0.12798451
-0.05347974 -0.10593545 0.11064514 0.051833753 0.1182015 -0.104732476 -0.07048786 -0.09516443
0.06364876 0.065995365 0.039198548 -0.05285802 -0.08604848 -0.023131553 0.12899308 0.09300317
0.017649237 -0.029717432 -0.0615466 0.09923347 0.026247058 0.01765494 -0.06725701 -0.019893788
-0.04722597 0.1221922 -0.0015681285 -0.042901162 -0.131563 0.05443467 0.020015802 0.07682319
0.046910003 0.0059683216 0.118689 0.022887148 -0.016836729 0.10144303 -0.07677118 0.003348557
0.011493727 0.104873724 -0.10931442 -0.11434474 0.022592839 -0.10286751 -0.11226048 0.030254314
-0.12231055 0.04428029 0.036552824 -0.105402105 0.09273733 0.047563918 -0.072071336 -0.052031867
-0.08665544 -0.1056422 -0.0838072 0.068338 0.10069012 0.12247952 0.006411167 0.088610694
-0.05602758 0.019618865 0.11603188 0.06412219 0.010984058 0.010696617 -0.01964186 0.13939036
0.02240921 0.121639095 0.12364874 0.114000104 0.018573372 -0.10433556 -0.053946134 -0.09254292
-0.08153712 -0.0007335206 0.024071308 -0.0028586134 -0.13375163 -0.08587426 0.125878 -0.026776558
0.06245804 -0.00940055 0.009204233 -0.07153738 0.117446706 -0.08831208 -0.045673456 -0.13542895
-0.037655875 0.061792277 0.08307835 0.13643983 -0.017168231 -0.08713346 -0.090187795 -0.08427756
0.04589689 -0.08069773 0.001634457 0.01114712 -0.0014647148 -0.11835699 0.02527743 -0.027065335
0.11445332 -0.097818635 -0.086479984 -0.06987516 -0.05968635 0.013428903 -0.11416177 -0.051718477
-0.07932633 0.13955948 -0.035398316 -0.020900894 -0.07387541 -0.010663759 0.056845635 0.029284159
0.09728716 -0.10816876 0.035052918 0.09120878 0.057706304 -0.1266052 -0.032763835 0.08057838
-0.030537687 0.041027155 0.007178882 -0.11425608 0.0034974257 0.08157 -0.09552692 -0.061776735
-0.030328926 -0.14498511 0.06937681 -0.084951244 0.0014793745 -0.031227114 0.037303 0.037998736
-0.088955864 -0.08224422 -0.057419598 -0.115575686 0.112074174 0.06699483 -0.042795684 0.124828346
-0.045685 0.031016523 0.07886342 0.059994146 -0.08240919 -0.030675309 0.05378232 -0.0731197
0.0014351967 -0.026285606 0.011341385 0.028207298 0.04953331 0.021228867 -0.09599158 -0.13125846
-0.02749173 -0.06829021 0.14232859 -0.077765934 0.09503134 0.0317138 0.09251439 0.10340364
-0.0910499 0.034307975 0.046116423 -0.10868046 -0.041097954 -0.1056236 0.02603634 0.1471514
00000000: e803 abbd 1952 933c c76f 2c3d 624e c53d
00000010: 9ddf df3c b5f0 c3bc b99e b43d 1db1 bb3d
00000020: bde5 e33c 5392 e63d 2eb7 40bd 4669 a73d
00000030: 2172 523d 07c9 fdbb dfc5 d53d 4033 15bd
00000040: 7b5b 743d 5916 b23c 3f1c cb3d a92f ef3d
00000050: 63c2 133d 016b b53d 7767 003e 5502 f1bb
00000060: feb0 edba 5f1b 09bd 930c 62bc b6f9 593d
00000070: 6b40 31bd 2e4d cb3d 44bb 14bd f347 913d
00000080: 2b91 7a3d f43f a4bd 050e ae3d aaa0 c23d
00000090: 5be9 0e3d f558 d6bd 26d1 f43d a215 1a3d
000000a0: 6117 e23d 411f 873b a206 053d 1177 533d
000000b0: c982 ec3d ccc8 b53d 912f e83d d351 173c
000000c0: e229 063e 355a 92bc 5e2f 6d3d 5244 a03c
000000d0: 345e cc3d e563 e3bd 7fe9 47bc 0074 2dbc
000000e0: c042 ca3d 9944 f0bc 6ead 3abb 612b 22bd
000000f0: 5793 563c 44e4 d4bd 975d 1ebc 5f0e 03be
00000100: 920d 5bbd aff4 d8bd eb99 e23d a14f 543d
00000110: a113 f23d fb7d d6bd f05b 90bd 92e5 c2bd
00000120: 485a 823d 9428 873d a88e 203d a781 58bd
00000130: 2f3a b0bd 627e bdbc c316 043e 7278 be3d
00000140: 2295 903c f971 f3bc 4a18 7cbd eb3a cb3d
00000150: 1204 d73c 18a1 903c 0bbe 89bd 4cf8 a2bc
00000160: 0570 41bd e73f fa3d a989 cdba 21b9 2fbd
00000170: 73b8 06be e3f6 5e3d 2ef8 a33c 7a55 9d3d
00000180: b424 403d e991 c33b 3813 f33d d47d bb3c
00000190: 2eed 89bc 5dc1 cf3d 353a 9dbd 7773 5b3b
000001a0: 2f50 3c3c 09c8 d63d 3de0 dfbd 932d eabd
000001b0: 9e14 b93c 33ac d2bd d3e8 e5bd e5d7 f73c
000001c0: f47d fabd 405f 353d 6ab8 153d 0fdd d7bd
000001d0: 12ed bd3d 62d2 423d 239a 93bd 5e1f 55bd
000001e0: 6878 b1bd f05a d8bd 1ca3 abbd cbf4 8b3d
000001f0: 9f36 ce3d 8bd6 fa3d c414 d23b 8679 b53d
00000200: 2d7d 65bd beb7 a03c 1fa2 ed3d 7f52 833d
00000210: 7af6 333c dd40 2f3c f7e7 a0bc 59bc 0e3e
00000220: 8593 b73c eb1d f93d 8d3b fd3d e378 e93d
00000230: 2f27 983c e2ad d5bd 9ff6 5cbd 2487 bdbd
00000240: effc a6bd bc49 40ba 3131 c53c 9357 3bbb
00000250: 30f6 08be d8de afbd 2ae6 003e 835a dbbc
00000260: 00d4 7f3d c404 1abc 5acd 163c 3182 92bd
00000270: e687 f03d f7dc b4bd 1714 3bbd e3ad 0abe
00000280: 0c3d 1abd e619 7d3d fb24 aa3d e2b6 0b3e
00000290: 64a4 8cbc 0773 b2bd 61b4 b8bd b799 acbd
000002a0: 61fe 3b3d da44 a5bd 473b d63a 69a2 363c
000002b0: acfb bfba 2665 f2bd 9d12 cf3c 1fb8 ddbc
000002c0: 8166 ea3d 2355 c8bd 6b1c b1bd b51a 8fbd
000002d0: ad79 74bd e704 5c3c a5cd e9bd c1d6 53bd
000002e0: d875 a2bd aee8 0e3e d3fd 10bd 5a38 abbc
000002f0: fe4b 97bd 0cb7 2ebc f8d6 683d 55e5 ef3c
00000300: 7e3e c73d 9587 ddbd a693 0f3d abcb ba3d
00000310: 725d 6c3d cba4 01be 5f33 06bd 4706 a53d
00000320: 2c2a fabc 170c 283d d43c eb3b 17ff e9bd
00000330: 1135 653b 2c0e a73d 9ea3 c3bd 9a09 7dbd
00000340: 5e74 f8bc fa76 14be 6e15 8e3d ebfa adbd
00000350: 92e7 c13a 01d0 ffbc 08cb 183d 90a4 1b3d
00000360: 7e2e b6bd a86f a8bd d030 6bbd f2b2 ecbd
00000370: 2587 e53d 9634 893d 874a 2fbd 01a6 ff3d
00000380: 3220 3bbd 5d16 fe3c 2583 a13d 6cbc 753d
00000390: 26c6 a8bd c94a fbbc da4a 5c3d c8bf 95bd
000003a0: 361d bc3a e954 d7bc 37d1 393c fe12 e73c
000003b0: 71e3 4a3d 29e8 ad3c 3c97 c4bd 9e68 06be
000003c0: 5636 e1bc bddb 8bbd 96be 113e bf43 9fbd
000003d0: cb9f c23d 54e6 013d 2f78 bd3d 4ac5 d33d
000003e0: 5f78 babd 8586 0c3d 93e4 3c3d dc93 debd
000003f0: 5456 28bd 3051 d8bd 2a4a d53c dbae 163e

lstm.weight_hh_l1 f4 [256, 64]
-0.03781747 -0.09484859 0.09176139 0.04226878 0.09768741 0.07705358 -0.066056535 0.016748093
-0.055374824 0.07883357 -0.107642725 -0.029915867 0.04477081 -0.028879553 0.12026532 0.08472452
-0.008621802 -0.06632675 0.028099986 0.014018225 -0.036518246 -0.016036164 0.09362556 0.0177011
-0.1055918 -0.058687117 -0.06896817 0.10643731 0.10652101 0.103348434 0.059009064 -0.082114555
-0.09172836 -0.01684419 -0.073543854 0.11148742 -0.09112843 -0.0693982 -0.084842645 0.042490605
0.12712511 -0.086448796 0.08515533 -0.10190768 0.072094865 -0.035414677 -0.031192014 -0.11855177
-0.036531672 -0.011977963 0.0360179 -0.04260189 -0.08756131 0.114067666 0.12121826 -0.09016351
-0.022698304 -0.06576739 0.10854975 -0.030189823 -0.016840735 0.022167115 -0.10470914 0.10465693
-0.10898084 -0.010627042 0.016629985 -0.11144454 0.008966214 0.03336797 -0.0046320455 0.10121711
0.11106881 -0.10587941 0.07116248 -0.10565506 0.07293124 -0.1250911 -0.10104084 0.031974945
-0.08131534 -0.046485938 -0.12560196 -0.05044306 -0.087564915 0.06847136 0.10436211 0.09184681
0.06713412 0.09048812 -0.026933974 -0.07164439 0.08832231 -0.05738741 0.08906726 0.07518909
-0.037997272 0.073576346 -0.072716326 -0.0542984 0.06737309 -0.07402962 0.044350374 0.072586976
-0.014832461 -0.0730005 -0.023821816 -0.09927617 0.0010432929 -0.1251571 -0.09372714 0.06542154
0.061664842 -0.06950705 0.05214072 0.08752529 -0.069696315 -0.0051281787 0.041909948 -0.09756765
0.06664957 0.093529254 0.060166676 0.07270855 -0.11646602 0.09393254 -0.093713455 -0.06232174
-0.01666207 -0.0980795 -0.0105513325 0.121936 -0.13237706 -0.1471916 0.083217815 0.13192815
0.08862132 0.11337155 -0.120570675 0.100334145 0.013950163 0.059908558 -0.046529125 -0.09442573
-0.082617395 -0.05767001 0.018669045 0.012928929 0.051884674 0.12918866 -0.04382744 -0.123806275
-0.065866135 0.04928899 0.0925046 0.111901656 -0.10532813 0.069468275 0.06848413 -0.07047237
-0.045950197 0.06147127 0.13527626 0.08779333 -0.07912726 -0.084486894 -0.08154255 0.029766345
0.0077803186 -0.11701749 -0.073453285 0.1264459 -0.027769247 2.0474254e-05 -0.018852128 -0.10650614
-0.008884533 0.116919726 0.067715704 -0.08893341 0.017957672 -0.05630775 0.006972485 0.099325664
-0.031401828 0.047790486 -0.05020867 -0.027251758 -0.1082256 -0.036250364 -0.02039112 -0.02717635
-0.06561488 -0.10722364 -0.013937379 -0.081330754 -0.08309615 0.09159514 -0.021683909 -0.084037974
-0.0025265454 -0.07384944 0.030658426 -0.100636825 0.050841063 0.07668683 -0.0030638091 -0.080511265
0.0659853 -0.005192183 0.06349519 0.032892875 -0.036996257 0.07738785 -0.06998058 0.0885019
-0.002825047 0.089959815 -0.051527068 -0.054277193 -0.012166797 -0.08178345 -0.06273604 -0.055529937
-0.034869127 0.029872574 0.08410167 0.0729382 -0.01916785 0.003909061 0.093936205 -0.07958799
-0.05604197 0.041585885 -0.07519062 0.026124232 0.016948726 0.0062009166 0.06101575 0.017034516
-0.07427195 -0.00387752 0.014257611 -0.08737937 -0.030803233 -0.05235179 0.07031164 0.007958215
0.11643642 -0.070617445 0.051320344 -0.03608964 -0.11833142 0.076714434 0.046217434 -0.050902423
00000000: 7ee6 1abd fa3f c2bd 65ed bb3d 0722 2d3d
00000010: 5610 c83d 44ce 9d3d a648 87bd 4c33 893c
00000020: b6d0 62bd 7f73 a13d ca73 dcbd 1f12 f5bc
00000030: 9961 373d d094 ecbc aa4d f63d 0d84 ad3d
00000040: 7542 0dbc 52d6 87bd f131 e63c b2ac 653c
00000050: 2894 15bd 465e 83bc c2be bf3d e601 913c
00000060: 8340 d8bd e761 70bd 2f3f 8dbd cefb d93d
00000070: b027 da3d 58a8 d33d 7db3 713d ad2b a8bd
00000080: 14dc bbbd d4fc 89bc 299e 96bd 8453 e43d
00000090: 8ba1 babd a520 8ebd fbc1 adbd a10a 2e3d
000000a0: 162d 023e 110c b1bd eb65 ae3d f9b4 d0bd
000000b0: 79a6 933d fb0e 11bd 6586 ffbc 45cb f2bd
000000c0: 3ca2 15bd 383f 44bc 8187 133d 527f 2ebd
000000d0: 5853 b3bd 4f9c e93d 4741 f83d a5a7 b8bd
000000e0: cbf1 b9bc 0eb1 86bd 554f de3d a650 f7bc
000000f0: 95f5 89bc cf97 b53c bf71 d6bd 5f56 d63d
00000100: 5931 dfbd 0b1d 2ebc 9b3b 883c 093d e4bd
00000110: 07e7 123c daac 083d 6ac8 97bb eb4a cf3d
00000120: 0b78 e33d 4ed7 d8bd a2bd 913d ae61 d8bd
00000130: f95c 953d e217 00be 80ee cebd 29f8 023d
00000140: a888 a6bd 0a68 3ebd cd9d 00be 629d 4ebd
00000150: 3c55 b3bd b63a 8c3d cdbb d53d 2e1a bc3d
00000160: 9d7d 893d d651 b93d a3a4 dcbc 4bba 92bd
00000170: 54e2 b43d 100f 6bbd e568 b63d bdfc 993d
00000180: 07a3 1bbd 32af 963d 4cec 94bd 0068 5ebd
00000190: e7fa 893d d79c 97bd bda8 353d 7ba8 943d
000001a0: da03 73bc 4981 95bd f825 c3bc 4e51 cbbd
000001b0: 1abf 883a 2f29 00be 04f4 bfbd bafb 853d
000001c0: 4694 7c3d b659 8ebd 8291 553d 7640 b33d
000001d0: f1bc 8ebd 480a a8bb c4a9 2b3d 8cd1 c7bd
000001e0: 927f 883d 448c bf3d 5571 763d 38e8 943d
000001f0: bd85 eebd b45f c03d d7ec bfbd 1545 7fbd
00000200: e57e 88bc e8dd c8bd 7fdf 2cbc 95b9 f93d
00000210: da8d 07be 65b9 16be 1a6e aa3d 2c18 073e
00000220: 187f b53d 582f e83d c2ed f6bd fd7b cd3d
00000230: 398f 643c ad62 753d 5395 3ebd 4762 c1bd
00000240: 4f33 a9bd 6337 6cbd d3ef 983c dcd3 533c
00000250: 0685 543d 084a 043e 6784 33bd 258e fdbd
00000260: d3e4 86bd 41e3 493d 0d73 bd3d b22c e53d
00000270: 46b6 d7bd 6245 8e3d 6841 8c3d d153 90bd
00000280: 4636 3cbd 4cc9 7b3d dc85 0a3e fdcc b33d
00000290: 790d a2bd 7707 adbd c8ff a6bd 8dd8 f33c
000002a0: 0bf2 fe3b dea6 efbd ad6e 96bd 097b 013e
000002b0: 557c e3bc 20c0 ab37 c76f 9abc e41f dabd
000002c0: 6f90 11bc 9c73 ef3d 88ae 8a3d b822 b6bd
000002d0: f81b 933c f5a2 66bd 7279 e43b 416b cb3d
000002e0: 349f 00bd f5bf 433d 9ba7 4dbd 143f dfbc
000002f0: 62a5 ddbd 437b 14bd 470b a7bc f0a0 debc
00000300: 1861 86bd 1198 dbbd 9b59 64bc bd90 a6bd
00000310: 502e aabd 3c96 bb3d 74a2 b1bc 1a1c acbd
00000320: 6694 25bb 603e 97bd 6127 fb3c ae1a cebd
00000330: b83e 503d fc0d 9d3d 30ca 48bb 17e3 a4bd
00000340: 4d23 873d 3023 aabb c409 823d aeba 063d
00000350: 6389 17bd 857d 9e3d fa51 8fbd 7c40 b53d
00000360: 6c24 39bb da3c b83d 0c0e 53bd c351 5ebd
00000370: 3f57 47bc 157e a7bd c17b 80bd 5c73 63bd
00000380: eed2 0ebd 54b7 f43c 7f3d ac3d 9f60 953d
00000390: e505 9dbc 9517 803b a061 c03d 07ff a2bd
000003a0: 448c 65bd f655 2a3d 8afd 99bd 7c02 d63c
000003b0: 0ed8 8a3c 0f31 cb3b a7eb 793d f88b 8b3c
000003c0: e41b 98bd fe1d 7ebb c198 693c f5f3 b2bd
000003d0: 1057 fcbc d56e 56bd 8dff 8f3d 2c63 023c
000003e0: 3876 ee3d e19f 90bd 4835 523d bbd2 13bd
000003f0: be57 f2bd 751c 9d3d 7e4e 3d3d 0f7f 50bd

lstm.bias_ih_l1 f4 [256]
-0.002482249 -0.08922582 -0.09302008 -0.022758912 -0.015682764 0.032078274 -0.016846752 0.028323323
-0.09772164 -0.09761873 -0.027320297 -0.058904972 -0.106781915 -0.04887715 0.13917528 0.13698316
0.05428684 0.019574465 -0.054585613 0.098228574 -0.06451632 0.015154809 -0.08238829 0.02510605
0.10589116 -0.032355376 0.024875551 0.067748636 0.1200397 -0.0271235 -0.033600535 -0.1020108
-0.13227937 -0.0090185935 0.13553742 -0.12002578 0.089162245 -0.081251934 -0.07004505 -0.030887581
0.10101349 0.06562532 0.009788713 0.005996595 0.028356915 -0.114683606 0.12087887 0.092536025
0.09970787 -0.10129314 0.0061083627 -0.10872846 -0.0366395 -6.9083035e-05 -0.096491285 0.070021205
0.015234645 -0.10287174 -0.14017496 0.051930886 -0.09227694 0.07416798 0.085978344 -0.079296224
0.06522974 -0.0071639493 0.028528472 0.09559556 0.04363755 -0.10221152 0.09918756 0.05967828
-0.04592112 0.10547406 0.045395847 0.029846957 0.017180491 -0.13294096 0.006665116 0.09916309
0.021368759 -0.11201674 0.120290436 -0.10254014 0.094782725 0.040190395 0.06916311 -0.11036854
-0.047653567 -0.054873955 -0.02885644 0.095463045 0.07249685 -0.023256622 0.023219328 0.097053066
-0.04278441 0.067413256 -0.031472154 -0.013877081 -0.11754909 0.06972926 0.12168093 0.09887246
0.04540693 0.11346194 0.0953616 0.033913866 0.037399124 0.045638263 0.049053293 -0.06992409
0.024607953 0.038537633 0.07187059 -0.114290126 -0.033440154 -0.009714599 0.069816366 0.019948266
0.06522562 -0.10011564 0.040960886 0.1073056 0.08001144 -0.101836726 0.008759609 -0.07289686
-0.07351462 -0.08801031 0.04253614 -0.06586961 -0.001589906 0.07183791 0.005242786 0.051079802
0.04184589 -0.12144461 0.104629174 -0.004620052 -0.10801993 -0.031175666 -0.057233952 -0.11411624
0.029283639 -0.034174 0.12673426 0.065372914 0.06180167 0.10492031 0.04387472 -0.036124427
0.07190617 0.03051247 -0.08738204 0.049791522 0.060004532 0.04576199 -0.009899048 0.018560573
-0.034571752 -0.0732938 -0.020422585 0.082281604 0.07923653 -0.042673446 0.12771061 0.03610944
-0.07323754 0.09170594 -0.010000842 -0.06642132 -0.10249871 0.11400539 0.113288455 -0.09587902
-0.078166045 0.00918317 -0.036931634 0.09071591 0.014364492 -0.10344059 -0.014776799 -0.11291467
0.08215875 0.08383912 0.058908377 0.10252282 0.032749124 0.057374433 0.08108273 -0.0016452748
-0.01486408 -0.032882176 -0.10876836 0.045668423 -0.047547013 -0.04567281 -0.0033167996 0.040925995
-0.063310765 -0.021922344 -0.10104407 -0.11412876 0.054710362 -0.011151273 0.06660018 0.08414016
-0.06655518 -0.042910196 -0.024970386 0.08635429 -0.059654035 0.10096745 0.011585329 -0.019214628
0.023295641 0.0562548 0.05849454 0.07241339 -0.052490316 -0.043887082 -0.07103638 0.11591137
0.07714028 0.0076092104 -0.10567941 0.06043375 -0.060875446 0.10685005 0.090170614 -0.010580549
0.035178207 -0.05704642 0.0790418 0.07671643 0.043304775 -0.02268129 -0.049506586 -0.0053230072
-0.10030756 -0.013182518 -0.1115532 0.11064474 -0.09135455 -0.019418813 0.13748515 0.061078764
-0.063802384 0.028814433 0.10007533 0.03694203 -0.06052581 0.046826925 -0.12789801 -0.12882744
00000000: 3aad 22bb 07bc b6bd 5081 bebd e670 babc
00000010: 2479 80bc 8264 033d 3302 8abc 5006 e83c
00000020: 4822 c8bd 54ec c7bd d1ce dfbc 5746 71bd
00000030: 7ab0 dabd 6833 48bd f783 0e3e 5045 0c3e
00000040: e15b 5e3d a15a a03c 2a95 5fbd 102c c93d
00000050: 2221 84bd e04b 783c 31bb a8bd 34ab cd3c
00000060: 77dd d83d 1287 04bd d0c7 cb3c ccbf 8a3d
00000070: 60d7 f53d 1a32 debc b7a0 09bd 0aeb d0bd
00000080: 3e74 07be b9c2 13bc 52ca 0a3e 13d0 f5bd
00000090: b29a b63d 6a67 a6bd c773 8fbd f407 fdbc
000000a0: 29e0 ce3d 9166 863d d760 203c 167f c43b
000000b0: c34c e83c 3ddf eabd 578f f73d 8783 bd3d
000000c0: a433 cc3d c772 cfbd a928 c83b 07ad debd
000000d0: 4d13 16bd ace0 90b8 399d c5bd 4767 8f3d
000000e0: bc9a 793c 6bae d2bd 068a 0fbe 7bb5 543d
000000f0: b1fb bcbd 62e5 973d 6a15 b03d 0f66 a2bd
00000100: 2c97 853d 90bf eabb 8bb4 e93c 9bc7 c33d
00000110: 4abd 323d 4654 d1bd d922 cb3d 3671 743d
00000120: c917 3cbd c902 d83d fff0 393d 9b81 f43c
00000130: 1abe 8c3c ad21 08be 0c67 da3b 0516 cb3d
00000140: 890d af3c 0869 e5bd d55a f63d 9100 d2bd
00000150: 721d c23d af9e 243d 63a5 8d3d e708 e2bd
00000160: 6330 43bd 83c3 60bd 5764 ecbc 2182 c33d
00000170: 3a79 943d ac84 bebc 7636 be3c c2c3 c63d
00000180: b53e 2fbd f60f 8a3d f2e8 00bd b25c 63bc
00000190: 94bd f0bd 37ce 8e3d da33 f93d a57d ca3d
000001a0: 9efc 393d bc5e e83d f14c c33d 44e9 0a3d
000001b0: d32f 193d 30ef 3a3d 1bec 483d 5c34 8fbd
000001c0: 9e96 c93c a3d9 1d3d e330 933d f110 eabd
000001d0: 8bf8 08bd fb29 1fbc e2fb 8e3d 8c6a a33c
000001e0: 0395 853d 6e09 cdbd 9ac6 273d 0ac3 db3d
000001f0: 0add a33d c68f d0bd 7784 0f3c f34a 95bd
00000200: d58e 96bd c03e b4bd 603a 2e3d a5e6 86bd
00000210: 6564 d0ba c11f 933d adcb ab3b 0e39 513d
00000220: 9966 2b3d f4b7 f8bd d247 d63d ce63 97bb
00000230: 8e39 ddbd 1c64 ffbc 266e 6abd c6b5 e9bd
00000240: 3ee4 ef3c 09fa 0bbd a0c6 013e 3ce2 853d
00000250: bf23 7d3d 76e0 d63d fab5 333d 35f7 13bd
00000260: 8b43 933d 4af5 f93c 5bf5 b2bd 32f2 4b3d
00000270: 50c7 753d ed70 3b3d 9e2f 22bc 580c 983c
00000280: 1c9b 0dbd 0f1b 96bd 444d a7bc 4283 a83d
00000290: c346 a23d 5aca 2ebd 92c6 023e 7ee7 133d
000002a0: 90fd 95bd 53d0 bb3d 92da 23bc e707 88bd
000002b0: d8ea d1bd a87b e93d c703 e83d 385c c4bd
000002c0: 8515 a0bd 0275 163c a045 17bd 43c9 b93d
000002d0: 0c59 6b3c a9d8 d3bd 631a 72bc ce3f e7bd
000002e0: d942 a83d d8b3 ab3d e949 713d 7cf7 d13d
000002f0: f223 063d 7401 6b3d b40e a63d 43a6 d7ba
00000300: 7888 73bc 76af 06bd f2c1 debd d00e 3b3d
00000310: a8c0 42bd 6a13 3bbd aa5e 59bb 04a2 273d
00000320: 13a9 81bd 7d96 b3bc 32f0 cebd 57bc e9bd
00000330: f917 603d d4b3 36bc ad65 883d ad51 ac3d
00000340: 154e 88bd 9ac2 2fbd b28e ccbc 85da b03d
00000350: ca57 74bd 06c8 ce3d 64d0 3d3c ff67 9dbc
00000360: 80d6 be3c 6f6b 663d f997 6f3d 794d 943d
00000370: 1600 57bd f1c2 33bd 867b 91bd f162 ed3d
00000380: b9fb 9d3d af56 f93b 726e d8bd 6189 773d
00000390: 8858 79bd 33d4 da3d 5fab b83d 0a5a 2dbc
000003a0: 0617 103d 82a9 69bd abe0 a13d 811d 9d3d
000003b0: 5960 313d 1dce b9bc 6bc7 4abd 9f6c aebb
000003c0: 0d6e cdbd 7dfb 57bc 0176 e4bd b699 e23d
000003d0: 1818 bbbd 3414 9fbc e8c8 0c3e ba2d 7a3d
000003e0: d3aa 82bd 3f0c ec3c 4bf4 cc3d 8750 173d
000003f0: e9e9 77bd 97cd 3f3d b2f7 02be 57eb 03be
